weights/Act_ELU_FSRCNN_model_path.pth (torch, 64953 bytes, 15 tensors)

weight f4 [64, 1, 5, 5]
0.19681454 -0.078705505 -0.018854821 -0.010321481 0.084840104 -0.1297768 0.14032911 0.13914832
0.0051442133 0.15737593 0.308477 -0.06594679 -0.2914285 -0.04101274 0.3058414 0.20286764
-0.08966162 0.16539526 0.19666961 0.23281191 0.051504932 0.20741263 -0.23235187 0.10262254
0.3718199 -0.10218974 0.0980765 0.2357185 -0.07718486 -0.048242718 -0.10720748 -0.20434709
0.07676508 0.09519889 0.06109138 -0.19938454 0.39922854 0.07971808 0.4389922 0.29691657
-0.1121583 0.17745693 0.24376526 0.12845285 -0.16908291 0.14855656 -0.36119518 -0.31455177
0.40717795 0.4293869 -0.105512634 0.05535827 0.0065304292 -0.2296242 -0.27759504 -0.036142338
-0.31360838 0.04097068 -0.014774203 -0.09713927 -0.3000784 -0.3647985 -0.10319003 0.24052358
0.046546802 0.06273766 -0.07551554 -0.17220238 0.052217435 0.15492794 -0.18347433 0.29804996
-0.14955577 -0.00980229 0.06403153 0.2454707 0.37727576 0.052558504 0.1784453 0.056026958
0.25910982 0.0134661505 0.044695523 0.2749254 0.20888352 0.105791606 0.06519386 0.21885192
0.048384663 0.049368374 0.18065268 0.07727715 -0.1413113 0.02141193 -0.07498023 0.29019934
0.079825595 0.43184575 -0.069309965 0.05070247 0.022296013 -0.17186941 -0.11989042 -0.2914662
0.13673733 0.1390555 -0.12316426 0.19417468 -0.084074244 -0.0961476 -0.4534503 -0.26543924
-0.10125149 0.2411227 -0.06622256 -0.26040182 0.29142255 0.07014354 -0.3084831 0.16394259
0.058051933 -0.10812434 0.048305724 0.23916048 -0.1957992 0.09707971 -0.16489339 0.01851968
-0.015235013 -0.006620659 -0.18126902 -0.12063242 -0.15917413 0.023370272 0.5121878 -0.08994712
-0.1212941 0.11127409 0.25668293 -0.12945521 0.13045692 0.11411973 0.022478813 0.1698446
0.077586666 0.07502299 -0.27443567 0.39826477 -0.08576635 -0.21159384 0.20532778 -0.15635315
-0.27100328 0.07537171 0.01710565 -0.011576166 0.036616877 -0.18858019 -0.13572586 0.16265738
0.05564293 0.06907283 0.012500547 -0.35447678 0.13746892 -0.078838766 -0.26493114 0.13897356
-0.19483162 -0.092235975 -0.013440379 0.21496028 -0.19415326 -0.01191912 -0.1550573 -0.06773025
0.1150198 -0.03196125 0.09940529 -0.10348331 0.06971725 -0.07815495 -0.11025666 0.37818372
-0.37804094 0.015867138 -0.05355339 -0.18142769 0.25306016 0.34473264 0.16533701 -0.4563502
-0.09122309 0.07844092 -0.15039314 0.026503777 0.112399146 0.23453441 -0.18422872 0.47479984
0.12686493 0.0204372 -0.20519231 0.3957935 -0.03387815 -0.23035006 0.027053148 0.28690434
0.047989435 -0.08714314 -0.11183618 0.3422879 -0.21234627 0.03292416 -0.024705864 -0.17226437
-0.095472634 0.13929415 -0.11498086 -0.44515538 -0.040179834 -0.042589974 0.03682954 0.040327914
0.41639614 -0.07618208 -0.03938537 0.021330545 -0.072635524 -0.03853557 0.14208025 0.2321926
0.026102727 0.054978047 -0.18328165 0.12272013 0.04665192 0.0012102668 0.094763964 -0.21224865
0.115693234 -0.3162022 0.06476571 0.080352716 0.3816918 -0.2579644 -0.012484662 -0.34618384
-0.0470639 0.22463909 -0.24962279 -0.053719677 0.26948437 0.2929152 -0.19870558 0.07254927
00000000: c089 493e 5a30 a1bd 6d75 9abc 6e1b 29bc
00000010: a6c0 ad3d 36e4 04be 6fb2 0f3e e67c 0e3e
00000020: ca90 a83b 2827 213e b3f0 9d3e 1c0f 87bd
00000030: 1e36 95be fafc 27bd 3e97 9c3e 89bc 4f3e
00000040: 83a0 b7bd 605d 293e c263 493e 3f66 6e3e
00000050: d6f6 523d fa63 543e a6ed 6dbe c42b d23d
00000060: 2e5f be3e db48 d1bd 55dc c83d 3160 713e
00000070: 1913 9ebd 289a 45bd 988f dbbd 5d40 51be
00000080: 0337 9d3d a3f7 c23d f43a 7a3d 762b 4cbe
00000090: af67 cc3e 3c43 a33d 96c3 e03e 7305 983e
000000a0: 40b3 e5bd 45b7 353e 9a9d 793e 2589 033e
000000b0: 1224 2dbe 361f 183e 93ee b8be ee0c a1be
000000c0: a179 d03e 9ad8 db3e 0217 d8bd 5abf 623d
000000d0: 36fd d53b 9b22 6bbe f020 8ebe fd09 14bd
000000e0: 4791 a0be dfd0 273d 800f 72bc f4f0 c6bd
000000f0: e0a3 99be dec6 babe 4b55 d3bd d04b 763e
00000100: dca7 3e3d 9a7c 803d e4a7 9abd d255 30be
00000110: f3e1 553d 6ea5 1e3e b2e0 3bbe 019a 983e
00000120: 2625 19be c999 20bc f622 833d ac5c 7b3e
00000130: 4a2a c13e 9647 573d 5dba 363e 867c 653d
00000140: 0baa 843e 21a1 5c3c a712 373d 06c3 8c3e
00000150: 90e5 553e 45a9 d83d 5c84 853d b81a 603e
00000160: ff2e 463d 7e36 4a3d 04fd 383e 7b43 9e3d
00000170: e9b3 10be 1268 af3c 3c8f 99bd 0295 943e
00000180: 9a7b a33d e31a dd3e 62f2 8dbd 65ad 4f3d
00000190: 21a6 b63c 89fe 2fbe 1c89 f5bd 0f3b 95be
000001a0: df04 0c3e 9164 0e3e 8b3d fcbd bad5 463e
000001b0: 1e2f acbd 08e9 c4bd a32a e8be a7e7 87be
000001c0: f15c cfbd dee8 763e b29f 87bd 6353 85be
000001d0: 5635 953e 6ba7 8f3d 7ff1 9dbe 91e0 273e
000001e0: ddc7 6d3d 4b70 ddbd 39dc 453d 7ce6 743e
000001f0: 967f 48be bad1 c63d d0d9 28be 95b6 973c
00000200: 479c 79bc 1df2 d8bb 969e 39be 210e f7bd
00000210: 8bfe 22be 0373 bf3c bd1e 033f 3236 b8bd
00000220: 0b69 f8bd ace3 e33d f26b 833e e88f 04be
00000230: 8096 053e 9bb7 e93d 7d25 b83c beeb 2d3e
00000240: c2e5 9e3d a7a5 993d d582 8cbe 5ce9 cb3e
00000250: 45a6 afbd 0eac 58be 7241 523e 0a1b 20be
00000260: f1c0 8abe 7c5c 9a3d 2621 8c3c f6a9 3dbc
00000270: 94fb 153d 2a1b 41be b8fb 0abe a88f 263e
00000280: d7e9 633d 0e76 8d3d 18cf 4c3c fb7d b5be
00000290: a7c4 0c3e 3876 a1bd 0ea5 87be 164f 0e3e
000002a0: f181 47be 37e6 bcbd 0935 5cbc 8c1e 5c3e
000002b0: 1dd0 46be 6a48 43bc 57c7 1ebe 28b6 8abd
000002c0: 808f eb3d cde9 02bd 0095 cb3d 0fef d3bd
000002d0: ebc7 8e3d b40f a0bd 3ece e1bd 4ca1 c13e
000002e0: 958e c1be cdfb 813c cd5a 5bbd 2ec8 39be
000002f0: 1a91 813e cc80 b03e 1b4e 293e bca6 e9be
00000300: 2cd3 babd a2a5 a03d a900 1abe 731e d93c
00000310: 8631 e63d ca29 703e 74a6 3cbe f718 f33e
00000320: e1e8 013e ea6b a73c ef1d 52be 72a5 ca3e
00000330: d1c3 0abd e3e0 6bbe 909e dd3c 20e5 923e
00000340: 9290 443d 1a78 b2bd 5e0a e5bd 5c40 af3e
00000350: 4d71 59be 7cdb 063d f463 cabc 1266 30be
00000360: 2887 c3bd 20a3 0e3e 167b ebbd 68eb e3be
00000370: 9c93 24bd d372 2ebd 92da 163d e22e 253d
00000380: e031 d53e 5a05 9cbd 8e52 21bd 65bd ae3c
00000390: efc1 94bd 79d7 1dbd 7c7d 113e e6c3 6d3e
000003a0: 63d5 d53c a930 613d 2fae 3bbe b154 fb3d
000003b0: 1516 3f3d d1a1 9e3a 9c13 c23d b657 59be
000003c0: 93f0 ec3d 41e5 a1be e2a3 843d f78f a43d
000003d0: 1c6d c33e e913 84be 788c 4cbc 023f b1be
000003e0: 13c6 40bd ca07 663e 1e9d 7fbe 2a09 5cbd
000003f0: dbf9 893e fbf8 953e 7a79 4bbe b694 943d

bias f4 [64]
0.07055869 -0.042799465 -0.0913075 0.015558146 -0.032595832 0.084743515 -0.040218007 -0.04541522
0.06906528 0.06017568 -0.06005486 0.041712273 0.0582775 -0.04595185 0.041531432 -0.012669177
-0.048601888 0.036368985 0.039542202 0.053225823 -0.046106324 0.11821666 0.10109327 -0.050806917
-0.039808564 -0.08738115 0.0418833 -0.08288205 -0.038415477 -0.05942928 -0.04605063 0.026351055
-0.067462906 0.044818748 -0.03912837 -0.05309431 0.05091943 -0.04724589 0.06590933 0.061270192
0.04722361 0.06315431 0.032305792 -0.011531208 0.03090396 -0.042120673 0.00087440526 0.046830196
-0.09705272 0.036052357 -0.07971544 0.03930875 -0.053183656 -0.075205386 -0.061979074 -0.037131038
-0.062290456 -0.08102588 -0.06519368 0.0565768 0.061261125 -0.04405332 -0.06695342 0.053284965
00000000: 1381 903d 7e4e 2fbd 6dff babd 98e7 7e3c
00000010: 3583 05bd 028e ad3d a3bb 24bd 4f05 3abd
00000020: 1972 8d3d c67a 763d 16fc 75bd 7dda 2a3d
00000030: 63b4 6e3d 0238 3cbd dd1c 2a3d 6192 4fbc
00000040: c612 47bd a5f7 143d 01f7 213d 5203 5a3d
00000050: fcd9 3cbd 941b f23d fd09 cf3d ea1a 50bd
00000060: 4e0e 23bd e3f4 b2bd d38d 2b3d 10be a9bd
00000070: 8c59 1dbd 1e6c 73bd 969f 3cbd 2bde d73c
00000080: fe29 8abd dd93 373d 1245 20bd 6b79 59bd
00000090: e490 503d e884 41bd 79fb 863d 74f6 7a3d
000000a0: 8b6d 413d 0c57 813d 1453 043d 64ed 3cbc
000000b0: 4d2a fd3c ba86 2cbd 5838 653a 05d1 3f3d
000000c0: 94c3 c6bd a3ab 133d d941 a3bd 3602 213d
000000d0: 1bd7 59bd 4805 9abd c5dd 7dbd b716 18bd
000000e0: 4724 7fbd e6f0 a5bd 4484 85bd 13bd 673d
000000f0: f2ec 7a3d 4171 34bd e01e 89bd 5641 5a3d

weight f4 [12, 64, 1, 1]
-0.44954404 0.24619998 0.30729216 -0.097448565 0.043774415 -0.08811405 0.0519894 0.04018766
-0.028818449 -0.22784516 0.1623847 -0.052989665 0.09044609 -0.08701248 -0.041564353 -0.10933476
0.028813133 -0.17121549 0.005654004 0.1524234 0.035875082 -0.2194377 0.18783605 -0.0938762
-0.34973 -0.3181756 -0.17709553 -0.16766909 -0.022938414 0.11157223 0.10423691 0.3486779
0.4233582 -0.19347242 -0.037293926 0.13445827 0.12808187 -0.00823871 -0.15424931 -0.17919223
-0.16555955 0.20805655 -0.04512497 -0.59897065 -0.0038349966 -0.115106754 0.1268985 0.20441106
0.04763867 -0.43652526 -0.18420444 0.4930596 0.09096585 0.16266988 0.44767734 0.052036382
-0.28831455 -0.09769933 0.23947501 0.0024412002 0.03345369 -0.33402458 0.16899323 0.3027716
0.12612204 -0.109997764 0.20807262 0.0029246004 -0.13878255 0.23355258 -0.024350936 0.17186193
0.035241656 -0.20570233 -0.025268259 -0.0009928626 0.019648625 0.11597969 0.2269747 0.36356655
0.0063666096 0.023850556 0.44226897 0.18697788 0.0536284 -0.2019883 -0.6157878 0.17383361
0.06737626 0.20888855 -0.27316204 -0.15421757 -0.030275043 0.026787868 0.20680302 -0.2326878
0.24611495 -0.2283947 -0.15920013 0.17507593 0.21157151 -0.046493955 -0.029143175 0.1299652
-0.052978836 -0.1728015 0.024453562 0.41058615 -0.13934912 -0.33510298 -0.21005584 -0.040537532
0.20695798 -0.102259174 -0.138321 -0.17467582 -0.051908743 -0.06645475 -0.030746186 0.11460484
-0.14490023 0.37837997 0.37975678 0.01335968 -0.2129161 -0.04564934 -0.03750532 -0.01638818
-0.15639295 -0.26955426 0.055547778 -0.30592847 -0.28141478 0.19283372 0.16817546 -0.045229826
-0.28193182 -0.10686291 0.24461934 -0.20015134 0.5263851 -0.036446065 -0.3968784 -0.13212696
-0.12713395 -0.27460566 -0.24985184 -0.06464477 0.11905527 0.27194196 0.003831664 -0.16505289
0.38542646 0.09151996 -0.04128136 0.33035672 0.27647603 0.13760588 0.32346967 -0.06604837
0.45915723 -0.0871969 -0.12819085 -0.22831988 -0.17186901 -0.017179944 -0.34081653 -0.1431817
0.3904067 -0.13215587 -0.12595423 0.12438926 -0.09941711 0.34316957 0.33461353 -0.1985403
-0.15714352 0.10992316 0.27744585 0.008577712 -0.27249894 0.20776086 0.094388805 -0.13002403
0.1964908 -0.12004309 0.3579168 -0.2017225 -0.091518424 -0.11398155 -0.33091572 -0.20475636
0.20781289 -0.06474559 0.07421527 -0.08741583 -0.00062026095 0.018603599 0.15161702 -0.18345249
0.017451676 0.06544604 -0.49282816 0.15053731 0.056759264 0.3020954 0.09871935 -0.18025939
0.24067447 0.38276127 0.42336756 -0.30666518 -0.06008323 -0.09423403 0.21918668 -0.31592944
0.25182658 -0.47534 0.0037608368 -0.2028362 0.06647678 -0.008369821 0.102731615 -0.42818156
-0.22718893 0.06905195 0.121250086 0.1846236 0.1002131 0.33132467 -0.028079497 0.39950067
-0.21438156 0.07337751 -0.20202506 -0.009882844 -0.10284445 -0.18066983 0.0014101212 0.45102662
-0.14901029 -0.13764903 -0.054937314 -0.1182182 0.18559605 0.11069927 -0.026332654 0.012980899
-0.01611525 -0.09056692 -0.17283091 0.30921382 0.21049635 0.005443107 0.33775923 -0.123912565
00000000: a32a e6be d91b 7c3e 6655 9d3e 1d93 c7bd
00000010: cd4c 333d 2475 b4bd d6f2 543d d19b 243d
00000020: ab14 ecbc 3e50 69be 2d48 263e b10b 59bd
00000030: cd3b b93d 9933 b2bd 623f 2abd e7ea dfbd
00000040: 8509 ec3c 1d53 2fbe 3945 b93b e114 1c3e
00000050: c0f1 123d 47b4 60be 1858 403e 2a42 c0bd
00000060: d00f b3be eae7 a2be 8858 35be 72b1 2bbe
00000070: 57e9 bbbc fb7f e43d 297a d53d e985 b23e
00000080: 68c2 d83e a21d 46be 84c1 18bd 6eaf 093e
00000090: e527 033e a8fb 06bc 88f3 1dbe 2b7e 37be
000000a0: 7188 29be c70c 553e f6d4 38bd 2456 19bf
000000b0: 9154 7bbb 17bd ebbd aef1 013e 2251 513e
000000c0: c420 433d 3d80 dfbe 17a0 3cbe 4f72 fc3e
000000d0: 4e4c ba3d ef92 263e f735 e53e 1a24 553d
000000e0: f79d 93be 9616 c8bd f038 753e 8bfc 1f3b
000000f0: bd06 093d 4505 abbe 900c 2d3e e104 9b3e
00000100: 2326 013e 8246 e1bd fd10 553e a7aa 3f3b
00000110: 031d 0ebe 6828 6f3e 9d7b c7bc 93fc 2f3e
00000120: 8e59 103d a2a3 52be 61ff cebc f122 82ba
00000130: 27f6 a03c c286 ed3d 0e6c 683e 6525 ba3e
00000140: fe9e d03b 3e62 c33c 1471 e23e 2177 3f3e
00000150: 74a9 5b3d 05d6 4ebe 45a4 1dbf 7001 323e
00000160: 91fc 893d e1e6 553e e5db 8bbe 36eb 1dbe
00000170: 5e03 f8bc 3b72 db3c 2cc4 533e b645 6ebe
00000180: 8f05 7c3e 4de0 69be 5c05 23be 1b47 333e
00000190: 34a6 583e 7270 3ebd abbd eebc 9915 053e
000001a0: 5600 59bd e0f2 30be d652 c83c 5938 d23e
000001b0: 89b1 0ebe 9e92 abbe e118 57be af0a 26bd
000001c0: cbec 533e 426d d1bd 05a4 0dbe 38de 32be
000001d0: 439e 54bd 6e19 88bd 6ddf fbbc f1b5 ea3d
000001e0: ba60 14be 05bb c13e 7b6f c23e 8fe2 5a3c
000001f0: ae06 5abe cdfa 3abd 2e9f 19bd 8140 86bc
00000200: 7925 20be 0403 8abe 1186 633d a8a2 9cbe
00000210: 9915 90be 3476 453e 3036 2c3e e942 39bd
00000220: 5e59 90be f1da dabd 7e7d 7a3e 79f4 4cbe
00000230: 2dc1 063f 7848 15bd a533 cbbe 4a4c 07be
00000240: 672f 02be 1d99 8cbe 29d9 7fbe 7a64 84bd
00000250: 40d3 f33d fa3b 8b3e a81c 7b3b a003 29be
00000260: 9e56 c53e d16e bb3d a516 29bd 8424 a93e
00000270: 448e 8d3e 8ee8 0c3e d19d a53e 5e44 87bd
00000280: a816 eb3e 4a94 b2bd 7644 03be b0cc 69be
00000290: 6efe 2fbe f4bc 8cbc 817f aebe 399e 12be
000002a0: 63e3 c73e de53 07be 25fa 00be ccbf fe3d
000002b0: 339b cbbd ecb3 af3e 7752 ab3e 264e 4bbe
000002c0: 3bea 20be 651f e13d 620d 8e3e 8889 0c3c
000002d0: fb84 8bbe 43bf 543e eb4e c13d 0525 05be
000002e0: e234 493e 27d9 f5bd df40 b73e 5890 4ebe
000002f0: 036e bbbd 296f e9bd c96d a9be a7ab 51be
00000300: e7cc 543e 5699 84bd 2dfe 973d 1207 b3bd
00000310: 0299 22ba 9366 983c 7e41 1b3e f8da 3bbe
00000320: d1f6 8e3c 9308 863d f953 fcbe 7426 1a3e
00000330: 677c 683d 40ac 9a3e 5f2d ca3d eb95 38be
00000340: 5e73 763e 49f9 c33e a2c3 d83e 3803 9dbe
00000350: d519 76bd c5fd c0bd 7972 603e 81c1 a1be
00000360: 6aef 803e c45f f3be 5f78 763b 4bb4 4fbe
00000370: fa24 883d 9321 09bc f464 d23d 9d3a dbbe
00000380: 37a4 68be 1c6b 8d3d f751 f83d f80d 3d3e
00000390: 873c cd3d 63a3 a93e f906 e6bc 5a8b cc3e
000003a0: d786 5bbe f346 963d a8df 4ebe a7eb 21bc
000003b0: 1ca0 d2bd 8301 39be d1d3 b83a f6ec e63e
000003c0: 2796 18be def3 0cbe f305 61bd 621c f2bd
000003d0: e40c 3e3e 4db6 e23d 94b7 d7bc d6ad 543c
000003e0: 2104 84bc 267b b9bd 96fa 30be 4651 9e3e
000003f0: 5b8c 573e 175c b23b c7ee ac3e dfc5 fdbd

bias f4 [12]
0.046362016 0.017550305 -0.062336672 0.0681646 0.037838437 0.01879139 -0.04714077 -0.043655388
-0.041832276 0.030002939 0.07451688 0.030067572
00000000: 19e6 3d3d a8c5 8f3c bd54 7fbd e299 8b3d
00000010: 7afc 1a3d 67f0 993c ae16 41bd fecf 32bd
00000020: 5258 2bbd b9c8 f53c 4e9c 983d 4550 f63c

weight f4 [12, 12, 3, 3]
-0.24529618 -0.06197304 0.21960752 -0.29764068 -0.007856444 -0.05272045 -0.22792089 0.1187777
0.20016861 0.027655836 0.16006291 0.17339152 0.28077188 0.05100934 0.32555035 -0.07785158
0.16903068 0.2976761 -0.3217568 0.09337199 -0.54535943 -0.10505099 -0.15188436 0.08430994
-0.24149017 -0.03253328 -0.40203 -0.15002827 0.12272358 -0.076039575 -0.027530868 0.3165642
-0.05660304 0.06333381 -0.16379571 -0.28207922 0.2158009 -0.17270184 -0.24746513 -0.28182498
-0.18772203 0.32638666 0.30376464 -0.39429533 0.15903836 0.3849511 0.078790955 -0.2746691
0.3532388 0.16030897 0.05667464 0.14436355 0.34872636 -0.007202732 -0.030060498 0.18793239
0.2761783 -0.07885487 -0.13066381 0.22431466 -0.2656186 -0.2764388 0.28409642 0.32818085
0.22610871 -0.055182237 0.23125139 0.15322988 -0.16803005 0.036915068 -0.16963655 -0.40555164
0.059530713 -0.18060066 0.13436219 -0.056644127 -0.18858017 -0.012181145 -0.1720818 0.044790473
0.044977058 0.04794052 0.11508743 -0.3250146 0.10039529 0.3287423 -0.0728649 0.41469285
0.4167962 0.45395735 -0.20672344 0.16186547 -0.059692997 0.06482293 -0.15236364 -0.2659656
0.0008575716 -0.059096374 -0.1574893 -0.049265455 0.12805891 -0.17434645 -0.18443011 0.064104326
0.19841869 -0.031666275 0.3616636 0.080720104 -0.34372416 -0.10707351 0.14601678 -0.18031427
-0.29342082 0.11566612 -0.007841979 0.03998688 -0.027382193 0.124573484 -0.0846549 -0.17425665
0.06261918 0.31443363 -0.38950422 -0.09038636 0.03155305 -0.3140503 0.2025531 0.1010519
-0.022603534 0.12769663 -0.11019817 -0.032662205 0.111257754 0.08584704 0.26532105 -0.1774685
0.12555516 -0.14591001 -0.016963754 -0.11129465 0.010260155 0.1696192 0.0705179 -0.03996937
-0.30311805 -0.21953508 -0.2846368 -0.019615453 -0.1834492 0.12802725 -0.007313859 0.29201838
0.058885857 0.20125042 -0.3123743 0.21433756 0.008400087 -0.09136261 0.42741048 -0.051259395
-0.04427744 0.13993119 0.1364423 0.43997967 0.37329915 0.018770618 -0.014169347 0.18359001
0.49599418 -0.12432307 0.022661753 0.06542997 -0.19975479 -0.1606679 0.37992704 -0.37815815
-0.034812994 0.092292614 0.35169682 0.13279484 0.17493531 0.018222917 0.14783368 -0.03563917
-0.10534208 0.05772633 0.01820605 0.12882216 -0.18460877 -0.23156622 0.22916703 0.20044732
-0.17692168 -0.04025196 -0.15005285 -0.13490401 0.052355085 -0.09879274 0.20096716 -0.0036676256
-0.119621046 0.12057037 -0.0473163 0.060621273 -0.17412962 -0.10473744 -0.16868994 -0.17725095
-0.5299805 -0.08822486 -0.031534165 0.11699488 0.17784123 -0.08874167 0.046513755 0.09364825
-0.3305429 -0.19284575 0.059757564 -0.5711527 0.17098396 -0.19095598 -0.14048739 0.26021728
0.044890463 0.34235108 -0.11130331 0.027751813 0.08085945 0.16887394 0.5003171 0.53579044
-0.105800405 0.08823508 -0.10595025 0.39628896 -0.04492908 0.0004287561 0.09268709 0.22082685
0.29048967 0.03906374 0.010631162 -0.32743156 -0.19742124 -0.2972929 -0.29303843 -0.5778491
0.04716839 -0.3303311 -0.03655896 -0.08753756 -0.24279782 -0.116181016 0.0047354177 -0.08417228
00000000: ec2e 7bbe 71d7 7dbd cbe0 603e 5c64 98be
00000010: 51b8 00bc 66f1 57bd 1864 69be b941 f33d
00000020: 00f9 4c3e 7e8e e23c 88e7 233e 8c8d 313e
00000030: 55c1 8f3e 2bef 503d 89ae a63e a670 9fbd
00000040: 6116 2d3e 0069 983e 4fbd a4be d039 bf3d
00000050: ad9c 0bbf f924 d7bd 9387 1bbe b1aa ac3d
00000060: 3349 77be 9e41 05bd e0d6 cdbe 03a1 19be
00000070: 8056 fb3d a3ba 9bbd 6a88 e1bc b414 a23e
00000080: 97d8 67bd 28b5 813d 10ba 27be b06c 90be
00000090: e9fa 5c3e c0d8 30be 8067 7dbe 5d4b 90be
000000a0: 343a 40be 271c a73e 0a87 9b3e 14e1 c9be
000000b0: f4da 223e 5018 c53e 275d a13d 6ea1 8cbe
000000c0: b7db b43e 0928 243e ab23 683d 0ad4 133e
000000d0: 438c b23e e504 ecbb 6f41 f6bc 5971 403e
000000e0: 3e67 8d3e a97e a1bd bccc 05be beb2 653e
000000f0: 29ff 87be 6389 8dbe 1675 913e 5207 a83e
00000100: 0b89 673e c506 62bd 2acd 6c3e 4be8 1c3e
00000110: 1210 2cbe 4134 173d 34b5 2dbe 77a4 cfbe
00000120: 7ad6 733d 61ef 38be 3e96 093e ac03 68bd
00000130: 291b 41be 6d93 47bc 3636 30be 3776 373d
00000140: dd39 383d 475d 443d f5b2 eb3d 5068 a6be
00000150: 0c9c cd3d e950 a83e 313a 95bd 9f52 d43e
00000160: 5066 d53e 196d e83e 4faf 53be 10c0 253e
00000170: a580 74bd e2c1 843d 3705 1cbe a52c 88be
00000180: a8ce 603a 0a0f 72bd e044 21be 93ca 49bd
00000190: e021 033e e087 32be 3fdb 3cbe 2149 833d
000001a0: 452e 4b3e 7fb4 01bd f92b b93e 9550 a53d
000001b0: 9dfc afbe 5b49 dbbd 6c85 153e 4ea4 38be
000001c0: 413b 96be 5ce2 ec3d a57b 00bc 48c9 233d
000001d0: 9f50 e0bc 6220 ff3d 8c5f adbd 5670 32be
000001e0: 7c3e 803d 72fd a03e 196d c7be 7c1c b9bd
000001f0: c53d 013d 33cb a0be 146a 4f3e 4cf4 ce3d
00000200: 0c2b b9bc e8c2 023e 94af e1bd cec8 05bd
00000210: 1bdb e33d 93d0 af3d 29d8 873e 4dba 35be
00000220: 8891 003e 6f69 15be 92f7 8abc 73ee e3bd
00000230: 361a 283c a8b0 2d3e b06b 903d ecb6 23bd
00000240: 4a32 9bbe cecd 60be eabb 91be 96b0 a0bc
00000250: 1bda 3bbe 9319 033e 19a9 efbb 6f83 953e
00000260: 4c32 713d 9714 4e3e 86ef 9fbe 4e7b 5b3e
00000270: 85a0 093c 521c bbbd 8cd5 da3e 5ff5 51bd
00000280: 435c 35bd 1f4a 0f3e 88b7 0b3e 0445 e13e
00000290: 1121 bf3e d7c4 993c 8c26 68bc 05ff 3b3e
000002a0: f3f2 fd3e 189d febd 24a5 b93c 2600 863d
000002b0: 858c 4cbe 2086 24be cc85 c23e f29d c1be
000002c0: 1298 0ebd e903 bd3d 9b11 b43e 5ffb 073e
000002d0: 3e22 333e 3a48 953c b661 173e 61fa 11bd
000002e0: 97bd d7bd 7272 6c3d db24 953c f5e9 033e
000002f0: 150a 3dbe b21f 6dbe c3aa 6a3e 1042 4d3e
00000300: f52a 35be 3ddf 24bd 74a7 19be 4724 0abe
00000310: 4972 563d d953 cabd 56ca 4d3e 8c5c 70bb
00000320: e1fb f4bd 99ed f63d bdce 41bd 034e 783d
00000330: 094f 32be 9580 d6bd 0ebd 2cbe 4681 35be
00000340: cdac 07bf 3caf b4bd f829 01bd 039b ef3d
00000350: 031c 363e 31be b5bd 3585 3e3d a7ca bf3d
00000360: eb3c a9be 5b79 45be 59c4 743d 1037 12bf
00000370: 6b16 2f3e f789 43be eddb 0fbe 333b 853e
00000380: 10df 373d a448 af3e fdf2 e3bd c557 e33c
00000390: a499 a53d 4aed 2c3e c814 003f 9029 093f
000003a0: e2ad d8bd 98b4 b43d 72fc d8bd 63e6 ca3e
000003b0: 8e07 38bd abca e039 bbd2 bd3d 6f20 623e
000003c0: 10bb 943e 4d01 203d 532e 2e3c 1ca5 a7be
000003d0: cb28 4abe c636 98be 2209 96be ebed 13bf
000003e0: a433 413d 2821 a9be d9be 15bd e446 b3bd
000003f0: fe9f 78be 50f0 edbd 902b 9b3b 8462 acbd

bias f4 [12]
-0.07589991 0.06115045 -0.19158854 -0.045651164 -0.04708529 -0.043514688 -0.059943084 0.04428249
0.04668101 0.04525301 0.10804619 -0.047509663
00000000: 6971 9bbd e578 7a3d c92f 44be b7fc 3abd
00000010: 81dc 40bd 753c 32bd e186 75bd 8e61 353d
00000020: 9634 3f3d 385b 393d 5247 dd3d 7e99 42bd

weight f4 [12, 12, 3, 3]
0.1109835 -0.1427026 -0.0027106698 0.026377667 -0.39561275 0.08592267 0.1238144 -0.048568834
-0.09170861 -0.09980532 0.0921896 -0.07760596 -0.0094451355 -0.07963649 -0.02874247 -0.18955639
-0.1968188 -0.0032040093 0.034019936 -0.11510998 0.07562785 0.4036117 -0.22516924 -0.26658273
-0.05829228 -0.22914322 -0.44835746 0.04115979 0.14206378 -0.08483106 0.17184338 -0.07190706
0.013311007 0.010125 0.02152527 0.17259867 -0.11809117 -0.013221501 0.1727955 0.084104575
-0.070385486 -0.22033139 0.024352217 -0.07609884 -0.16679278 0.3922432 -0.034178335 -0.17212737
0.0324829 -0.41891167 0.87579274 0.08488619 -0.40027156 -0.2488188 -0.15801771 -0.039266113
0.09347553 -0.06336094 -0.15722473 -0.064643405 -0.017280355 0.30054066 0.2744001 0.04266618
0.14807598 -0.4433562 -0.20459409 0.1772444 0.26187 0.13527133 -0.031400956 0.077849045
0.14852606 -0.090776995 -0.30783617 0.03409832 0.058113832 -0.21677019 -0.101206064 0.12672484
0.25699225 -0.38815472 -0.013941095 0.10579762 -0.16933835 -0.094307125 0.03212584 0.00825397
-0.33233988 -0.15351026 -0.11676549 0.26289177 0.446225 0.12976277 0.11967005 0.08274396
0.015573394 0.32841465 -0.040422488 0.3067923 -0.2630451 -0.390195 0.10896375 -0.26209232
-0.060524963 0.039736763 -0.011871079 0.026984043 0.1748452 0.014927997 -0.16662808 -0.03766409
0.24505109 0.29009247 0.06586944 -0.31983665 0.05852265 -0.1310234 0.06513552 -0.31492603
0.14896683 -0.2003486 0.06434248 -0.03014438 0.33267757 -0.0026063004 -0.033183128 -0.14521019
0.002345946 -0.104436494 0.16365758 -0.13335046 -0.026604472 0.15617213 0.30630994 -0.14364357
0.38950905 0.21753548 -0.22004671 0.016211808 0.07314431 0.20926438 -0.042899888 0.46493813
-0.4711224 -0.4870974 0.07626365 0.058101706 0.23808487 -0.28012633 -0.004645602 0.34777227
0.04354632 -0.099198826 0.15122858 0.23959146 -0.08190181 0.052685294 -0.0047419835 -0.15160093
-0.04707492 -0.18466254 0.14987701 -0.026480578 -0.02988488 -0.12679043 -0.14714555 0.14641239
-0.18691696 -0.11561574 -0.22170925 0.17784846 0.19999385 -0.10906744 0.0050162 0.046124943
0.17569289 0.16509363 -0.26239115 0.18123315 -0.27397445 0.086299896 0.1066418 -0.17453161
-0.32265717 -0.12412762 -0.20293632 0.0572932 -0.013083882 -0.022725763 0.048731044 -0.15753414
0.08690949 0.08294159 0.08586754 -0.11473782 0.3559134 -0.062621996 -0.11915111 -0.18124044
-0.13461994 -0.4305165 -0.31598184 0.10808641 -0.058646336 -0.43415356 -0.072655275 -0.44489288
-0.050534926 0.07078869 0.07770644 -0.09585709 0.2904731 -0.11112261 -0.2843419 -0.04231526
-0.30924004 0.33465758 -0.16202201 0.15064201 0.27513838 -0.087570675 0.027060017 -0.14268239
0.022800008 -0.32282358 -0.11318072 -0.36252883 -0.07718608 -0.06422039 0.018900711 -0.2778558
0.23788431 0.09521506 -0.3387581 -0.077444665 -0.06728824 -0.25152394 -0.12760352 -0.08775937
0.030383712 -0.041258715 -0.014936765 0.02043652 -0.13681808 0.27736828 0.18052535 -0.17929426
-0.1350714 0.06766358 -0.013914521 -0.04794484 0.23664534 -0.08352292 0.2014149 -0.020865293
00000000: 514b e33d a120 12be 7ea5 31bb fa15 d83c
00000010: c18d cabe 3af8 af3d 6792 fd3d 1df0 46bd
00000020: b9d1 bbbd bb66 ccbd e7cd bc3d e0ef 9ebd
00000030: c5bf 1abc 7518 a3bd 5475 ebbc 121b 42be
00000040: de8a 49be 5bfa 51bb 7d58 0b3d c8be ebbd
00000050: c6e2 9a3d 31a6 ce3e c492 66be 887d 88be
00000060: e3c3 6ebd 85a4 6abe 1c8f e5be 2b97 283d
00000070: 2b79 113e e8bb adbd b6f7 2f3e 0244 93bd
00000080: 6916 5a3c 54e3 253c c355 b03c b5bd 303e
00000090: c9d9 f1bd ff9e 58bc 4ef1 303e 053f ac3d
000000a0: 4426 90bd 8d9e 61be 4d7e c73c b5d9 9bbd
000000b0: bacb 2abe 1ad4 c83e 95fe 0bbd 2842 30be
000000c0: ca0c 053d 977b d6be f433 603f d0d8 ad3d
000000d0: 65f0 ccbe 5bca 7ebe 65cf 21be 81d5 20bd
000000e0: 1970 bf3d 61c3 81bd 85ff 20be c363 84bd
000000f0: 888f 8dbc 77e0 993e 2b7e 8c3e bbc2 2e3d
00000100: 3ba1 173e 95ff e2be 1d81 51be 8e7f 353e
00000110: d313 863e 9184 0a3e 4a9e 00bd 526f 9f3d
00000120: 3717 183e 4ae9 b9bd b49c 9dbe aeaa 0b3d
00000130: c508 6e3d 01f9 5dbe 2045 cfbd 28c4 013e
00000140: 7d94 833e 37bc c6be 3169 64bc 6cac d83d
00000150: 0867 2dbe 1824 c1bd 6396 033d a93b 073c
00000160: 7428 aabe cb31 1dbe bf22 efbd c099 863e
00000170: 9a77 e43e 88e0 043e 9215 f53d aa75 a93d
00000180: 8c27 7f3c f725 a83e 0d92 25bd e113 9d3e
00000190: d9ad 86be a4c7 c7be 6328 df3d f730 86be
000001a0: 06e9 77bd 04c3 223d ea7e 42bc a40d dd3c
000001b0: 9f0a 333e 8f94 743c 8da0 2abe a945 1abd
000001c0: acee 7a3e 0087 943e 8fe6 863d a1c1 a3be
000001d0: 72b5 6f3d 002b 06be c665 853d fc3d a1be
000001e0: c38a 183e 2f28 4dbe fdc5 833d 59f1 f6bc
000001f0: b754 aa3e 77ce 2abb 08eb 07bd fbb1 14be
00000200: 71be 193b cde2 d5bd da95 273e 068d 08be
00000210: 9ff1 d9bc 96eb 1f3e a8d4 9c3e 4d17 13be
00000220: bb6d c73e 9fc1 5e3e ed53 61be a0ce 843c
00000230: afcc 953d 6749 563e cbb7 2fbd 5f0c ee3e
00000240: f536 f1be d564 f9be 1e30 9c3d 0efc 6d3d
00000250: 85cc 733e b86c 8fbe 223a 98bb 350f b23e
00000260: a05d 323d c128 cbbd aadb 1a3e 7757 753e
00000270: 23bc a7bd 89cc 573d a462 9bbb 463d 1bbe
00000280: a2d1 40bd 2d18 3dbe 5c79 193e cced d8bc
00000290: 23d1 f4bc 5ad5 01be 53ad 16be 21ed 153e
000002a0: 2967 3fbe f2c7 ecbd c007 63be e81d 363e
000002b0: 30cb 4c3e c05e dfbd ef5e a43b 82ed 3c3d
000002c0: d6e8 333e 4e0e 293e 2258 86be 2f95 393e
000002d0: 6146 8cbe 00be b03d 0467 da3d 6ab8 32be
000002e0: 5233 a5be 9f36 febd 8ace 4fbe 46ac 6a3d
000002f0: c75d 56bc 612b babc 349a 473d a150 21be
00000300: 9afd b13d 48dd a93d 52db af3d aafb eabd
00000310: 483a b63e f63f 80bd 7f05 f4bd 1897 39be
00000320: cfd9 09be a96c dcbe 5fc8 a1be 685c dd3d
00000330: 2437 70bd 6049 debe 4acc 94bd 00c9 e3be
00000340: b6fd 4ebd a9f9 903d 8e24 9f3d b950 c4bd
00000350: e4b8 943e 4094 e3bd 4395 91be c452 2dbd
00000360: b654 9ebe 3d58 ab3e 19e9 25be e641 1a3e
00000370: f0de 8c3e 4158 b3bd f8ac dd3c 551b 12be
00000380: 15c7 ba3c 2249 a5be 4bcb e7bd 619d b9be
00000390: bc13 9ebd fb85 83bd aad5 9a3c 1e43 8ebe
000003a0: f297 733e 1d00 c33d b471 adbe 4f9b 9ebd
000003b0: 6bce 89bd bfc7 80be 7faa 02be 2fbb b3bd
000003c0: 43e7 f83c e6fe 28bd 55b9 74bc 7d6a a73c
000003d0: 0a1a 0cbe 3703 8e3e a3db 383e ea98 37be
000003e0: 2850 0abe 3493 8a3d bbf9 63bc cf61 44bd
000003f0: 2853 723e 110e abbd b53f 4e3e b1ed aabc

bias f4 [12]
-0.043263435 0.039016936 -0.039960884 -0.03269124 -0.050672255 -0.048078693 -0.051966902 -0.051363584
-0.018160863 0.037413847 -0.05629688 0.046615157
00000000: 0035 31bd 39d0 1f3d 06ae 23bd 40e7 05bd
00000010: b68d 4fbd 2aee 44bd 3fdb 54bd 9f62 52bd
00000020: 17c6 94bc 433f 193d 8f97 66bd 89ef 3e3d

weight f4 [12, 12, 3, 3]
-0.1175064 0.16409129 -0.024625499 0.24733172 0.25592062 0.13846566 -0.29315153 0.07769431
0.55009586 -0.06059697 -0.19372168 0.080979615 -0.14271466 -0.3367041 -0.5139564 -0.04368902
-0.32191107 -0.032270554 -0.012916164 -0.053505044 0.06955431 -0.09941846 -0.10743993 -0.071037784
0.10409559 0.06575059 0.12871201 -0.45246166 -0.11290792 0.2981507 -0.0850127 0.00048247678
-0.21607661 0.08109182 -0.011130963 -0.06712561 -0.009952288 -0.18124957 0.06959208 0.06921414
0.012097593 -0.116287835 0.3346161 0.16152854 0.20984548 -0.37749803 0.15432787 0.047175426
-0.2813458 0.039830003 0.03427643 0.06326222 0.21429417 0.15043955 0.10487904 -0.10949204
-0.15804386 -0.10072162 -0.14337434 -0.2437084 -0.209877 0.2325769 -0.18235557 0.10811497
0.06680119 0.07321757 0.28333756 -0.016639847 0.15882903 0.0069270898 0.39997303 -0.26552027
0.1635626 -0.22355802 -0.086761504 -0.090961695 -0.18869732 -0.3862101 0.30415377 -0.5244707
0.25544944 0.25956348 -0.19588134 -0.31554475 0.378879 -0.015619192 0.12926848 0.19816774
-0.05678428 0.018618746 -0.30261886 0.048549414 -0.10148677 0.04058758 0.08397707 0.25571153
0.0031383673 0.18678117 0.20919253 -0.027306123 0.3055266 0.23362952 -0.14021246 -0.52091324
-0.36747465 -0.12148771 -0.1043739 0.0038419238 -0.11689087 -0.16164899 -0.02299496 0.14827959
9.357337e-05 -0.069021456 -0.049957976 0.08583715 -0.120932885 0.043102175 0.05914913 0.17376402
0.08478423 -0.07283146 -0.32040206 -0.4951288 0.35049465 0.24596411 -0.13350664 -0.09696413
0.16676964 -0.16641645 0.24702038 0.025042988 -0.1938885 -0.3529862 0.044930425 -0.2803658
-0.11067173 0.13248281 0.33372256 0.077669784 0.086853504 -0.19509535 0.019076439 0.022749435
-0.2643394 -0.0758869 -0.008797945 0.08842736 0.07720315 -0.10949564 -0.00561188 -0.17685051
-0.21310446 -0.1950805 0.053149953 0.15599005 -0.107342586 0.27361333 -0.28949776 0.21347122
-0.14822666 -0.06544366 -0.22233029 -0.01150351 -0.22663584 0.015445682 -0.13517788 -0.25962567
-0.37365603 -0.0015150721 -0.013070308 0.2013366 -0.15124497 -0.27583018 -0.29264036 0.15972656
0.21441202 -0.053366814 -0.018644692 0.008891196 -0.047133263 0.33341655 -0.113857135 -0.055670414
0.39670005 0.0962707 -0.19485718 0.4880904 0.43440032 -0.38034752 -0.00997135 -0.29417545
-0.2546586 0.1012731 -0.12016111 -0.31019536 -0.0567722 -0.20760383 0.14818342 0.011604874
-0.21216604 -0.08716609 -0.2458227 -0.28435376 0.055567812 -0.0442201 -0.04194869 0.08586097
0.07606088 0.18939066 0.1101764 -0.14548153 -0.010672299 0.024589632 0.0019028201 -0.13421199
0.0011835032 0.13752571 0.03482818 0.13273981 0.2755823 -0.120355085 -0.43209964 0.34122226
0.028964154 -0.10627546 -0.024531098 -0.4697739 -0.12039907 -0.3651383 -0.13846691 0.27592912
0.081065714 -0.2092268 0.23154964 0.071012855 0.32361534 0.04337753 -0.17579308 -0.016047334
-0.03926467 0.16521733 0.22944859 0.17898579 -0.29362324 0.23590007 -0.23881847 -0.2192975
-0.36243224 -0.06832009 -0.77385324 -0.03065321 0.10892714 0.043607242 -0.041089945 0.12654734
00000000: 32a7 f0bd 8c07 283e 6abb c9bc 8744 7d3e
00000010: 0708 833e f1c9 0d3e f517 96be 321e 9f3d
00000020: 15d3 0c3f 8734 78bd fa5e 46be a4d8 a53d
00000030: cb23 12be 7b64 acbe a692 03bf 42f3 32bd
00000040: 87d1 a4be 212e 04bd 519e 53bc 1b28 5bbd
00000050: 7d72 8e3d e89b cbbd 7709 dcbd 427c 91bd
00000060: 1230 d53d 3fa8 863d 15cd 033e 0ea9 e7be
00000070: 443c e7bd 35a7 983e 231b aebd f0f4 fc39
00000080: 3043 5dbe 7813 a63d a55e 36bc 2779 89bd
00000090: ec0e 23bc 7d99 39be 4b86 8e3d 25c0 8d3d
000000a0: fc34 463c 5128 eebd cd52 ab3e bd67 253e
000000b0: bce1 563e 6c47 c1be 2008 1e3e 053b 413d
000000c0: 8f0c 90be c924 233d 7165 0c3d 9f8f 813d
000000d0: ee6f 5b3e d30c 1a3e d2ca d63d 5d3d e0bd
000000e0: 40d6 21be 2347 cebd b9d0 12be b28e 79be
000000f0: ffe9 56be a428 6e3e 6bbb 3abe 626b dd3d
00000100: 10cf 883d 18f3 953d 9f11 913e 4a50 88bc
00000110: 14a4 223e a4fc e23b 44c9 cc3e 46f2 87be
00000120: f47c 273e 65ec 64be 04b0 b1bd 204a babd
00000130: df39 41be 55bd c5be 0bba 9b3e b643 06bf
00000140: 45ca 823e 81e5 843e 1e95 48be 158f a1be
00000150: 6efc c13e a4e7 7fbc f55e 043e 7cec 4a3e
00000160: a296 68bd 5786 983c dcf0 9abe c0db 463d
00000170: 4cd8 cfbd 2a3f 263d 2cfc ab3d 9fec 823e
00000180: 11ad 4d3b 9043 3f3e 9136 563e 17b1 dfbc
00000190: fc6d 9c3e 943c 6f3e db93 0fbe 925a 05bf
000001a0: a325 bcbe 8cce f8bd fcc1 d5bd c9c8 7b3b
000001b0: 7b64 efbd 5087 25be ed5f bcbc 9bd6 173e
000001c0: d23c c438 1f5b 8dbd bca0 4cbd 63cb af3d
000001d0: a9ab f7bd e88b 303d 5c46 723d 32ef 313e
000001e0: 5ba3 ad3d a928 95bd bd0b a4be 8681 fdbe
000001f0: 0974 b33e 04de 7b3e f7b5 08be 2195 c6bd
00000200: a9c5 2a3e 1369 2abe e9f2 7c3e f426 cd3c
00000210: b58a 46be 9bba b4be f708 383d 1b8c 8fbe
00000220: dca7 e2bd 93a9 073e afdd aa3e 5611 9f3d
00000230: 40e0 b13d 13c7 47be 3146 9c3c 065d ba3c
00000240: 7e57 87be 976a 9bbd 4225 10bc 6719 b53d
00000250: af1c 9e3d 403f e0bd dde3 b7bb 4d18 35be
00000260: 0e38 5abe 2fc3 47be c4b3 593d dbbb 1f3e
00000270: 6ed6 dbbd 0c17 8c3e 0d39 94be 3398 5a3e
00000280: bbc8 17be 5307 86bd 8daa 63be 3879 3cbc
00000290: 3a13 68be e30f 7d3c 126c 0abe a8ed 84be
000002a0: d84f bfbe 6295 c6ba d824 56bc 2f2b 4e3e
000002b0: f6df 1abe 9d39 8dbe f5d4 95be 5c8f 233e
000002c0: d38e 5b3e 2997 5abd c1bc 98bc 61ac 113c
000002d0: cf0e 41bd 93b5 aa3e ee2d e9bd a906 64bd
000002e0: 451c cb3e 9329 c53d a488 47be fce6 f93e
000002f0: b869 de3e e9bc c2be e05e 23bc 2a9e 96be
00000300: 9d62 82be 4568 cf3d 0717 f6bd edd1 9ebe
00000310: f789 68bd 1996 54be 65bd 173e 5f22 3e3c
00000320: 0e42 59be 2384 b2bd f2b8 7bbe d196 91be
00000330: 139b 633d 2320 35bd 64d2 2bbd e0d7 af3d
00000340: cfc5 9b3d a0ef 413e 2aa4 e13d 1cf9 14be
00000350: deda 2ebc 3270 c93c 0c68 f93a de6e 09be
00000360: c71f 9b3a 8ad3 0c3e fea7 0e3d f2ec 073e
00000370: 2019 8d3e ba7c f6bd 2a3c ddbe afb4 ae3e
00000380: 3c46 ed3c f3a6 d9bd 71f5 c8bc 3486 f0be
00000390: ca93 f6bd 68f3 babe 45ca 0dbe 9546 8d3e
000003a0: c805 a63d 8d3f 56be 591b 6d3e 306f 913d
000003b0: e9b0 a53e a3ac 313d 1a03 34be b375 83bc
000003c0: fed3 20bd bb2e 293e 92f4 6a3e 0d48 373e
000003d0: c955 96be ca8f 713e d48c 74be 868f 60be
000003e0: b890 b9be 67eb 8bbd 3f1b 46bf 711c fbbc
000003f0: 3115 df3d 829d 323d ee4d 28bd a095 013e

bias f4 [12]
0.05081221 -0.013819414 0.10006818 -0.052496333 -0.20961294 -0.07527235 0.026368273 -0.052592076
-0.042191625 -0.045657862 0.07544647 0.05606885
00000000: 7720 503d d36a 62bc 8cf0 cc3d 6506 57bd
00000010: c6a4 56be 6428 9abd 4702 d83c ca6a 57bd
00000020: 20d1 2cbd bd03 3bbd ae83 9a3d 73a8 653d

weight f4 [12, 12, 3, 3]
-0.1944429 -0.1830078 0.044617712 -0.4391332 0.2548488 -0.17350177 0.3675968 -0.24056672
-0.22818969 -0.23506722 -0.08276889 -0.21248917 0.0924826 -0.3132405 0.031021446 0.08553421
-0.19028276 0.030854924 -0.060613286 -0.40557146 0.08909615 0.252063 0.21122067 0.0126332715
-0.19087207 -0.11794929 -0.3011563 0.41041443 -0.10259449 -0.13274436 -0.35019818 0.11157502
-0.07543037 0.0016777787 -0.075786896 -0.3924968 0.21114251 -0.07730375 0.059765197 0.2370882
0.45027426 0.19444574 -0.1029295 0.4654133 0.111950494 -0.26065722 0.04842422 -0.031211546
-0.17059416 -0.14757578 -0.13099743 0.13928168 -0.2572816 0.17675602 0.013824785 0.40563005
0.1861718 0.10253077 0.19072273 -0.16377813 0.056573167 0.022493571 -0.14585981 -0.042245373
-0.029578399 0.014651956 -0.03860859 -0.017515788 0.17389877 -0.091275506 -0.18845391 -0.030380744
-0.010342763 0.24004677 -0.002530637 -0.2508206 0.19999522 -0.12523228 0.11042207 0.10414863
-0.51245475 0.049137812 0.09425876 0.09453017 -0.02012581 0.29797876 0.15714762 -0.2157198
0.024972524 0.00014041571 -0.18337272 0.004527448 0.048955537 -0.035476003 0.05758497 0.05574917
-0.09811294 -0.113606974 0.08421587 -0.35744447 0.273826 0.00374859 0.1866211 0.17333046
0.27006528 0.05168828 0.15593053 0.046864197 0.16634983 0.003445513 0.119572714 0.3550481
-0.040107027 0.02388794 0.36264667 0.0585655 -0.3340595 -0.13390678 0.27846783 0.16102934
-0.36139625 -0.1312845 -0.18211678 -0.14254873 0.041941978 -0.06075016 -0.33893722 0.050380692
-0.038738202 0.1251534 -0.015637465 -0.0061506117 0.19829278 0.10037726 -0.11377862 -0.30023542
-0.26038498 -0.08137818 0.1809839 0.27927893 -0.13623479 0.09485216 -0.10505128 -0.2259289
0.041164387 0.10386749 0.11401364 -0.09989263 0.024768421 0.27830988 0.26256347 0.59493756
-0.146427 0.076662175 -0.31723756 -0.04268594 -0.1525913 -0.26181394 0.13129427 -0.145621
0.116076626 0.2627163 0.27953044 0.03209833 0.10061816 -0.05449122 -0.14309509 -0.24694698
0.26414567 0.023945399 0.16486257 0.15122601 0.013077627 0.040842265 -0.06354025 -0.21471019
0.023009393 -0.05772243 -0.15090509 0.18999308 0.04428769 -0.37255985 -0.038094312 0.25995684
0.3861173 0.051426753 -0.12556814 0.14263803 -0.05241316 -0.10718653 0.020864958 -0.38331872
-0.14976808 -0.21248376 -0.24131346 -0.46547204 0.07530126 -0.088905565 -0.26655465 -0.12832414
0.12393991 -0.06864753 -0.020233873 -0.033570748 -0.14831446 0.38222972 -0.18615323 0.006068821
-0.1892232 0.1455833 -0.34609133 0.049451865 -0.5019968 0.11857464 0.18004099 0.050077498
0.0687373 -0.26835296 0.079988666 -0.06075582 0.094303615 0.06423137 -0.40656957 -0.23540151
-0.0067647817 -0.22987087 -0.090477854 0.08227411 0.19972312 0.0725403 -0.30514666 -0.09213828
-0.053452414 0.02890564 0.19509612 0.17317033 -0.2993043 -0.24779502 -0.02620939 -0.27134404
-0.2303302 -0.25163898 0.14096706 -0.17668186 -0.09239769 -0.068021566 -0.3805004 0.23143128
-0.08408493 0.017805044 -0.10941882 -0.1027431 0.28468323 -0.17557761 0.36048946 0.1960082
00000000: 0a1c 47be 6666 3bbe 10c1 363d 11d6 e0be
00000010: 8b7b 823e 73aa 31be a635 bc3e 1f57 76be
00000020: 8faa 69be 76b5 70be bc82 a9bd c396 59be
00000030: 8467 bd3d 0f61 a0be b020 fe3c 8f2c af3d
00000040: 7cd9 42be 77c3 fc3c a345 78bd 10a7 cfbe
00000050: 0b78 b63d 670e 813e 3b4a 583e c8fb 4e3c
00000060: f873 43be 668f f1bd 2931 9abe d721 d23e
00000070: 0f1d d2bd 23ee 07be 2d4d b3be 7281 e43d
00000080: 3d7b 9abd e9e8 db3a 2936 9bbd 57f5 c8be
00000090: be35 583e 6e51 9ebd 5acc 743d 40c7 723e
000000a0: 598a e63e c91c 473e b4cc d2bd a74a ee3e
000000b0: 4d46 e53d dd74 85be 7a58 463d 5baf ffbc
000000c0: 3cb0 2ebe 1b1e 17be 3124 06be db9f 0e3e
000000d0: 6aba 83be 88ff 343e 5a81 623c beae cf3e
000000e0: d2a3 3e3e a7fb d13d d24c 433e 74b5 27be
000000f0: 44b9 673d 7044 b83c 465c 15be 7c09 2dbd
00000100: 664e f2bc c20e 703c 0a24 1ebd 457d 8fbc
00000110: 8512 323e a7ee babd 10fa 40be 0ae1 f8bc
00000120: b174 29bc d2ce 753e 0bd9 25bb 8f6b 80be
00000130: 8ccb 4c3e e43c 00be f724 e23d e04b d53d
00000140: 3c30 03bf bb44 493d bd0a c13d 0999 c13d
00000150: e2de a4bc ac90 983e 4eeb 203e a7e5 5cbe
00000160: 2e93 cc3c 8e3c 1339 0fc6 3bbe fd5a 943b
00000170: 9a85 483d 494f 11bd 38de 6b3d 3e59 643d
00000180: 70ef c8bd c6aa e8bd 5f79 ac3d f602 b7be
00000190: ec32 8c3e e7aa 753b 9a19 3f3e 8a7d 313e
000001a0: ff45 8a3e 17b7 533d 41ac 1f3e acf4 3f3d
000001b0: 9c57 2a3e 1ece 613b 8ae2 f43d ddc8 b53e
000001c0: 4447 24bd a4b0 c33c d3ac b93e 61e2 6f3d
000001d0: d909 abbe dc1e 09be 5693 8e3e e0e4 243e
000001e0: ee08 b9be 726f 06be d27c 3abe 4bf8 11be
000001f0: 5acb 2b3d 29d5 78bd 2e89 adbe fc5b 4e3d
00000200: f3ab 1ebd 3628 003e 241a 80bc 128b c9bb
00000210: 430d 4b3e 9892 cd3d c404 e9bd 75b8 99be
00000220: 2e51 85be 9aa9 a6bd d853 393e a6fd 8e3e
00000230: 2281 0bbe d941 c23d 2025 d7bd e859 67be
00000240: fd9b 283d 7bb8 d43d fc7f e93d 8294 ccbd
00000250: 25e7 ca3c a27e 8e3e b86e 863e d44d 183f
00000260: f6f0 15be 0f01 9d3d f66c a2be 74d7 2ebd
00000270: e540 1cbe 7a0c 86be 0172 063e ac1d 15be
00000280: 95b9 ed3d c082 863e 9d1e 8f3e 8a79 033d
00000290: e510 ce3d 2f32 5fbd 8587 12be abdf 7cbe
000002a0: 1a3e 873e 2429 c43c bcd1 283e feda 1a3e
000002b0: 8b43 563c 384a 273d 6421 82bd fddc 5bbe
000002c0: 327e bc3c 5b6e 6cbd dd86 1abe 8c8d 423e
000002d0: 0267 353d 2ac0 bebe c808 1cbd 1019 853e
000002e0: 2bb1 c53e dca4 523d ef94 00be b40f 123e
000002f0: 2faf 56bd 9d84 dbbd fdec aa3c 5a42 c4be
00000300: ce5c 19be 5895 59be e01a 77be 5a52 eebe
00000310: 8c37 9a3d 1f14 b6bd da79 88be 6767 03be
00000320: 35d4 fd3d 1497 8cbd 82c1 a5bc 7b81 09bd
00000330: bfdf 17be 9db3 c33e f49e 3ebe f6dc c63b
00000340: bac3 41be ca13 153e e232 b1be 0a8e 4a3d
00000350: dd82 00bf 43d7 f23d aa5c 383e 101e 4d3d
00000360: 24c6 8c3d 8f65 89be 19d1 a33d 18db 78bd
00000370: 4122 c13d bd8b 833d e329 d0be 180d 71be
00000380: 1aab ddbb 4563 6bbe 744c b9bd 547f a83d
00000390: 3884 4c3e 0290 943d 2f3c 9cbe ffb2 bcbd
000003a0: ebf0 5abd 85cb ec3c 47c7 473e 9053 313e
000003b0: 6a3e 99be fabd 7dbe 13b5 d6bc 9bed 8abe
000003c0: aedb 6bbe d3d6 80be ab59 103e 17ec 34be
000003d0: 003b bdbd e44e 8bbd f3d0 c2be 52fc 6c3e
000003e0: b834 acbd e2db 913c f916 e0bd f96a d2bd
000003f0: 00c2 913e 9eca 33be 1392 b83e 60b6 483e

bias f4 [12]
-0.07925895 -0.08436573 -0.08888276 -0.13872537 0.0025649224 -0.12795098 0.17406279 -0.07039401
-0.08799336 -0.051647328 -0.07878021 -0.056998238
00000000: 8452 a2bd f1c7 acbd 2a08 b6bd 060e 0ebe
00000010: 4218 283b 9505 03be 843d 323e bc2a 90bd
00000020: dd35 b4bd 268c 53bd 8557 a1bd fc76 69bd

weight f4 [64, 12, 1, 1]
0.24711119 -0.24869111 0.20895578 0.13979587 -0.1962353 0.013306056 -0.3577182 -0.11257198
-0.17337936 -0.13728856 -0.19061087 -0.039383978 -0.20016825 0.3412124 0.11227833 -0.20296937
0.018864876 0.20845312 -0.15835495 0.13019913 -0.09196787 0.19959603 -0.25698814 -0.20041919
-0.14436708 0.18951756 0.34803987 0.42711982 -0.39877063 0.010051958 0.069162786 0.113034286
-0.014059226 0.19951037 0.16368762 -0.14133987 0.39676484 -0.048718773 0.2641737 0.024502167
-0.52721703 -0.21049093 0.08381928 -0.08827387 0.16741456 -0.0200672 0.13274014 -0.0967986
0.21803792 0.15345751 0.16209239 -0.00065144675 0.09574163 -0.15737872 -0.11453358 -0.285046
-0.0027547479 -0.21899562 0.1399424 -0.016385209 -0.04840403 0.10005059 0.27100602 -0.260702
-0.00047924765 0.006215164 -0.058417883 0.041668687 0.14845851 -0.11659068 0.04456718 -0.16061048
-0.37865347 -0.119889274 0.1542115 0.0697363 6.8760155e-06 0.0017334505 0.19829802 0.0048187524
-0.024147378 0.32114863 0.012653603 -0.1739509 0.25358668 -0.19225346 0.12152469 -0.35681242
0.39313915 -0.0013792422 0.1398495 0.22810626 -0.060074534 -0.043680787 0.45816395 0.34228176
-0.088905506 -0.12354836 -0.026211144 -0.14394183 -0.1232908 0.03785061 0.34492746 0.022739997
0.24124046 -0.1721872 0.017583555 -0.014888023 -0.08228732 -0.28863552 0.2634157 0.2832447
0.12728928 -0.16735642 -0.034782708 -0.05364994 -0.19026113 0.17322075 0.34134033 -0.34014243
0.16709293 0.010829557 -0.028569972 -0.3909018 -0.03459312 0.13196425 -0.09651204 0.0455674
-0.06065882 0.17469019 -0.00206907 -0.03213412 -0.27515236 -0.0024403878 0.277446 -0.0941599
-0.0437614 -0.070687726 -0.1052983 0.093838565 -0.26371256 0.08563319 -0.098355174 0.09695439
-0.025881696 0.49826798 0.15137197 -0.10622913 0.123677336 0.19057725 -0.32062882 0.024562014
0.2884858 -0.053274795 0.16871926 0.40942833 0.2505077 0.11080568 -0.025784243 0.34172782
0.055915236 0.10581337 -0.12768614 0.020282164 0.28165144 -0.024399012 -0.31260115 0.41956803
0.43792984 -0.089885965 -0.27636868 -0.13114236 0.17980196 0.18786716 0.008448811 0.09378333
-0.25419194 -0.03585579 -0.36191094 -0.15751015 0.0470649 0.36168474 0.07205468 0.5310221
-0.18441151 0.17520386 -0.1849125 0.14894228 0.21134716 0.17051017 -0.079093866 -0.02192044
-0.16327327 -0.3011838 -0.027101737 0.2809006 0.2819272 -0.101222016 -0.30015382 -0.101526536
-0.034409977 0.06884542 0.21661371 0.23918135 0.07182411 -0.05498724 0.13398203 0.16274635
-0.3198195 -0.32101843 0.24260922 0.028946381 0.22818327 -0.032639205 -0.17853925 0.119269475
-0.16586265 -0.3408704 -0.24549858 0.12329574 -0.28926414 0.32068217 0.10085148 0.06641214
0.2671884 -0.16815445 0.04768488 -0.042633988 0.25549313 -0.47050077 0.03470017 -0.10525095
0.039343428 -0.10910458 -0.026681436 0.07417722 0.051161874 -0.3002028 -0.20491502 0.0017793252
0.10150178 0.18503489 0.21626027 -0.70307076 -0.124738574 -0.06650413 0.32681176 -0.17961824
0.123403035 0.27788258 -0.13011649 -0.0037807322 0.14130382 0.19033429 0.033624448 -0.07448435
00000000: b70a 7d3e e2a8 7ebe 81f8 553e a626 0f3e
00000010: e8f1 48be a501 5a3c d726 b7be 238c e6bd
00000020: 5c8a 31be 5f95 0cbe 7f2f 43be 1851 21bd
00000030: e8f8 4cbe 64b3 ae3e 2ef2 e53d 34d7 4fbe
00000040: 838a 9a3c bc74 553e cd27 22be ec52 053e
00000050: a759 bcbd e762 4c3e f393 83be b03a 4dbe
00000060: f7d4 13be e410 423e 4832 b23e 73af da3e
00000070: aa2b ccbe f8b0 243c 38a5 8d3d 857e e73d
00000080: ab58 66bc 724c 4c3e ba9d 273e 66bb 10be
00000090: c324 cb3e 568d 47bd c641 873e c5b8 c83c
000000a0: b2f7 06bf ef8a 57be 71a9 ab3d eec8 b4bd
000000b0: b96e 2b3e f863 a4bc 08ed 073e 583e c6bd
000000c0: 5545 5f3e f723 1d3e 8cfb 253e dac5 2aba
000000d0: 3014 c43d e327 21be 9590 eabd 8df1 91be
000000e0: 0089 34bb 6340 60be 0f4d 0f3e 463a 86bc
000000f0: 4e43 46bd 53e7 cc3d 4dc1 8a3e bc7a 85be
00000100: 8843 fbb9 93a8 cb3b 9747 6fbd c9ac 2a3d
00000110: 8205 183e 18c7 eebd 138c 363d 1377 24be
00000120: dede c1be 8288 f5bd 9fe9 1d3e e8d1 8e3d
00000130: 86b8 e636 f234 e33a a30e 4b3e a0e6 9d3b
00000140: b9d0 c5bc 986d a43e 0f51 4f3c 2f20 32be
00000150: 1dd6 813e 17de 44be f0e1 f83d 1eb0 b6be
00000160: 8949 c93e b0c7 b4ba b534 0f3e b094 693e
00000170: b710 76bd a0ea 32bd 7794 ea3e 8e3f af3e
00000180: 1714 b6bd ec06 fdbd c1b8 d6bc 7d65 13be
00000190: e37f fcbd 3e09 1b3d 559a b03e 3b49 ba3c
000001a0: bd07 773e d751 30be 630b 903c e5ec 73bc
000001b0: 4186 a8bd 09c8 93be 6cde 863e 7305 913e
000001c0: 1f58 023e 7b5f 2bbe 5078 0ebd 0ac0 5bbd
000001d0: d0d3 42be c860 313e 29c4 ae3e 2627 aebe
000001e0: 691a 2b3e 746e 313c 930b eabc 4824 c8be
000001f0: 84b1 0dbd a321 073e 1ba8 c5bd e2a4 3a3d
00000200: 6275 78bd fce1 323e 3c99 07bb 119f 03bd
00000210: c5e0 8cbe eaee 1fbb 670d 8e3e e8d6 c0bd
00000220: 273f 33bd bac4 90bd a3a6 d7bd 6f2e c03d
00000230: 5505 87be 7460 af3d 706e c9bd 0690 c63d
00000240: da05 d4bc fb1c ff3e 4101 1b3e a88e d9bd
00000250: 8b4a fd3d af26 433e 7629 a4be 4736 c93c
00000260: 69b4 933e ac36 5abd bec4 2c3e 97a0 d13e
00000270: 8c42 803e 17ee e23d 7a39 d3bc f3f6 ae3e
00000280: 6007 653d aeb4 d83d 28c0 02be c826 a63c
00000290: 9e34 903e 70e0 c7bc 420d a0be 9fd1 d63e
000002a0: 5738 e03e 2216 b8bd 3280 8dbe 2f4a 06be
000002b0: 011e 383e 4060 403e e26c 0a3c 7911 c03d
000002c0: 7225 82be 85dd 12bd 644c b9be 574a 21be
000002d0: 20c7 403d be2e b93e 6791 933d 10f1 073f
000002e0: 5fd6 3cbe a468 333e b459 3dbe 5384 183e
000002f0: 646b 583e 389a 2e3e f7fb a1bd 7f92 b3bc
00000300: 1c31 27be c334 9abe 7604 debc 34d2 8f3e
00000310: c358 903e 7d4d cfbd c3ad 99be 25ed cfbd
00000320: 7af1 0cbd d4fe 8c3d fccf 5d3e f5eb 743e
00000330: 8518 933d 4d3a 61bd 9632 093e fba6 263e
00000340: 62bf a3be 875c a4be 8d6e 783e f620 ed3c
00000350: e0a8 693e b0b0 05bd fed2 36be 8e43 f43d
00000360: e6d7 29be 9186 aebe fb63 7bbe 7a82 fc3d
00000370: 6e1a 94be 7430 a43e 398b ce3d 1703 883d
00000380: ebcc 883e ae30 2cbe 3951 433d faa0 2ebd
00000390: ffcf 823e 7ae5 f0be c421 0e3d cf8d d7bd
000003a0: 9326 213d 3972 dfbd 0793 dabc 3aea 973d
000003b0: 1d8f 513d 2eb4 99be 3ed5 51be 3f38 e93a
000003c0: 2ae0 cf3d c979 3d3e 5573 5d3e 72fc 33bf
000003d0: f076 ffbd 5133 88bd df53 a73e d8ed 37be
000003e0: bbba fc3d a046 8e3e 423d 05be 29c6 77bb
000003f0: f3b1 103e fee6 423e cab9 093d 408b 98bd

bias f4 [64]
0.02595577 -0.09316906 -0.1708668 0.071618535 -0.029736785 -0.029020999 0.06487898 -0.16223864
-0.030269988 0.031053282 -0.10906522 -0.066674724 -0.10609855 -0.12995751 0.072935425 -0.04041302
0.053698655 0.08339983 -0.011574243 -0.0048889355 0.014591127 -0.07470616 -0.026797738 -0.12545803
-0.1634487 -0.12945434 -0.06357162 0.0540933 -0.1430966 -0.073148884 0.061835 -0.022857474
-0.10897958 -0.064319 -0.06382628 -0.05462676 -0.049209494 0.056115918 -0.022920093 -0.029713728
-0.12424059 -0.07123775 -0.13656616 -0.08119885 -0.026085898 -0.1655682 -0.0669747 -0.06405326
0.005249136 0.027460592 0.08528571 0.15657726 0.08807902 0.049690165 -0.05872477 -0.1282743
-0.10060848 -0.08210247 -0.16015965 0.00039570514 -0.0031985722 -0.05162816 -0.028843604 -0.07807245
00000000: 32a1 d43c 6ccf bebd b5f7 2ebe bdac 923d
00000010: 8f9a f3bc 72bd edbc 45df 843d e321 26be
00000020: c4f8 f7bc 7463 fe3c 965d dfbd c28c 88bd
00000030: 324a d9bd 9513 05be 2b5f 953d 1f88 25bd
00000040: 1ff3 5b3d 88cd aa3d e5a1 3dbc 5d33 a0bb
00000050: 9f0f 6f3c 8bff 98bd ee86 dbbc 1278 00be
00000060: 195f 27be ae8f 04be d631 82bd f090 5d3d
00000070: ea87 12be 15cf 95bd b246 7d3d 993f bbbc
00000080: b030 dfbd aeb9 83bd 5ab7 82bd 4fc0 5fbd
00000090: e58f 49bd ced9 653d ebc2 bbbc 346a f3bc
000000a0: da71 febd 19e5 91bd 00d8 0bbe 954b a6bd
000000b0: 18b2 d5bc b68a 29be 082a 89bd 5b2e 83bd
000000c0: f200 ac3b 09f5 e03c 46aa ae3d ca55 203e
000000d0: c662 b43d ea87 4b3d 6289 70bd 575a 03be
000000e0: d20b cebd 5725 a8bd e400 24be a576 cf39
000000f0: 239f 51bb 0d78 53bd 6c49 ecbc 73e4 9fbd
