weights/Act_Sigmoid_SUB_model_path.pth (torch, 251789 bytes, 8 tensors)

weight f4 [64, 1, 5, 5]
00000000: 509e bbbe eb24 c4bb e9ee 4d3e 8dec b4be
00000010: 4e89 debe 33a2 f0be 1338 4ebf a99c b7be
00000020: de1c 36bf dc5f c1bd 5dfa e8be da3b e2be
00000030: e540 94be 3ec7 84be 6789 84bd a744 a9be
00000040: bff9 dfbe f500 8bbe 9f1d aabe 1a23 07be
00000050: 74fb 37bf 6e01 94be 11ee 21bf 0169 99bd
00000060: 3083 9abe 871f 56be e1b5 82be 2d8d 81be
00000070: fe19 3ebe 84d0 21bd 7295 86bd cf49 afbe
00000080: 1435 dfbd 53aa 28bf 3d9c 0ebf c075 04be
00000090: 4208 94be c719 81bb 5ed7 f9be 261c dbbd
000000a0: 32c1 1fbe a38d 64bf d4dc 3bbf 3c46 f3be
000000b0: e861 06bf 6e0b c7be 8de3 96be 8440 42bf
000000c0: 19ae e0be 6dd0 abbe 1ce7 7ebd 850b 2d3e
000000d0: 8dde 3dbe 04b7 d7bd dcb9 ef3d dffc fe3d
000000e0: 8ae7 28bf 76c1 21bf 0aac c6be eff5 a43d
000000f0: f6d5 4e3b 095e 3dbf ad5b 19bf ed59 36bf
00000100: 4b04 0abf 5a14 31be 9cf9 36bf 0422 f6be
00000110: 887a 9abe a3d8 513e 44b5 4d3e 7414 a4bd
00000120: 8fd5 28be ae8e f2bd 5491 633e 8ac8 fdbe
00000130: d55b 6dbe d4d9 1abe 625d cb3d eabe bebd
00000140: bac1 0cbf f69a 10bf 2b36 1abf 9197 e5be
00000150: 3dea 8cbe 092d b7be cc9c 08bf 788c 21bf
00000160: 4933 20bf 2800 86bd ecf0 d9be 740a c5be
00000170: 99d6 edbe b6f7 71be d7b4 163e f8c4 813d
00000180: 49ff ddbe 2138 cbbe 351c c8be 3395 383c
00000190: 2df2 d6be 4060 1ebc cd4d cbbe 50cd 0abf
000001a0: 0dc1 a9be ba99 39be 22d7 59be 4560 043f
000001b0: 6b0c 2a3e 4397 f8be 6733 8b3d dfc6 d63e
000001c0: c796 be3e 7c81 b9be 84aa afbe 9b52 edbe
000001d0: 842c bf3d a77e 6e3e 30fe 19be 7579 41bf
000001e0: eaf0 09be 8571 05bf 0f64 e6be 27b0 16bf
000001f0: 1e69 fabe 003a 7f3d 1b35 81be 1d39 f0be
00000200: 1880 4abe 2efc 03bf b371 04be a6ae d8be
00000210: d666 1ebf 6ff3 f2be 577e 6dbe 6832 f9be
00000220: 405a 28bf 444e b9be 0304 1fbf 895e fabe
00000230: e2ac 723e 399e f1be 083c 91be f457 f3be
00000240: a0e5 b4be 317d f53d 662f 99be ef4b debe
00000250: 5f31 38bd 41bc f13c 6ec7 07bc f68a a0be
00000260: 15af 85bd e2f6 49bf 17c4 f2be 4eab 8abe
00000270: 4882 52bf 7d17 df3c 1bb1 07bf bbca 38be
00000280: 1d71 21bc e003 37bf 2e3b 0b3e 96d7 e5be
00000290: 9191 90be 3fe3 ddbe 1f43 d9be 97a1 d4be
000002a0: eb62 243e bbfb db3e 60da 31be 4576 11bf
000002b0: 9dc8 67be f321 7abd a192 63be 38b7 c83d
000002c0: ffa5 193d e066 d5be 7077 913e f0da 9f3d
000002d0: 7bd2 30be 9843 fcbe 1def 51bf 0248 bebe
000002e0: 4052 a03e a24d b1bd cf95 06bf d23c a5bf
000002f0: 6efe abbe b6bb c7bd 3522 22be 9af5 efbe
00000300: 4dc6 14bf fa43 24be a1ed c9be 4d90 b13e
00000310: 0e26 aabd 5b57 97bc c189 483b 99da 87be
00000320: c4f1 9abe 3ec8 31be 03a7 96be 0aa6 96be
00000330: c4fc 96bd 7d3c 2abe f5f0 8fbe 7c96 cdbe
00000340: e850 c8bd 97cd 45be fc52 34bf 57c6 8fbf
00000350: 2e5a 35bf 0560 38bf 2da8 8ebe 3dc1 68be
00000360: fae2 acbe 8bf9 d2be b093 e3be 3ced 01be
00000370: da95 54be 4705 08bf f650 6abe c82a 0cbf
00000380: fe19 b0be 050e 6fbe 510d b2be ab07 713e
00000390: a8d3 b23d d40f 273e 2be5 22be e7c8 adbe
000003a0: b4f4 bfbd 9e9b bfbe 6fea 79be e7c6 eabe
000003b0: 6306 0abf 082f a4bd fc3b 22bf aacb cabe
000003c0: 1f51 3bbf 9577 7cbf 331e 98be 1e56 79be
000003d0: c27e 91be 8128 a5bd c22e a7be bcff 57be
000003e0: 27bb 3ebe 1ad5 9abe b3ae 983c bd64 a5bd
000003f0: 0488 443d 5162 67be a64e b7bd 4acc b5be
-0.3664422 -0.0059858463 0.20110668 -0.35336724 -0.4346413 -0.46998748 -0.8055431 -0.3586171
-0.711378 -0.09442112 -0.45503512 -0.44186288 -0.2895576 -0.2593326 -0.0647152 -0.3306019
-0.4374523 -0.27149168 -0.33225724 -0.13196984 -0.7186806 -0.2890734 -0.63253886 -0.07490731
-0.30178213 -0.20910464 -0.25529388 -0.2530302 -0.18564603 -0.039505497 -0.06571473 -0.34236
-0.10898796 -0.65884894 -0.5570715 -0.12935543 -0.2891255 -0.0039398405 -0.48797125 -0.10698728
-0.15601042 -0.8927862 -0.7338383 -0.47514522 -0.52493143 -0.38875908 -0.29470482 -0.75879693
-0.43882826 -0.33557454 -0.06223212 0.16898926 -0.18541928 -0.10532954 0.11705372 0.12450575
-0.659783 -0.6318582 -0.3880313 0.080547206 0.0031560636 -0.7397161 -0.5990551 -0.71230966
-0.539128 -0.1729292 -0.71474624 -0.48072827 -0.3017161 0.20492797 0.20088679 -0.080117136
-0.16487716 -0.1184362 0.22223407 -0.49567062 -0.23179562 -0.15122157 0.09929921 -0.09313758
-0.54983103 -0.5648645 -0.60238904 -0.44842198 -0.2752246 -0.35776547 -0.53364253 -0.63104963
-0.62578255 -0.065429986 -0.4256662 -0.38484538 -0.46452788 -0.2362965 0.14717422 0.06336397
-0.4335883 -0.3969126 -0.3908402 0.011266041 -0.4198164 -0.0096665025 -0.39707795 -0.5421953
-0.331551 -0.18125048 -0.21273473 0.51709396 0.166063 -0.48552904 0.067969136 0.41948602
0.3722441 -0.362316 -0.3430978 -0.46352085 0.093346626 0.23290502 -0.15038371 -0.75575954
-0.13470808 -0.5212634 -0.44998214 -0.5886254 -0.48908323 0.062311172 -0.2523583 -0.46918574
-0.19775426 -0.5155667 -0.12933998 -0.42320746 -0.61875665 -0.4745135 -0.23192726 -0.4867127
-0.6576271 -0.36192524 -0.62115496 -0.4890025 0.23698762 -0.47191027 -0.28366113 -0.4752804
-0.3533144 0.11986769 -0.29918975 -0.43417308 -0.04496896 0.029508712 -0.008287294 -0.3135602
-0.06527535 -0.7889234 -0.4741523 -0.2708382 -0.82230043 0.02723288 -0.53004616 -0.18046086
-0.009853628 -0.7149029 0.13596794 -0.44891042 -0.28236058 -0.43337438 -0.42434022 -0.41529533
0.16053359 0.42965493 -0.1736846 -0.5682109 -0.22635122 -0.061067533 -0.22223903 0.09800571
0.03751182 -0.4168005 0.28411436 0.07805431 -0.17267792 -0.4927032 -0.8200548 -0.37164313
0.31312752 -0.086573854 -0.5257234 -1.2909186 -0.33592552 -0.097526 -0.15833361 -0.46867067
-0.5811508 -0.16041556 -0.3943911 0.34680405 -0.083080396 -0.018474272 0.0030599686 -0.26533964
-0.30262578 -0.17361543 -0.29424295 -0.29423553 -0.0737243 -0.16624637 -0.28113523 -0.40153873
-0.09781057 -0.19316708 -0.70439124 -1.1232404 -0.7084073 -0.72021514 -0.27862683 -0.22729965
-0.3376692 -0.4120601 -0.44448614 -0.12688154 -0.20760289 -0.5313305 -0.22882447 -0.5475278
-0.3439483 -0.23345192 -0.34775785 0.23538081 0.087317765 0.16314632 -0.15907733 -0.3394234
-0.09372845 -0.37423414 -0.24405836 -0.45854875 -0.53915995 -0.08016783 -0.6337278 -0.39608508
-0.73170656 -0.9861997 -0.2971054 -0.24349257 -0.2841702 -0.08064366 -0.3265286 -0.21093649
-0.1862608 -0.3024071 0.01863799 -0.08075855 0.047981277 -0.22596098 -0.08950548 -0.35507423

bias f4 [64]
00000000: dcee f4be 6c99 10bf b65c 8e3c c9d5 85be
00000010: dc94 59bf 16e7 81be 8476 80bf b40c bf3e
00000020: effa 73be 38fe 0ebf 847b 37bd 42d7 45bf
00000030: 93bd 2f3e b065 0a3d 6131 4cbf 187c ccbe
00000040: 2d28 e6be dc7a 36be 8376 533e e745 dbbe
00000050: bcb8 90be 18b3 edbe d977 ad3e 4cda 38bf
00000060: d4c7 af3e 2684 85bd 901b e0be 59ab b13c
00000070: 2a26 17bf 43d8 bdbd ad20 52be 24a6 66bf
00000080: 47e4 67bf 704c 7e3e f2b8 23bd e5ad 4cbf
00000090: 3415 25bf c4a6 a13d e72d 33be df2b d5bd
000000a0: c13b 0c3e d32e 76bf fd1f 52bf ea30 b33e
000000b0: 5dd5 6ebf 01cf 7dbf e5ca 19bf c868 6bbe
000000c0: ac41 b7be 85de 833e 8596 b93e e79f 09bf
000000d0: 4849 a53e 1591 14be 886f 213c 4fd6 5bbf
000000e0: 5d77 c8be 7c53 27be 7d87 89be 9b04 1dbf
000000f0: ffef 68bf 682d 763e 3d9d 8b3e eda7 2ebf
-0.47838485 -0.56484103 0.017378192 -0.26139668 -0.84992766 -0.25371617 -1.0036168 0.3731438
-0.23826192 -0.5585666 -0.044795528 -0.7728158 0.1716216 0.033788383 -0.79762846 -0.39938426
-0.44952527 -0.17820305 0.20650677 -0.4282677 -0.2826594 -0.464257 0.338805 -0.72208095
0.34332144 -0.06519346 -0.4377103 0.02168815 -0.5904261 -0.09269764 -0.20520277 -0.9009726
-0.905827 0.24833846 -0.0399713 -0.7995284 -0.6448548 0.07893136 -0.17497979 -0.10408758
0.1369467 -0.961652 -0.8208006 0.34998256 -0.93294317 -0.9914399 -0.6007522 -0.2298919
-0.3579229 0.25755706 0.3624765 -0.53759617 0.32282472 -0.1450847 0.009853251 -0.85873884
-0.39153567 -0.1634044 -0.26861182 -0.6133515 -0.90991205 0.24040759 0.272684 -0.68224984

weight f4 [64, 64, 3, 3]
00000000: 9ad1 01bd c9eb 9cbd edbf f5bd bf1c 87bd
00000010: d1b1 1dbe 3b88 a8bc 9b99 a2bd 41be 62bc
00000020: b167 2bbe bc69 34bd 7ea6 d6bd f94e b1bd
00000030: 1f3f 8ebd 4aca 00bd 1036 72bd dc4d 34bd
00000040: 2c1b b5bc f2b3 2dbc 7455 a63d b81c 9e3c
00000050: 5041 dcbd f168 8ebd 1fa5 07be 9a13 eebd
00000060: 61ce 0dbe 92d0 613c 83a7 21be 983a 8a3d
00000070: b892 febd e9dc f9bd 15bc c739 bcd2 fabc
00000080: 257b 05be 0520 06be be6b 103d f2f0 87bd
00000090: b8d9 44be 2889 bdbd 7fac 3cbe 806e 5ebe
000000a0: 1f9e 59bd 45ed ebbd 591c 2dbe 38f7 843d
000000b0: e417 0b3d b0fe bdbd 611a 7fbd c5e0 7cbd
000000c0: a386 6d3c 6636 fdbd 8847 10be 4a0b 27bd
000000d0: 28ae cebd adf8 e9bd 4951 1dbe f40c 54bd
000000e0: 2fa8 0ebe 1dbd a9bd 0ed9 cbbb 83d9 96bd
000000f0: 789e 34be a127 19bd 4689 28bd ba6f 07be
00000100: 0582 30bd 4381 a2bd 50ad e1bd 5675 cebd
00000110: 4c3d 02be b122 a0bc a812 d4bd 2bb8 dcbd
00000120: 5b92 a0bd 880f 00be 1462 f1bd a93c 6fbd
00000130: 0198 83bd 08b9 f1bd 90bc d6bd d3fb 0abd
00000140: 4404 edbc d194 07be 7bb9 44bd 381a 88bd
00000150: 784e c0bd 3c72 90bc a16b 2cbe 5bb3 4cbc
00000160: b758 14be 8bfd f2bd 828d 8abd 0ceb 1bbd
00000170: d12f 903d deab dbbc c441 e2bb fe78 d5bd
00000180: a1fe 41be a4bf c6bc c3a7 93bd bf80 76bd
00000190: 7036 e6bd 9201 2abd fd3d 4abd 6d87 7f3b
000001a0: 47cc bebd bdcb c7bd d2f8 3bbe c976 20be
000001b0: f0cf 12bd 0cde af3c 11a8 583c cac1 a33c
000001c0: 0ed2 adbd 8298 f23c 19bf b0bd 6c46 69bd
000001d0: 09ca 85bd 3687 d4bc a702 22bd 5dcd b8bd
000001e0: 53bb 1fbe 14ac c5bc e40e a13c fadc debd
000001f0: 3258 76bd 5b48 1fbe 9e1d 8abe 0549 a6be
00000200: 1d22 8bbe e86b 4dbe a4af c0bd d605 47be
00000210: 51ba 68be b2a0 6abe fc7a f6bd e1a7 08be
00000220: b5c0 34bd f500 29be 7ffb 15be bbb9 e1bd
00000230: daa9 43be 96ee f6bc 12ce 7abd efc0 8abd
00000240: b34c a4bd af99 27be 515b d1bd 73b0 01be
00000250: 3e1e 77bd 8a1a 04be 2756 01be a279 a0bd
00000260: 9c22 80bd 9d03 83bd cdb8 9b39 5bf0 6dbd
00000270: 42b5 86bd ef32 59bd 48f6 24be c12c 0abd
00000280: 52c9 9bbd 14fb 50be 1c64 6abd d516 e1bc
00000290: 718d 00be 8a67 863d 129c efbb eb49 d7bd
000002a0: 831f c8bd 8bc4 f7bd 3dd6 c8bc 53ca 5cbc
000002b0: 6d6d 31bd 2985 5cbd 3902 8cbd bee8 d5bd
000002c0: 69b9 13be 81f5 003d 4e1b c0bd cb52 d4bd
000002d0: fe8a 01be d3b0 acbd 9090 bbbd d7d2 ebbd
000002e0: 4761 aabd b474 c3bc 39b4 2abe 2713 97bd
000002f0: a22e e5bc 9435 87bd f934 2bbd 4d45 19bd
00000300: 35eb 82bd fade 1e3a 9fcc 9ebd d101 9fbd
00000310: 9e1a cdbd e42c 32be 9ef7 0f3a 15a3 87bd
00000320: 46ca 41bd afea 16be 8b26 9ebd 8fb5 35be
00000330: 4c07 5bbd e12d 9cbd 776d 41be c670 d63c
00000340: 9d53 4bbe d2a6 04be 76c8 c6bc 99de 07bd
00000350: d1b1 88bd b6a8 a5bd 03f8 dbbd 0e76 25be
00000360: 27ff b2bd 1049 81bd 113e f63d 8b7a e1bd
00000370: d11f 19be 9904 b7bd 3ff2 8abd 515a 0ebe
00000380: a728 9abd 5965 6d3c dd9d 8b3d d679 5abd
00000390: e7fa cebc 07d6 b2bd 50c7 1ebe b3f8 b5bd
000003a0: b262 01be 4889 00be 4d3e a4bc 4e9a 0c3e
000003b0: 64d9 f5bd b4ae f3bc f36c debd 67ac 12be
000003c0: 4ec1 1bbd 4828 6abd 8c82 28be 5519 a9bc
000003d0: 44f8 c3bd 89e2 8c3b 3778 173d 8a69 82bd
000003e0: f5c5 1abc c503 fbbd 8e03 abbd 4895 1abe
000003f0: 83b9 3fbe b47e 81be 9587 64be 5eb9 24be
-0.031694032 -0.0766216 -0.119994976 -0.0659728 -0.15399863 -0.020572772 -0.07939454 -0.013839305
-0.16738774 -0.04404615 -0.104809746 -0.08657641 -0.06945633 -0.031442918 -0.05913359 -0.044019565
-0.022107683 -0.010601984 0.08121768 0.019300804 -0.10754645 -0.0695361 -0.13246582 -0.116248325
-0.13848259 0.013782637 -0.15786557 0.06749457 -0.12430328 -0.122003384 0.0003809637 -0.030618064
-0.13035257 -0.13098152 0.035259 -0.066377535 -0.19223678 -0.09254676 -0.18425177 -0.2172184
-0.05312931 -0.11519865 -0.16905345 0.06492466 0.03395833 -0.092770934 -0.062281016 -0.061737794
0.014497432 -0.12363891 -0.14089787 -0.04078225 -0.100918114 -0.11424384 -0.15363039 -0.051770166
-0.13931344 -0.082880236 -0.0062209433 -0.07365706 -0.17638576 -0.03739131 -0.04114654 -0.13226214
-0.043092746 -0.07934811 -0.11019385 -0.10080974 -0.12718695 -0.019547792 -0.10355121 -0.10777315
-0.07840415 -0.12505925 -0.11786285 -0.05840746 -0.06425477 -0.1180287 -0.10485184 -0.033931565
-0.028932698 -0.13240363 -0.04802845 -0.06645626 -0.09389967 -0.017632596 -0.16837932 -0.012493934
-0.14486967 -0.11864766 -0.06765272 -0.038065955 0.0704037 -0.026815351 -0.0069048125 -0.10423468
-0.1894479 -0.024261303 -0.072097324 -0.060181376 -0.11240852 -0.041505404 -0.049375523 0.0038990632
-0.093163066 -0.09755657 -0.18356636 -0.15670313 -0.035842836 0.021468185 0.013223664 0.019989867
-0.084873304 0.029613737 -0.08630199 -0.056951925 -0.06532676 -0.02594338 -0.03955331 -0.09023545
-0.15598802 -0.024129905 0.01966042 -0.10881992 -0.060142703 -0.15554945 -0.2697572 -0.32477584
-0.27174464 -0.20060694 -0.09408501 -0.1943582 -0.22727324 -0.22912863 -0.12035176 -0.1334529
-0.044129092 -0.16504271 -0.1464672 -0.110217534 -0.19107762 -0.030143064 -0.06123168 -0.067750804
-0.08022442 -0.1636722 -0.10222495 -0.12664966 -0.060331576 -0.12900749 -0.12630521 -0.078356996
-0.06256601 -0.063971736 0.0002970159 -0.05809055 -0.06577541 -0.05302709 -0.16109574 -0.033734087
-0.07606758 -0.20408279 -0.057224378 -0.027476707 -0.12553956 0.06562717 -0.007312306 -0.105121456
-0.097716354 -0.120980345 -0.02451622 -0.013475972 -0.043317247 -0.05383793 -0.068363614 -0.10444783
-0.14426197 0.03148413 -0.09380208 -0.10367354 -0.12650678 -0.08432164 -0.091584325 -0.11514824
-0.083193354 -0.02385936 -0.16670312 -0.073767 -0.027976338 -0.06602016 -0.041798566 -0.037419606
-0.063925184 0.0006060448 -0.07753872 -0.07764018 -0.100148425 -0.17399937 0.0005491915 -0.06622902
-0.047312044 -0.14737962 -0.07722195 -0.1774504 -0.053473756 -0.07625938 -0.18889414 0.026176821
-0.19856115 -0.12954262 -0.02426551 -0.03317127 -0.06674541 -0.0808882 -0.10740664 -0.16158316
-0.08740073 -0.06312764 0.12023557 -0.11009701 -0.14953543 -0.08936424 -0.06784486 -0.1390164
-0.07527285 0.014489495 0.068172194 -0.053338848 -0.025266124 -0.08732229 -0.15505719 -0.08885326
-0.12635306 -0.12552369 -0.020049239 0.13730738 -0.120043546 -0.02974639 -0.10860624 -0.14323579
-0.038026147 -0.05716732 -0.1645605 -0.020641962 -0.09568837 0.004299466 0.03697988 -0.06367786
-0.009446611 -0.12256578 -0.083502874 -0.15096009 -0.18723111 -0.2529198 -0.22317345 -0.16086337

bias f4 [64]
00000000: f324 acbe 2132 cfbe 7978 fbbd 9367 9abe
00000010: 97d3 c9be 6087 d9be 6414 79be 5bb3 9fbe
00000020: 97e8 2fbe 7a84 8ebe 4010 14be 3912 8abe
00000030: a55e 90be f7bb 90be d29e 77be 5b79 71be
00000040: 9e5c bcbe 94c8 a0be da30 923e d385 78bd
00000050: 270b a0be 8739 99be 0dbf b0be f20d 1bbe
00000060: 742a c2be 422b 53be fae4 a4be c8e1 74be
00000070: 4147 90be 0e16 d13e 8230 1ebd 0aab bbbe
00000080: b61d 06be a0a7 debe 2f2f babe 3f4b c3be
00000090: 983c b1bd f81a b93e 3bf2 9abe e0b2 a3be
000000a0: 8c67 9abe 6544 84be e78b aebe 9a3e 06bf
000000b0: 6bd9 6cbe 6db5 8ebe f53c a2be eef8 91be
000000c0: a78f 8a3e db76 52be 6cd1 b3be 2b14 99be
000000d0: 8b7c a1be a025 9abe da94 b0be ae24 aebe
000000e0: 5b9c acbe 8819 c6be 2fbd 95be 8e53 e3bd
000000f0: 1582 8abe 2ba2 c6be 17c4 41be e8af 32be
-0.3362194 -0.40467933 -0.12278838 -0.30157146 -0.39419243 -0.42486095 -0.24324185 -0.31191525
-0.1717857 -0.27835447 -0.14459324 -0.26967028 -0.28197208 -0.28268406 -0.24181679 -0.2358145
-0.3678941 -0.3140303 0.28552896 -0.0606745 -0.3125851 -0.29926702 -0.3452076 -0.15142038
-0.37923014 -0.2062197 -0.32205945 -0.23914254 -0.28179362 0.4083714 -0.03862048 -0.3665393
-0.13097271 -0.43487263 -0.36364123 -0.38143346 -0.086541355 0.36153388 -0.30262932 -0.31972408
-0.30157125 -0.2583343 -0.34091112 -0.5243927 -0.23129813 -0.27872792 -0.31687132 -0.2851023
0.27062723 -0.20553152 -0.35120714 -0.298982 -0.3154033 -0.3010683 -0.34488565 -0.3401236
-0.3371304 -0.38691354 -0.29245898 -0.11099921 -0.2705237 -0.387956 -0.18922459 -0.17449915

weight f4 [32, 64, 3, 3]
00000000: 8ef7 70bc 3740 a83c e1f6 cfbc 58a7 25bb
00000010: 4154 97bd 7fdb 8ebd 0f6c 41bc d6bf f8bc
00000020: 5e25 33be 466c afbc 8e25 a4bd a789 78be
00000030: 2164 39bd 256a e7bc 3923 dbbc ccb3 11be
00000040: 3d00 e2bd 4d81 14bd e46d f8bd 203d edbc
00000050: dca8 15bc cd36 8d3a d3e8 6fbc 6e3e c8bd
00000060: 443c bfbc 788e efbc e35e 42be 6f4f ac3c
00000070: 9f3c 0e3c 703b eabd c8ef 31be 5d6a 88bd
00000080: e6cf 8fbd 32b3 ed3c b5f3 24be a0aa ca3c
00000090: 1a2e 34bc 0287 223d 9f86 83bd f472 f23d
000000a0: e8e8 b03d 9ad4 2a3e 2bda 243c 4161 783c
000000b0: ebd7 be3d 7885 b33d 2cde 9b3d e678 6b3e
000000c0: f9d1 39be f393 2abe 6e1d 5c3d 4415 6e3d
000000d0: 5bf0 a0bd 11cf 083e 362b 603d 3ead 723a
000000e0: d4f0 1c3d 803d 833e ba3b 1c3e ea7f 763e
000000f0: 5095 86be bf1c 08be f6bb acbc 4eb0 4cbd
00000100: 5549 d5bd 5623 ff3b 3d05 1bbe caa1 05bd
00000110: fab0 c43c 8756 d7bd d018 10bd 8c3c babc
00000120: de79 b6bc 0c36 b93d 887b 2a3e 2f15 9d3d
00000130: 1057 85bd a6f9 0e3c 9105 b4bc c309 c8bd
00000140: 884c 49bc 3044 ae3c 99a3 99bd d538 543c
00000150: e93d edbd 986d 54bc 7834 09be e785 dbbd
00000160: 939c e2bd ac39 98bd 1a18 8ebd a75d 4cbc
00000170: f724 fcbd 5d48 4b3e b843 7a3e ff04 bf3d
00000180: 7dad 6b3e 5ade 7f3e ba77 833d 595e 343d
00000190: 7271 76be 8cb2 2b3c 40b2 adbd 9a38 33be
000001a0: 8bd0 10be 31f4 1ebd bf03 3bbe 76b1 22bb
000001b0: 32dc bebc 1cea 503c 6c40 d9bd 327c a43d
000001c0: a5f5 7a3d c731 dc3c a1fc 923d 0bbc 983d
000001d0: 97d9 08bd 5afd 9fbd 5346 e0bd 68f3 a7bd
000001e0: 5373 99bd b513 e0bd e268 6bbd 7474 76bd
000001f0: aee1 47be b079 1fbd dba4 07bd e1a5 0bbd
00000200: 85ee 9bbc 2c48 efbd 91eb 93bc 728e d1bb
00000210: 6c98 ddbd 55d9 d8bd 611d 58bd 0d70 8abd
00000220: a338 8bbd e6ec 3fbe 7477 63bd f659 c1bd
00000230: 578a 62be ee10 cbbd 6ce9 873c 8871 203d
00000240: 6a0c 08bc 0010 73bd 16db 47bd 084c d4bd
00000250: 4755 e5bd b69b 17be a8d1 d2bd 8e05 cfbd
00000260: cc9a c9bc bc84 04be 65c9 7abd 4263 cfbd
00000270: b2c8 ee3b dd01 53bd bdc2 1cbe 0e55 f8bd
00000280: 8f4a 6abc 64b8 12bd d54d 90be 450a 9abe
00000290: 17d3 7dbe 0f27 97bd d7d3 13be 9213 86bd
000002a0: 1906 8f3c b7b3 f33d 0068 4d3d 3410 79be
000002b0: aa9b 77be 9aa7 46be 5de6 0ebd 99e4 14bd
000002c0: 0be8 0fbd 09e9 e43d 33e3 9f3d a424 663d
000002d0: cad6 28be 080b d2bd b7ae 09be ce6e 58bc
000002e0: 0e74 6fbd 40aa 4cbe 6731 aebd 76a8 adbd
000002f0: 385f ecbc caf1 703c 89a4 e3bd f611 53bd
00000300: 558b dfbd 0b1a cfbc 2a52 83bd 6070 743c
00000310: b42e 66bd f2da 75bc 50f1 103c 7a3a f1bd
00000320: 2875 cabc 7454 44bd 885a eabd 09a8 a9bd
00000330: 856e cfbc dc32 9abd d857 b3bd eb87 01be
00000340: 87ec 2cbc 5443 e2bc 90ce 0cbd c025 2abd
00000350: a4c5 17bd 6650 27bb d9b1 5b3c c6f4 97bd
00000360: 9d22 e5bd 30a3 0ebe df1b 0d3d 1d6e 90bd
00000370: e510 9abd cef5 c33d 5865 96bd 5e0c 17bd
00000380: 0174 5f3c 2d08 54be 819d 82bd f79c 09be
00000390: 3517 72bd a2e7 8bbd 51bf 57be 35ec 05be
000003a0: 7fa9 cd3b 727b 1a3c dd69 64be 04ba b1be
000003b0: a34d 28bc 3070 673e 47ce be3e 10ca 603e
000003c0: 4a7b d43d 7c93 073e a2da 3d3e 55f8 c4bd
000003d0: 13c9 553d 7089 14be 225f 8dbd 17bd 12be
000003e0: 6255 71bd 7bd7 36bd 3666 ecbc 80e0 e4bd
000003f0: a130 d4bd 0769 9cbd 0251 acbc 2368 3dbd
-0.014707459 0.020538433 -0.025386276 -0.0025276747 -0.07389117 -0.06975459 -0.011805548 -0.030364912
-0.17494723 -0.021413933 -0.080149755 -0.2427126 -0.045261506 -0.028248856 -0.026750194 -0.14228743
-0.11035202 -0.036256123 -0.12130335 -0.02895981 -0.0091344975 0.0010773778 -0.014642912 -0.097775325
-0.023344167 -0.02924274 -0.18981509 0.02103397 0.008681445 -0.11437118 -0.17376626 -0.06660912
-0.07022075 0.029016111 -0.16108592 0.024739563 -0.01099732 0.039679535 -0.06422161 0.11838332
0.08638173 0.16682664 0.010061781 0.015159906 0.09318527 0.087656915 0.07610735 0.22995338
-0.18146504 -0.16658 0.053739004 0.05812575 -0.07858344 0.1336024 0.05472871 0.00092573825
0.03831561 0.25632858 0.15257159 0.24072233 -0.2628579 -0.13292216 -0.02108572 -0.049972825
-0.104143776 0.007786195 -0.15138717 -0.032624997 0.02401017 -0.10514551 -0.035179913 -0.02273395
-0.022274908 0.09043512 0.16648686 0.07670056 -0.065107465 0.008726513 -0.02197531 -0.09767487
-0.012286313 0.021272749 -0.07501907 0.012953003 -0.11584074 -0.012965582 -0.13398921 -0.10718899
-0.110650204 -0.07432875 -0.06938191 -0.0124735 -0.12311738 0.19851823 0.24439895 0.09327125
0.230154 0.24987164 0.064193204 0.04403529 -0.24066713 0.010479581 -0.08481264 -0.1750206
-0.14142053 -0.038807098 -0.18263148 -0.0024825013 -0.023298357 0.0127511285 -0.106079906 0.08031501
0.06126942 0.026879204 0.071770914 0.07457741 -0.033410635 -0.07811995 -0.10950913 -0.08200723
-0.074926995 -0.10941259 -0.05747307 -0.060169652 -0.19519684 -0.03893441 -0.033116203 -0.03409374
-0.019034633 -0.116836876 -0.018056663 -0.0063951546 -0.10820088 -0.10588328 -0.052762393 -0.06759653
-0.06797912 -0.18742713 -0.05553384 -0.09440987 -0.22123085 -0.099153385 0.016590796 0.03917077
-0.008303741 -0.05934143 -0.04879292 -0.10366064 -0.11197906 -0.14805493 -0.10293895 -0.10108481
-0.024609946 -0.12941259 -0.06122722 -0.10126354 0.0072871083 -0.05151545 -0.15308662 -0.12125598
-0.014300003 -0.03582038 -0.2818438 -0.3008596 -0.24787556 -0.07380497 -0.14436279 -0.065467015
0.017458962 0.11899512 0.05014801 -0.24322587 -0.24180475 -0.19399872 -0.03488766 -0.03635082
-0.035133403 0.111772604 0.07807007 0.056187287 -0.16488186 -0.1025601 -0.13445555 -0.013210012
-0.058460288 -0.1998682 -0.085055165 -0.08479397 -0.028853998 0.0147060845 -0.11115367 -0.0515308
-0.10915247 -0.025280973 -0.06412156 0.01491937 -0.056196883 -0.015005814 0.008846596 -0.11778732
-0.024714068 -0.047932103 -0.11443049 -0.08284003 -0.025321255 -0.07529232 -0.08756989 -0.12649505
-0.010554439 -0.027619995 -0.03437668 -0.041539907 -0.03705372 -0.00255301 0.013409101 -0.07419734
-0.111882426 -0.13929439 0.034450408 -0.070522524 -0.075227536 0.09568368 -0.073435485 -0.03687703
0.013638497 -0.20706244 -0.06377698 -0.13438784 -0.059104163 -0.0683129 -0.21069075 -0.13078387
0.006276309 0.009428846 -0.22306009 -0.3471223 -0.010272416 0.2260139 0.37266752 0.2195208
0.10375078 0.13239855 0.18540433 -0.09617678 0.052193712 -0.14505553 -0.06902911 -0.14329945
-0.058919318 -0.044639092 -0.028857332 -0.111756325 -0.10360838 -0.0763722 -0.021034721 -0.04624189

bias f4 [32]
00000000: 3a94 cbbd c3cc a33d e33c e3bd 7069 26be
00000010: 42ce 1abe 05c8 f3bd 1fd8 28be b231 32be
00000020: f94c 03be 4b40 03be 4d13 01be 5368 e5bd
00000030: 7ff9 13bd 655e 0fbe 90d1 f7bd 1c74 41be
00000040: eb6c 82bd be4d d2bd 0ffe dfbd 70c6 d0bd
00000050: 66ea b9bd 7f16 efbd 0898 aabd 1036 f8bd
00000060: 4207 0bbe 525d 10be 7eb8 22be a683 d9bd
00000070: 6ea9 29be f55c 34be c0ff a7bd 770b 00be
-0.09940381 0.079980396 -0.110955976 -0.16251159 -0.15117744 -0.11903385 -0.16488694 -0.1740177
-0.12822331 -0.12817495 -0.12605019 -0.11201539 -0.03612661 -0.14000852 -0.12100518 -0.18891948
-0.06368431 -0.102687344 -0.1093713 -0.10194099 -0.09077911 -0.11674213 -0.08329779 -0.121196866
-0.13576987 -0.14098099 -0.1589069 -0.10620813 -0.16568539 -0.17613585 -0.08203077 -0.12504373

weight f4 [16, 32, 3, 3]
00000000: d4a6 56be 85fd f0bd ce36 d83c 2a4d 093e
00000010: 2fa6 d43e 74f0 a03e e28c 86be e698 2cbe
00000020: 6c65 56be b8e0 913d 1717 523e fff0 73bd
00000030: cc97 853e 9b3f d73e ac88 46bd 5437 56bd
00000040: 680d 42bc 34ce 1fbc c15e 613c 9c57 963d
00000050: 4d42 d3bc 99a8 e93b a447 323e 37f4 35bd
00000060: 777b 553d b7c5 113d 7c8e 023d e14a cabd
00000070: 414d 893d b554 20bd 57d8 68bd c937 94bd
00000080: 49f1 35bd 839c 48bd 9448 083e a947 2d3d
00000090: ad7e b93d 567f c13d 04df e33d e070 41bc
000000a0: 2e8b 303d 7613 123d 654d 23bd 3484 3d3d
000000b0: 34fa b23d 8eea 973d 5b72 41bd 03d9 863d
000000c0: 9d15 8dbd a14f c93c d192 1e3d 18d5 023d
000000d0: 4b1d 223e 1723 9ebd 07d1 d8bc d9de a3bc
000000e0: 6c21 fc3c dd15 a6bc cd8b f4bc 45f7 0f3e
000000f0: 13e2 b13c f6a7 91bd 773d 513d b3bc 533d
00000100: a56c 103b 669c 3f3c bdd4 873d d74e 22bd
00000110: 7fbf bbbc ef3c b83d 8f8d 51bd 793b b2bb
00000120: e6fd e7bc e124 083d 9443 d6bd c4a2 1e3b
00000130: 5a1d 623d d2d7 ca3c f11c 35be 2744 a73d
00000140: 5759 06bc 5895 eb3d 7bfe 703c 1e0e 883d
00000150: 1204 16bd ad03 5f3c 0b4f 9f3d a2c3 3e3d
00000160: 37b1 8f3d 14fe 673d e088 cc3c 9908 17bd
00000170: 2049 913e aa3e c63d 879e 92be 5099 3bbe
00000180: 2d03 423e c9a3 c5bd 4c10 15be 2444 c0bd
00000190: 31f0 7dbe 281c 19bd b1f2 da3d 80b5 84bd
000001a0: 61e4 a8bd c872 77bd 8ed2 083d a5ef 27bd
000001b0: 1524 523c 9a3a c13d 7053 c43d e204 c1bd
000001c0: 135b 233d b4c8 053e 31f3 0a3e cbdc 05bd
000001d0: dda7 983d 1346 9a3d 1653 553d 2aec eebc
000001e0: 293c 2e3d 867c 103d a762 80bc 7c07 0d3e
000001f0: f096 743d 02a4 a53d 9664 ea3d bd53 913d
00000200: 8b7f 423d b386 9a3b 34be e7bc f433 cd3d
00000210: 63b1 de3d 30ca 08bd 784b 19bd 4218 6b3d
00000220: 0f0a e23d 0e12 9c3d 4c1b c2bc f26f 993d
00000230: e735 36bd b162 c3bc c00f a53d f9d2 62bd
00000240: 0399 ca3d a2c4 3e3d a943 c53c e7a2 6bbd
00000250: c37c 8b3e 3d84 c63d 3521 df3d 90da 913d
00000260: ed1a 373d e2a2 31bd c270 d33d 3dc7 9e3c
00000270: a19e d63c 1771 be3d 72de d03c e146 8cbc
00000280: 9eb3 84bc 0b7c 683b 9022 06be 2d93 983d
00000290: 536e cb3c b369 12bd 05ae 0b3e 09f5 6abd
000002a0: a93e d4bd 4eea 423e 90c7 8abb 877b 92bc
000002b0: c7c0 f4bc 0751 ba3b 281d 043e 69d3 d03d
000002c0: 592a aa3d 9413 04bd b675 3c3d a6c3 f33d
000002d0: 1aa0 193d a7ec 1b3e 87c4 213d a2f1 7bbc
000002e0: df0d 983d 0390 99bd b082 f33c 65cc 89bd
000002f0: e7dc f13d b31c 28bd f773 3e3d a217 053c
00000300: a73c 12be c22e 25bd d6bf 4abd 5d15 8a3c
00000310: 35ed 65bc 2b41 b3bd f27b 2f3e 5755 613d
00000320: d6a8 063d 7cc1 853c cb5d 8a3d 8d8e 26bd
00000330: 3fac 163c 78c3 a63d 920e 0a3d 0cdb 903d
00000340: a806 a23d 8193 c63d 3341 253d 42cc 993c
00000350: 1157 453c c209 933d 1125 bd3d fe82 943d
00000360: 226a bd3d 8b2b b73d 71f9 d83d 353c b63d
00000370: 0c40 f83d 042b d63c b18f 6ebd 2e08 063d
00000380: 8b51 dd3d 0ae5 d53c 05ea a53d b158 113c
00000390: cb74 603d 4f3a 8d3d 5d83 c8bd 8f6a 9d3d
000003a0: 516a 1f3d c426 ab3c cc62 c23d fba3 87bd
000003b0: 07a1 8b3d c741 df3d 233a aa3d 5ebb 603d
000003c0: 4dcc ab3d 62e7 bbbc 4121 823c d6b7 953c
000003d0: ebdb 033c 96fd 1fbd 55ac 7d3d 2755 903d
000003e0: b473 083d bfc0 ca3c f079 f0bc 33a0 263d
000003f0: f77b 433d 7fca 0f3e 46e8 c83d 98bc fa3c
-0.20962077 -0.11767105 0.02639332 0.13408342 0.41533038 0.3143345 -0.2627936 -0.16855201
-0.20937127 0.0712294 0.2051662 -0.059556004 0.26092374 0.42040715 -0.048470184 -0.05229886
-0.011844017 -0.0097537525 0.013755501 0.07340929 -0.02578845 0.007130694 0.17410141 -0.044422355
0.0521197 0.035588946 0.031874165 -0.09877563 0.06704188 -0.039143283 -0.056846943 -0.07237203
-0.04441956 -0.048977386 0.13308936 0.04230467 0.090573646 0.094481155 0.11126521 -0.011806697
0.043101482 0.03566309 -0.03986873 0.046268657 0.08739129 0.07417785 -0.0472282 0.065843605
-0.06888888 0.024574103 0.038714234 0.031941503 0.15831487 -0.077215366 -0.02646686 -0.020003723
0.030777656 -0.020274097 -0.029851818 0.1405917 0.021714246 -0.07112114 0.051084008 0.05169363
0.0022037413 0.011695003 0.066323735 -0.03962597 -0.02291846 0.08995997 -0.05116039 -0.0054392186
-0.02831931 0.033238295 -0.10462108 0.0024205903 0.055203773 0.024761114 -0.17686822 0.08167296
-0.008200011 0.115030944 0.01470911 0.06643318 -0.036624976 0.013611716 0.07778748 0.04657329
0.07016223 0.056638792 0.02496761 -0.036873434 0.28376102 0.09679921 -0.28636572 -0.18320203
0.18946524 -0.0965038 -0.14556998 -0.09387997 -0.24798657 -0.037380368 0.10690821 -0.06479931
-0.08246685 -0.0604122 0.033403926 -0.041000027 0.012825985 0.094350055 0.09586227 -0.094247594
0.039881777 0.13064843 0.13569333 -0.032681268 0.074538924 0.07532897 0.05208119 -0.029165346
0.042537842 0.035275005 -0.015672041 0.13772386 0.059714258 0.08087923 0.114449665 0.0709605
0.047484916 0.0047157644 -0.028288938 0.10019675 0.108736776 -0.033395946 -0.03742549 0.05739618
0.11037075 0.07620631 -0.023694657 0.07492055 -0.044485 -0.02385077 0.08059645 -0.05537698
0.09892466 0.046574242 0.024080114 -0.057528403 0.27243623 0.09693191 0.108950056 0.071217656
0.044703413 -0.043368228 0.10324241 0.019382114 0.026198687 0.09298914 0.025496695 -0.017123641
-0.01619893 0.0035474326 -0.13099122 0.074499466 0.02483288 -0.035745334 0.13640602 -0.05736259
-0.10363514 0.19034693 -0.0042352155 -0.017881168 -0.02987708 0.0056859287 0.12901747 0.10196573
0.083088584 -0.032245234 0.046010695 0.11902551 0.0375062 0.15226994 0.039494064 -0.015377434
0.07424521 -0.07498171 0.029725403 -0.06728438 0.11809712 -0.041042995 0.04649731 0.00812331
-0.1428095 -0.040327795 -0.049499355 0.01685589 -0.014033605 -0.08752664 0.17137125 0.055013027
0.03287586 0.016327612 0.06756171 -0.04066329 0.00919634 0.081427515 0.0337053 0.0707303
0.07911426 0.09696103 0.040345382 0.018774156 0.012044684 0.071795955 0.092355855 0.07251547
0.09248759 0.08943852 0.10594452 0.08898202 0.12121591 0.026143558 -0.058242504 0.032722645
0.10806569 0.02611019 0.08101276 0.008871243 0.054798882 0.06895887 -0.097906806 0.0768634
0.03891975 0.020892508 0.094915 -0.06623074 0.06817823 0.10901218 0.0831187 0.054866187
0.08388577 -0.02293748 0.015884997 0.018276136 0.008048038 -0.039060198 0.061931927 0.070474915
0.033313468 0.024750112 -0.02935502 0.04068012 0.047725644 0.1404209 0.09809928 0.030607507

bias f4 [16]
00000000: d9a7 313d 179d 3b3d e9f5 3e3d f45d 3f3d
00000010: b4d0 2d3d 2c9a 373d ab7b 3d3d 0e95 423d
00000020: 5689 223d d253 2f3d 1f6d 383d 2107 303d
00000030: aed5 273d 3a78 1c3d a057 413d 87d9 433d
0.043372963 0.04580411 0.046621237 0.04672046 0.042435363 0.044824764 0.046260517 0.04750543
0.039681755 0.042804547 0.04502594 0.04297555 0.040975265 0.038200594 0.047202706 0.047814872
