weights/Act_ReLu_FSRCNN_model_path.pth (torch, 63977 bytes, 15 tensors)

weight f4 [64, 1, 5, 5]
00000000: 757f 92be 604d b0bd 6393 eb3d b44b b1be
00000010: f070 5c3e 4192 53bc 58e1 263e 7a51 2bbe
00000020: 11ba 793e 505a d4bd 96be c1be 154a f3bd
00000030: 4ae0 37be 34bd 63be ea02 9e3e c760 9dbd
00000040: 2eb0 59be 6935 bfbe fe5f 8bbe 6bcb 49be
00000050: 4c7a 3dbe dadf 84be 021e 0cbd 808c 473d
00000060: a977 303e f53a babe 0dec 10be 0c9c a3be
00000070: 46d1 29bc 9d10 b3be 3017 afbe a386 c0be
00000080: b546 65bd 9a7e c5be 7c5b 89be 7c88 54be
00000090: 2603 cebe 7e19 34be 81fe 9bbe 2af9 02be
000000a0: f777 a1be d7e1 dabd d26a 703e b2c8 53bd
000000b0: a57d ccbd 7f2d 17be 3ff4 debe 381f 82be
000000c0: afe2 b8be 559e 81be 50eb 81be 372b 92bd
000000d0: d2fa 613e ee5d 7ebe e4d3 06bd 2377 87be
000000e0: f7fc fdbd e97d 26bd e07f b6bd bfb2 c6be
000000f0: 169b 353e 1d68 9cbd 0926 17bf 9775 cfbd
00000100: 01bb 04bd 12e2 f03d 88d3 1d3e 85d1 19be
00000110: fc7d e33d 71c8 09be 73be 41be bead 9b3c
00000120: 8793 09bf 93e0 12be dd06 e1be 2272 933e
00000130: 2670 ad3e ed0f 3e3e d75d d5be 060d 593e
00000140: d155 05be 8722 89be 9a34 2a3e 970b 2fbc
00000150: 019b 0dbe b6ad 41bd a9b5 f3bd 5cbb 8fbd
00000160: 8c69 303e 1eaf 35be ae67 dabe 0b72 c13e
00000170: 7242 d83d 3238 713d 18c5 6abd e081 50be
00000180: f8f2 3f3e a47b 8bbe af38 503e 2550 24bc
00000190: d035 f5be 208f 43be 8d5c 54be 5907 b2be
000001a0: 9282 c53d 2fcb c2bd 2f14 563d 6b86 483e
000001b0: 6bc6 a23d dd38 e4be d4e6 463d 83a9 24bc
000001c0: 097b 1cbf 34aa acbe 3382 debe 5b52 1fbd
000001d0: 2936 93be 6ac7 09be cf74 b3bd 13eb f5be
000001e0: 88cd 8cbe 12f6 7c3c 20b9 07bf 83f4 bebe
000001f0: 7bf0 aa3d 6425 02be 602a 83be 35a3 66be
00000200: 5544 d5bd 5b36 75be c1b0 48bc b115 adbe
00000210: edba 2fbf e04b 02bf 28b5 a6bd 68ff 18bf
00000220: d576 cebe 7108 00bf 96a9 26bd da01 c5be
00000230: c0d8 1c3d e6be c6be 484f bdbe eecc 4cbe
00000240: c001 f1be 33a1 c6be ced7 0a3e abaf 7cbe
00000250: 0a33 55be f29c 6fbe e2d7 d63e 8f1b a4be
00000260: a969 a3be c502 3ebe 670e 02bf e16c 0f3e
00000270: 5705 fdbd 7d7b cabe fe09 bdbe 4b1d 633c
00000280: f65d d7bd e33c 75bc b6c3 31be 1db8 96be
00000290: a329 82bd b1a0 47bf 348c 1cbe fd46 ecbe
000002a0: f22e 963d 3e13 993d 39fd 043e 3e84 5fbe
000002b0: 580f 93be b0ef aabe d033 89be fbb1 793e
000002c0: 96e2 b33c b5f4 be3e 1fdf 183e cade 873e
000002d0: 19a9 edbd 6bbc 90be 342c d8be 1cf0 a53e
000002e0: 8fae 0cbe 8a4f e63c ca9c 0dbc 875f 543c
000002f0: 82ae 2f3e 3ab1 61be 2201 ed3c e6c6 c63c
00000300: 325e d83b a0b7 b6be fd53 c93d 0f58 90be
00000310: ea1d 0bbe 0936 88bd 8af9 74be 9aa9 8d3d
00000320: b6f7 31be 9e60 05bd e28d f8be 8523 fabe
00000330: db32 18bf b1a4 e2bc 38ae c0be 886e fdbe
00000340: 0b48 033f 1994 77be 5a9e a0be a6f8 22be
00000350: cfff df3c 0748 67be 10c1 f1be c493 41be
00000360: da6b 313e bfdb 5bbe 6442 edbe 4e34 7ebe
00000370: 3549 1dbf b4df e7be b824 5f3d 56e6 e2be
00000380: e33e 06be 7595 d1be 8871 d5be d9a1 6a3d
00000390: 4dd0 04bf 0ef6 a8be 70e1 08bf a142 afbd
000003a0: 8987 9cbe aca2 15bf 84e2 11bf 5464 ebbd
000003b0: 7adf 8cbe 63a3 2abe 3437 cbbe f12c 2fbc
000003c0: ad3d 80be 2872 e1be f0eb a7bd b558 2ebd
000003d0: 6ff0 d7be 7bc5 66bd 86e5 07be 9259 eabe
000003e0: 8ef5 e8be 9dd1 82be 1af7 26bf c5aa 7cbe
000003f0: b524 74be 1467 82bd 795b bdbe 81ba b5be
-0.28612867 -0.08608508 0.11502721 -0.3462807 0.21527457 -0.012913288 0.162969 -0.167303
0.24387385 -0.10368788 -0.37840718 -0.118793644 -0.17956653 -0.22240144 0.30861598 -0.076844744
-0.21258613 -0.37345436 -0.27221674 -0.19706504 -0.18503684 -0.25952035 -0.034208305 0.048717976
0.17233147 -0.36373106 -0.14152546 -0.31954992 -0.010364836 -0.34973612 -0.34197378 -0.3760272
-0.055975635 -0.38573152 -0.2682761 -0.2075519 -0.40236777 -0.1758785 -0.3046761 -0.12790361
-0.31536838 -0.10687607 0.23478249 -0.05170507 -0.09984902 -0.14763449 -0.4354572 -0.25414443
-0.36110446 -0.2531611 -0.25374842 -0.07137149 0.22068337 -0.24840519 -0.03291692 -0.26458082
-0.12401765 -0.04064742 -0.08911109 -0.38808247 0.17734942 -0.076370455 -0.5904241 -0.1012985
-0.032404903 0.117618695 0.15412724 -0.15021332 0.11108014 -0.13455369 -0.18920307 0.019003745
-0.53740734 -0.14343481 -0.4395055 0.28798014 0.33874625 0.18560763 -0.41673157 0.21196374
-0.13021018 -0.26784155 0.16621628 -0.010683916 -0.1382866 -0.047284804 -0.11899883 -0.07018158
0.17227763 -0.17742583 -0.42657226 0.3778232 0.105595484 0.058891483 -0.05731687 -0.20362043
0.18745029 -0.27242768 0.20334123 -0.010028874 -0.47892618 -0.19097567 -0.2073843 -0.3477123
0.09644045 -0.095114104 0.052265342 0.19582526 0.079480015 -0.44574633 0.04855998 -0.01005018
-0.61125237 -0.33723605 -0.4345871 -0.0388969 -0.28752258 -0.13454977 -0.08762514 -0.4803091
-0.27500558 0.015439527 -0.53016853 -0.37295923 0.08346649 -0.12709576 -0.25618267 -0.22523196
-0.10413424 -0.23946516 -0.012249173 -0.33805612 -0.686446 -0.50897026 -0.081400216 -0.5976472
-0.40325037 -0.5001288 -0.040689074 -0.38477975 0.038292646 -0.3881752 -0.3697455 -0.2000005
-0.47071648 -0.3879486 0.13558885 -0.24676387 -0.20820251 -0.23399714 0.4196158 -0.32052276
-0.3191655 -0.18555744 -0.50803226 0.14006378 -0.12354534 -0.3954734 -0.36921686 0.013861964
-0.105159685 -0.01496813 -0.17359814 -0.29437342 -0.06355598 -0.7797957 -0.15287858 -0.4614791
0.07333173 0.07474373 0.12987222 -0.2182779 -0.28722644 -0.33385992 -0.26797342 0.243843
0.02195863 0.37296072 0.14928864 0.26537162 -0.116045184 -0.28268752 -0.42221224 0.3240975
-0.13738464 0.028114099 -0.008643338 0.012962229 0.17156413 -0.22040263 0.028931204 0.024264764
0.006603026 -0.3568697 0.098304726 -0.28192183 -0.1358563 -0.066509314 -0.23923317 0.069171146
-0.1737965 -0.032562844 -0.48545748 -0.48855224 -0.594526 -0.027666422 -0.37632918 -0.4949839
0.51281804 -0.24177589 -0.31370813 -0.15915164 0.027343659 -0.2258607 -0.47217607 -0.18904024
0.17326298 -0.21470545 -0.46339715 -0.2482464 -0.6143983 -0.4528786 0.054478377 -0.44316357
-0.13109927 -0.4093434 -0.4168818 0.057283256 -0.5188034 -0.33000225 -0.5346899 -0.0855763
-0.30572155 -0.5845134 -0.5698626 -0.114937454 -0.2751425 -0.1666389 -0.39690554 -0.010691867
-0.25047055 -0.44032407 -0.081992984 -0.042565066 -0.42175624 -0.056340676 -0.1327115 -0.45771462
-0.45499843 -0.25550547 -0.652208 -0.24674518 -0.23842128 -0.06367317 -0.3698385 -0.35493854

bias f4 [64]
00000000: f4aa 98bd b3ca bbbd 5b78 cabc 7bcb fcbc
00000010: 6dfc 69be b3ad 6dbe 0b4a 1fbe caa4 1f3d
00000020: 449d 72be 8539 90be 575f 96be aa3d 4abe
00000030: 0d22 a3be 0f60 abbe 3632 2cbe 1b7a 2cbe
00000040: a741 8dbe a873 4c3e 07c9 3bbe 7382 2abe
00000050: b9ef b8bd c665 abbe 65d2 45be bee9 e3bd
00000060: e017 86be 4565 88be 506c a8be c0df 8abe
00000070: f64c 87be b7ad 87be 8f83 58be 48a4 9bbe
00000080: 47b8 fdbe 68f1 cbbc 5f8a bfbd 675f a33d
00000090: 3dec dcbe bf34 0dbd d624 22be 8e73 7cbd
000000a0: 3253 babe 8062 92be 8a81 28bc 0351 3ebe
000000b0: 8a26 a6bd 2f17 3abe 9790 393e ae12 93be
000000c0: e91b 0abe e9af 97bd 16b6 38bd 115d 5cbe
000000d0: 3c65 6abe ffe9 573e 26d3 fdbd a2cb 85bd
000000e0: c433 80bd a6ab 4cbe f496 38be e9d7 9dbd
000000f0: a365 a4be 1a88 5e3d a9fb 57bd 4dd2 3e3e
-0.07454482 -0.09169521 -0.024715593 -0.030858746 -0.22850199 -0.23210792 -0.15555589 0.038975514
-0.23692805 -0.28168884 -0.29369614 -0.19750085 -0.31861916 -0.33471724 -0.16816029 -0.16843455
-0.2758915 0.19965994 -0.18338405 -0.16651325 -0.090300985 -0.33476084 -0.1931854 -0.11128567
-0.2619009 -0.26639763 -0.32895136 -0.27123833 -0.26425904 -0.2649972 -0.21143936 -0.30398774
-0.49554655 -0.024895385 -0.09352564 0.07977181 -0.43148986 -0.03447413 -0.15834364 -0.06163364
-0.36391598 -0.28590775 -0.010284791 -0.18585591 -0.081128195 -0.18172906 0.18121563 -0.2872519
-0.1348721 -0.07406599 -0.045095526 -0.21519877 -0.2289018 0.21085356 -0.12393789 -0.065329805
-0.062598735 -0.19987354 -0.18026334 -0.07707197 -0.32108793 0.054329015 -0.052730236 0.18634911

weight f4 [12, 64, 1, 1]
00000000: 8780 b33e 50b3 fcbe 2ddc 32bd 1e41 a83d
00000010: 37f3 843e 838e 2e3d 3062 873e b1cf 0abd
00000020: be4b 68be e509 3a3e 9ddf 253e cf91 09be
00000030: 2aa3 023e 3f27 b53e 3db9 d4be 5a61 e7be
00000040: 2dac 953c 33db 81be 740d f83e c467 c83e
00000050: 1c88 253e aca6 3e3e 67d9 53bd 21a8 b7be
00000060: c56d 93bd a5c2 bb3e 2e5c a9be f210 c33e
00000070: 61cc fe3e 6578 173f a866 5cbe 9049 fa3d
00000080: 03fc e53e 5a94 bebe fabc 5b3e 619b 41bf
00000090: 3ce8 9dbc 915e a9bd 68ec 3b3e 75d5 043e
000000a0: 2184 e2bd 92a7 bf3e 02f6 703e bc70 47be
000000b0: 9d94 99be cb31 11be 3267 e9bc d698 85be
000000c0: 1557 c93b bece b3be 15a7 1abe b2dd 8f3d
000000d0: 5b28 143b 6fcb 053f f31f 553b 57e4 71bd
000000e0: ce73 7dbe 098b 5d3e 9cb8 07bf b46c 333d
000000f0: 686e 65be b3da 2cbf d31a 803e b5c5 22be
00000100: e8ca be3e 2fc2 05be 0889 afbe 99f2 fc3e
00000110: 4c76 edbb 3201 eb3e 888a fd3e 057d fa3d
00000120: 51f4 1bbe 6aa5 d43e 5657 b1bc 0af8 cdbe
00000130: 4000 333e caff fa3d d89b c7be ea62 0e3e
00000140: 7fcf d03d 7548 17bf da8e ad3e c747 cdbc
00000150: a1fb 743e a75d e43e f59c 693e 2127 80be
00000160: 5a37 8abe a8f2 953e c051 65bd 10dc bc3e
00000170: f791 193f 9de5 1ebe b3fa ecbd 2043 b23e
00000180: 9ad4 113f 7d62 213f 2cdc 0ebe 0539 e1be
00000190: e2d6 1f3d b933 8abb 6a46 0f3f 5719 f03e
000001a0: 21fe 9f3d 2c4f bd3e 4c03 f13e d9c0 0b3f
000001b0: cc6a 343d 59af c5be bb0f 45be 017e 5f3c
000001c0: ca2d 6fbe 8f59 0b3e 6863 123f 926c 553c
000001d0: 2560 053d 8666 193e 862c f13e f559 6b3e
000001e0: b344 0fbf 3333 093e 216c 81be 87bd 9e3e
000001f0: c539 8b3e 8df0 03bf c522 033f a401 e63e
00000200: bea6 85be 1caa be3e 2336 7dbe 82c1 a43d
00000210: 7fa5 c03e 8536 1c3e 680e 0e3f 9aae 943e
00000220: 3c70 82be aedd ed3d 2096 35be acfb 0abe
00000230: 7e75 553e c75e a4be 0a98 76bd a12c 55be
00000240: a634 ff3e 72f9 e6be 70de 043f c89b 8bbd
00000250: b303 b53e 0e6f e83e bc62 3d3d e0f1 fdbe
00000260: 4174 b4bd 0e78 083f c486 1dbf 27cd c13e
00000270: ae92 b43e 5efc 983e 5fc2 d9bc e781 803e
00000280: 13e6 a43e 2bc1 d23e a710 993e 53f6 d2be
00000290: 3439 513e f428 0cbd f63f d9bc 6c31 ec3d
000002a0: a963 073e f9c9 6f3e 13f8 d13e 781c 9b3e
000002b0: 0a1f 2c3e c45d a8be d8eb 1fbe 2ab8 ab3e
000002c0: ae30 03be dc2a fabe 4647 753e 16cc 0e3e
000002d0: 2cc5 963e 1675 4b3d d677 e03b 3db2 6e3d
000002e0: 5430 51be 7d4b f83d d666 07bf 52c1 013f
000002f0: f279 02be 4ef8 9bbe 55d0 303f a2a4 dcbe
00000300: 1563 003f d6d8 2f3f 94c8 dbbd e032 69bd
00000310: d745 b03e cfb3 af3c e3f4 2b3e 9f3a d63e
00000320: 1617 143f 3e52 4abd b1c9 cd3d c0e8 c53e
00000330: b83e 6e3e 0586 d1be 039f ecbe a26a 4bbe
00000340: 0526 173f 98b7 37be b49d c83e b46b b9be
00000350: 678e a23e b611 d93e 85a2 1b3e 8115 b6be
00000360: 6308 b33e 77f9 7e3e cf21 3d3f fad2 dd3e
00000370: 09bb a33e 9355 e83e f754 833e 1792 043f
00000380: a8e2 e83e 2b52 bc3e 5c21 123f 7f21 56be
00000390: 82f5 f9bc 0072 e33e cb3c 3f3c 5269 823e
000003a0: 7dba 1e3f b276 9b3e c7cd 40bc c03c 0e3e
000003b0: 47ee f03e 19d1 0d3e 47f6 d0bd 3ef6 1c3e
000003c0: 8738 8d3e 9df3 3cbe 76e0 ae3e 95ca 863e
000003d0: 4bc8 61bd 23b2 06bc 6ea9 cd3e 4dd2 933e
000003e0: 49c0 0b3e 6bc4 633e 4c95 25be 660a 853e
000003f0: 9843 8b3e 5923 ccbd 8a93 e23e 5acc cb3c
0.35058996 -0.49355555 -0.043667007 0.08215545 0.25966808 0.04261638 0.264421 -0.033889476
-0.22685143 0.18167837 0.16198583 -0.13434528 0.12757555 0.35381505 -0.41547576 -0.4519146
0.018270576 -0.25362548 0.48447764 0.39141667 0.16165203 0.18618268 -0.051721003 -0.3587046
-0.07198671 0.3667194 -0.3307814 0.38098866 0.49765304 0.5916808 -0.21523535 0.12221062
0.44918832 -0.37222558 0.21458808 -0.75627714 -0.019275777 -0.0826999 0.183519 0.12972052
-0.11060358 0.37432534 0.23531345 -0.19476599 -0.29996195 -0.14179151 -0.02849159 -0.26093167
0.006144414 -0.3511867 -0.15102799 0.07024707 0.0022607062 0.5226354 0.0032520264 -0.059055652
-0.24751207 0.21635069 -0.53016067 0.04380484 -0.22405398 -0.6752121 0.25020465 -0.15895732
0.3726418 -0.13062356 -0.34284234 0.49403837 -0.007246768 0.4589935 0.49519753 0.12230877
-0.15229918 0.4153245 -0.02164809 -0.402283 0.17480564 0.12255819 -0.38986087 0.1390492
0.10195827 -0.59094936 0.3389805 -0.02505864 0.23924114 0.446027 0.2281378 -0.25029853
-0.26995355 0.29286695 -0.055986166 0.36886644 0.5998835 -0.15517278 -0.115712546 0.34816837
0.5696503 0.63040906 -0.13951176 -0.43988815 0.039023288 -0.0042175916 0.5596682 0.46894333
0.07812143 0.36974466 0.47072828 0.5459114 0.044047162 -0.38610342 -0.19244282 0.0136408815
-0.23357311 0.13608383 0.5718293 0.013026373 0.032562394 0.14980516 0.4710428 0.22983535
-0.559642 0.13398437 -0.25277808 0.31003973 0.27192512 -0.51538926 0.5122493 0.44923127
-0.26103777 0.37239158 -0.24727683 0.08044721 0.37626263 0.15255173 0.5549073 0.2903946
-0.25476253 0.11614548 -0.1773305 -0.13572568 0.20845601 -0.3210356 -0.06020359 -0.20817806
0.49844855 -0.45112187 0.5190191 -0.06816822 0.35354385 0.45397228 0.04623674 -0.49598598
-0.08811236 0.5330819 -0.6153376 0.3785183 0.35268158 0.2988004 -0.026581941 0.25099108
0.32206783 0.41163 0.29895517 -0.41203555 0.20431978 -0.034218743 -0.026519757 0.11532864
0.13221611 0.2341689 0.41009578 0.30295157 0.16808715 -0.32884037 -0.15617311 0.33538944
-0.12811539 -0.48860824 0.2395297 0.1394504 0.29447305 0.04967221 0.006850223 0.05827545
-0.20428592 0.12123773 -0.5289129 0.5068561 -0.12741831 -0.3046288 0.6906789 -0.43094355
0.5015119 0.6869024 -0.107316166 -0.056933284 0.34428284 0.021448044 0.16792636 0.418416
0.57847726 -0.04939484 0.10048235 0.38654137 0.23266113 -0.4092256 -0.46215066 -0.19864896
0.5904239 -0.17941129 0.39182818 -0.36214983 0.3174927 0.42396325 0.15198715 -0.3556328
0.34967336 0.24899851 0.7387971 0.43325025 0.31978634 0.45377788 0.2565076 0.51785415
0.45485425 0.3678144 0.5708215 -0.20911215 -0.030512575 0.44422913 0.011672209 0.25470978
0.6200331 0.30363995 -0.011767811 0.13890362 0.4705679 0.13849296 -0.10203224 0.15328309
0.2758219 -0.18452306 0.34155625 0.26326433 -0.055122655 -0.008221182 0.40168327 0.28871384
0.1364757 0.22242896 -0.16170233 0.25984496 0.27200007 -0.099676795 0.44253188 0.024877716

bias f4 [12]
00000000: c645 8cbe 5a9d d13d a20d 82be 5e93 91be
00000010: 3922 d7bd a1a7 c5be 7af1 e8be c444 88be
00000020: 9b17 343d a21d b6bd 0747 eabd a3d6 bdbe
-0.27396983 0.102350906 -0.25401026 -0.28432745 -0.10504574 -0.38604453 -0.45496732 -0.26614964
0.043967824 -0.08892371 -0.11439329 -0.37077817

weight f4 [12, 12, 3, 3]
00000000: 0cc7 ad3e 42ad bc3e 7c01 7f3e cb37 7f3e
00000010: 124b 8c3e e8b6 f43e fa48 c63e 444d 193f
00000020: 1287 093f fd2c e2bd 3907 a83d 0dad 20bd
00000030: e79a 9e3e db53 56be 8b1e 423e 8f23 bcbe
00000040: 6280 85be bcb0 35be cb58 23bd 1a5f b43d
00000050: 1aed 1e3e 074f 2c3e 5403 84bc 0eb0 11be
00000060: 18e6 6ebe d61a af3d e569 e2bd 0ffa b6be
00000070: 7428 d03e 18b1 6f3e 11fb ea3e 0702 673e
00000080: 4c31 7b3d e44f bd3e 7b73 a5bd f11a cc3d
00000090: f63d 743c 2086 a6be db26 75be af43 18be
000000a0: 2838 553e fa89 7fbe 3324 09bf 6479 ea3c
000000b0: dac6 c3bd 994c 043e 6f58 4e3e bcb1 13bf
000000c0: 5ce5 98be 51e5 133d 8b34 5cbe 9e59 ca3d
000000d0: a923 7ebe 9220 84be b812 7abe 2d39 013f
000000e0: 51f6 863a b9ca 5d3d 2937 893e 6786 683e
000000f0: f23c 263e 8e85 ec3d e7a4 1bbe 0ea7 77be
00000100: 6394 5d3e a3a5 85be ab8f 17bf 8ac1 3ebf
00000110: 40f5 80bd e89b f1be 3afd c5be 8a8f f73d
00000120: e2fc fd3e 9dfb f03d d0fa a93e f080 573d
00000130: 42d1 983e 44c0 ad3d a1aa 8a3e 9745 ca3e
00000140: 29c5 57bd 7943 d93e e9c7 9d3e 82a0 c9bd
00000150: 4240 c23e 2a7b b33e d20b a93e 8bf2 6b3e
00000160: 464a df3e 69a5 853e a8be 83be 76a5 603e
00000170: 852b 073e 52ba 26be a830 ca3d 865b c2be
00000180: 5dba a3bd 5f7b 8abe 383b 6dbe b837 bc3e
00000190: 5df3 1e3f 7fd4 963e bbb7 113f 0b2e 7b3e
000001a0: be1b 353f 08ac da3e 42d1 0a3f ed10 f33e
000001b0: 3e2f ffbe 8fd2 49be b2fb 2ebf cb2f a9be
000001c0: 38fb ad3d 4104 06bf e695 b8be 7313 94be
000001d0: 08f2 7e3d 9ce3 a6be ed44 2ebd 798a 26be
000001e0: c48f 63be 6e70 9cbe ba4c 1dbe 26b6 0abe
000001f0: 9430 2fbe acdd 7bbd b0ad 74be 3a37 12bf
00000200: 6790 bebe 214a c4be 3eeb 50be 92d7 7cbe
00000210: d400 bc3d fd5f 533d d3d4 b8bd e641 35be
00000220: 30e6 13bd 7621 06be f6c5 80bd c600 ba3e
00000230: 294c 2abd a55f 1cbd bf02 f1bd d309 883d
00000240: 3363 9fbc f75c 07bc 24de df3d 62b1 17be
00000250: 5065 b1bd e4a2 5ebe 9462 9bbe 34e1 bb3d
00000260: 8adf 03be 660c e73e f001 8a3e 69f7 233f
00000270: 8505 b33e 8908 4a3f 1a29 c23e 545b 5d3f
00000280: b2a2 c73e 4a50 c53e f32c 383e 62e7 b33e
00000290: ef7d 343e f917 143f 335b 113f 88db 313c
000002a0: 7c2d 033f 0e78 513b 296d b33e 21d7 39bb
000002b0: 2b2d 0f3e 062a 523e 9ff3 e03e d847 f23e
000002c0: e7b2 b33e 9612 803e 2c5b 533c 5ec7 193f
000002d0: 93f6 8bbe f2f1 99bd 0a46 85be dd62 93be
000002e0: ae8f 10be ac20 92be d8ba 9ebc 1f79 0b3d
000002f0: 83de bfbe 0572 72be d562 5e3b 91f7 81bd
00000300: 9348 10bf ae02 95be eab8 5cbe eb0c eabd
00000310: be44 ddbc 74b4 38be 41dd 26be 67b7 0cbe
00000320: 5762 5d3e 4325 95be 863d d9bd b1af e83d
00000330: fc1b cc3c 49cf a5bd a306 6dbe fc11 c8be
00000340: 19dd bbbe d3b1 1bbe 7008 e1bd e165 87be
00000350: fd81 c3be d26a aebe ab69 ebbe 7f71 e0bd
00000360: 167b c43d 19c3 02bf 4616 9cbe 8421 c53c
00000370: d3bd 2cbd 1acc eebe c1da 37be 36a9 53be
00000380: 0927 1e3e 58c6 543e 71ba bc3e ff75 293f
00000390: 37e3 263e 94ae ec3e 21df 453e 02c6 a13e
000003a0: 6626 6e3d 09cf 503d cb10 23bd 54e7 7b3e
000003b0: a397 b4bc 2adb 48bd 17e0 123c 7c83 9bbd
000003c0: b4bd 79be 9080 33be 1ee9 3ebc 2a57 1b3d
000003d0: ad84 49be a0cb 023f defd fe3e 24ba 833e
000003e0: bebc e8bd 648a 9f3e 8c3f a33e 8636 143e
000003f0: 6140 33be e461 8f3e 2329 343d 7972 19be
0.33940923 0.36850935 0.2490291 0.24923627 0.27401024 0.47795796 0.38727552 0.59883523
0.53721726 -0.11043737 0.082045026 -0.039227534 0.30977556 -0.20930426 0.18956964 -0.3674588
-0.2607451 -0.177432 -0.0398796 0.08807202 0.15520135 0.16827022 -0.016114868 -0.14227316
-0.23329961 0.085500404 -0.11055354 -0.35737655 0.40655863 0.234074 0.45894673 0.22559367
0.06132631 0.36975014 -0.08078667 0.09966076 0.014907351 -0.32524204 -0.23940603 -0.14869569
0.20822203 -0.24954978 -0.5357086 0.028622337 -0.09559412 0.12919845 0.20150922 -0.57693076
-0.29862487 0.036107365 -0.21504419 0.09880374 -0.24818291 -0.258061 -0.24421203 0.5047787
0.0010296797 0.05414841 0.26799896 0.2270752 0.16234186 0.11548911 -0.15199624 -0.2418482
0.21638636 -0.26102933 -0.59203595 -0.7451407 -0.06296778 -0.4718926 -0.3866976 0.12087925
0.49606997 0.117667414 0.33199167 0.0526132 0.2984715 0.084839374 0.27083305 0.39506218
-0.05267826 0.4243429 0.30816582 -0.098450676 0.3793965 0.35054904 0.3301683 0.23041742
0.43611354 0.2610276 -0.25731397 0.21938118 0.13200195 -0.16282013 0.09872562 -0.37960452
-0.0799453 -0.2704725 -0.23167121 0.3676126 0.6209009 0.29458997 0.56920975 0.24529283
0.70745456 0.42709374 0.5422555 0.4747385 -0.4984073 -0.19709228 -0.68352807 -0.33044276
0.08495182 -0.5235024 -0.36051863 -0.2892109 0.062242538 -0.32595527 -0.0425462 -0.1626376
-0.22222811 -0.30554527 -0.153613 -0.13546047 -0.17108375 -0.0614907 -0.23894382 -0.5711552
-0.37219545 -0.38337806 -0.20402238 -0.24691609 0.091798455 0.051605213 -0.09024968 -0.1770092
-0.036108196 -0.13098702 -0.06287758 0.36328715 -0.04157654 -0.03817715 -0.11768102 0.06642499
-0.019456482 -0.008261911 0.10931042 -0.1481376 -0.08661902 -0.21741825 -0.30348647 0.091738135
-0.12878242 0.45126647 0.26954603 0.6404939 0.3496515 0.78919274 0.37921983 0.8646748
0.38991314 0.38537818 0.17985897 0.3513747 0.17626165 0.5784908 0.56779784 0.010855563
0.5124128 0.0031962427 0.3504422 -0.0028356987 0.13982074 0.20523843 0.43935868 0.47320437
0.3509743 0.2501418 0.012900155 0.60069835 -0.2733656 -0.075168505 -0.26029998 -0.28786364
-0.1411731 -0.28540552 -0.019376203 0.034051057 -0.3747445 -0.23676307 0.003393342 -0.06346048
-0.5636074 -0.29103607 -0.21554914 -0.11428245 -0.027010318 -0.18037587 -0.16295339 -0.13741837
0.21619545 -0.2912999 -0.10607438 0.113616355 0.024915688 -0.08096177 -0.23147063 -0.3907622
-0.36692122 -0.15204553 -0.109879375 -0.26444915 -0.3818511 -0.34065872 -0.45979056 -0.10959148
0.09593789 -0.51078945 -0.30485743 0.024063833 -0.042173218 -0.46640092 -0.17954542 -0.20670018
0.15444578 0.20778787 0.36860994 0.6619567 0.16297613 0.46226943 0.19323398 0.3159638
0.05814209 0.050978694 -0.039810937 0.24599963 -0.022044962 -0.049037136 0.00896456 -0.07593438
-0.24388772 -0.17529511 -0.011652259 0.037924923 -0.19679518 0.5109196 0.4980306 0.25727952
-0.11364125 0.3116027 0.3188442 0.14473924 -0.17505027 0.28004372 0.043984544 -0.14985074

bias f4 [12]
00000000: a8c9 973c f64d 0d3f f14d d03e 17c7 b03d
00000010: 424b 82be 2ebc 83be 3baf 163f c1c3 76bf
00000020: cbb6 6d3e 6361 6d3f 5cf9 b73d 85be 0c3f
0.018528774 0.55197084 0.40684465 0.086317234 -0.25448042 -0.25729507 0.5886113 -0.96392447
0.23214261 0.92726725 0.089831084 0.5497821

weight f4 [12, 12, 3, 3]
00000000: af01 92be ce9d 203e 21ea 723d d610 cd3e
00000010: afc3 7b3e 94a6 bfbc 9d8c 983e 4dc3 673e
00000020: 7cd6 413e 6275 7ebe 64ba 1cbd 05d5 1cbf
00000030: 61c9 c3be 7c89 febe 1719 d5be e375 37be
00000040: 963b 15be c128 01bf a64a 8b3e bca3 23bd
00000050: 4aea 1ebe dc2c e8be 9595 34bd 7163 8bbe
00000060: 04fc 38bb 8251 05bd d3e6 a1be e7d0 623e
00000070: 933c 963e 6c08 61be a262 30bb 63f0 7e3d
00000080: 30ca fa3e d49c e43e ecd4 383d c4a5 3e3e
00000090: c910 ddbd 7c5d 313d e19c 11bd 14cd 44bd
000000a0: 8d22 8b3e b237 c1be 3f27 2abe 0bf3 b3be
000000b0: ce3c 8cbd 7e74 e4be 1320 73be 5736 54bc
000000c0: aebb a2be c79c 6bbe 4e85 77bd ad4f 1c3e
000000d0: d19c 50be ee84 3b3e 1d60 7cbe 918f 68be
000000e0: 466d cd3d e155 66bd 8391 efbe d78d c9be
000000f0: 4ced 17bd afac 25be 2347 35bd 7c06 853e
00000100: 7cd4 de3e 4e96 b33d 498f 85bd 2d32 b33e
00000110: 4014 9b3e af1a b03e 4579 5a3e 8d10 c73e
00000120: 439f 083f 81e4 2c3f aa36 133f 684a 0b3f
00000130: d89d 103f aaaf 1b3f 438e f83e d9a6 d73e
00000140: 4c75 1c3f a4c9 25bf 9e58 89be 4f57 e9be
00000150: f543 063e 5e0e d6bd d810 0a3e 1102 8fbd
00000160: cedb 443d 27f2 30be 5d61 40bd 8b34 84be
00000170: e497 33be 79e6 da3d 92aa 0c3e e1a9 ea3e
00000180: c590 4abd e767 e33d f54c 2fbe cb8b 11bf
00000190: e960 27bf fae6 80bf c4c1 3dbf 19f2 a0bf
000001a0: 92b9 82bf 0422 99bf d8ac 51bf 8b1e 8dbf
000001b0: 572a 0d3e 93d9 903d d14c 9f3e e6c1 01be
000001c0: 39ae 68be 08a1 cabd 37fc d9be 3eac a8be
000001d0: 436b 2a3d fece b0bd 99c6 cabd db17 adbd
000001e0: 7918 95bd 5e5b 5ebc ea62 a73e 44f4 6039
000001f0: 7492 ffbe b020 cabe c66e 443d c0e4 033e
00000200: 8b25 173d b447 af3e b257 2abe c47f f03e
00000210: 830d a63c 9674 483c eb94 9d3e 172f 48bd
00000220: c8c3 10be 60e4 13be e5fd 43be d6ee 0ebf
00000230: 44b0 763e 9837 553e 2c72 2a3d efb6 243e
00000240: e6e8 e33c bd78 1e3e d88e 9a3e 0b32 fb3e
00000250: d5be 263e c55c d63e b469 6c3e a799 9bbe
00000260: ae55 86be 717b 02bf db11 2abf 7efd 0bbf
00000270: 41d9 41bf db41 6dbd 75ec b9be 95a9 bcbe
00000280: ebbc 1ebf 099e 20bf d858 a03e 254e dc3d
00000290: dae2 6abd 5caa e63e f69c 933e 75bd 10be
000002a0: 67f6 193f 0d0a 833e c407 74be 9fd6 343e
000002b0: 952b 7ebe eb89 a0bc 801f 133e faa7 32bc
000002c0: ca6f febd 6dc3 ab3d 963a ccbe bf27 903d
000002d0: dcd7 5dbd d7c5 a73e b035 993e 991d aa3d
000002e0: 5caf 893e 1f3f 823e 2cf4 973d 506f 023e
000002f0: fe67 653e 713e d03d 0b35 c93d 2f72 d0bc
00000300: 5c88 b33e 0441 9c3d c6c6 903e 750e 583e
00000310: e2f3 3a3d bb97 063e a93b b1bd 95b0 de3e
00000320: 81a7 133d c065 9b3e f702 8c3d da89 e93d
00000330: 7c35 173d e168 713e 7eb3 08be 8d27 89bd
00000340: 0c81 6a3d d53b dcbd 4e7d ba3e d349 033e
00000350: dd80 cc3e f64a e53d 962f e33d c01b 523e
00000360: 29a4 563e 4de3 c33e b375 f03e 4a2e 523e
00000370: a11f 393e fc69 b03e f2cc 813e 5a82 b83e
00000380: 5cc5 0d3f cc09 34be f754 c6be b9e1 7cbe
00000390: 8e94 7fbe c934 4ebd f4c2 803d 72db 31be
000003a0: ecf8 113e 4ecd 9d3e 9c22 b5be 8743 2c3c
000003b0: d05a 06bf ab92 c23d 9200 03bd 5c8b e4bd
000003c0: b9ec 91bd 295b 1c3c 4875 b33d d989 713e
000003d0: e11c b03e 8c17 783e 3ed4 56bd 0fe9 4b3d
000003e0: c474 e4bd d0d3 28be 90e2 163d eb14 0ebd
000003f0: 7ce4 803e 3496 5d3e 811f 923d 42d5 e63d
-0.2851691 0.15685198 0.059305314 0.40051907 0.24586366 -0.02339486 0.2979478 0.22633095
0.18929476 -0.24849465 -0.038263693 -0.6126254 -0.38239577 -0.49714267 -0.41620705 -0.17916064
-0.14573511 -0.5045281 0.2720539 -0.03995107 -0.15519062 -0.45346725 -0.044087965 -0.27224305
-0.0028226385 -0.032548435 -0.31621417 0.22150002 0.2934309 -0.21975869 -0.0026914258 0.06224097
0.48982382 0.446509 0.045124933 0.18617922 -0.10794217 0.043302044 -0.035550002 -0.04804714
0.27174798 -0.37737805 -0.16616534 -0.35146365 -0.06847535 -0.44620126 -0.23742704 -0.012952409
-0.31783813 -0.23009025 -0.060429864 0.15264769 -0.2037232 0.18312427 -0.2464604 -0.22711016
0.10030608 -0.056234244 -0.46790704 -0.39366028 -0.03709154 -0.16179155 -0.044257294 0.2598151
0.43521488 0.08768903 -0.0652147 0.3499922 0.30288887 0.34395358 0.21335323 0.38879815
0.53368014 0.6753617 0.57505286 0.5441041 0.5649085 0.6081492 0.48546037 0.42119482
0.6111648 -0.64760804 -0.26825422 -0.45574424 0.13111861 -0.10451959 0.13482988 -0.06982816
0.048061185 -0.17279874 -0.046967853 -0.25821337 -0.1753841 0.106884904 0.13736942 0.45832732
-0.04945447 0.11103802 -0.171192 -0.5685393 -0.6538225 -1.0070488 -0.7412379 -1.2573882
-1.0212882 -1.1963506 -0.81904364 -1.1024946 0.13785683 0.07072749 0.31113294 -0.12671623
-0.2272271 -0.098939955 -0.42575237 -0.3294391 0.0416062 -0.086332306 -0.09901161 -0.08451816
-0.072800584 -0.013571588 0.32692653 0.000214533 -0.49916422 -0.39478064 0.047957204 0.1288023
0.03690104 0.34234393 -0.16635016 0.46972477 0.020270115 0.0122348275 0.30777678 -0.048873033
-0.14137185 -0.14442587 -0.19139822 -0.55833185 0.24090677 0.20821989 0.04161279 0.16085409
0.027821016 0.15475745 0.30187106 0.49061617 0.16283734 0.41867653 0.23087198 -0.30390665
-0.26237243 -0.50969607 -0.66433495 -0.54683673 -0.7572213 -0.057924133 -0.36313215 -0.3684813
-0.62007016 -0.6274114 0.31317782 0.107570924 -0.05734525 0.4505185 0.2883069 -0.14134772
0.60141605 0.25593606 -0.23831087 0.17659996 -0.24821313 -0.019597014 0.14367485 -0.010904307
-0.12423666 0.08386884 -0.39888448 0.07038831 -0.054160938 0.32768127 0.29923773 0.083064266
0.268916 0.25438783 0.07419619 0.12737775 0.22402951 0.1016816 0.0982457 -0.025445072
0.3506497 0.07629588 0.28276652 0.21099265 0.04564274 0.13143818 -0.086539574 0.43494096
0.036048416 0.30351067 0.06836503 0.11403246 0.03691624 0.23575164 -0.13349721 -0.06696997
0.057251975 -0.107535996 0.36423725 0.1282113 0.39942065 0.11195938 0.11093061 0.20518398
0.2096106 0.38259354 0.46964797 0.2052547 0.18078472 0.3445586 0.25351673 0.3603695
0.5537927 -0.17581862 -0.38736698 -0.24695481 -0.24959013 -0.05034331 0.06287184 -0.17368868
0.14255112 0.30820698 -0.35377967 0.010514147 -0.5248232 0.09500631 -0.031982966 -0.11159393
-0.071252294 0.009543219 0.08762604 0.23587741 0.34397033 0.24227732 -0.052448504 0.04978281
-0.11155084 -0.1648705 0.03683716 -0.034687918 0.2517432 0.21639329 0.07134915 0.112711444

bias f4 [12]
00000000: 07ee 2abe b533 82bd 8c15 433c dddb 2cbf
00000010: ab18 8fbe 9e48 d2bd 13c3 be3d 5e51 983d
00000020: 233c fbbd 980a 72be 0312 b5bd e155 4fbe
-0.16692363 -0.063575186 0.011906993 -0.67522985 -0.27948508 -0.10267757 0.09314551 0.074373946
-0.122673295 -0.23636854 -0.08841326 -0.20247604

weight f4 [12, 12, 3, 3]
00000000: a4da 01be fdac 2abf fa1c ccbe e1e1 13bf
00000010: aeb0 4bbe db66 c8be 508c 51be 3c80 58bf
00000020: 78e6 fbbe 570b 52be 4c36 75bd e71e 86be
00000030: 7d83 7b3e eb51 a03d a628 adbe 4d16 4cbe
00000040: 634f cd3d a041 c23d 1a4f 643d c480 2fbe
00000050: cf5b 89bd 2dd9 3cbe f3fc 273e 2695 fa3d
00000060: c4c8 9c3e 28f7 e73d 0d4d 34be 8ea1 b63d
00000070: c6d0 be3c a319 87be 4709 0a3e 75ea 08be
00000080: 9585 ea3e 8aa2 c93d f8b3 b7bc 979e 2dbd
00000090: b080 79be 64e6 b2bd 7257 23bc f679 333d
000000a0: b0ed ebbb 63d7 e83e 44ce 393d b4e0 23be
000000b0: dc37 e03e 04fe 1cbd 9a97 38be 5cc3 3e3d
000000c0: a2d7 313d 4890 c2be ee4c 5b3d 84d5 c3bd
000000d0: bad8 9ebc 9fb3 a5bd 7c06 133f ea19 08bf
000000e0: f13a acbe 4234 57be 6b24 803e afa3 663e
000000f0: 6c97 cbbe 6ce9 c63d 46b2 a1be a8ae 383f
00000100: b5e7 9a3e 5b91 173f ff1b 703e 91e7 ccbd
00000110: e282 3f3e 37b0 033e 1f01 893e a17f 853e
00000120: 0cbd 92bd 9670 ca3d 36be 72be 9822 383d
00000130: 7ad1 60bc b9c6 aa39 8d98 643d 697f 6ebd
00000140: eeb5 99bd 3a99 93be ecb9 86be ae60 3cbd
00000150: 4b8f acbe 9561 e8be 731b 8bbe 9850 bcbe
00000160: dec9 d5be 72f7 5bbe 9c15 10bc d170 f93e
00000170: 9492 b03d 8d55 c73e 026a ee3e 3851 e73d
00000180: 31e4 c63e 5e97 71bd 297b d53e 60e2 2a3f
00000190: edb5 843b 8aa7 683e cc8f dcbd 3402 353d
000001a0: b157 263e bc93 5abd 566a a83e 9caa ac3e
000001b0: b26f abbe 759c c1be 309b e9be 89ce c4be
000001c0: ab1d 11bf 3a17 c6be 8b89 36be 87b6 d4be
000001d0: f0d0 ecbe ad69 29bf 6c6f a13e a413 29be
000001e0: 7d3a 623e a1db df3d ef20 9f3d 7a42 203e
000001f0: 680d a03e 09ee fcbc edac b13e c2bb 043f
00000200: 2de2 833d d751 263f e1c3 fd3e 9884 ab3e
00000210: a2bd f63e d16e ab3e 6f49 803e 51b5 b7be
00000220: a254 16bf 61d0 07bf 964d 8abe 04ec 283d
00000230: b1a9 b3bd f4dd 5c3d 935c e4bd d6b8 75be
00000240: d199 83be af51 5abe 0739 4bbe af3d 1bbe
00000250: ae0e 573e 304f e4bd 1185 6a3e ba02 863d
00000260: 4bbc e9bd 6539 43bf 4156 4cbf b32f b3be
00000270: f11b a7bc af54 49be 6ed9 bcbe c8ed 2d3e
00000280: fbe0 e2be d6e9 febe a59a e7be e980 563d
00000290: 6425 8ebd b04a 9abe 2715 bd3c 287e 5bbe
000002a0: 0e05 6c3d 0f22 5dbe bcd8 b3bd 9249 b93e
000002b0: 0868 9b3e 566d 393f b91b af3e 2850 143f
000002c0: 2546 ce3e 630c ff3e 2c4c c13d e30f fe3e
000002d0: 7a58 0dbf 9ad9 07be aea5 97be 0b76 1fbe
000002e0: cdbf 25be 1201 e73c c82c b2be 0746 2e3e
000002f0: 47d7 9c3d 0a1d 9c3b e209 05be b560 d2be
00000300: f9bd 86be fa9c cebe 9cec f5be 069e 65be
00000310: f0dc 7ebe 7730 43bd cb32 4cbe 7dcc 8cbb
00000320: 2115 e53c 34d1 9abe d6ff 4a3e 45e9 88be
00000330: c13b d43d c09e 983d 8242 99bb f5f0 d2be
00000340: d047 893d bf7c 7e3c f408 b2bc ec3c 84be
00000350: 612f c1be ae52 acbe 58d9 f7be d1a2 8abe
00000360: 65da 8dbd 1eed 8fbe d345 bbbe a66d b0bd
00000370: 6585 e0bd 323e c53e ef8f 26bc 55d2 f0bd
00000380: e168 9e3d bb38 0f3f 9783 533e cd32 38bd
00000390: dc94 a23d 2cbc 6a3d f80f b33e 11a8 533e
000003a0: afb2 a93e 8c99 e03e 9c4f 84be 0f11 e33d
000003b0: d5a3 ecbe ed08 dbbe e995 cabd 0d77 6abe
000003c0: 30a8 8bbe 0a70 04bf 5e1c 73be 3c48 ca3e
000003d0: 0eee 543f 9b4a 623f 18b1 cd3e a202 463f
000003e0: 655c 8e3e cfbf 053f 70b8 fe3e 022b 973e
000003f0: 7175 a7be 79c8 82be 4c3d 1abe a52b 123e
-0.12681061 -0.6667021 -0.39865857 -0.5776654 -0.19891617 -0.39140972 -0.20463681 -0.8457067
-0.4919927 -0.20512138 -0.059866235 -0.26195452 0.24561878 0.078281246 -0.33820075 -0.19930382
0.100249074 0.09485173 0.0557395 -0.17138964 -0.06706964 -0.18442221 0.16405086 0.12235479
0.30621922 0.11326438 -0.17607518 0.08917533 0.02329291 -0.26386747 0.13480102 -0.13370688
0.4580504 0.09845455 -0.022424683 -0.04238757 -0.24365497 -0.0873535 -0.009969579 0.043817483
-0.0071999654 0.45476827 0.045362726 -0.16003686 0.43792617 -0.038328186 -0.18026581 0.046573028
0.043418534 -0.38000703 0.053540163 -0.09562209 -0.019390453 -0.08090901 0.5743177 -0.5316454
-0.3363872 -0.21016029 0.25027785 0.22523378 -0.39763963 0.097124904 -0.31581324 0.72141504
0.30254903 0.5920617 0.2344818 -0.10005105 0.18702272 0.1286019 0.26758668 0.26073936
-0.07164964 0.09884755 -0.23705372 0.044954866 -0.013721818 0.00032572987 0.055809546 -0.058226977
-0.075054035 -0.2882784 -0.26313722 -0.04599064 -0.33703074 -0.4538695 -0.2716938 -0.36780238
-0.41755575 -0.21481112 -0.008794215 0.48718885 0.086217076 0.38932458 0.46565253 0.11294788
0.3884597 -0.058982246 0.41695526 0.6675167 0.0040500076 0.22720161 -0.107696146 0.044191554
0.16244389 -0.053363547 0.32893628 0.33723915 -0.33483654 -0.3781468 -0.4562621 -0.38438824
-0.56685895 -0.38689595 -0.17825906 -0.41545507 -0.46253157 -0.66176873 0.3153032 -0.16511399
0.22092624 0.10930563 0.077699535 0.15650359 0.31260228 -0.030875223 0.34702244 0.51848996
0.06439624 0.6496863 0.49563506 0.33499599 0.48191553 0.33482984 0.25056025 -0.3588052
-0.5872289 -0.53052336 -0.27012318 0.041240707 -0.087726004 0.05392261 -0.1115047 -0.2399629
-0.2570329 -0.21320222 -0.19845973 -0.15160249 0.21001694 -0.11147916 0.22902323 0.06543489
-0.11412867 -0.7625945 -0.79819113 -0.3499733 -0.020399066 -0.1966121 -0.36884636 0.16985238
-0.4431227 -0.49787778 -0.45235172 0.052369032 -0.069407254 -0.30135107 0.023081375 -0.21434844
0.057622008 -0.21595024 -0.08781573 0.36188942 0.30352807 0.7243246 0.34200838 0.5793481
0.4028789 0.49814138 0.09438357 0.49621496 -0.5521313 -0.13266602 -0.2961859 -0.15572374
-0.16186447 0.028198753 -0.3479979 0.17018901 0.076582484 0.004764204 -0.12992051 -0.41089407
-0.26316813 -0.4035414 -0.4803208 -0.22423562 -0.24888968 -0.04765364 -0.19941251 -0.004296838
0.027964177 -0.30237734 0.19824156 -0.2674047 0.1036296 0.07452154 -0.004677118 -0.4119946
0.0670315 0.0155326715 -0.021732785 -0.2582773 -0.3773146 -0.3365683 -0.48408008 -0.27077344
-0.06926421 -0.28110594 -0.3657671 -0.08614664 -0.10962943 0.38524014 -0.010166152 -0.11758868
0.07734848 0.5594594 0.20655666 -0.044970322 0.07938549 0.05730836 0.3497312 0.20669581
0.33144137 0.43867147 -0.25841987 0.11087238 -0.46218744 -0.42780247 -0.09891874 -0.22896977
-0.27276754 -0.5173346 -0.2374129 0.39508235 0.8317574 0.8839509 0.40174174 0.7734777
0.27804866 0.522458 0.4975009 0.29525 -0.32706788 -0.25543573 -0.15062445 0.14274462

bias f4 [12]
00000000: 4396 b13e 4e36 4f3e 51b2 023f 301c 0e3e
00000010: 7f09 343f ad8f 203b 8a91 7d3e 8df2 6ebe
00000020: e344 16be d832 203e 8771 62be f0c3 a63c
0.34684953 0.2023556 0.5105334 0.1387794 0.7032699 0.00244997 0.2476255 -0.23334713
-0.14674716 0.15644395 -0.2211362 0.020357102

weight f4 [12, 12, 3, 3]
00000000: e9a0 55bb 9196 0e3e be3b 353e b102 8f3d
00000010: 6a2a bfbe 5981 12bc 79a1 4bbc 4f46 2bbc
00000020: 50dd 2d3d fd8f ebbd 9850 16bf 84ac 11be
00000030: f037 7a3d 51f4 9fbe 1a33 3dbe 99dc 53be
00000040: d808 5abe f381 82be ace4 283e 9b20 373e
00000050: 835e 7dbd 8b4a 38be 231c 26be 9201 7ebe
00000060: 3ddb 49bd 7e18 ac3c 59c5 7abe 7473 e93b
00000070: 5a1e 613e 5bac 1ebf 0ff6 063e 1e21 afbe
00000080: 0a5d 2a3e db47 13bf f126 cebe f3cf c0be
00000090: f06c 3cbe 6b1f 78be 3a6c 3ebe 9511 b6be
000000a0: 406b 14bf d3f6 413d ba2d c8be 5f25 14bf
000000b0: 5a77 34bf 17a5 32be 7fb7 08be 950a 8ebe
000000c0: e013 673e eced 8b3e 9231 e1be 6901 9c3e
000000d0: b7b4 89be af4c 253e 9bc6 173f 555c a93e
000000e0: fc4a 813e 76e7 323f 8dda 8e3e 0f66 36bd
000000f0: ce33 993e c9b6 a13d 3c51 093f 8007 92be
00000100: 9f35 cc3d c238 413e 094e a4be 5ba4 5ebe
00000110: febe 4cbe cf9b 40be c6da 173e 1f76 5b3d
00000120: e047 01bf 5aff dcbe 2816 04bb 8ddb 13bf
00000130: f257 e3be 8d52 7ebe 8e4e ee3d c89d 24bc
00000140: 8638 43be 3bed 2a3e b71e 3e3e e8b2 4ebb
00000150: d56e 0fbd edab f13d fd90 e3bd 3afa c83d
00000160: 2899 b83e cfd8 433e c6a2 08be d34b 8fbd
00000170: 57e4 a0bd 9264 2d3e bbc5 89be 68a6 86be
00000180: 6c1a 713e ab9f 183e 987f ad3d 5c03 e53d
00000190: 0773 e2bc c456 de3e 5f8e 46be 9dea 023f
000001a0: d225 d93e fc32 113e b0c5 203f ee5d 693e
000001b0: c085 3bbe f7c2 c1be 737f e9be 0bc7 43be
000001c0: 0744 08bf e28b b5be 1712 29bf b828 94be
000001d0: 0acf 38bf 7484 9e3e 1746 9b3d 1c40 df3d
000001e0: 82ee 6bbe 3613 743e 0aa8 443e a2d9 583e
000001f0: bacf bf3e e143 ae3e faad 8d3e b0bf 023e
00000200: 3352 963e a1d6 f53e 503e 9a3d 228f 523e
00000210: 44f8 993d 4901 b63e e117 323e 51b5 353f
00000220: 0629 ba3c e64e b53e 4028 6b3e 3579 d83d
00000230: 918a 933e 4e2d 8f3e f4d7 3b3e f4a1 e43d
00000240: 2b46 893e 70c6 7fbd 5775 633e 4dc5 cb3e
00000250: 281b 593e 0669 4b3f 4377 6a3e b02c 6e3e
00000260: bb97 ea3e 5858 7b3e 39cc 313f 089a 023f
00000270: efac 273f 1cb7 743e 73d1 c83e ef2c a93e
00000280: 7f4d 1a3f 3857 843d 547a 0c3f f491 a03e
00000290: 730e fd3d 2ce9 cb3d dbaa 9f3e 3508 4e3d
000002a0: 4fde 4b3e 7171 e63c 4d3d a5be 969f 2cbf
000002b0: d7ca f5be 2712 d4be 06d4 1e3d 3f1a 05be
000002c0: cc9b 00bf 2a8e b7be c227 dbbe 8352 ad3c
000002d0: 4740 e43d 1b61 fa3e 5aac e93d 56d4 c1bc
000002e0: 1ca6 993e c9fc 7f3e d59d bbbd 3e9b 333f
000002f0: 56cb a93e c45a 293e 0025 3d3f 2605 b43e
00000300: dc15 d33d 466e c33e 0306 e13e 923d 1d3f
00000310: 5336 8b3e 8884 453e 345c 283e 219a 38bd
00000320: c63b a5be 973a 3abe ba81 70be d913 2abf
00000330: ed2c 6cbe 6d47 adbe 4dd0 ebbe 8a74 45be
00000340: 51b0 15bf ed76 24bf d383 9bbe 0928 18bd
00000350: 345d aebd 0911 92be c1e6 6e3c c26f 64be
00000360: 67e6 2b3e 8cd1 b43e cb6a f63d 9d7d b13e
00000370: 4298 d63e 7ccd 953e 766a 953e 9cea be3d
00000380: 456e b23e 319d 343d 84e0 673c 4ddc eb3e
00000390: 1d1b ea3e cc69 f43e c9eb de3e 2331 863e
000003a0: 8408 973e 7c1a e03e f131 16bf acd6 24bf
000003b0: 0c6e 7a3d f243 2fbf edb2 e5be 498d 1dbf
000003c0: 1694 e3be 4bfe 4fbf 06a1 29be 0d26 70be
000003d0: b068 05bf 8f10 d0be 1e47 e8be a91e 75be
000003e0: 857e 71be cdad 23be 17b8 c6be 21fb 01be
000003f0: 710c 8e3e f415 5a3e b829 c53e d220 df3d
-0.003259713 0.13924624 0.17698571 0.06982935 -0.37337047 -0.008941972 -0.012428635 -0.010453775
0.04244739 -0.11502073 -0.58716726 -0.14225966 0.061088502 -0.31241086 -0.18476525 -0.2068962
-0.21292436 -0.25489768 0.16493481 0.17883532 -0.06185771 -0.17997186 -0.16221671 -0.24805287
-0.049281348 0.021007773 -0.24489345 0.007124359 0.21984234 -0.61981744 0.13179801 -0.34204954
0.16637054 -0.5753152 -0.40264085 -0.37658653 -0.18400931 -0.24230735 -0.18595973 -0.3556029
-0.5797615 0.04735453 -0.39097387 -0.57869524 -0.70494616 -0.1744579 -0.13351248 -0.27742448
0.22566175 0.27329957 -0.43983132 0.30469826 -0.26895687 0.16142534 0.5928742 0.33078256
0.2525252 0.6988443 0.27901116 -0.044530924 0.29922336 0.078961916 0.5363958 -0.28521347
0.09971165 0.18869308 -0.32090786 -0.21742384 -0.19994733 -0.18809436 0.14829549 0.053579446
-0.505003 -0.43163568 -0.0020154808 -0.5775688 -0.44403034 -0.24836178 0.11636077 -0.010047384
-0.1906453 0.16692059 0.18566404 -0.0031539742 -0.035017807 0.1180037 -0.11111639 0.09813352
0.3605435 0.19125675 -0.13343343 -0.06996884 -0.07856052 0.16932896 -0.2690867 -0.26298833
0.23545235 0.14904658 0.08471602 0.111822814 -0.02764274 0.43425572 -0.19390248 0.5113924
0.42411667 0.14179605 0.6280165 0.22789738 -0.1831274 -0.3784406 -0.4560505 -0.19118898
-0.532288 -0.35458285 -0.6604323 -0.28937316 -0.72190917 0.3096043 0.07581728 0.109009
-0.23040202 0.23835453 0.19204727 0.2117677 0.3746317 0.34036162 0.27671796 0.12768435
0.29359588 0.4801531 0.075314164 0.20562413 0.07518056 0.35547855 0.17391922 0.7097979
0.02272464 0.35411757 0.22964573 0.105699934 0.28816655 0.27964252 0.18344098 0.111637026
0.26811346 -0.062445104 0.2221273 0.39798966 0.21201766 0.7945713 0.22897057 0.23259234
0.45818886 0.24545419 0.69452244 0.51016283 0.6549825 0.23897976 0.39222297 0.33042094
0.602745 0.06461948 0.5487416 0.31361353 0.123562716 0.099565834 0.3118504 0.050300796
0.19909023 0.028130265 -0.3227333 -0.6743101 -0.48006317 -0.414201 0.03877642 -0.12998293
-0.5023773 -0.3585065 -0.4280377 0.021157509 0.111450724 0.4890221 0.114098266 -0.02366082
0.30009544 0.24998774 -0.091609634 0.70158756 0.33162946 0.1653853 0.7388458 0.35160178
0.10306904 0.3817007 0.439499 0.61422074 0.27189884 0.19288838 0.16441423 -0.045068864
-0.32272166 -0.18186413 -0.23486987 -0.66436535 -0.23064013 -0.33843556 -0.46057358 -0.19282737
-0.5847216 -0.64243966 -0.3037401 -0.037147556 -0.08513871 -0.28528622 0.014581383 -0.22308257
0.1678711 0.35316122 0.12032088 0.34666148 0.41913038 0.29258335 0.29182786 0.09322092
0.34849754 0.044095222 0.01415265 0.46066514 0.4572381 0.47736967 0.43539265 0.26209363
0.29498684 0.43770206 -0.58669955 -0.64390063 0.061140105 -0.6846305 -0.44863072 -0.6154371
-0.44448918 -0.81247395 -0.16565332 -0.23452015 -0.52112865 -0.40637633 -0.45366758 -0.23937477
-0.2358342 -0.15984268 -0.38812324 -0.12693454 0.27743867 0.21297437 0.3850839 0.10894932

bias f4 [12]
00000000: dcb7 28bf 7922 04bf 8347 393e 389c 1bbf
00000010: ee44 263e 97bc aebd 4783 afbd ac7b 1fbf
00000020: b123 6bbf b2c1 1cbf c0a1 353d 45dc 0abf
-0.6590555 -0.516151 0.18093686 -0.60785246 0.16237232 -0.085320644 -0.08569961 -0.62298083
-0.91851336 -0.61233056 0.04434371 -0.54242355

weight f4 [64, 12, 1, 1]
00000000: 26d7 9a3e e16f 73bc 68b0 2bbf 6598 c8bd
00000010: d388 b2bd 9983 0ebe 8ccd 1c3e b870 273e
00000020: 799f 0dbe c194 45be c099 13be f618 b23e
00000030: 15a0 ad3e 84e1 b7bd 7f9c abbe ef02 2a3f
00000040: 0b5f 88be f130 aabe 8a67 fa3e 84ed 83ba
00000050: 6601 8abc b8d6 98bd 8c7c df3e c5f1 813e
00000060: 5a74 ecbe a517 c23d d01a 8bbe 73a9 0bbf
00000070: dc69 f9be 3fb1 a03d 3b7a aabd 0faf 9dbe
00000080: 5eaf 66be a6f7 2fbe eeaa 20bf 3e7f 7d3e
00000090: 5154 16be 8cd5 f2bc 46e2 943c 51c7 963e
000000a0: 3dae a3be e053 f33e e6fd dbbc 4bca fa3e
000000b0: 6523 f6be a38c 1e3d cce8 05bf 25ee c73e
000000c0: 73e6 f1be 1c27 b63d 1380 91be 49d2 943e
000000d0: bcce 04bf a73f 263e 5ec0 7fbe d596 4ebe
000000e0: aeaa 16be e420 193d ea37 c0be cad4 983d
000000f0: cc90 5ebe 8e17 6a3d 71cf b23e 2733 8f3d
00000100: 93ac d53e cbce 833e 231c f7bd ab79 e23d
00000110: c68f 6cbe a770 42bd 34b5 15bf 5de9 033f
00000120: 090d 4ebf e6fb 09bc 6e63 09bf dada 8d3b
00000130: 3b8f d6be 9e58 61be cad0 74be 9aa1 10be
00000140: c69f 10bf c161 25bf c64c fdbe e7f0 333e
00000150: dcb1 1fbf 4608 27be 3420 853e b550 e7bd
00000160: 814e 15bd d485 38be f2be d4be e553 173f
00000170: 6d22 863e 5a1e 1ebe 4714 dabc d86f f7be
00000180: 2b23 9bbd 7fe0 063c 0267 8cbe b442 153f
00000190: a4ed 9dbe b9ba db3e 0461 83be 9696 a5bd
000001a0: fa90 c53d 7901 dcbe 0d31 8abe 9ed3 523f
000001b0: e57a 073e 6a10 2c3f 741f 22bf be03 09bf
000001c0: baaa 42bf ad34 34bf bd80 283f 6d25 0fbf
000001d0: 6577 123f 53f0 723e c8d0 f2bd ee6e 953e
000001e0: cdc8 1b3d 71a1 51be 056e d6bd 97aa c73e
000001f0: e201 88bd 4bc1 123e bd3b bebd d879 8abd
00000200: 9135 6ebe d6d1 e6bd f099 bfbe 23ef 66be
00000210: 9c0c 943d 3b19 393e a0c5 d3bd 0608 ba3e
00000220: 7069 8fbe 23c5 a63d 8bca 153e 508f 643e
00000230: 3a0a 573d b9b3 343e 8dd4 4fbe d5b7 063d
00000240: 3eee ffbc 5568 97be 0b2f f9be 63ce 1ebf
00000250: 9e03 88be e287 99be 2d77 08bc 62fa 95be
00000260: da48 13be f0c2 e0bd 440b 04bd bf8b e2be
00000270: 3000 473e a64e d03d 9c7f a2be 32ef 553e
00000280: 89b0 54bb ca4a 7b3e e748 8fbd 0ff6 933e
00000290: f4d8 7ebe 0566 9fbe 343f 14bf bb43 a73e
000002a0: 076f 5ebe 1840 343e 07a4 1b3f e70e 453e
000002b0: daf6 be3e 30b6 c83e d402 b0be 594a 29be
000002c0: d801 a5be ce23 2fbd 143f 85be d457 bdbd
000002d0: 99e0 86be 4ddb fabe cd37 193c 6cf7 a23e
000002e0: c718 05be 4fbe 14bb 2b57 0a3e d054 c83e
000002f0: 8b56 353e 1503 263e 6f15 28bf ec83 2f3f
00000300: f8ef a2be 9a8c 63bd 8699 0abf 7d1d b4bc
00000310: 585d 0dbf 5961 5a3d 6be6 8e3e 2a06 883e
00000320: 1a00 e2be c101 9fbe e844 37bf f1c3 3c3e
00000330: 1f57 c3be a97b b73e c4e8 0dbf f3c1 26bf
00000340: e830 e13d a16e 27be 8545 61be 8b74 0a3e
00000350: b4fc 913e 4fe2 bd3e eece 03bf 8e28 8bbe
00000360: 9163 0cbf 2d51 49be 7387 853e 5b57 87be
00000370: cbe9 733d 47ee 7a3e 57d7 adbc d7ba bf3e
00000380: 5441 34bd 9462 1a3e a4bf b4be 59ef 223e
00000390: a697 81be 07fa 19bf ae3f b5bd e21d 063e
000003a0: d79b d4bd c8d3 8e3e 601d d3be 0227 b43d
000003b0: 7041 b2be 7386 36be 8a5e a3be 484c 98be
000003c0: 226c f2be 5dc9 cdbd cc27 e3bc 173e b73e
000003d0: 5ed9 023f 6828 a9be 1564 f8be 9269 2a3f
000003e0: d4a6 7abe 7cb7 d53b 8362 c9be c426 0c3e
000003f0: 05be 593e 9a8a 8cbe 5541 ffbd 2861 ef3e
0.3024227 -0.014858217 -0.6706605 -0.09794692 -0.087175034 -0.13917388 0.15312785 0.16351593
-0.13830365 -0.19295026 -0.1441412 0.3478467 0.33911195 -0.089785606 -0.33517835 0.66410726
-0.26635012 -0.33240464 0.4890712 -0.0010065292 -0.01684637 -0.07462829 0.4364971 0.25379768
-0.4618252 0.09477166 -0.27168894 -0.54555434 -0.48713577 0.07846307 -0.08324095 -0.30797622
-0.22527835 -0.17184314 -0.6276082 0.2475557 -0.14680602 -0.029642843 0.018174302 0.2944894
-0.3196887 0.4752493 -0.026854467 0.48982462 -0.4807388 0.03870834 -0.52308345 0.39048877
-0.4724613 0.08894178 -0.28418025 0.29066685 -0.5187795 0.16235219 -0.24975726 -0.20174725
-0.14713547 0.037384883 -0.3754266 0.07462461 -0.21734923 0.05715137 0.3492389 0.069921784
0.41733226 0.25743708 -0.120659135 0.110583626 -0.2310172 -0.047470715 -0.5847962 0.5152796
-0.8048864 -0.008421874 -0.5366734 0.0043290677 -0.4190615 -0.22006461 -0.23907772 -0.14124146
-0.56493795 -0.64602286 -0.49472636 0.17572366 -0.62380767 -0.1631175 0.26001132 -0.112946905
-0.03645182 -0.18019801 -0.4155193 0.5911239 0.2619814 -0.15441266 -0.026620997 -0.48327518
-0.07575067 0.008232235 -0.2742234 0.58304906 -0.30845368 0.42915896 -0.25659955 -0.080853626
0.09646793 -0.42969874 -0.26990548 0.8235415 0.13230474 0.67212546 -0.63329244 -0.53521335
-0.7604176 -0.70392877 0.6582144 -0.5591648 0.5721343 0.23724489 -0.11856228 0.29186195
0.038033295 -0.20471741 -0.10470203 0.38997337 -0.06640984 0.14331548 -0.09288738 -0.06761521
-0.23262621 -0.11270492 -0.37422132 -0.22552161 0.072289675 0.18076031 -0.10340428 0.36334246
-0.2801013 0.081430696 0.14628045 0.22320294 0.052499987 0.17646684 -0.20295925 0.03289016
-0.031241532 -0.29571787 -0.48668703 -0.6203367 -0.2656526 -0.29986483 -0.008329195 -0.2929259
-0.1438326 -0.109746814 -0.032237306 -0.44247243 0.19433665 0.10171251 -0.31737983 0.20892027
-0.0032453856 0.24540249 -0.06996327 0.28898665 -0.24887449 -0.31132522 -0.5790894 0.32668862
-0.21722041 0.17602575 0.6079716 0.19243966 0.37297708 0.39201498 -0.34377158 -0.16532268
-0.3222797 -0.042758755 -0.26024687 -0.092452675 -0.2634323 -0.48995438 0.009351683 0.31829393
-0.12997733 -0.002269644 0.13509814 0.39127207 0.17708795 0.16212113 -0.65657705 0.6856067
-0.31823707 -0.05555401 -0.5414051 -0.021986717 -0.55220556 0.053315494 0.2791017 0.26567203
-0.44140702 -0.31056026 -0.7158952 0.1843412 -0.38152406 0.35836533 -0.554333 -0.65139693
0.10995656 -0.16350795 -0.21999176 0.1352102 0.2851311 0.37086722 -0.51487625 -0.27179378
-0.54839426 -0.19659872 0.26079902 -0.26433834 0.059549134 0.24504958 -0.021220846 0.37447235
-0.044007614 0.15076667 -0.3530246 0.15911616 -0.2531101 -0.60147136 -0.088500366 0.13097337
-0.103812866 0.2789595 -0.4123335 0.08796503 -0.3481555 -0.17824726 -0.31908065 -0.29745698
-0.47348124 -0.100481726 -0.027728938 0.35789558 0.51112926 -0.3303864 -0.48513857 0.6656734
-0.24477702 0.006522117 -0.3933297 0.13686663 0.21263893 -0.27449495 -0.12463633 0.46753812

bias f4 [64]
00000000: 101a 22bf 87ff fabe 9da8 3ebf 4ab7 c2be
00000010: d9ef 1dbf b466 fe3d 1c7c 65bf 7207 a6be
00000020: ac8e 6cbf ec16 303e c757 c7be b4b8 d1be
00000030: c0e1 21bd eff7 1fbe 80e9 e5be 81ef a9bf
00000040: 7d01 eebd 7123 f6be 2094 05bf 64b6 36bf
00000050: a4e5 30bf 5b8b 66bf 8bb7 36bf b1c8 6fbf
00000060: 9b77 41bf b656 22bf 90ce c6be 5081 4bbf
00000070: 1ae0 0fbe fd99 44bf 1034 22bf 92ba 3bbf
00000080: 67c6 2abf 4ad2 25bf 36b2 45bf 47b3 66bf
00000090: 0b76 13bf 2063 1cbf 9390 73bf 2103 a6be
000000a0: 5680 9fbf 306f 3cbf 273f 45be ac45 5f3d
000000b0: 6562 f1be bd2d a8bf 824b 8dbf 2196 4cbf
000000c0: b380 23bf cc89 33bf 435f 58bf f5fa 5abf
000000d0: 86e5 f0be 75cc f7be 5fdd 5bbf a060 f4be
000000e0: 095f 64bf ad8b 82bf 99aa 9a3e ebd5 60bf
000000f0: c72a ecbe 5796 90be 731f d1be 5311 41bf
-0.6332102 -0.49023077 -0.74476033 -0.38030463 -0.61694103 0.12421933 -0.896425 -0.32427555
-0.924052 0.17196244 -0.38934156 -0.4096123 -0.039521933 -0.15621923 -0.4490471 -1.3276216
-0.116213776 -0.48073915 -0.52179146 -0.71372056 -0.69100404 -0.9005639 -0.71373814 -0.93665606
-0.7557313 -0.6341356 -0.3882947 -0.7949419 -0.14050332 -0.7679747 -0.6336069 -0.7333156
-0.6670899 -0.64774 -0.77225053 -0.90117306 -0.57601994 -0.6108875 -0.9514248 -0.32424262
-1.246104 -0.7360716 -0.19262372 0.054509804 -0.47145382 -1.3138958 -1.1038668 -0.7991658
-0.63868254 -0.70132136 -0.8452036 -0.8553918 -0.47050112 -0.48398176 -0.8588466 -0.4772997
-0.8920751 -1.0198876 0.3020828 -0.8782641 -0.46126387 -0.282397 -0.40844306 -0.7541706
