weights/Act_ReLu_SUB_model_path.pth (torch, 250575 bytes, 8 tensors)

weight f4 [64, 1, 5, 5]
0.1452338 0.08185407 -0.31170794 -0.03161113 0.24053895 0.06415216 -0.0016609674 0.18363331
-0.0071110837 -0.12271031 0.05709992 -0.26078328 -0.09159327 0.09872553 -0.15606813 -0.32200631
0.0997122 -0.15190431 0.54843694 -0.10998833 0.20570359 -0.0050771683 -0.09815245 0.078416206
-0.0994439 -0.1716148 0.16178203 -0.11045302 -0.3365782 -0.06927608 0.064562775 0.114539586
-0.00464184 0.03391931 -0.06112138 -0.1021052 -0.014029278 -0.580855 0.12721416 -0.31292653
-0.15983643 -0.038377024 0.13449973 -0.06852904 -0.074266784 0.13696867 -0.13665937 -0.17090577
-0.04856743 0.03531746 0.09057473 0.04968673 0.0058022225 -0.16184016 0.091361746 -0.02520546
-0.048736446 0.10873271 0.34023622 0.1339116 -0.20707019 -0.011378824 -0.04938689 -0.004822393
0.042457107 -0.18882607 0.17376392 -0.060993083 0.06181219 -0.25235537 -0.43538198 -0.060961
-0.069488086 0.18867974 -0.1032023 0.04774768 0.046003226 0.038081028 -0.059669044 -0.58651686
0.2903655 0.108189605 -0.2951431 0.35343337 0.112181 -0.32335207 -0.056888353 -0.09818904
-0.046458595 -0.18913904 -0.07763721 -0.10143173 -0.09495884 -0.025608912 -0.2922516 0.06776651
-0.16815007 -0.0110478 0.14200112 -0.027293058 0.048590623 0.055588823 0.15325005 -0.22401103
-0.13567394 -0.1603343 -0.11100442 -0.03757765 0.010062104 0.3521664 -0.031142486 0.18634456
0.16308111 -0.5748587 0.07780324 -0.046217185 0.1235602 0.06543272 0.20737536 -0.35497677
0.16875766 -0.048276108 0.04367498 -0.21209408 -0.37963524 0.12047104 0.010390107 0.11682472
-0.016375631 -0.010201464 0.020989269 -0.26841566 0.21054746 0.2933271 0.03141184 -0.3333373
0.040494267 0.3555818 0.1498802 -0.25452408 0.0058320723 -0.129334 -0.16035174 -0.38534772
-0.06629163 0.03653716 -0.077755846 -0.15188578 -0.24809645 -0.20462562 -0.16826834 0.055717647
-0.6147426 -0.2489641 -0.3654022 0.07609895 -0.21370701 -0.17690228 -0.31486398 -0.020921504
0.0057238117 0.10139317 0.2998869 0.054117333 -0.12334282 -0.10716452 0.19925548 0.14011045
0.11415273 -0.07423245 -0.12366285 -0.1900641 0.01456504 -0.006479429 -0.066972084 -0.29848757
-0.40258554 -0.09944279 -0.33011723 -0.051414885 0.150937 -0.26603463 -0.34191668 0.14512645
-0.3507257 -0.14799112 -0.31115058 -0.1491364 -0.38026983 -0.089376785 -0.19401792 -0.34640777
0.003729558 -0.071143255 -0.32744023 -0.010035025 -0.20398442 -0.15786411 -0.21036842 -0.17879093
-0.20244415 -0.39857167 0.10140464 -0.07197025 -0.06118105 -0.016020065 -0.16377036 -0.42569864
-0.3274501 -0.09666756 -0.054065734 -0.054408915 -0.25180224 -0.5929284 0.1121684 -0.25953573
-0.15378714 -0.76274353 -0.48887473 -0.43903235 0.033695117 -0.20306972 -0.2494725 0.027524896
0.041465938 0.057166614 -0.11106065 -0.14910442 -0.227518 0.053669736 0.1730389 -0.015315117
-0.06638818 -0.073363185 -0.008150318 -0.13315248 -0.3179947 0.054551847 0.009051435 0.06795572
0.05276486 -0.12714194 0.17427851 0.10022789 -0.10691237 0.09246229 0.013489076 -0.32169375
-0.38711694 -0.28394136 -0.0947743 0.078484096 -0.16576126 -0.35174355 0.056810796 -0.22485097
00000000: 2bb8 143e 1ba3 a73d 2f98 9fbe ac7a 01bd
00000010: d84f 763e 3562 833d d1b4 d9ba 5f0a 3c3e
00000020: 1804 e9bb 8b4f fbbd 9be1 693d 6385 85be
00000030: 4195 bbbd 9c30 ca3d 53d0 1fbe 03de a4be
00000040: e935 cc3d ce8c 1bbe 5d66 0c3f 9041 e1bd
00000050: f6a3 523e 605e a6bb 2704 c9bd ad98 a03d
00000060: 3ea9 cbbd cabb 2fbe 30aa 253e 3135 e2bd
00000070: fa53 acbe 9ee0 8dbd 7d39 843d bb93 ea3d
00000080: 931a 98bb f9ee 0a3d 6a5a 7abd 881c d1bd
00000090: 0fdb 65bc eab2 14bf 6e44 023e e837 a0be
000000a0: 29ac 23be 3a31 1dbd 4cba 093e f458 8cbd
000000b0: 2f19 98bd 8441 0c3e 6ff0 0bbe ec01 2fbe
000000c0: a4ee 46bd 0aa9 103d 3e7f b93d 5084 4b3d
000000d0: 9220 be3b 6db9 25be de1b bb3d ae7b cebc
000000e0: de9f 47bd 41af de3d 7133 ae3e 1f20 093e
000000f0: 350a 54be 3f6e 3abc e849 4abd 2a05 9ebb
00000100: 81e7 2d3d 9f5b 41be 2bef 313e e2d3 79bd
00000110: c72e 7d3d b934 81be 63ea debe 3eb2 79bd
00000120: c54f 8ebd 4335 413e ba5b d3bd 1293 433d
00000130: e16d 3c3d dafa 1b3d 8767 74bd f825 16bf
00000140: c9aa 943e 8392 dd3d ff1c 97be 38f5 b43e
00000150: 27bf e53d 678e a5be c303 69bd 5617 c9bd
00000160: 5e4b 3ebd aaad 41be 4200 9fbd 70bb cfbd
00000170: c879 c2bd c8c9 d1bc 00a2 95be 2bc9 8a3d
00000180: 882f 2cbe d501 35bc be68 113e b195 dfbc
00000190: f606 473d 1bb1 633d 95ed 1c3e 2663 65be
000001a0: 1cee 0abe ad2e 24be 4956 e3bd 06eb 19bd
000001b0: 86db 243c 284f b43e 871e ffbc 1cd1 3e3e
000001c0: bcfe 263e f129 13bf 4e57 9f3d 3b4e 3dbd
000001d0: 210d fd3d 9701 863d 355a 543e 84bf b5be
000001e0: cfce 2c3e 2bbd 45bd 89e4 323d 312f 59be
000001f0: 8d5f c2be 85b9 f63d 443b 2a3c cc41 ef3d
00000200: 3026 86bc 0b24 27bc b0f1 ab3c c76d 89be
00000210: c199 573e f82e 963e b4a9 003d 30ab aabe
00000220: 51dd 253d d10e b63e 327a 193e fb50 82be
00000230: f81a bf3b 2270 04be 3f33 24be 4c4c c5be
00000240: e8c3 87bd fda7 153d 753e 9fbd f287 1bbe
00000250: ff0c 7ebe 6189 51be 894e 2cbe 3038 643d
00000260: c55f 1dbf 72f0 7ebe ff15 bbbe c4d9 9b3d
00000270: 03d6 5abe df25 35be da35 a1be 9363 abbc
00000280: d08e bb3b 39a7 cf3d c78a 993e 23aa 5d3d
00000290: 299b fcbd 1279 dbbd a109 4c3e 1d79 0f3e
000002a0: e8c8 e93d 2f07 98bd f342 fdbd 2aa0 42be
000002b0: 35a2 6e3c 6451 d4bb a928 89bd 5dd3 98be
000002c0: b11f cebe a9a8 cbbd 2005 a9be 6a98 52bd
000002d0: 3b8f 1a3e b135 88be b40f afbe 079c 143e
000002e0: 5292 b3be fc8a 17be 214f 9fbe 36b7 18be
000002f0: bab2 c2be 2d0b b7bd a2ac 46be 5c5c b1be
00000300: 9a6b 743b 8eb3 91bd 3fa6 a7be f269 24bc
00000310: 4be1 50be 21a7 21be d26a 57be f814 37be
00000320: 854d 4fbe 9611 ccbe 3cad cf3d 2365 93bd
00000330: fb98 7abd 833c 83bc 6bb3 27be 2cf5 d9be
00000340: 8aa7 a7be a4f9 c5bd 0874 5dbd e2db 5ebd
00000350: 39ec 80be 28ca 17bf 8cb8 e53d dee1 84be
00000360: 607a 1dbe 2943 43bf ca4d fabe d9c8 e0be
00000370: e403 0a3d 82f1 4fbe b875 7fbe e47b e13c
00000380: 30d8 293d 8a27 6a3d c473 e3bd d4ae 18be
00000390: 7bfa 68be ccd4 5b3d 1c31 313e 42ec 7abc
000003a0: 87f6 87bd 703f 96bd e988 05bc 2059 08be
000003b0: 34d0 a2be c271 5f3d 784c 143c 5e2c 8b3d
000003c0: f71f 583d 7f31 02be 1176 323e 4844 cd3d
000003d0: dff4 dabd de5c bd3d 4901 5d3c 0bb5 a4be
000003e0: 3134 c6be c360 91be 0719 c2bd 45bc a03d
000003f0: 52bd 29be bb17 b4be 70b2 683d 553f 66be

bias f4 [64]
0.077172264 -0.08787829 -0.12330941 0.10141455 -0.16193552 0.10164862 0.026436774 -0.00244336
0.236102 0.0350228 0.0046489807 0.05226978 -0.07036321 -0.15730059 0.013697424 -0.021687763
-0.057123017 0.0926544 -0.21046093 -0.044155415 -0.092228726 0.14635688 0.014680638 0.12595886
-0.020542642 -0.41896737 -0.019478943 -0.15556923 -0.20893764 -0.13786443 -0.12659559 -0.1857455
0.10446395 -0.20496206 -0.3271518 -0.28627148 -0.08606124 0.07741102 0.05586639 -0.17764412
-0.08685396 -0.1919706 -0.2048072 -0.15981022 0.031695645 -0.1792138 -0.16469558 -0.22463007
-0.06857197 -0.009819117 0.07198094 0.024461135 -0.05600269 -0.05768217 -0.0023714572 0.08490762
-0.19697787 -0.061773147 0.21607925 -0.19873163 -0.19170651 -0.075139046 -0.034687854 -0.00035878806
00000000: 7e0c 9e3d 88f9 b3bd a589 fcbd 6eb2 cf3d
00000010: 6dd2 25be 272d d03d ef91 d83c c720 20bb
00000020: b9c4 713e 1174 0f3d 7a56 983b d618 563d
00000030: 961a 90bd 6813 21be 296b 603c 89aa b1bc
00000040: d3f9 69bd 97c1 bd3d 1283 57be 4fdc 34bd
00000050: 6ae2 bcbd 94de 153e 0f87 703c 5cfb 003e
00000060: 0b49 a8bc e482 d6be 4e92 9fbc 8a4d 1fbe
00000070: c0f3 55be 552c 0dbe 46a2 01be 1134 3ebe
00000080: 32f1 d53d 93e1 51be 7180 a7be 2d92 92be
00000090: e040 b0bd ab89 9e3d 28d4 643d 57e8 35be
000000a0: 7de0 b1bd f193 44be fbb8 51be 4aa5 23be
000000b0: 4bd3 013d d383 37be f5a5 28be 6d05 66be
000000c0: 766f 8cbd 5de0 20bc be6a 933d b862 c83c
000000d0: 1463 65bd 2444 6cbd 736a 1bbb 0ce4 ad3d
000000e0: 91b4 49be d705 7dbd e143 5d3e 4e80 4bbe
000000f0: b64e 44be 80e2 99bd da14 0ebd b81b bcb9

weight f4 [64, 64, 3, 3]
-0.06903491 -0.065987706 0.04517508 -0.043298695 -0.033997905 -0.079026595 -0.041458026 -0.010291843
0.002048591 -0.026496185 -0.021395711 -0.018498465 -0.008088846 0.028084444 0.011376618 -0.102301866
-0.061142627 -0.010196212 0.012144099 -0.0047282563 -0.0455694 -0.07477288 -0.10537641 -0.048962925
-0.026913915 -0.08457739 -0.11415632 0.0004778243 -0.17891091 -0.12075582 -0.052886467 -0.01210156
-0.074081436 -0.0144232595 -0.043892536 -0.07810544 -0.10374246 -0.08635641 -0.013230058 -0.041628227
-0.04201182 0.10200062 -0.13020611 -0.06297702 0.012540438 -0.10942483 -0.15033069 0.012593596
-0.0326427 0.05023175 -0.017734684 0.043641128 -0.018629799 0.054478142 0.11058307 -0.14451522
0.05012377 -0.032238223 -0.05955651 0.049513064 -0.055277705 0.0020130726 0.06818313 -0.07434375
-0.1404383 -0.06252416 -0.0696694 -0.005237756 -0.05399783 -0.06249495 0.012187846 -0.007408546
-0.091138504 -0.0988375 -0.0685263 -0.037169196 -0.055827063 -0.13770497 0.051500466 0.0020142181
0.049306285 -0.04899123 0.089631274 -0.16941857 -0.05429043 -0.070324205 -0.04192157 0.018869735
0.09590008 -0.017536845 0.08702098 0.037746843 0.018915687 -0.11689998 0.078178436 -0.056757983
-0.066534795 0.06169091 -0.06423456 -0.122427806 -0.059303854 -0.11956403 -0.09110727 -0.12634023
-0.04517177 0.069350496 -0.09397228 -0.006404957 -0.07463358 -0.05350058 -0.050934326 -0.10702632
-0.048680186 0.034958765 -0.023564255 -0.06918413 0.049423072 -0.08691801 0.006552963 -0.06152212
-0.014407148 0.010438504 -0.07842104 -0.08057371 -0.002506525 -0.11360523 -0.029551849 -0.07945824
-0.02384667 -0.024537107 -0.07427354 0.011315735 -0.05311264 -0.07410051 -0.12839082 -0.089371845
-0.21879923 -0.14274462 0.019349528 -0.021994187 -0.07994434 -0.03555395 -0.12910922 -0.034259405
0.003762682 -0.18702991 -0.07973261 -0.03398727 0.003166863 -0.15203074 -0.040683255 -0.08044608
-0.0625297 -0.031235045 -0.043226052 -0.039128777 -0.08793678 -0.08264001 -0.06573177 0.03509982
-0.06827222 0.091739185 -0.1412186 -0.13497864 0.11051562 -0.058106773 -0.07870288 -0.0032178415
-0.045340322 -0.030348228 0.08501206 0.0057254108 0.055118073 0.009970306 0.086768135 0.1040504
-0.091028586 0.024332855 -0.05107875 0.027604934 0.011547559 0.025920207 0.080839396 -0.02591626
-0.030039052 0.028066192 0.059942517 0.015726082 -0.043774266 0.030933417 -0.06902478 0.03930128
-0.02207484 -0.0043130703 -0.034389835 -0.038490213 0.03269928 0.033877555 -0.097399004 -0.020858996
-0.035534732 -0.15475993 0.1009034 -0.007359056 -0.089493565 -0.14724194 -0.15861332 -0.042556085
-0.032437447 -0.03503626 -0.04693235 -0.06470701 0.03695902 0.041473754 -0.059389617 -0.07695388
0.01514488 -0.02765659 -0.0653718 -0.08902059 -0.05580782 0.0009097024 -0.06184204 -0.084808506
-0.08353779 -0.04247748 -0.06000362 -0.10627933 -0.11949435 -0.03092516 -0.19524224 -0.060832184
-0.006065959 -0.07248087 -0.120963015 -0.026918992 -0.09187124 -0.054648116 -0.11711216 -0.0874824
-0.1233993 -0.07932647 -0.16707598 -0.16097957 0.05046279 -0.064540125 -0.069112174 -0.014568856
-0.11827923 0.010696385 0.0030870084 -0.052993856 -0.12888849 -0.07606463 -0.028916813 0.07035515
00000000: 2d62 8dbd 9024 87bd 8109 393d f959 31bd
00000010: 6341 0bbd b2d8 a1bd e4cf 29bd 1e9f 28bc
00000020: a741 063b 870e d9bc 0f46 afbc 188a 97bc
00000030: 1487 04bc 5911 e63c ff64 3a3c a483 d1bd
00000040: b170 7abd 030e 27bc 0bf8 463c 7def 9abb
00000050: fba6 3abd 8622 99bd 96cf d7bd 598d 48bd
00000060: 927a dcbc e936 adbd caca e9bd 7e84 fa39
00000070: 6c34 37be d44e f7bd 7b9f 58bd 9f45 46bc
00000080: 02b8 97bd 894f 6cbc a9c8 33bd bff5 9fbd
00000090: ed76 d4bd a1db b0bd e3c2 58bc 5c82 2abd
000000a0: 9614 2cbd b3e5 d03d c054 05be 19fa 80bd
000000b0: 6976 4d3c 201a e0bd 4af0 19be 5f55 4e3c
000000c0: 5ab4 05bd cfbf 4d3d 5448 91bc 0ac1 323d
000000d0: 859d 98bc 7924 5f3d 6079 e23d ccfb 13be
000000e0: 954e 4d3d 3a0c 04bd 87f1 73bd 36ce 4a3d
000000f0: e06a 62bd c1ed 033b 99a3 8b3d 8941 98bd
00000100: 0fcf 0fbe ab0c 80bd d5ae 8ebd 7ba1 abbb
00000110: d42c 5dbd b4fa 7fbd 88af 473c 63c3 f2bb
00000120: d3a6 babd 516b cabd 8457 8cbd ba3e 18bd
00000130: ebaa 64bd 8802 0dbe 27f2 523d f900 043b
00000140: 63f5 493d 07ab 48bd 9a90 b73d 107c 2dbe
00000150: a45f 5ebd 2306 90bd f4b5 2bbd b494 9a3c
00000160: 4367 c43d 6ea9 8fbc 0e38 b23d 6f9c 1a3d
00000170: 12f5 9a3c 4269 efbd 041c a03d 0f7b 68bd
00000180: 6543 88bd 9caf 7c3d 698d 83bd 6ebb fabd
00000190: 99e8 72bd fcdd f4bd 7396 babd 555f 01be
000001a0: 0906 39bd a207 8e3d 8a74 c0bd ace0 d1bb
000001b0: 7ed9 98bd 6d23 5bbd 83a0 50bd 9e30 dbbd
000001c0: e064 47bd ec30 0f3d d309 c1bc 69b0 8dbd
000001d0: d96f 4a3d 1202 b2bd 3dba d63b 9efe 7bbd
000001e0: f50b 6cbc 4206 2b3c 369b a0bd d403 a5bd
000001f0: 8344 24bb dca9 e8bd b816 f2bc 00bb a2bd
00000200: 175a c3bc 0b02 c9bc ba1c 98bd a265 393c
00000210: a48c 59bd 02c2 97bd e278 03be 9608 b7bd
00000220: e80c 60be a52b 12be e782 9e3c 272d b4bc
00000230: dcb9 a3bd 05a1 11bd 3535 04be 9753 0cbd
00000240: 5497 763b c584 3fbe da4a a3bd 3c36 0bbd
00000250: 258b 4f3b f2ad 1bbe 7ca3 26bd eac0 a4bd
00000260: 920f 80bd a3e0 ffbc cd0d 31bd 7f45 20bd
00000270: 3318 b4bd 2a3f a9bd 619e 86bd d4c4 0f3d
00000280: 4ed2 8bbd c1e1 bb3d 9c9b 10be d737 0abe
00000290: 0356 e23d 5e01 6ebd fa2e a1bd 6ce2 52bb
000002a0: c6b6 39bd d99c f8bc ce1a ae3d 3a9c bb3b
000002b0: 7dc3 613d 7f5a 233c 7eb3 b13d 6018 d53d
000002c0: 326d babd b255 c73c f437 51bd be23 e23c
000002d0: f931 3d3c 9d56 d43c 208f a53d 564e d4bc
000002e0: 7514 f6bc 12eb e53c 4986 753d fcd3 803c
000002f0: a54c 33bd 1468 fd3c dd5c 8dbd 61fa 203d
00000300: 4bd6 b4bc a854 8dbb 5bdc 0cbd eaa7 1dbd
00000310: aeef 053d 31c3 0a3d 2179 c7bd 7ce0 aabc
00000320: de8c 11bd 6379 1ebe 71a6 ce3d 3c24 f1bb
00000330: 6748 b7bd 97c6 16be 886b 22be 4a4f 2ebd
00000340: 21dd 04bd 2e82 0fbd 233c 40bd 1c85 84bd
00000350: 5762 173d 62e0 293d 8742 73bd ff99 9dbd
00000360: 3b22 783c 1390 e2bc a6e1 85bd 6d50 b6bd
00000370: be96 64bd 1879 6e3a 144e 7dbd 15b0 adbd
00000380: dc15 abbd defc 2dbd 5bc6 75bd faa8 d9bd
00000390: 74b9 f4bd c356 fdbc 95ed 47be 2b2b 79bd
000003a0: f4c4 c6bb da70 94bd 75bb f7bd 3885 dcbc
000003b0: fd26 bcbd b4d6 5fbd 80d8 efbd f929 b3bd
000003c0: c6b8 fcbd eb75 a2bd f715 2bbe d4d7 24be
000003d0: 12b2 4e3d 9d2d 84bd af8a 8dbd 36b2 6ebc
000003e0: 623c f2bd e43f 2f3c 684f 4a3b 1610 59bd
000003f0: 58fb 03be c6c7 9bbd f4e2 ecbc 5c16 903d

bias f4 [64]
-0.0132786445 -0.0040215943 -0.0422343 0.073597535 -0.04969197 -0.087677695 -0.044708885 -0.09339146
-0.060761955 -0.097828984 -0.08159289 -0.068016335 -0.045082167 -0.060585894 -0.07696238 -0.008616066
-0.075908616 -0.09645355 -0.031388316 -0.061451253 -0.08826787 0.04759807 -0.036664568 -0.07050428
-0.07417205 -0.07831984 -0.031899802 -0.076306246 -0.062163036 -0.016434433 -0.09904778 -0.2766193
-0.08679874 -0.06132765 -0.07953171 -0.09352273 -0.08914713 -0.0625192 -0.06354552 -0.025929576
-0.04516168 -0.03377329 -0.06327275 -0.095158584 -0.06272503 -0.059715968 -0.23649077 0.030007219
-0.089996144 -0.018274203 -0.08697258 -0.042446986 -0.06355923 -0.025523754 -0.041604076 -0.035410747
-0.08324968 -0.08779658 -0.081105076 -0.029527351 -0.04938144 -0.023630835 -0.052128084 -0.016169276
00000000: ac8e 59bc 94c7 83bb e0fd 2cbd 4eba 963d
00000010: cf89 4bbd 5d90 b3bd aa20 37bd 0644 bfbd
00000020: 87e1 78bd 905a c8bd 2c1a a7bd 264c 8bbd
00000030: 14a8 38bd ea28 78bd 749e 9dbd 662a 0dbc
00000040: fa75 9bbd 7089 c5bd 0991 00bd 4fb4 7bbd
00000050: c9c5 b4bd 32f6 423d 962d 16bd 8c64 90bd
00000060: 84e7 97bd 2766 a0bd 5ea9 02bd 7346 9cbd
00000070: ab9e 7ebd 81a1 86bc 90d9 cabd 0ba1 8dbe
00000080: 8ac3 b1bd b432 7bbd 85e1 a2bd d888 bfbd
00000090: c592 b6bd 110a 80bd 2724 82bd 436a d4bc
000000a0: 74fb 38bd dd55 0abd 2595 81bd 81e2 c2bd
000000b0: fb75 80bd bb98 74bd a32a 72be b3d1 f53c
000000c0: e64f b8bd c8b3 95bc ae1e b2bd e4dc 2dbd
000000d0: 572b 82bd 3117 d1bc 0969 2abd dc0a 11bd
000000e0: cf7e aabd b1ce b3bd 6b1a a6bd 58e3 f1bc
000000f0: 3144 4abd 7495 c1bc 4284 55bd 6e75 84bc

weight f4 [32, 64, 3, 3]
0.021816479 -0.104976185 -0.04507848 -0.014192897 -0.06663491 -0.01100362 -0.07605118 -0.07642756
-0.02065387 -0.016718943 -0.06683967 -0.050432548 -0.004794091 0.011364328 0.05185954 -0.04194343
-0.2294438 -0.15197419 0.07339568 -0.049548645 -0.075413235 -0.020752857 -0.06050075 -0.031010807
-0.054864913 0.07566002 -0.063966885 -0.05256346 -0.08625755 -0.18566288 -0.02860107 -0.15894327
-0.086302586 -0.071518935 -0.17750292 0.051383354 -0.014308061 -0.066214524 -0.060882796 -0.073240556
-0.031405944 -0.054390024 -0.10967663 -0.036128376 -0.04244436 0.09848551 0.0885529 -0.02158605
0.06048766 0.018461695 0.028247287 0.10011966 0.15116851 0.12792405 -0.04910085 0.012807752
-0.11523675 0.0023135284 -0.058574498 -0.011927686 0.044945654 -0.020032095 -0.04385217 -0.065529644
0.024108293 -0.015337102 0.07718505 -0.014412923 -0.0059072124 0.07503541 0.010607243 0.05556768
-0.05391429 0.02894961 -0.013393019 -0.1063506 0.0064880345 -0.021678893 0.02036904 0.12858374
0.08417325 0.073934495 0.099011235 0.12929365 0.18039972 0.009305521 0.095924966 0.05760881
0.09693521 0.078954056 0.04477817 0.0072626267 -0.13232474 -0.057400394 0.017641451 -0.07644383
-0.018236859 -0.080135554 -0.046966925 0.055911083 0.21879785 -0.016036259 0.08543555 -0.031891763
0.013132276 -0.03696644 0.042894613 -0.03010584 0.1521592 -0.025087604 -0.038742647 0.09953907
-0.0419606 0.05136493 -0.019893827 0.0072941883 0.03145358 0.045371946 0.011651473 0.08008405
-0.002216386 -0.04072729 -0.002224183 0.03192655 0.028213708 0.07014658 0.04977786 0.13728727
0.052940868 0.0569238 0.13020165 0.12769932 -0.012947706 0.07697773 0.01197681 -0.15176144
-0.049822178 0.011694957 0.017330997 -0.069876626 -0.08836761 -0.01578461 0.0019423687 -0.016581489
-0.114047304 -0.089790784 -0.047729533 -0.0006752473 0.10622632 -0.08546524 -0.06715706 -0.025316495
-0.094948344 -0.036336236 -0.010400163 0.078061536 -0.00069208775 0.10260638 0.14341915 0.14431182
0.05151244 0.07764868 0.025347937 0.04043043 0.08898639 -0.12020776 0.02911684 -0.0024387615
0.08356864 0.14078155 0.07390248 -0.057286453 0.0789863 0.07222263 -0.07375398 -0.061104026
0.11057424 -0.03707679 0.031795364 0.022067923 0.0051820287 -0.018083133 0.07541707 -0.0010853991
-0.041466698 0.07628372 0.15391974 -0.0127264075 0.056642544 -0.0702922 -0.12371944 -0.08967051
-0.11739472 -0.0689103 -0.032430965 -0.03424632 -0.049132552 -0.10484062 -0.05024846 -0.061392408
-0.11523485 0.006771189 -0.011807274 -0.06159621 -0.04999599 -0.11044195 -0.012440004 0.020536669
0.027360627 0.019194815 -0.0007855274 -0.050760947 -0.045079798 -0.072072655 -0.03187603 0.030751374
0.112191685 -0.0015690594 0.0107946815 -0.020469503 0.050823234 -0.013443685 0.11040572 0.057157803
0.08146529 0.097375005 0.038559955 0.016073987 0.03410713 0.093534075 0.011754249 0.0878662
0.0531648 0.09271247 -0.1050608 -0.0024914744 0.0450992 -0.14563029 -0.16483876 -0.103989616
-0.0060907123 -0.02979693 0.044472914 -0.060185045 -0.07700977 -0.027279142 -0.03384678 -0.014551679
-0.036925603 0.0026682983 0.0033960147 -0.056287088 0.03879825 -0.023142308 -0.08023736 0.0074054133
00000000: 79b8 b23c c1fd d6bd 36a4 38bd 5389 68bc
00000010: e277 88bd 8748 34bc b9c0 9bbd 0d86 9cbd
00000020: 4e32 a9bc 2af6 88bc 3de3 88bd 5c92 4ebd
00000030: c017 9dbb 7231 3a3c ab6a 543d e0cc 2bbd
00000040: 51f3 6abe 1f9f 1bbe 7950 963d 85f3 4abd
00000050: 4172 9abd e501 aabc a2cf 77bd 600a febc
00000060: 08ba 60bd a4f3 9a3d 1201 83bd c84c 57bd
00000070: cca7 b0bd 691e 3ebe cb4c eabc 06c2 22be
00000080: 69bf b0bd 8578 92bd 53c3 35be 5a77 523d
00000090: 5c6c 6abc 7b9b 87bd 3d60 79bd 25ff 95bd
000000a0: 85a3 00bd 13c8 5ebd 249e e0bd 59fb 13bd
000000b0: 23da 2dbd c5b2 c93d 395b b53d 3ad5 b0bc
000000c0: e9c1 773d fb3c 973c db66 e73c 890b cd3d
000000d0: ebcb 1a3e 86fe 023e f91d 49bd 9bd7 513c
000000e0: 3f01 ecbd 919e 173b d0eb 6fbd 576c 43bc
000000f0: ef18 383d 591a a4bc 559e 33bd 6834 86bd
00000100: c17e c53c 7848 7bbc 3213 9e3d 2e24 6cbc
00000110: 4a91 c1bb 2aac 993d 00ca 2d3c f09a 633d
00000120: 3bd5 5cbd bc27 ed3c 656e 5bbc 58ce d9bd
00000130: 9499 d43b ef97 b1bc f9dc a63c 75ab 033e
00000140: 0663 ac3d f86a 973d 67c6 ca3d 8e65 043e
00000150: b4ba 383e 2f76 183c 4f74 c43d 37f7 6b3d
00000160: f885 c63d aab2 a13d 5069 373d 54fb ed3b
00000170: 2380 07be ad1c 6bbd ce84 903c 958e 9cbd
00000180: 7765 95bc 1c1e a4bd 6460 40bd 0503 653d
00000190: 8b0c 603e 795e 83bc d5f8 ae3d f0a0 02bd
000001a0: c228 573c 1f6a 17bd 43b2 2f3d 86a0 f6bc
000001b0: 9fcf 1b3e 8584 cdbc 9cb0 1ebd 24db cb3d
000001c0: e1de 2bbd 0864 523d 61f8 a2bc 1604 ef3b
000001d0: 78d5 003d efd7 393d d2e5 3e3c 1b03 a43d
000001e0: c940 11bb a9d1 26bd 99c3 11bb 6ac5 023d
000001f0: 6f20 e73c 03a9 8f3d dfe3 4b3d 0995 0c3e
00000200: 86d8 583d ee28 693d 9553 053e 9cc3 023e
00000210: 9d22 54bc 80a6 9d3d 623a 443c 5a67 1bbe
00000220: 5712 4cbd 349c 3f3c bcf9 8d3c 7a1b 8fbd
00000230: 14fa b4bd ba4e 81bc 1497 fe3a e7d5 87bc
00000240: a291 e9bd 3be4 b7bd 0b80 43bd 1403 31ba
00000250: 2f8d d93d 6608 afbd a489 89bd 8a64 cfbc
00000260: 4774 c2bd 4ed5 14bd 7265 2abc bade 9f3d
00000270: 396d 35ba 4b23 d23d 78dc 123e 7ac6 133e
00000280: b5fe 523d 4506 9f3d 7aa6 cf3c 619a 253d
00000290: 7f3e b63d 7c2f f6bd 7086 ee3c a1d3 1fbb
000002a0: 0926 ab3d 0a29 103e 2f5a 973d 33a5 6abd
000002b0: 92c3 a13d 75e9 933d 540c 97bd 3748 7abd
000002c0: bf74 e23d d5dd 17bd db3b 023d cac7 b43c
000002d0: 02ce a93b 1423 94bc 4474 9a3d f343 8eba
000002e0: fcd8 29bd a43a 9c3d 239d 1d3e 6c82 50bc
000002f0: 0302 683d 5bf5 8fbd 9e60 fdbd 2ca5 b7bd
00000300: a56c f0bd d820 8dbd 55d6 04bd df45 0cbd
00000310: 373f 49bd aeb6 d6bd 54d1 4dbd 9b76 7bbd
00000320: 4000 ecbd dae0 dd3b 4c73 41bc 4f4c 7cbd
00000330: 98c8 4cbd 642f e2bd 29d1 4bbc 843c a83c
00000340: 6523 e03c 723e 9d3c daeb 4dba b6ea 4fbd
00000350: 98a5 38bd d49a 93bd 7190 02bd 4eea fb3c
00000360: c1c4 e53d e6a8 cdba 2ddc 303c a9af a7bc
00000370: 062c 503d e742 5cbc 651c e23d 4d1e 6a3d
00000380: 46d7 a63d 8c6c c73d 0bf1 1d3d 98ad 833c
00000390: ebb3 0b3d cb8e bf3d e594 403c 32f3 b33d
000003a0: 55c3 593d 09e0 bd3d 1e2a d7bd 0148 23bb
000003b0: f0b9 383d 1b20 15be 7ecb 28be 82f8 d4bd
000003c0: 9994 c7bb b118 f4bc 3b29 363d 9884 76bd
000003d0: 4cb7 9dbd 8278 dfbc eca2 0abd 2a6a 6ebc
000003e0: 4d3f 17bd 9ede 2e3b ac8f 5e3b 4a8d 66bd
000003f0: eaea 1e3d f094 bdbc 7c53 a4bd 1ca9 f23b

bias f4 [32]
-0.02218911 -0.072258666 -0.0414387 -0.3049797 -0.07645067 -0.2086246 -0.10281156 -0.09376461
-0.04360598 -0.1487247 -0.27274865 -0.041668173 -0.044917434 -0.022898769 0.18832178 -0.0774335
0.072064765 -0.06490694 -0.041731052 0.08295729 -0.04458494 -0.07389697 -0.11606553 -0.10531674
-0.07541149 -0.0695169 -0.0582212 -0.04228379 -0.08190959 -0.06448356 -0.08483206 -0.049796212
00000000: f0c5 b5bc 5afc 93bd a0bb 29bd 4d26 9cbe
00000010: 2b92 9cbd b0a1 55be de8e d2bd a907 c0bd
00000020: 2f9c 32bd 4a4b 18be b6a5 8bbe 3fac 2abd
00000030: 58fb 37bd 3396 bbbc 6dd7 403e 7495 9ebd
00000040: b196 933d eeed 84bd 2eee 2abd 83e5 a93d
00000050: b39e 36bd 4b57 97bd c4b3 edbd 4eb0 d7bd
00000060: 5771 9abd e05e 8ebd 5a79 6ebd c431 2dbd
00000070: 37c0 a7bd f50f 84bd 6ebc adbd 1df7 4bbd

weight f4 [16, 32, 3, 3]
-0.07321287 -0.1294775 -0.024938308 -0.07518725 -0.112482205 -0.09784779 -0.123578124 -0.009437772
0.030771734 -0.083776794 -0.022004522 -0.06419839 -0.15895955 -0.058615908 -0.03414086 -0.009435879
-0.047013726 -0.10610873 0.019587588 0.020226246 -0.06947768 -0.056872934 -0.11054515 -0.14262447
0.020611927 -0.092285156 -0.013139834 -0.22122528 -0.11919676 -0.070304506 -0.047873747 0.13172933
-0.06111293 0.046247777 -0.053846337 -0.056753207 -0.122641124 -0.11736999 -0.093187444 0.12733808
-0.099521 0.039675813 -0.090044886 -0.05704323 0.014410522 -0.113503434 0.1917688 -0.12975198
-0.00915227 0.15170883 -0.079637334 -0.12069347 -0.030371547 -0.07040889 0.0412096 0.20039184
0.010503824 0.010399608 0.12144145 0.111362025 -0.016886977 0.10160492 0.066420734 0.087822475
0.09610963 0.08468548 0.049122937 0.0986298 0.07594062 -0.0035119776 0.08238474 -0.012252031
-0.032781646 0.04131551 0.024370693 0.008515682 0.053079065 0.13179272 0.024674734 0.037123717
-0.011823424 -0.0041455184 -0.06910734 0.06298462 -0.15631895 0.011387391 0.13839354 -0.10543167
0.12409162 -0.024888298 -0.36185488 -0.2660205 -0.14231344 -0.23412365 -0.1953166 -0.2517041
-0.34425622 -0.23565052 -0.17060153 0.03880565 -0.07285997 -0.020955551 -0.003158215 0.011248832
0.059038997 -0.04002671 -0.14095071 -0.06917257 -0.11278048 -0.08223667 0.053532097 -0.022438863
-0.0017686059 0.08717383 -0.16284288 -0.027052872 -0.023662506 -0.021866554 -0.013835379 0.031308554
0.025408149 -0.047279585 -0.07546277 -0.029438809 -0.08873763 -0.042993642 0.017051047 0.12812366
0.07122827 0.10596172 0.12925194 0.048849612 0.039812542 0.06776532 0.008514176 -0.03583271
0.0808167 0.04068882 0.03190993 0.10320685 0.0065840036 0.041345403 0.055613074 0.008175333
0.10839881 -0.14318518 -0.07112158 0.17150448 -0.0629477 -0.07497926 0.063332945 0.063377544
-0.03303453 -0.019050092 0.15782152 -0.04636029 0.03363977 0.18939477 -0.023721077 -0.04471679
0.048082963 -0.053869084 -0.10344721 -0.0061377552 -0.13592792 -0.047000714 -0.040367607 -0.012693637
-0.17548724 0.07180956 -0.049161736 0.15456966 0.19568428 -0.15848482 0.12900054 0.25813228
-0.1505657 -0.13597333 -0.271966 -0.03256786 0.030851645 -0.06210485 -0.038779456 -0.19191058
-0.032131117 -0.0046452475 -0.0026631905 -0.030544665 -0.03606374 -0.07905196 -0.029290196 -0.11953565
-0.13303043 -0.09130392 -0.06470093 -0.13315739 -0.030569984 -0.0038182589 0.024025593 0.09187857
0.07215758 0.011386842 0.06639919 -0.011359553 0.0015488626 0.09763107 0.159153 -0.023540363
0.05731382 -0.022047972 -0.061422344 0.04502043 -0.14612879 0.07646395 -0.044321552 0.026214492
-0.049268678 0.13869599 -0.039623514 -0.027590398 0.038814213 -0.08029236 -0.13144843 -0.063236356
-0.03478919 -0.03762626 -0.18477216 0.07925661 -0.02551475 -0.060925134 0.0038337528 -0.11987199
-0.07534077 -0.025782375 0.08598314 0.14347096 0.09343958 0.10357607 0.038268305 0.09155496
0.13020377 0.069280624 0.08214034 -0.017929468 -0.0771527 -0.10120645 -0.03661664 -0.052566335
-0.031311214 -0.06630522 -0.13746326 -0.04601931 -0.040616784 0.09633419 -0.09192547 0.17062679
00000000: a1f0 95bd c095 04be 6c4b ccbc c6fb 99bd
00000010: 125d e6bd 6c64 c8bd 8716 fdbd e3a0 1abc
00000020: 0115 fc3c 2b93 abbd d442 b4bc 727a 83bd
00000030: 4bc6 22be 3c17 70bd 49d7 0bbd f298 1abc
00000040: 7791 40bd 894f d9bd 2676 a03c 83b1 a53c
00000050: 504a 8ebd 98f3 68bd 7f65 e2bd 260c 12be
00000060: 58da a83c 0000 bdbd 7548 57bc e188 62be
00000070: 6e1d f4bd cffb 8fbd 4317 44bd 0ee4 063e
00000080: 8d51 7abd 4f6e 3d3d fa8d 5cbd 0d76 68bd
00000090: 452b fbbd ad5f f0bd 0fd9 bebd ea64 023e
000000a0: abd1 cbbd 1b83 223d 7469 b8bd 29a6 69bd
000000b0: 1c1a 6c3c 7d74 e8bd 0a5f 443e b4dd 04be
000000c0: 67f3 15bc 8f59 1b3e e618 a3bd 232e f7bd
000000d0: c0cd f8bc 8932 90bd 66cb 283d 8533 4d3e
000000e0: 3b18 2c3c 1e63 2a3c 4cb6 f83d c611 e43d
000000f0: 8f56 8abc 3e16 d03d 9807 883d 45dc b33d
00000100: 20d5 c43d 956f ad3d 2235 493d 6cfe c93d
00000110: c186 9b3d 3529 66bb 55b9 a83d bebc 48bc
00000120: 0c46 06bd 743a 293d 0ca5 c73c 5c85 0b3c
00000130: 6f69 593d acf4 063e ab22 ca3c 0a0f 183d
00000140: 09b7 41bc 21d7 87bb 2688 8dbd 15fe 803d
00000150: 1312 20be 2e92 3a3c 09b7 0d3e 8fec d7bd
00000160: bf23 fe3d 8be2 cbbc 0b45 b9be d733 88be
00000170: 9dba 11be 1cbe 6fbe 1301 48be 5cdf 80be
00000180: 5a42 b0be 5f4e 71be 2bb2 2ebe acf2 1e3d
00000190: 9c37 95bd faaa abbc 0efa 4ebb 054d 383c
000001a0: e0d2 713d 0cf3 23bd 6255 10be 59aa 8dbd
000001b0: 74f9 e6bd b36b a8bd 7944 5b3d b5d1 b7bc
000001c0: 91d0 e7ba 3188 b23d 49c0 26be fc9d ddbc
000001d0: dfd7 c1bc 7d21 b3bc c9ad 62bc 663d 003d
000001e0: c024 d03c 3da8 41bd 3a8c 9abd a829 f1bc
000001f0: 13bc b5bd 1a1a 30bd a3ae 8b3c d932 033e
00000200: 21e0 913d 7502 d93d 9f5a 043e 8816 483d
00000210: 7a12 233d 8bc8 8a3d 0b7f 0b3c 52c5 12bd
00000220: 3a83 a53d 52a9 263d fdb3 023d 1d5e d33d
00000230: a0be d73b cc59 293d 89ca 633d d5f1 053c
00000240: 3200 de3d 239f 12be 31a8 91bd df9e 2f3e
00000250: b9ea 80bd ba8e 99bd b4b4 813d 16cc 813d
00000260: 374f 07bd f00e 9cbc f79b 213e 4ae4 3dbd
00000270: dbc9 093d b4f0 413e b452 c2bc f428 37bd
00000280: a4f2 443d d4a5 5cbd 21dc d3bd 391f c9bb
00000290: b030 0bbe d283 40bd 8158 25bd f9f8 4fbc
000002a0: edb2 33be e410 933d d15d 49bd 8247 1e3e
000002b0: 7661 483e d849 22be b818 043e ea29 843e
000002c0: e52d 1abe 983c 0bbe 213f 8bbe e065 05bd
000002d0: 97bc fc3c a861 7ebd 35d7 1ebd 3584 44be
000002e0: eb9b 03bd 2937 98bb ec88 2ebb ce38 fabc
000002f0: 92b7 13bd fee5 a1bd fef1 efbc 1bcf f4bd
00000300: 2139 08be 8dfd babd ec81 84bd 695a 08be
00000310: e76d fabc c13b 7abb 52d1 c43c d52a bc3d
00000320: 5ac7 933d e08f 3a3c 4cfc 873d 6b1d 3abc
00000330: 3403 cb3a ccf2 c73d 01f9 223e b8d7 c0bc
00000340: e5c1 6a3d f39d b4bc ff95 7bbd 5867 383d
00000350: c9a2 15be 2299 9c3d 848a 35bd c6bf d63c
00000360: f4cd 49bd 5206 0e3e 444c 22bd 4205 e2bc
00000370: a7fb 1e3d 5270 a4bd 6b9a 06be 1082 81bd
00000380: 1c7f 0ebd fe1d 1abd ea34 3dbe 4a51 a23d
00000390: 4f04 d1bc a28c 79bd b33f 7b3b 727f f5bd
000003a0: 434c 9abd 8f35 d3bc ee17 b03d 0dea 123e
000003b0: 405d bf3d b11f d43d 3abf 1c3d 2b81 bb3d
000003c0: 2354 053e 00e3 8d3d 3239 a83d d2e0 92bc
000003d0: 3c02 9ebd 5445 cfbd 54fb 15bd cc4f 57bd
000003e0: 3040 00bd 08cb 87bd 2bc3 0cbe be7e 3cbd
000003f0: c95d 26bd dc4a c53d 6c43 bcbd cab8 2e3e

bias f4 [16]
0.07577205 0.07564888 0.0724122 0.0604629 0.078148246 0.07691258 0.07345644 0.061424915
0.0799776 0.077741675 0.073329136 0.06707925 0.080625646 0.08071418 0.078565255 0.06567555
00000000: 602e 9b3d cded 9a3d d94c 943d f2a7 773d
00000010: 300c a03d 5884 9d3d 5470 963d b198 7b3d
00000020: 4ccb a33d 0737 9f3d 962d 963d d960 893d
00000030: 0f1f a53d 7a4d a53d d2e6 a03d e780 863d
