weights/Act_Tanh_SRCNN_model_path.pth (torch, 85159 bytes, 6 tensors)

weight f4 [64, 1, 9, 9]
0	0xbea0ceee	-0.31407875
1	0xbe6f6c56	-0.2338117
2	0xbe4d2231	-0.20032574
3	0xbe35af54	-0.17742664
4	0xbeb0f6d1	-0.34563306
5	0xbe5a6ae2	-0.21329835
6	0xbe937e24	-0.28807175
7	0xbe73cb19	-0.23807944
8	0xbe78971d	-0.24276395
9	0xbe20713d	-0.15668197
10	0xbeae891c	-0.3408898
11	0xbeaab86d	-0.3334383
12	0xbea0b951	-0.31391385
13	0xbe37edc5	-0.17961796
14	0xbeb31657	-0.3497798
15	0xbe9ca9f9	-0.3059843
16	0xbe33f95d	-0.17575593
17	0xbe7212c0	-0.23639965
18	0xbe93183f	-0.28729436
19	0xbe300956	-0.17191061
20	0xbeae20c8	-0.34009385
21	0xbe5209b7	-0.20511518
22	0xbe4d4f27	-0.20049725
23	0xbe510116	-0.2041057
24	0xbe25f2c0	-0.16205883
25	0xbe8d510f	-0.27600905
26	0xbe8215ec	-0.2540735
27	0xbe9559fb	-0.29170212
28	0xbea7a67d	-0.32744208
29	0xbeaadfb9	-0.33373812
30	0xbdec80c2	-0.11547996
31	0xbe284f4c	-0.164365
32	0xbe304cfd	-0.17216869
33	0xbe0c7f51	-0.13720442
34	0xbe6bd1b7	-0.23029219
35	0xbe9a9b8a	-0.30196792
36	0xbe9ce759	-0.30645254
37	0xbeb3709a	-0.35046846
38	0xbe1f22f0	-0.15540671
39	0xbe1ecd5f	-0.1550803
40	0xbea26a9c	-0.31721961
41	0xbe6aae2a	-0.22918001
42	0xbe1c7860	-0.15280294
43	0xbe8cfeed	-0.27538243
44	0xbe5bfb1f	-0.21482514
45	0xbe9eb509	-0.30997494
46	0xbeb70216	-0.3574378
47	0xbe1b8642	-0.15187934
48	0xbe2ce7a6	-0.16885242
49	0xbe00ac83	-0.12565808
50	0xbe46e6fd	-0.19424053
51	0xbddd049d	-0.107918955
52	0xbe384db0	-0.17998385
53	0xbe094718	-0.13406026
54	0xbe3cfe0a	-0.18456283
55	0xbeac9852	-0.3370996
56	0xbea84a7d	-0.3286933
57	0xbe3bebb0	-0.18351626
58	0xbe5bfd08	-0.21483243
59	0xbe95ed90	-0.29282808
60	0xbe701058	-0.23443735
61	0xbe8c2336	-0.27370614
62	0xbe8ce927	-0.2752163
63	0xbeaf1809	-0.34198025
64	0xbe942a8f	-0.2893872
65	0xbe45de91	-0.19323184
66	0xbeb0ee43	-0.3455678
67	0xbe90668a	-0.2820323
68	0xbe4e3efe	-0.20141217
69	0xbe1b0c4a	-0.15141407
70	0xbea0434a	-0.31301337
71	0xbe376925	-0.17911203
72	0xbe9ebecd	-0.31004944
73	0xbe175857	-0.14779793
74	0xbea8e6f9	-0.32988718
75	0xbe516ffe	-0.20452878
76	0xbe443216	-0.19159731
77	0xbe33dcd3	-0.17564707
78	0xbea8e535	-0.3298737
79	0xbeb321c4	-0.349867
80	0xbe7c1fc4	-0.24621493
81	0xbdd51e00	-0.10406113
82	0xbe420d39	-0.18950357
83	0xbe27c517	-0.16383778
84	0xbeacd618	-0.3375709
85	0xbe5a1dce	-0.21300432
86	0xbe1c60ae	-0.15271255
87	0xbe99a023	-0.30004987
88	0xbe574258	-0.21021402
89	0xbe528a22	-0.20560506
90	0xbe7aa5ee	-0.2447736
91	0xbe3c153a	-0.18367472
92	0xbe6cdbb7	-0.2313069
93	0xbe7bb79b	-0.24581759
94	0xbe9f819a	-0.31153566
95	0xbe9364c8	-0.28787827
96	0xbe96b771	-0.2943683
97	0xbe087774	-0.13326818
98	0xbe2d57b1	-0.16927983
99	0xbe786d72	-0.242605
100	0xbe555bfb	-0.20835869
101	0xbea94514	-0.33060515
102	0xbeace315	-0.33767
103	0xbe7ca310	-0.24671578
104	0xbe95cc12	-0.29257256
105	0xbe0e3ee0	-0.13891172
106	0xbea17b32	-0.31539303
107	0xbe83b9ba	-0.25727636
108	0xbe61b6a7	-0.22042333
109	0xbe82581a	-0.2545784
110	0xbe783780	-0.24239922
111	0xbe6c10f2	-0.23053339
112	0xbec98e09	-0.39366177
113	0xbdd87fbd	-0.10571239
114	0xbea8d792	-0.32976967
115	0xbe1beb01	-0.15226366
116	0xbe7b80d2	-0.2456086
117	0xbe32b698	-0.17452466
118	0xbe3dcd19	-0.1853527
119	0xbe69b954	-0.22824603
120	0xbe88c442	-0.26712233
121	0xbeafb64d	-0.34318772
122	0xbd8dc267	-0.06921845
123	0xbe15bf36	-0.14623722
124	0xbe9eb9ce	-0.31001133
125	0xbe6344f0	-0.22194266
126	0xbeb69026	-0.35656852
127	0xbeadfc77	-0.33981678
128	0xbeea6a2e	-0.45784134
129	0xbeae5344	-0.34047902
130	0xbe65ce84	-0.2244206
131	0xbdbef2a3	-0.09323623
132	0xbe23a64b	-0.15981404
133	0xbe9d1803	-0.30682382
134	0xbe98e197	-0.2985961
135	0xbe46fd31	-0.19432522
136	0xbe4a7b72	-0.19773653
137	0xbe9c8c4c	-0.30575788
138	0xbe9832a9	-0.2972615
139	0xbe98d462	-0.29849535
140	0xbea5955d	-0.32340518
141	0xbe1685f2	-0.14699534
142	0xbe5e6597	-0.21718441
143	0xbe06643e	-0.13124177
144	0xbe55cc23	-0.20878653
145	0xbe30615b	-0.17224638
146	0xbead7f2b	-0.33886084
147	0xbe7afc5c	-0.2451033
148	0xbe9546a8	-0.2915547
149	0xbe8b8bf0	-0.272552
150	0xbea4ffb5	-0.3222634
151	0xbe2e3754	-0.17013294
152	0xbe03379c	-0.12814182
153	0xbe85e9fa	-0.26155072
154	0xbe659110	-0.22418618
155	0xbe913e95	-0.2836806
156	0xbe65de8a	-0.22448173
157	0xbe9c5b50	-0.30538416
158	0xbe8ffab3	-0.28120956
159	0xbe2e80cd	-0.17041321
160	0xbe02b881	-0.12765695
161	0xbe3eccab	-0.18632762
162	0x3d97c0e0	0.07409835
163	0xbd8c0500	-0.06836891
164	0x3d0dfb6e	0.03466361
165	0x3d7bf380	0.061511517
166	0x3d07c825	0.033149857
167	0xbe1a585f	-0.15072773
168	0xbd285045	-0.041092176
169	0x3d85c9a1	0.06532598
170	0x3e16fa7c	0.1474399
171	0xbd55098f	-0.05201107
172	0xbde37ebe	-0.111081585
173	0xbdc6fdb0	-0.09716356
174	0xbd169083	-0.03675891
175	0x3d8a00bf	0.067384236
176	0x3c5da5f4	0.013528336
177	0xbe1115e4	-0.14168507
178	0x3cdb2578	0.026751265
179	0x3d859365	0.06522254
180	0xbcbe9fbc	-0.023269527
181	0xbe211802	-0.15731815
182	0xbddb6295	-0.107121624
183	0x3d445cd3	0.047940087
184	0x3d2ffc84	0.042965427
185	0x3d1c97ca	0.038230695
186	0xbd7215f8	-0.059102982
187	0xbe1aeb6d	-0.1512887
188	0xbd94a122	-0.07257296
189	0xbd40b26a	-0.04704515
190	0xbe007dd2	-0.12547997
191	0x3e18109a	0.14850083
192	0x3e188ab8	0.14896667
193	0x3e5d2159	0.21594752
194	0x3caa3d3d	0.020781154
195	0xbd88730a	-0.06662567
196	0xbd7a1020	-0.061050534
197	0xbd1b4099	-0.037903402
198	0x3d236ec1	0.039900545
199	0x3db1e43d	0.08686111
200	0x3ea68230	0.325212
201	0x3eedf9aa	0.4647954
202	0x3ed6d135	0.41956487
203	0x3ea5323e	0.32264894
204	0x3e23e08e	0.1600363
205	0x3d741c49	0.059597287
206	0xbdd22fba	-0.10263009
207	0xbd5c0816	-0.05371865
208	0x3d40b7a2	0.047050126
209	0x3df4d5fa	0.11954875
210	0x3ec97368	0.3934586
211	0x3ead19fc	0.33808887
212	0x3e817296	0.25282735
213	0x3ddecc8c	0.10878858
214	0x3d1e4c9c	0.03864728
215	0xbdc9a883	-0.09846594
216	0xbe0f16a6	-0.13973483
217	0xbe14efbf	-0.14544581
218	0x3aa163d8	0.0012313081
219	0x3df60aec	0.12013802
220	0x3ebb5a51	0.36592343
221	0x3e29db92	0.16587666
222	0xbdf83854	-0.12120119
223	0xbdfe5e2b	-0.12420305
224	0xbccec197	-0.025238795
225	0xbde595bc	-0.112102
226	0xbce128e6	-0.027485322
227	0xbe08d6d9	-0.13363208
228	0xbd6b16ea	-0.0573949
229	0xbd0c9637	-0.034322944
230	0x3d78e2fd	0.060763348
231	0xbe12b590	-0.14327073
232	0xbd2b5581	-0.04182959
233	0xbd9435bd	-0.07236812
234	0xbd1709b5	-0.03687449
235	0xbd7ba1e4	-0.061433688
236	0xbd4b87ab	-0.04968993
237	0xbca37310	-0.019952327
238	0x3d53fa98	0.051752657
239	0xbdbe4d3d	-0.09292076
240	0x3c7ba390	0.015358821
241	0xbc508733	-0.0127275465
242	0x3df516e7	0.11967259
243	0xbd8ba342	-0.06818248
244	0xbe0147f6	-0.12625107
245	0x3d19a323	0.037509095
246	0xbd3cd9f0	-0.04610628
247	0xbd013a74	-0.031549886
248	0xbd6b537d	-0.057452668
249	0xbc54093a	-0.012941653
250	0x3d6c9ef1	0.057768766
251	0xbe18c416	-0.14918551
252	0xbd8ea503	-0.06965067
253	0xbd501fcd	-0.050811578
254	0x3d672142	0.0564282
255	0x3ddb9a4f	0.107227914

bias f4 [64]
0	0xbe806a42	-0.25081068
1	0xbe228fea	-0.15875211
2	0xbf2f23ac	-0.68413806
3	0xbd328bc7	-0.043590333
4	0x3e3a7ef2	0.18212488
5	0x3eaca549	0.33719853
6	0xbe555ea5	-0.20836885
7	0x3d05f850	0.032707512
8	0x3e4ec54f	0.20192455
9	0xbe8dbebc	-0.2768458
10	0x3e5df830	0.21676707
11	0xbe4080c9	-0.18799128
12	0x3f030bc2	0.51189816
13	0x3e47c52c	0.19508809
14	0x3d995961	0.07487751
15	0x3dcef3d4	0.101051
16	0xbe17cc23	-0.14823966
17	0x3e0d5c48	0.13804734
18	0xbe659c33	-0.22422867
19	0xbe39415c	-0.18091339
20	0xbe30d6ba	-0.17269412
21	0xbe9c366e	-0.30510277
22	0x3c3af1ab	0.011410157
23	0xbddc7319	-0.10764141
24	0xbe97cf6b	-0.29650435
25	0x3e5168af	0.2045009
26	0x3ea55d64	0.32297814
27	0x3dd8cd3a	0.10586019
28	0x3e866b24	0.26253617
29	0xbe868e42	-0.2628041
30	0x3eac1c49	0.3361533
31	0x3dfee53f	0.12446069
32	0x3ec9d056	0.3941676
33	0x3e62dee6	0.22155342
34	0x3b861ede	0.004093035
35	0xbe8aba72	-0.2709537
36	0x3d1e140f	0.038593348
37	0x3d30afa8	0.04313627
38	0xbe4b6cac	-0.19865674
39	0xbe2db8d4	-0.16965038
40	0x3e857963	0.26069173
41	0x3e8ed916	0.27899998
42	0x3d9e3776	0.07725422
43	0x3d83cd40	0.06435633
44	0xbe05f4c0	-0.13081646
45	0xbed9735b	-0.42470822
46	0x3cc8090b	0.024418375
47	0x3e720c65	0.2363754
48	0xbe2424f1	-0.16029717
49	0x3e7f9a21	0.2496114
50	0x3e52a43a	0.2057046
51	0x3d99fcdb	0.075189315
52	0xbeaaa5e3	-0.33329687
53	0x3d724671	0.05914921
54	0x3edd0ee6	0.4317543
55	0xbda7aa92	-0.081868306
56	0xbe6e1abd	-0.23252387
57	0xbe69be2c	-0.22826451
58	0xbd8aac25	-0.06771115
59	0xbe4ca734	-0.19985658
60	0xbe89ada9	-0.26890305
61	0xbe56800f	-0.20947288
62	0xbd2ddccc	-0.042446896
63	0xbe2de03e	-0.16980073

weight f4 [32, 64, 1, 1]
0	0xbd6b9508	-0.057515174
1	0x3ce058be	0.027386066
2	0xbe3d186c	-0.18466347
3	0x3e56cda4	0.20976883
4	0xbe24f5b3	-0.16109352
5	0x3e24838d	0.16065808
6	0xbde90c77	-0.113793306
7	0x3d1053fb	0.03523634
8	0xbe22a0b1	-0.15881611
9	0x3e021b33	0.12705688
10	0xbe60824a	-0.21924701
11	0x3e37bd58	0.17943323
12	0xbe8168c8	-0.25275254
13	0x3e474d19	0.19463004
14	0xbe253ca9	-0.16136421
15	0xbd1c45a0	-0.038152337
16	0xbe540596	-0.20705256
17	0xbd96fced	-0.073724605
18	0xbe24d653	-0.16097383
19	0xbe62356e	-0.22090694
20	0x3d95b112	0.07309164
21	0xbd349316	-0.044085585
22	0x3da0b2e8	0.07846624
23	0xbd0cc9e5	-0.03437223
24	0xbdf9a9fb	-0.12190624
25	0xbe2006f6	-0.15627655
26	0xbeb3dd32	-0.35129696
27	0x3ddb512b	0.10708841
28	0x3e301557	0.1719564
29	0x3e7820a0	0.24231195
30	0xbea1eeb4	-0.3162743
31	0xbe55aef6	-0.20867524
32	0x3e44ec2d	0.19230719
33	0xbe281f84	-0.16418272
34	0xbe334b82	-0.17509273
35	0x3dc52e03	0.09627917
36	0x3e89813e	0.26856416
37	0x3e7dcfdf	0.24786328
38	0xbccfcc44	-0.025365956
39	0x3e8fb96c	0.28071153
40	0xbe463426	-0.1935583
41	0x3e63788e	0.22213957
42	0x3bcf8aea	0.0063336985
43	0xbe011858	-0.12606943
44	0x3e1992a5	0.14997347
45	0x3eb91541	0.36149028
46	0x3e22e8f7	0.15909182
47	0x3e518c4f	0.2046368
48	0x3e783f6b	0.24242942
49	0x3e4ffcd4	0.2031129
50	0x3e898978	0.26862693
51	0xbe8a7b1d	-0.27047053
52	0x3eaabea8	0.33348584
53	0xbe85da7e	-0.2614326
54	0x3e0852ff	0.1331291
55	0xbd6d78ca	-0.05797652
56	0x3eb76321	0.35817817
57	0x3ea5235f	0.32253549
58	0x3d9710e3	0.07376268
59	0xbe199c7b	-0.15001099
60	0x3e96974e	0.2941231
61	0x3ec19622	0.37809855
62	0xbe57bb13	-0.21067457
63	0xbeda4f1e	-0.42638487
64	0x3e21d09e	0.15802237
65	0xbe039b30	-0.12852168
66	0xbecfafde	-0.40563864
67	0x3eee47dc	0.465392
68	0xbe84083d	-0.25787535
69	0xbd1d492b	-0.038399857
70	0xbd8c49b8	-0.06849998
71	0xbdb1c7b1	-0.08680666
72	0x3e085b03	0.13315968
73	0xbd7f31e3	-0.062303435
74	0x3dd5b095	0.10434071
75	0x3ece1163	0.4024764
76	0xbedc9951	-0.4308572
77	0xbe89410a	-0.26807433
78	0x3cfb2746	0.030658375
79	0xbc805b29	-0.015668469
80	0xbc8f65d7	-0.017504616
81	0x3c8b4516	0.017000716
82	0xbecbeb82	-0.39828116
83	0xbe9c2b6e	-0.30501884
84	0xbd6e66ec	-0.058203623
85	0x3e3c2cef	0.18376516
86	0xbe7498e6	-0.23886451
87	0x3db3954b	0.0876871
88	0x3c387e8f	0.011260643
89	0xbe6e1a95	-0.23252328
90	0xbe3ec386	-0.18629274
91	0xbc22e775	-0.009942879
92	0xbe8e1ff6	-0.2775876
93	0x3ee90398	0.45510554
94	0xbed595ed	-0.41715947
95	0xbed6898e	-0.4190182
96	0xbe7ad8a7	-0.24496709
97	0xbd20b810	-0.039238036
98	0xbee7581f	-0.4518442
99	0x3c81bef7	0.01583813
100	0x3d97497a	0.073870614
101	0x3e992b01	0.29915622
102	0x3e3af423	0.18257193
103	0x3c8a149e	0.016855534
104	0xbeb290e4	-0.34876168
105	0xbbfb1a47	-0.0076630446
106	0x3d929c5f	0.07158732
107	0x3da1efcf	0.07907068
108	0x3e361996	0.17783198
109	0x3ea58ae4	0.32332528
110	0xbdc1b516	-0.094583675
111	0x3e68a69d	0.22719808
112	0x3ecc50b4	0.39905322
113	0xbe046055	-0.12927373
114	0x3e4fbb1e	0.20286223
115	0xbea5d831	-0.32391503
116	0x3eae7d91	0.34080175
117	0x3d86f8c6	0.065904185
118	0x3c546ce7	0.0129654175
119	0xbdf6ad3b	-0.1204476
120	0x3ea3ba66	0.31978148
121	0x3e9080f3	0.2822338
122	0xbd2bd2a4	-0.04194893
123	0x3e0ee317	0.13953815
124	0x3eede628	0.46464658
125	0x3ec8df58	0.39232898
126	0xbece3810	-0.40277147
127	0xbe932026	-0.28735465
128	0x3e43b949	0.1911365
129	0xbbcc9bc8	-0.0062441565
130	0xbeaeec25	-0.3416454
131	0x3e6223b5	0.22083934
132	0xbe1c3496	-0.15254435
133	0x3cc0b27b	0.023522606
134	0xbd1b4fe4	-0.037917987
135	0x3e591551	0.21199538
136	0xbe0246ae	-0.12722275
137	0x3e081f86	0.13293275
138	0xbe57c889	-0.21072592
139	0x3e8926ba	0.2678736
140	0xbe189329	-0.14899887
141	0xbd0bee8f	-0.034163054
142	0xbde8d623	-0.11368968
143	0x3e6c207d	0.23059268
144	0xbe1cee55	-0.15325291
145	0xbe30ce05	-0.1726609
146	0xbe34e257	-0.17664467
147	0xbe948660	-0.2900877
148	0x3db0d57b	0.08634468
149	0xbccc52d4	-0.02494184
150	0x3dee2842	0.11628772
151	0xbd8e5fde	-0.06951879
152	0xbd922959	-0.07136793
153	0xbe00db11	-0.12583567
154	0xbe4a8642	-0.19777778
155	0x3deaa32c	0.11456904
156	0xbde5ab30	-0.11214292
157	0x3e33bb58	0.17551935
158	0xbe27cb37	-0.16386114
159	0xbe2208d7	-0.15823685
160	0x3e04eaa0	0.12980127
161	0xbe3669ad	-0.1781375
162	0xbe508516	-0.20363268
163	0x3e0da4b5	0.13832362
164	0x3d8131c1	0.06308318
165	0x3da166a4	0.07880905
166	0xbe0389cb	-0.12845533
167	0x3dd094a6	0.101846024
168	0xbe82e103	-0.25562295
169	0x3e4edde9	0.2020184
170	0x3e0663fa	0.13124076
171	0xbd353b3f	-0.044245955
172	0x3dad5426	0.08463316
173	0x3e756ad9	0.2396654
174	0x3c25171c	0.0100763105
175	0x3e8b2f26	0.2718441
176	0x3e4894f0	0.19588065
177	0x3e2841e9	0.16431393
178	0x3e3acf06	0.18243036
179	0xbe223e3a	-0.1584405
180	0x3e8fbd3c	0.28074062
181	0xbdf700c1	-0.12060691
182	0x3e0abde0	0.13548994
183	0xbe12f9a7	-0.14353047
184	0x3e32228a	0.17395988
185	0x3e01a0e7	0.12659036
186	0x3e620d88	0.22075474
187	0xbda5a922	-0.080889
188	0x3e91d307	0.28481314
189	0x3e44d708	0.19222653
190	0xbe07188e	-0.1319296
191	0xbe72b93a	-0.23703471
192	0xbdb19b06	-0.086721465
193	0xbe8ea9f9	-0.27864054
194	0x3e397201	0.18109895
195	0xbe5dd580	-0.21663475
196	0x3e0bff14	0.13671523
197	0xbe4557cd	-0.19271775
198	0x3db72a73	0.089436434
199	0xbe43cf3d	-0.19122024
200	0x3e30af93	0.17254476
201	0xbe3e2dbb	-0.18572132
202	0x3d54ac8a	0.05192236
203	0xbe2c6ff1	-0.16839577
204	0x3eb5463a	0.3540514
205	0xbd965525	-0.07340459
206	0x3e248435	0.16066058
207	0xbdbc8297	-0.092045955
208	0xbcb38450	-0.021913677
209	0x3e3385f4	0.17531568
210	0x3e27c7db	0.16384833
211	0x3e5564d6	0.20839247
212	0xbe3a03e5	-0.18165548
213	0x3e37418d	0.178961
214	0xbde5f2e3	-0.112279676
215	0x3e3bfcd2	0.18358162
216	0x3de597fb	0.112106286
217	0xbc8d4b05	-0.017247686
218	0x3e91cbac	0.28475702
219	0xbde89720	-0.1135695
220	0xbcf110da	-0.02942698
221	0xbea2891c	-0.3174523
222	0x3e7d0e3e	0.24712464
223	0x3d97afe0	0.07406592
224	0xbe73790b	-0.23776643
225	0x3e0d0b03	0.13773732
226	0x3e659f9a	0.22424164
227	0xbe4e5966	-0.2015129
228	0xbd2f9863	-0.042869937
229	0xbd90db1e	-0.07073043
230	0x3e20c437	0.1569985
231	0x3c192839	0.009347969
232	0x3e996a9d	0.29964152
233	0xbe98284b	-0.2971824
234	0xbdf5db5b	-0.12004729
235	0x3da13cc2	0.07872917
236	0xbcde73af	-0.027154772
237	0xbe579750	-0.21053815
238	0xbda1ffd6	-0.07910125
239	0xbebae97e	-0.36506265
240	0xbe954984	-0.2915765
241	0xbd32e2a4	-0.043673173
242	0xbeea2f8e	-0.45739406
243	0x3cfa1f0f	0.030532388
244	0xbe991d69	-0.2990525
245	0x3e1e087d	0.15432926
246	0xbdd20015	-0.10253922
247	0x3d82e714	0.06391731
248	0xbe632ae4	-0.2218433
249	0xbe00828e	-0.12549803
250	0xbd45d146	-0.04829528
251	0xbb06110f	-0.0020456945
252	0xbe5d5c55	-0.21617253
253	0xbe7ddbca	-0.24790874
254	0x3e6c6511	0.23085429
255	0x3e80573a	0.2506655

bias f4 [32]
0	0xbdbfd2a7	-0.093663506
1	0x3d72e28c	0.059298083
2	0x3cb1867a	0.021670569
3	0x3df0ffe6	0.11767559
4	0xbd1c67dc	-0.038184986
5	0xbf00011f	-0.5000171
6	0xbe544c48	-0.20732224
7	0x3e96a2c4	0.29421055
8	0x3e4854b0	0.19563556
9	0x3d1b5bd4	0.03792937
10	0xbe408429	-0.18800415
11	0x3e1b74b9	0.15181245
12	0xbdebc3e3	-0.11511972
13	0x3dfd1728	0.12357932
14	0x3db1f18d	0.0868865
15	0x3dab8369	0.08374674
16	0x3e882cd4	0.265967
17	0x3e624718	0.22097433
18	0xbcefa56b	-0.029253682
19	0xbeaabd05	-0.33347335
20	0x3ecbe69b	0.39824376
21	0xbe052198	-0.13001096
22	0xbec783ce	-0.38967746
23	0xbeb20c4c	-0.34775007
24	0x3c40a0df	0.011757105
25	0xbe0ed766	-0.13949355
26	0x3cde3dcd	0.027129078
27	0xbe91ce0c	-0.28477514
28	0xbe013424	-0.12617546
29	0x3e11bd1e	0.14232299
30	0xbd8dbb6d	-0.06920514
31	0xbd151269	-0.03639451

weight f4 [16, 32, 5, 5]
0	0x3daba27e	0.08380602
1	0x3db3a386	0.08771424
2	0x3d637d81	0.05553961
3	0xbcc87f40	-0.02447474
4	0x3d429d1e	0.04751312
5	0x3df92358	0.121649444
6	0x3e1038db	0.14084189
7	0x3e2bd5f2	0.16780832
8	0x3dad3737	0.08457797
9	0x3df6e177	0.12054723
10	0x3e03faee	0.12888691
11	0x3e1c0363	0.15235667
12	0x3dfbbd3a	0.122919515
13	0x3d7d36b7	0.06181976
14	0x3e089eb7	0.13341795
15	0x3d35eb3a	0.044413783
16	0x3ce965ce	0.028490927
17	0x3d8e9d93	0.06963649
18	0x3c20ed7b	0.009822245
19	0x3d55f079	0.052231286
20	0x3d84b73a	0.0648026
21	0x3d1b081d	0.037849534
22	0x3deb98da	0.115037635
23	0x3bdbfffb	0.006713865
24	0x3d8d4e61	0.06899715
25	0x3e0fcb1a	0.14042321
26	0x3da0622d	0.078312255
27	0x3dcbc19e	0.09949039
28	0x3ddb69b7	0.10713523
29	0x3e1276f8	0.14303195
30	0x3dfce35d	0.123480536
31	0x3e072341	0.13197042
32	0x3dd474a1	0.10373808
33	0x3e1fe556	0.15614828
34	0x3e0e8c44	0.13920695
35	0x3dd38171	0.10327423
36	0x3e1faebc	0.15594
37	0x3e2c29df	0.16812848
38	0x3e2b6737	0.16738592
39	0x3e344b34	0.17606813
40	0x3db5d695	0.08878819
41	0x3e02f64a	0.12789264
42	0x3df54c58	0.11977452
43	0x3e1a8dc9	0.15093149
44	0x3e310196	0.17285761
45	0x3dbe8974	0.09303561
46	0x3e014f07	0.12627803
47	0x3e1d97d5	0.1538995
48	0x3db30ef8	0.087430894
49	0x3dc6f654	0.09714952
50	0x3dd63863	0.10459974
51	0x3ddb7923	0.10716464
52	0x3d3097a7	0.043113377
53	0x3d826a39	0.063679166
54	0x3db9b574	0.090678126
55	0x3dceb04b	0.10092219
56	0x3df6f2fd	0.12058065
57	0x3dc32ec1	0.09530402
58	0x3dec64b2	0.115426436
59	0x3dce19aa	0.10063489
60	0x3da2d204	0.079502136
61	0x3ddcd339	0.10782475
62	0x3d48514e	0.048905663
63	0x3dc5085d	0.09620736
64	0x3d6eb16a	0.058274664
65	0x3d5e3144	0.054246202
66	0x3db7db73	0.089774035
67	0x3d681d19	0.056668375
68	0x3da7e977	0.08198827
69	0x3d44d054	0.04805024
70	0x3dab76cc	0.08372268
71	0x3d223704	0.03960325
72	0x3da40c58	0.08010167
73	0x3ddefeb9	0.10888428
74	0x3dab7422	0.0837176
75	0xbd6d09e3	-0.057870757
76	0xbd851b11	-0.06499303
77	0xbdb92e22	-0.09042002
78	0xbdaa15d3	-0.08304944
79	0xbd00fb7e	-0.03148984
80	0xbdfef942	-0.12449886
81	0xbce44490	-0.027864724
82	0xbd8bb6d7	-0.06821983
83	0xbdbe3fdf	-0.09289526
84	0xbda2c9a3	-0.079486154
85	0xbd9f6bb8	-0.077842176
86	0x3d8f9897	0.07011526
87	0x3d2e6ef1	0.04258627
88	0xbe085dd6	-0.13317046
89	0xbd30fd2b	-0.04321019
90	0xbddd884c	-0.10817012
91	0xbd937f7a	-0.072020486
92	0xbda0c989	-0.0785094
93	0xbd3e4ef7	-0.046462025
94	0xbd016de3	-0.031598937
95	0xbdbe427e	-0.09290026
96	0xbd9b22ac	-0.075749725
97	0xbdf3ad93	-0.11898341
98	0xbd9fcc35	-0.07802621
99	0xbd48eea6	-0.049055718
100	0x3e0774b6	0.13228115
101	0x3dfe776a	0.1242512
102	0x3da87604	0.08225635
103	0x3e17d299	0.1482643
104	0x3e2e0692	0.16994694
105	0x3dd66f09	0.10470397
106	0x3d8af21c	0.0678446
107	0x3de78732	0.11305083
108	0x3e55a441	0.20863439
109	0x3e38a831	0.1803291
110	0x3e386902	0.18008807
111	0x3de0d718	0.10978526
112	0x3e07b2fb	0.1325187
113	0x3e3593df	0.1773219
114	0x3e0141f6	0.12622818
115	0x3d9e394c	0.07725772
116	0x3c47b922	0.012190135
117	0x3ddb3481	0.10703374
118	0x3dacf200	0.08444595
119	0x3d8bc9b7	0.068255834
120	0x3db99307	0.09061246
121	0x3e0fb34a	0.14033237
122	0x3e4cb79f	0.19991921
123	0x3e181fc1	0.14855863
124	0x3e13cc2d	0.14433356
125	0x3e1bfc17	0.15232883
126	0x3e0248de	0.12723109
127	0x3e135701	0.14388658
128	0x3e1107b4	0.14163095
129	0x3e080356	0.13282523
130	0x3e152af0	0.1456716
131	0x3dbfcf84	0.09365752
132	0x3d875600	0.066082
133	0x3df1c3b6	0.11804907
134	0x3e0bdb0a	0.13657776
135	0x3df536b7	0.11973327
136	0x3d7de367	0.061984446
137	0x3dac8771	0.08424271
138	0x3df67ede	0.12035917
139	0x3de4692e	0.11152874
140	0x3ddac7e1	0.10682655
141	0x3ddd14bf	0.10794973
142	0x3deea820	0.11653161
143	0x3e0a58e6	0.13510475
144	0x3dc7be1c	0.09753057
145	0x3e053a85	0.13010605
146	0x3e04b499	0.12959518
147	0x3dccfacf	0.100087754
148	0x3dd51a84	0.10405448
149	0x3e17b29b	0.14814226
150	0xbcc64800	-0.024204254
151	0xbcbba745	-0.022906909
152	0xbcc2c319	-0.02377467
153	0xbce33013	-0.027732885
154	0x3cbd86f6	0.023135643
155	0xbd4a5a09	-0.04940227
156	0x3c70a8a7	0.014688647
157	0x3ce8a5fc	0.02839946
158	0x3bcd4c8c	0.0062652286
159	0xbd34686e	-0.044044904
160	0xbcd5908e	-0.026069906
161	0x3ccfe7e3	0.025379127
162	0x3cd8e1f7	0.026474936
163	0xbd671d76	-0.05642458
164	0xbd379533	-0.04482002
165	0xbc1a3435	-0.009411861
166	0xbc7e77c3	-0.015531483
167	0xb835f730	-4.3383974e-05
168	0xbc946300	-0.018113613
169	0xbc37b835	-0.011213352
170	0xbcf4d59b	-0.029887011
171	0xbd8a0ef6	-0.06741135
172	0xbd1ee1ac	-0.038789436
173	0xbd32aff1	-0.043624822
174	0xbcadfa88	-0.021237627
175	0x3c20c067	0.009811497
176	0xbcb72d17	-0.022360368
177	0xbbb500e5	-0.0055237883
178	0xbba66d17	-0.0050789225
179	0xbb9d762f	-0.0048053483
180	0xba135b58	-0.0005621216
181	0x3d1b60b5	0.037934024
182	0x3a24ab74	0.0006281652
183	0x3c9c1c95	0.019056598
184	0xbbaf5aed	-0.0053514154
185	0xbd076104	-0.033051506
186	0xbccf3142	-0.025292043
187	0xbc8a214c	-0.01686158
188	0xbd01720a	-0.031602897
189	0x3d0be0f4	0.03415008
190	0xbbb6f045	-0.0055828416
191	0xbc821617	-0.015879674
192	0x3cac45c5	0.021029362
193	0x3cc5e8a1	0.024158778
194	0x3c8dddff	0.01731777
195	0x3d11bfd8	0.035583347
196	0xbbca9161	-0.0061818813
197	0x3a015cd8	0.0004934794
198	0x3c18c32e	0.009323878
199	0xbc9f8ad6	-0.019475382
200	0xbd0ea0a6	-0.034821175
201	0xbcc2306f	-0.023704736
202	0xbc5bb814	-0.013410587
203	0x3d02f66f	0.0319733
204	0xbb4b9282	-0.0031062667
205	0xbc3c5f8a	-0.011497388
206	0xbc5c3fff	-0.013442992
207	0x3b802710	0.0039109066
208	0x3c292ac1	0.010325135
209	0x3d07ba7f	0.03313684
210	0x3c9b2c2d	0.018941963
211	0x3c9b9fc4	0.01899708
212	0x3ca36f76	0.01995061
213	0x3bd700f8	0.006561395
214	0x3d51de23	0.051237237
215	0xbd27256f	-0.040807184
216	0xbd0d83d9	-0.034549568
217	0x3cb4190d	0.021984601
218	0xbac7ff2e	-0.0015258545
219	0x3be5685f	0.0070009674
220	0x3c81fadc	0.01586669
221	0xbc81788f	-0.015804557
222	0x3d78e3e1	0.060764197
223	0xbc06c875	-0.008226504
224	0x3b574787	0.003284903
225	0x3d0cf9e1	0.03441799
226	0x3d396c0c	0.045269057
227	0x3d7a86f9	0.061163876
228	0x3d8bb1a0	0.06820989
229	0x3dbf5fce	0.09344445
230	0x3d59c773	0.053168725
231	0x3ab1423e	0.001352377
232	0x3d5b0000	0.053466797
233	0x3d3cb7b2	0.046073623
234	0x3c4590c5	0.0120584415
235	0x3d69d99c	0.057092294
236	0x3d4d2e7f	0.05009317
237	0x3c824d41	0.015905978
238	0x3d13f258	0.03611979
239	0x3d336df9	0.04380605
240	0x3d05302a	0.032516636
241	0x3d0d09c2	0.034433134
242	0x3d3c8d99	0.046033476
243	0x3c3a4aeb	0.011370401
244	0x3c0d8ada	0.008639062
245	0x3cb28267	0.021790696
246	0x3bae1f15	0.005313764
247	0x3d656f46	0.05601432
248	0x3d2099b3	0.03920908
249	0x3d223148	0.03959778
250	0xbd4c8395	-0.049930174
251	0xbc8f4d0a	-0.01749279
252	0xbdc78da8	-0.09743816
253	0x3a61e99b	0.0008617879
254	0xbb06f501	-0.002059281
255	0x3bef972e	0.007311723

bias f4 [16]
0	0x3e985f00	0.2975998
1	0x3ea01d52	0.3127237
2	0x3ea891bf	0.32923695
3	0x3e9c9a09	0.3058627
4	0x3ea80199	0.3281372
5	0x3e9b79e0	0.3036642
6	0x3e864bdb	0.26229748
7	0x3e8d6291	0.27614263
8	0x3e9fcf35	0.31212774
9	0x3e959d39	0.29221514
10	0x3e94d0d6	0.2906558
11	0x3e9993f5	0.29995695
12	0x3ea1c130	0.31592703
13	0x3e94e9a6	0.2908451
14	0x3ea12daf	0.31480166
15	0x3ea4c064	0.32178032
