weights/Act_LeakyReLu_VDSR_model_path.pth (torch, 606827 bytes, 8 tensors)

weight f4 [64, 1, 3, 3]
000000 4d d2 bf bd 99 84 43 be 61 6a 89 3e 42 c4 9e be
       -0.093662836 -0.1909355 0.26838973 -0.31009108
000010 51 95 9d be 1e d6 2a be 68 43 7b bd 24 3e c5 bd
       -0.30777982 -0.16683242 -0.06134358 -0.09630993
000020 72 35 60 bd b8 fc 09 3d f1 c4 73 3e 37 dc af bd
       -0.05473847 0.033688277 0.23805596 -0.085869245
000030 cd f3 8d 3e 9e 3b 51 3e a1 c3 84 3e 78 2e 1f 3e
       0.27725068 0.20432898 0.25930503 0.1554507
000040 4c c5 3e 3e a6 6b 9e be 2c 9b df 3c 03 bc 9c bd
       0.1862995 -0.30941504 0.027295671 -0.07653048
000050 63 61 39 3e c3 95 b6 3d d6 5c 29 3e c4 94 ad bd
       0.18103556 0.089152835 0.1653932 -0.084756404
000060 b7 9c 0e be 31 82 e2 bd 82 c6 99 be da cf 8c 3e
       -0.1392697 -0.11059988 -0.30034262 0.27502328
000070 2b 0d 5a bc 17 a0 5b be a9 4f de bd 51 c8 45 be
       -0.013308804 -0.21447788 -0.10855038 -0.19314696
000080 96 62 6a bd ea 21 b4 bd c7 06 81 3e 83 0b 22 be
       -0.057222925 -0.08795531 0.25200483 -0.15824704
000090 b1 8d 86 be 08 67 be 3d 6d 58 36 3d e4 3c ad be
       -0.26279977 0.092969954 0.044517923 -0.33835518
0000a0 ff 0b c5 ba 37 61 64 be 2c 32 4d be 61 fe 77 3c
       -0.0015033482 -0.2230271 -0.2003867 0.015136332
0000b0 e4 95 23 bd c2 e7 d4 3d 42 98 a4 3e 47 92 11 be
       -0.03993787 0.10395767 0.32147413 -0.14215957
0000c0 02 df 9b 3e f9 20 87 be 4e fe 40 3d fb 1b d9 bd
       0.3044358 -0.26392344 0.047117524 -0.1060104
0000d0 58 14 74 be 77 9d 8f 3e 5e c2 2c be 6f 59 a5 be
       -0.23835886 0.28049824 -0.1687102 -0.32294795
0000e0 19 0b b5 be 0b d4 25 3e be 76 58 3e 94 fc 2f 3e
       -0.3536003 0.16194169 0.21139047 0.17186195
0000f0 e2 5e 3b be 04 23 5e bd 9b 76 44 bd 5c 63 b2 3d
       -0.18297914 -0.054232612 -0.047964673 0.087103575
000100 60 ee c0 3d 1a 03 2e 3e 04 66 87 3e 2c 24 7b 3e
       0.094204664 0.1699337 0.2644502 0.24525517
000110 29 36 a9 bd 5f ed 72 3e 9e 1c 92 bd 56 12 8d be
       -0.08262283 0.23723362 -0.071343645 -0.27553052
000120 5f fe 31 3e 26 f1 f9 bc dc 0e 0b 3e a2 bd 0e be
       0.17382191 -0.030510496 0.13579887 -0.13939527
000130 a3 07 b3 bc 6c 5b 61 3e 9d f4 58 be a8 bb ce 3c
       -0.021854227 0.22007531 -0.21187063 0.025235966
000140 f9 06 9f be 51 41 bf bd 88 85 c0 3e b4 18 34 be
       -0.31060007 -0.0933863 0.37601876 -0.17587548
000150 a5 ba 07 be 83 47 79 3d 64 20 43 3e 6c fa 9f bd
       -0.13254793 0.060859215 0.19055325 -0.07811436
000160 c1 59 40 3e 29 2d b8 3e 59 82 6b 3e f2 32 93 3e
       0.18784238 0.35971954 0.22998942 0.28749806
000170 5b 3d 39 3e 97 e7 a0 3e 99 62 7f be b0 2b dd 3d
       0.18089812 0.3142669 -0.24939956 0.10799348
000180 76 4b 86 bd a9 72 83 3d 3f 9d de bd e0 94 10 3e
       -0.06557362 0.06418354 -0.10869836 0.14119291
000190 c9 47 6e bd be 7b 4e bd 27 33 89 3e f8 13 87 be
       -0.05817393 -0.05041098 0.2679684 -0.26382422
0001a0 6f 9f 96 bd e4 f2 0e be 00 83 cf 3b 39 5e 36 be
       -0.07354628 -0.13959843 0.006332755 -0.1780938
0001b0 f1 75 b1 be 4a e5 21 3d d8 79 f9 3d 97 88 25 be
       -0.34660295 0.039525308 0.12181443 -0.16165386
0001c0 48 8b 0b 3d eb fb 9a be cf 8b 92 3d f8 28 d1 bd
       0.034068376 -0.30270323 0.071555726 -0.10212892
0001d0 2f 56 80 3e c8 7e bb 3c f8 58 21 bd 47 86 ba be
       0.25065753 0.022887602 -0.039391488 -0.3643057
0001e0 68 59 2d 3e 4a 2d 1b 3e 5d 0d 60 3e 7b c7 ae bd
       0.16928637 0.15153995 0.21880098 -0.08534142
0001f0 c8 5a b4 be b2 4a a7 be 68 f5 54 be b7 82 76 3d
       -0.3522551 -0.32674176 -0.2079674 0.060183253
000200 e9 29 18 bd 2e 56 49 be 0a 20 8c 3d 41 72 d3 3c
       -0.037149344 -0.19661781 0.068420485 0.025811316
000210 bc 18 99 be e4 30 a2 3e 4a 80 4c bd 4f 70 1b be
       -0.29901683 0.31677926 -0.049927033 -0.15179561
000220 97 83 78 be d0 40 01 3e 88 36 22 be e1 06 85 be
       -0.24268948 0.1262238 -0.15841115 -0.2598181
000230 f8 2d 02 3e fa fb ba 3e d2 22 3c bd b1 b6 8b be
       0.12712848 0.36520368 -0.045931645 -0.2728782
000240 17 d1 95 be a3 17 42 3e 40 69 30 3e 5e ef 41 3e
       -0.29261085 0.18954329 0.1722765 0.18938968
000250 05 7a e6 3d fd 62 e6 bd 49 b7 c8 be a7 41 51 bd
       0.11253742 -0.11249349 -0.39202335 -0.051088
000260 d3 e0 0f be 13 f2 58 bd e1 7a a3 3d 5f 46 0f 3e
       -0.14050607 -0.052965235 0.07982422 0.13991688
000270 6b b7 80 3d 85 0a 92 be f1 b1 5d 3e b4 a6 91 be
       0.06284984 -0.2852365 0.2164991 -0.28447497
000280 32 62 1c be 77 cc 93 be 7d 79 b9 3e be c9 bb 3e
       -0.15271834 -0.28866932 0.362255 0.36677355
000290 cc d4 b2 3e 7d c3 8b 3e 5b 1a e1 bd 50 af e3 3d
       0.34927976 0.27297583 -0.10991355 0.111174226
0002a0 ae 83 5c be 79 30 cc bb 62 1f 98 3c 43 ba 85 3e
       -0.21534607 -0.0062313643 0.018569652 0.2611867
0002b0 67 3c 87 be 9b c8 a6 3d bd 9b b4 be 78 58 56 3e
       -0.2641327 0.08143731 -0.3527507 0.20932186
0002c0 7f ba b7 be 6a 07 d6 3d 82 66 a6 bb 0f 01 7c be
       -0.35884473 0.10450633 -0.005078138 -0.24609779
0002d0 7d 55 07 be f6 34 b7 3e 0f 1f 76 be ac 5f a6 bd
       -0.13216205 0.35782593 -0.24035285 -0.08123717
0002e0 ee bf ab bd 9c 08 10 3e 8d db 99 be 35 c3 33 be
       -0.08386217 0.14065784 -0.30050316 -0.17554934
0002f0 16 50 74 3e 1c c3 df 3b 2f c8 22 be 46 06 e6 bd
       0.23858675 0.006828679 -0.15896676 -0.11231665
000300 62 46 26 be b2 82 ae 3e 51 6c 00 3e a6 89 78 be
       -0.16237786 0.34084088 0.1254132 -0.24271259
000310 f2 7c 86 bd 2e 71 5f bd ef 05 1a be ba ed d4 3d
       -0.065668 -0.054551296 -0.15041326 0.10396905
000320 52 1a 0d be 52 90 10 be 61 97 84 3e af 9f 10 be
       -0.13779572 -0.14117554 0.25896743 -0.14123414
000330 2d f5 48 3e 4e e3 83 be 28 02 ce 3c af 50 2f be
       0.19624777 -0.25759357 0.025147513 -0.17120622
000340 f9 36 32 be 9d f0 9f bd bd ee 12 be d7 52 5c 3e
       -0.17403783 -0.07809565 -0.14348884 0.21515976
000350 ac fe a7 3d 87 93 1f be de 4b d7 3d 1e af 37 bd
       0.08202872 -0.15583621 0.105125174 -0.04484474
000360 37 ab 44 be d1 f5 4e bd 2a c8 5c be d3 45 99 be
       -0.19205938 -0.050527398 -0.21560732 -0.29936084
000370 b3 a6 1b bd 38 0e 60 3e 19 d4 fc bd 1f 5c 11 3e
       -0.038000774 0.21880424 -0.12345142 0.14195298
000380 f7 51 4b be 7a ba da 3d bc c1 37 be 04 cc 5f be
       -0.19855486 0.10680099 -0.17944998 -0.2185517
000390 e7 a5 5d 3e f9 f9 95 3d 2d 90 9e 3e d2 75 27 be
       0.21645318 0.07323069 0.30969372 -0.16353539
0003a0 4a 83 1d 3e 10 ba 06 be f1 9c e7 3d 22 27 47 3e
       0.15382114 -0.13156915 0.11309231 0.19448522
0003b0 70 03 82 3e e5 0e c2 bd 3d 09 7f 3e c3 d5 93 bd
       0.25393248 -0.09475497 0.24905868 -0.07218506
0003c0 ac 00 a0 3d ac 7a 6c 3e cf a8 42 3c 69 92 49 be
       0.07812628 0.2309367 0.011881067 -0.19684757
0003d0 35 db 22 3e 39 da 69 3e 43 3e 1d be 0e bd b1 be
       0.15903933 0.22837152 -0.15355782 -0.3471455
0003e0 a7 7c 98 bd 21 a0 57 be f6 17 76 3e 88 96 49 3e
       -0.074456505 -0.21057178 0.24032578 0.1968633
0003f0 06 a7 7f 3d 22 a4 b8 bc 5c 8b 82 bd bd 59 a9 be
       0.062415145 -0.022539202 -0.06374237 -0.33076277

weight f4 [64, 64, 3, 3]
000000 9a e5 04 3e 07 80 98 3d f3 9b 8e 3d 6b b0 b2 3d
       0.12978211 0.07446294 0.06963339 0.08725055
000010 c6 7f a3 3d 45 d8 51 3d a2 a1 dd 3d 6e fe ba 3d
       0.07983355 0.05123164 0.10821845 0.0913056
000020 8f aa f5 3d bb 69 82 bd 9f e8 b7 bd b8 2e c1 bd
       0.11995422 -0.06367823 -0.08979916 -0.09432739
000030 31 32 5a bd 3f 9e de bd 36 5e f8 bd 22 2b f1 bd
       -0.053270523 -0.10870027 -0.12127344 -0.11775805
000040 ad 01 c7 bd a9 fc c3 bd 09 a9 98 bd 73 76 a7 bd
       -0.097171165 -0.095696755 -0.07454116 -0.08176889
000050 44 2d a9 bd ad f7 c4 bd 36 fd 68 bd 45 5c fc bc
       -0.08260587 -0.09617553 -0.056882106 -0.030805716
000060 56 8b 84 bd be 5f 82 bd 2f 35 c4 bd af 8b 93 bd
       -0.06471889 -0.063659176 -0.095804565 -0.07204377
000070 9c 2c 3d bc af ee f5 bc c4 be 67 bb 3a e8 b1 bc
       -0.01154628 -0.03002104 -0.0035361508 -0.02171718
000080 3c 5b 42 bd f1 be 87 bd 8e aa 8f bd 85 71 7b bd
       -0.04745029 -0.06628216 -0.070149526 -0.061387558
000090 22 27 2f 3d 3d 0b d8 3d 7b 9e d9 3d 0b 92 97 3d
       0.04276193 0.105490185 0.10625931 0.07400902
0000a0 15 a1 ed 3d 7d 5a e2 3d 98 17 f1 3d 9b 9e ef 3d
       0.116029896 0.110524155 0.11772078 0.117001735
0000b0 d8 ba 83 3d 75 35 74 bd ee 67 6f bd db a1 1b bc
       0.06432122 -0.059621293 -0.058448724 -0.009499039
0000c0 52 a5 0a bd 19 4e 83 bd f8 3e 38 bd f3 97 7d bb
       -0.033849068 -0.0641138 -0.044981927 -0.0038695305
0000d0 15 a4 48 bd 6d b6 8f bd b6 b0 b2 3d 2d e2 68 3d
       -0.048984606 -0.07017217 0.08725111 0.056856323
0000e0 32 c4 e4 3d 7a 58 db 3d 4c 01 c1 3d 11 93 ec 3d
       0.11170234 0.10710235 0.094240755 0.11551488
0000f0 6d 8e ea 3d eb c1 b1 3d 2f be 0e 3e 0d a3 dd 3b
       0.11452947 0.08679565 0.13939737 0.006763822
000100 7b 8b 89 bc 90 ab 8a bc 1c 55 77 bd c8 33 69 bd
       -0.016790142 -0.01692751 -0.0603839 -0.056934148
000110 8c 22 ab bc 16 a4 af 3b 0a 9a 12 3b 2d 65 32 3c
       -0.020890497 0.0053601367 0.0022369646 0.01088838
000120 49 6f 90 bc 40 e5 54 b9 99 b1 3d bd 92 7c 98 bd
       -0.01763119 -0.00020303298 -0.04631195 -0.07445635
000130 19 89 99 bd 00 63 f5 bc d9 0a 7f bd a6 3d 32 bc
       -0.074968524 -0.029954433 -0.062266205 -0.010878956
000140 15 7d 63 bd 93 1c c3 bd 5c 32 e4 bd 37 d6 08 be
       -0.05553921 -0.095269345 -0.11142418 -0.13362966
000150 21 e7 01 be 46 00 bc bd f5 5b 01 be 4f 79 e9 bd
       -0.12685825 -0.0917974 -0.12632735 -0.11400091
000160 eb ee d8 bd b6 bc 05 be f9 16 48 bd 76 f2 8a bd
       -0.10592445 -0.13060269 -0.048850033 -0.06784527
000170 64 d2 cb bd 1b 26 3c bd 89 b0 93 bd 60 b7 c9 bd
       -0.09952238 -0.045934778 -0.07211406 -0.09849429
000180 7a d5 b0 bd b6 64 7a bd 30 04 c8 bd c3 ca 64 3d
       -0.086344674 -0.0611312 -0.09766424 0.05585743
000190 ac 2b 11 3d f4 0b 93 3c 07 1a cf 3b 10 d9 a9 ba
       0.03544204 0.017950036 0.0063202414 -0.0012958366
0001a0 c0 fd eb 3c ec 6f d4 bb 6b 74 17 bc 91 59 54 bc
       0.02880752 -0.0064830687 -0.009244065 -0.012960807
0001b0 bf 1c bb bc a3 5b 11 3c 14 9d 55 bb 6a df e2 bc
       -0.022840856 0.008871946 -0.0032594847 -0.027694423
0001c0 c6 f2 40 bd ce da 60 bd 9c 2a 80 bd 7f 15 6d bd
       -0.047106527 -0.05489617 -0.06258127 -0.05788183
0001d0 2c 5e cd 3b 2e 8c 13 bd ff 9c 94 bd dd a1 71 bd
       0.0062673297 -0.036022358 -0.07256507 -0.058992255
0001e0 8e 4b 19 bd bf e1 32 bd f5 eb 64 bd af 3d 9c bd
       -0.03742557 -0.04367232 -0.05588909 -0.07628953
0001f0 b5 8d 2d bc 6c a6 a2 bd a2 33 c5 bc 13 7d 63 bd
       -0.010592868 -0.07941899 -0.024072472 -0.055539202
000200 25 f7 61 bd a1 97 a3 ba d0 18 9c bd df 83 2a bc
       -0.055167336 -0.0012481102 -0.0762192 -0.010407417
000210 12 64 7d bc 98 f1 82 bc aa 4a c0 bb 54 c3 26 3d
       -0.015465753 -0.015984342 -0.0058682756 0.040713623
000220 6c 51 96 3d 0e 6d 8b 3d 90 64 be 3d 3a 41 e0 3d
       0.07339749 0.0680791 0.092965245 0.10949941
000230 4f b3 6f 3d a9 51 1f 3d c3 f0 80 3d 1e 53 ea 3d
       0.05852061 0.038896237 0.06295922 0.114416346
000240 25 cd c2 bd 8f 71 d8 bc 07 77 30 bd d0 13 b0 bd
       -0.095117845 -0.026421336 -0.043082263 -0.08597529
000250 50 86 1c bd d9 ff b2 bd a5 59 58 bd 1f ab a7 bd
       -0.038214028 -0.08740205 -0.052819867 -0.08186936
000260 cf f4 4e bd 43 9c 4a 3d 04 a6 c4 3d 1b df bf 3d
       -0.050526436 0.04946543 0.096019775 0.09368726
000270 02 5d 2e 3d 8a 2b 37 3d e7 e4 b2 3d 4f 29 7e 3d
       0.042569168 0.044719256 0.08735066 0.062051114
000280 2d 1d a0 3d b3 11 9d 3d 84 d0 7c bd 31 c0 94 bd
       0.07818065 0.076693915 -0.061722293 -0.0726322
000290 d2 d0 69 bd 7b 5d 59 bd c3 aa a7 bd 7a 13 dc bd
       -0.057083912 -0.053067666 -0.08186867 -0.10745902
0002a0 50 81 96 bd 78 81 9a bd 19 e5 db bd fd a4 d5 bc
       -0.07348883 -0.075442255 -0.10737056 -0.02607965
0002b0 83 15 a1 bb 4b 97 69 bc d5 d5 31 39 c7 65 25 3b
       -0.0049158945 -0.014257262 0.00016959694 0.0025237666
0002c0 27 cb ac 3c 51 4d ff 3c 34 a3 1c 3c 1e 25 fd 3c
       0.021092964 0.031164797 0.009560395 0.030901488
0002d0 12 6a f7 3b 9e cc 83 3c 29 6a 56 3d db 6b 0d 3d
       0.0075504864 0.01608878 0.052347336 0.034526687
0002e0 be 72 ce 3c ac 31 33 3d b5 80 a1 3b cf e1 8d bc
       0.025201198 0.043748543 0.004928673 -0.017319588
0002f0 a5 14 3f 3d a8 c5 31 bc e7 ae 1b bc 89 ab e1 bb
       0.046650548 -0.010850348 -0.009502149 -0.0068869037
000300 a4 19 b1 3b cc 71 e4 3b 43 be 08 3d b2 c6 ba bc
       0.005404668 0.0069715735 0.033384573 -0.022799823
000310 8b d9 e1 3b 82 9f b0 3c a2 29 e4 ba 19 3d f2 3c
       0.006892388 0.021560434 -0.0017407427 0.02957015
000320 33 52 8e bc 99 e5 92 bb 8e 72 fc bb b3 11 90 3c
       -0.01737318 -0.0044829366 -0.0077040857 0.017586565
000330 a6 f8 eb 3c 11 4f b8 3b 43 8e b3 bb df 79 7a bc
       0.028805088 0.00562466 -0.0054796054 -0.015287845
000340 4f 84 38 3d 47 d1 02 bd 78 ef 6c 3b c7 8d 5b bc
       0.045048054 -0.031937864 0.0036153477 -0.013400502
000350 44 94 ce 3c 77 85 b6 3c dd af 0d 3d 39 53 3a 3d
       0.025217183 0.022280438 0.034591544 0.045489524
000360 f3 1d 83 3c 14 5d 64 3d 07 97 02 3e 29 32 60 3c
       0.016005492 0.05575283 0.12752925 0.013683834
000370 aa 15 a4 3d 02 a4 d6 3d 11 1b ef 3c 84 94 db 3d
       0.080119446 0.10480501 0.029187711 0.107216865
000380 f0 11 97 3d dc 5f 01 3c 49 69 77 bc 07 4d ae bd
       0.07376468 0.00789639 -0.0151007855 -0.085107855
000390 cd 00 f3 b8 b4 0b 76 3c f3 ee c6 bc 8b 62 54 bd
       -0.00011587292 0.015017439 -0.024283862 -0.05185179
0003a0 45 cc 17 bd fd e1 46 bd e0 c1 c1 bd 61 aa 98 bd
       -0.03706004 -0.048555363 -0.09460807 -0.07454372
0003b0 b6 18 9e bd 8e 29 e3 bd d3 e7 7e bd 2a 1a fa bd
       -0.07719557 -0.1109191 -0.062232804 -0.12212022
0003c0 a3 11 8d bd 0b 3b 8e bd ba c2 79 bd b7 23 21 bd
       -0.068881296 -0.06944855 -0.06097672 -0.0393407
0003d0 ea 53 60 bd f9 42 8b bd 5e 97 af bd d3 71 21 bd
       -0.054767527 -0.067998834 -0.08573793 -0.03941519
0003e0 6e e1 b6 bd dc 23 2c bd a5 6d b1 bd 60 f6 39 bd
       -0.08929716 -0.042026386 -0.08663491 -0.045400977
0003f0 13 17 01 3e 57 1f f8 3d 6e 5a c9 3d d4 2c 35 3d
       0.12606458 0.121153526 0.09831701 0.044232205

weight f4 [64, 64, 3, 3]
000000 a1 48 77 3c 62 83 2c bd 1e bb 3f bd 07 cb aa bc
       0.015093 -0.042117484 -0.04680931 -0.020848764
000010 ef 41 fc 39 32 28 a1 bc 8d 08 22 bd a1 b1 78 bc
       0.0004811431 -0.019672487 -0.039558936 -0.015179069
000020 12 21 ed bc 37 f4 11 bd c5 e3 88 bd 33 88 26 bd
       -0.028946433 -0.035633292 -0.066840686 -0.040657233
000030 0e 59 3c bc 8d bb d4 bc 9f 10 dd bc 58 71 24 bd
       -0.011495842 -0.025968337 -0.026985465 -0.040147156
000040 3b 79 a4 bd 45 10 82 bd 92 42 68 3c 8e f0 4d 3c
       -0.080309354 -0.063507594 0.014176028 0.01256956
000050 8a 8c 43 bd 77 b2 a3 3c 30 d5 13 bc 4c 48 62 3c
       -0.04774145 0.01998256 -0.009022996 0.013811182
000060 64 61 44 bd e3 a6 f1 3c 61 db 24 bc d3 5b 01 be
       -0.04794444 0.029498523 -0.01006207 -0.12632684
000070 e0 23 fa bd ca 31 c5 bd 99 44 48 bd 16 69 01 be
       -0.12213874 -0.09628637 -0.048893545 -0.12637743
000080 44 f7 9e bd 50 d0 73 bd 19 7c f5 bd 44 06 96 bd
       -0.07762006 -0.059524834 -0.119865604 -0.07325414
000090 92 29 bd bd cc f9 5c 3c 06 d9 15 3c 5b 5f 6f bd
       -0.092364445 0.013487291 0.009145981 -0.058440547
0000a0 cf d8 28 bd f4 a1 f5 bc 06 45 c4 bd e0 4f da 3c
       -0.04122239 -0.029984452 -0.09583478 0.026649415
0000b0 22 f3 98 b9 4a b9 aa bc 05 d3 76 bd 10 93 40 bc
       -0.00029172847 -0.020840306 -0.060259838 -0.011753812
0000c0 48 a9 89 bd 8f 0d 88 bd c0 a5 59 bd 0f e8 60 bd
       -0.06721741 -0.06643211 -0.053136587 -0.05490881
0000d0 02 e7 9b bd 3c 69 d9 bc 5c b6 85 bc 16 f4 49 3c
       -0.076124206 -0.026539437 -0.016322307 0.012326261
0000e0 ce eb b3 3a 45 36 1a 3d 8f de 34 3d 5f 3e 6c 3c
       0.0013726891 0.03764941 0.04415756 0.014419167
0000f0 d9 3d 0d 3d b2 78 e5 b9 3c db 80 3d 42 44 1d bc
       0.03448281 -0.0004376821 0.06291816 -0.009598793
000100 f0 c6 66 3c 84 59 76 3c c2 7c 11 3a 5f ee dd 3c
       0.014085516 0.015035991 0.00055499014 0.027091203
000110 c7 3f 33 bd 93 34 42 39 15 20 35 bd 6f 45 7a 3c
       -0.043761995 0.00018520867 -0.04422005 0.015275343
000120 5c 1a 82 3d 5a 85 b7 3d 0c 26 87 3d 95 00 51 3d
       0.06352684 0.08960982 0.06599054 0.051025946
000130 bf 14 d8 3d f5 b2 69 3d 54 60 ec 3d 88 4d 76 3d
       0.10550832 0.057055432 0.11541811 0.060132533
000140 05 33 8d 3d 90 14 55 3d 8c 9b 7f bb be 08 2f 3c
       0.06894497 0.052021563 -0.0039002625 0.010683237
000150 44 3c c8 3c 3a 5a 0b 3d 3a 29 5f 3c 9b 22 5f 3d
       0.0244428 0.034021594 0.013620669 0.05447636
000160 7d e5 ee 3c f2 bd a1 3c 20 48 72 3d 54 86 76 3d
       0.029162163 0.019743893 0.059150815 0.0601867
000170 dd 0c 38 3d 55 53 c4 3d c1 55 67 3d fb 2d 78 3d
       0.044934142 0.09586207 0.056478266 0.060590725
000180 97 29 82 3d 5d 04 f6 3c e7 c5 76 3d 9f a6 83 3d
       0.06355589 0.030031377 0.060247328 0.06428265
000190 b1 0b 5b 3d ed 43 35 3d 0f c3 43 3d f9 4c d6 ba
       0.053477947 0.044254232 0.047793444 -0.0016349844
0001a0 cd fa 0d 3d 83 25 9f 3c 72 73 08 3c 91 f7 73 3d
       0.03466301 0.019427067 0.008328306 0.05956227
0001b0 e3 ee 7a bb 05 e1 80 3c b8 08 4a 3c ed 2e 2e 3c
       -0.003828936 0.015732298 0.01233118 0.010631305
0001c0 06 05 a2 3c 96 68 0a bc 40 6d 3f 3b fc ee 8d 3c
       0.019777786 -0.008447787 0.0029209405 0.01732587
0001d0 ff 1a bb 3c 96 84 31 bd 5b 61 15 bd fe 09 1d bd
       0.022840021 -0.043339334 -0.0364698 -0.038339607
0001e0 aa ec 60 bd 73 ae 5d bd df e5 83 ba 32 58 88 bb
       -0.0549132 -0.054121446 -0.0010063014 -0.0041609043
0001f0 90 b4 4f bd 5d 9c ef bc a9 8c cd bc 73 7f e4 bc
       -0.050709307 -0.029249365 -0.025091486 -0.027892804
000200 47 ed 1a 3b aa 24 4b bd 8b 91 e1 3c d7 65 01 3d
       0.0023639963 -0.049595512 0.02753522 0.031591263
000210 f3 1c 2a bd 69 80 c2 bc e8 56 df bb 4d aa 8f bc
       -0.041531514 -0.023742871 -0.00681578 -0.01753726
000220 2e 21 f8 bc 6e 14 e1 3c ff 4c 0f 3d 5f 39 8a bb
       -0.030289259 0.027475562 0.03498554 -0.004218265
000230 2e 2b 4f 3d 43 6e 70 3c 3d 76 1f 3d 08 c5 dc 3c
       0.05057829 0.014674726 0.03893112 0.02694942
000240 4a 76 e0 3b 13 0d b5 bc f6 51 db ba 24 a5 c5 bb
       0.0068500387 -0.02210096 -0.00167328 -0.006031649
000250 c7 31 15 ba fb 4c 31 bd c8 db 9c bc ec 7c 89 bd
       -0.00056913163 -0.043286305 -0.019147769 -0.0671328
000260 27 17 83 bd 94 91 ef bb bd 74 c6 bb 22 7e 09 bd
       -0.064009 -0.0073110554 -0.0060563968 -0.033567555
000270 9c 62 a6 ba 0e 49 44 bb 48 e4 88 3c bf 57 f1 bc
       -0.0012694183 -0.002995077 0.016710415 -0.029460786
000280 7c 17 63 3c db 3b b8 3c 38 95 de 3d 63 01 a8 3d
       0.01386058 0.022489479 0.10868305 0.082033895
000290 dc 4f f6 3d 19 2f 0f 3e bb df 0a 3e 6b ef 09 3e
       0.12026951 0.1398281 0.13561909 0.13470237
0002a0 f1 a7 8c 3d d6 d1 8a 3d 95 8f a4 3d 22 0d 34 bd
       0.0686797 0.06778304 0.080351986 -0.043957837
0002b0 73 e7 be bc 17 82 47 bd c9 6b 32 bd 4b da b0 bb
       -0.023303723 -0.048708048 -0.043559823 -0.0053971163
0002c0 35 aa 20 bd 77 34 25 bc 1a 7d 0d bd c8 59 d0 3b
       -0.039224822 -0.010083309 -0.034543134 0.006358359
0002d0 63 07 c8 bc 3c a4 35 bd 3b 44 8b bc ad 03 3e bd
       -0.024417585 -0.04434608 -0.017000308 -0.046390224
0002e0 a7 37 f0 3b e5 f1 a3 3c 41 97 8d bc 47 73 03 bc
       0.007330853 0.020012805 -0.017284038 -0.00802309
0002f0 13 cc 71 bc 6b 83 03 3d 87 7a 32 bd 45 d8 ca bc
       -0.014758128 0.03210775 -0.043573882 -0.024761328
000300 17 7b cb bb 33 90 89 bc 79 a5 4b bd 67 ae 50 3c
       -0.006209742 -0.016792392 -0.049718354 0.012736893
000310 3c 2e 3c bd a1 4b ee 3b 1f b4 52 3c ea 69 24 bc
       -0.04594253 0.0072721993 0.012860327 -0.0100350175
000320 66 65 00 3d 91 08 2e bc bd c9 a5 bc a1 bb ab 3c
       0.0313467 -0.01062216 -0.020237798 0.020963492
000330 50 dd 81 bc b7 38 0d bd e9 d4 f8 bc 9a 65 29 3d
       -0.0158526 -0.034477916 -0.030374961 0.04135666
000340 5d 8c 5a 3d 25 a0 97 3d c6 03 a8 3d c9 ba d6 3d
       0.053356517 0.07403592 0.08203845 0.10484845
000350 fe 76 41 3d c7 55 ca 3d 53 d4 26 3d e2 d3 c8 3d
       0.04723262 0.09879642 0.040729832 0.098060384
000360 3d 48 3e 3c e9 1f db bc 2e 50 88 bc 3c 16 b4 bc
       0.011613903 -0.026748614 -0.016639795 -0.021983258
000370 6b 6b e3 bc 25 eb 0d 3d 46 d4 ff 3c 8f b3 c1 3c
       -0.027761182 0.03464808 0.03122915 0.02364519
000380 92 8e 6c bc 83 99 14 bd a7 71 6a bd d1 ba 5f bd
       -0.014438288 -0.036279213 -0.057237294 -0.05462152
000390 13 49 fe bc 69 29 91 3a 70 2e 71 bc 75 b0 a0 bc
       -0.031040704 0.0011074963 -0.014720544 -0.019615391
0003a0 f2 6f 49 bd 87 17 3e bd 39 84 2d 3d f0 7b 27 3d
       -0.049179025 -0.046409156 0.042362425 0.04088968
0003b0 df ae ec 3c ad cf 49 3d 5b 5f 9f 3d ff 36 a3 3d
       0.028891979 0.04927032 0.077818595 0.07969474
0003c0 21 25 22 3d b1 a3 37 3d 9b d5 e1 3d fa 0e 94 bc
       0.03958619 0.044833843 0.1102707 -0.018073548
0003d0 5d e2 43 3b 3b 89 e5 bb 72 6b 80 3c 6e ff 03 3b
       0.0029889562 -0.0070048845 0.015676234 0.0020141262
0003e0 42 01 aa bc 42 a0 87 3b a4 74 95 bc e7 4e 17 3d
       -0.020752553 0.0041389773 -0.018244095 0.03694048
0003f0 d2 eb 80 bc 80 7d 9b 3c 27 42 ab bc 3f f6 ac 3b
       -0.015737448 0.018980742 -0.020905567 0.0052783783

weight f4 [64, 64, 3, 3]
000000 5e c4 fa bc 19 7a 4b bd c8 f1 93 bc 6d 64 1c bd
       -0.030611213 -0.04967699 -0.018059626 -0.03818171
000010 5f 3d 4a bd d5 3e be bd 58 0a 9f bd b4 93 a9 bd
       -0.049374934 -0.09289328 -0.07765645 -0.08280125
000020 34 10 1e bd 8d 97 e4 bd 54 c3 a7 bd cc 55 91 bd
       -0.03858967 -0.111617185 -0.08191553 -0.070964426
000030 c5 66 c3 bd 29 e4 a4 bd 41 5a 38 bd f4 34 e6 bd
       -0.09541086 -0.080513306 -0.045007948 -0.11240569
000040 bb 6a 9d bd ec b9 de bd a2 b6 a4 bd ba 34 95 bd
       -0.07686373 -0.108753055 -0.08042647 -0.072854474
000050 71 45 60 bc 26 ea 80 bd 56 8e 61 bc 42 f6 eb bc
       -0.013688431 -0.0629466 -0.013766846 -0.028803948
000060 6b dc 92 bd 73 9c 93 bd e6 0d 07 bd a2 5f b5 bd
       -0.07170948 -0.07207575 -0.03297224 -0.08856131
000070 04 de 58 bd 07 78 cb bd c8 67 90 bd 1a 1e 65 bd
       -0.052946106 -0.09935003 -0.07051045 -0.05593691
000080 42 01 7b bd 2d d1 6b bd 75 d0 93 bd 94 90 70 bd
       -0.061280496 -0.057572532 -0.072174944 -0.05873163
000090 42 ff a9 bd cb 25 b2 bd 74 6e 81 bd e9 f3 f8 bc
       -0.0830064 -0.08698615 -0.063198954 -0.030389743
0000a0 68 ec 98 bd 7d 7f 66 bd 01 5c 8d bd 46 96 cc bd
       -0.07466966 -0.056273926 -0.06902314 -0.099896
0000b0 41 8d 3c bd 83 2f 59 bd 18 97 5e bd ad 8f ba bb
       -0.046033148 -0.053023826 -0.054343313 -0.005693397
0000c0 11 a6 9d bd ac cc 0f bc dc 5c 66 bd 90 e4 9e bd
       -0.0769769 -0.008776825 -0.0562409 -0.077584386
0000d0 e5 b7 6f bd f9 3d 67 bc d9 90 95 3b c3 03 8e 3d
       -0.058524985 -0.0141138965 0.0045643863 0.06934311
0000e0 d7 bc 00 3d b2 ad 8b 3d 57 6d e0 3c ce 4f 29 3d
       0.03143009 0.06820239 0.027395887 0.041335873
0000f0 b1 5b 6d 3d f6 74 10 3c 7f 88 93 3b e4 31 4f bd
       0.057948772 0.008816948 0.0045023556 -0.05058469
000100 45 41 a9 bd aa 6b 5a bd b3 ed a1 bd ca 9f a0 bd
       -0.08264402 -0.053325333 -0.07906666 -0.07842977
000110 6b e9 5f bc 30 04 2b bc ec 88 fd bc 8c 68 9f bd
       -0.013666491 -0.01043801 -0.030949079 -0.077836126
000120 98 33 a8 bd 31 da 19 bd eb 7d 0e bd fa 16 b7 bd
       -0.08212966 -0.0375616 -0.034788053 -0.08939929
000130 d9 d7 c2 bd 0b 4d 78 bd 02 48 4e bd 44 02 be bd
       -0.09513826 -0.06062035 -0.05036164 -0.09277776
000140 be 94 da bd 74 b9 6b bd d6 dd a9 bd a1 06 63 bd
       -0.106729016 -0.05754991 -0.08294265 -0.055426244
000150 4a 4f 1e bd 2b 65 75 bd 35 04 1e bd 58 5c b4 bd
       -0.038649835 -0.059910934 -0.03857823 -0.08806676
000160 6c 0b 11 bd 98 f1 c3 bd f4 6b 78 bd 50 b5 93 bd
       -0.035411283 -0.09567565 -0.060649827 -0.07212317
000170 27 cb 1c bc 04 fa 10 bd de 63 2e bd a9 4a 8b bd
       -0.00956992 -0.035394683 -0.04257571 -0.0680135
000180 1b 71 91 bd 50 95 44 bd 05 dc 12 bc f8 4c a9 bd
       -0.07101651 -0.047993958 -0.00896359 -0.08266634
000190 38 4a dd bd ae b9 02 be d9 cb 66 bd 0d 3e 99 bd
       -0.10805172 -0.12766144 -0.056346748 -0.07482538
0001a0 db be 98 bd 93 af eb bd 70 92 ce bd 8e 37 9c bd
       -0.07458278 -0.115080975 -0.100865245 -0.07627784
0001b0 69 51 a2 bd eb ea b7 bd 0f 18 10 bd ef 03 1c bd
       -0.07925684 -0.08980354 -0.035179194 -0.03808969
0001c0 9d 91 b7 bd 5f 88 3a bd 2a 3a da bd 2d 5e 2e bd
       -0.089633204 -0.04554021 -0.10655625 -0.04257028
0001d0 4b 90 d8 bd bb 61 80 bd 43 c7 ae bd 87 9e 4c bc
       -0.10574397 -0.062686406 -0.085341 -0.012488968
0001e0 6d 68 3e bd 1a a4 b6 bc 40 06 ae bc ce 16 8e bd
       -0.046486307 -0.022295047 -0.021243215 -0.069379434
0001f0 8a 62 40 bc 44 c5 84 bd a2 a9 f3 bc 77 0e 67 bd
       -0.011742244 -0.06482938 -0.029743973 -0.05641028
000200 47 79 cb bd 86 e9 f9 bc 8a 92 39 bd 91 57 23 bd
       -0.09935241 -0.03050686 -0.045305766 -0.03987843
000210 fc e5 7b bd be b6 03 bd e4 d2 3e bd d8 c9 71 bc
       -0.061498627 -0.0321567 -0.04658784 -0.014757596
000220 90 04 9c bd 50 8d 08 bd 46 79 70 bd 6f 30 9b bd
       -0.07618058 -0.03333789 -0.058709405 -0.07577597
000230 22 0a 2a bd 42 f2 bc bc ad 8f 93 bd 6f eb 62 bd
       -0.04151357 -0.023064736 -0.07205138 -0.05540031
000240 a0 c1 b7 bc d5 81 a3 bd 68 5b 87 bd 0a 3a be bd
       -0.022431195 -0.07983748 -0.06609231 -0.09288414
000250 46 10 91 bd 45 6f 8c bd 5e 4e c8 bd 89 95 ad bd
       -0.07083182 -0.068571605 -0.09780572 -0.08475787
000260 59 3a b1 bc 61 3b 7b 3d 2d 9c 4e 3c f1 4c 80 3c
       -0.021634268 0.061335925 0.012610477 0.015661689
000270 90 8c 1c 3c 47 4a b7 bc b3 14 14 bd 50 dc 82 bc
       0.009554997 -0.022374285 -0.036152553 -0.015974194
000280 c5 16 30 bc 2c 60 6b bd 56 c0 97 bd 74 3d 2a bd
       -0.010747616 -0.057464764 -0.07409732 -0.041562513
000290 e6 af 80 bd 5a 11 9d bd b5 a1 b4 bd 0c 06 42 bc
       -0.0628355 -0.07669325 -0.08819906 -0.011842262
0002a0 7d c4 a1 bd ac 79 90 bd be 52 2e bd 7a 48 62 bd
       -0.07898805 -0.07054457 -0.042559378 -0.0552449
0002b0 d0 47 11 bd 13 41 34 bd 0b 50 9b bd 17 fc a0 bd
       -0.035468876 -0.044007372 -0.07583626 -0.07860582
0002c0 a9 b8 48 bd 45 06 16 bd 95 26 84 bd 75 7a 02 bd
       -0.04900423 -0.036627073 -0.064526714 -0.031855065
0002d0 41 74 e7 bc ff dc 90 bd 69 61 49 bd 83 50 06 bc
       -0.028253676 -0.07073402 -0.049165163 -0.008197906
0002e0 e2 4a 26 bd d8 0b 1e bd 2d 01 28 bc 64 8a 24 bd
       -0.040598758 -0.038585514 -0.010254187 -0.040171042
0002f0 1c eb 5a bd 93 84 f4 bd ca 01 b9 bd b7 aa e5 bd
       -0.053446874 -0.11939349 -0.09033544 -0.11214202
000300 1c 1a 4b bd 0b b3 b3 bd 0d 99 e6 bd f1 f6 c9 bd
       -0.049585447 -0.08774384 -0.11259661 -0.098615535
000310 c4 a8 f6 bd 0a 28 c9 bd c5 db c7 bb 4e ea 03 bc
       -0.12043908 -0.0982209 -0.0060991966 -0.008051468
000320 c4 b0 05 bd 7a 0f 06 bd 3c bb 0f bd bc a9 77 bd
       -0.03263928 -0.032729603 -0.03509067 -0.060464606
000330 b3 8f 62 bd 24 88 0c bd dc 30 01 bc 45 c8 d7 bd
       -0.055312824 -0.03430952 -0.007885184 -0.10536245
000340 2b 31 1d be 88 cc e3 bd 4b a2 18 be 0e 00 23 be
       -0.15350787 -0.111229956 -0.1490566 -0.1591799
000350 83 bf ea bd 2e 48 07 be 33 5f bf bd 4e 7a 12 be
       -0.11462309 -0.13211128 -0.0934433 -0.14304468
000360 8a 5d 91 bd 0d 19 ec bc e2 65 1a bd f5 4f 21 bd
       -0.07097919 -0.028820539 -0.03769482 -0.039382894
000370 9c fc cb bc 0c 1f 84 bd 81 6e 00 bd d2 e8 6c bd
       -0.024900727 -0.06451234 -0.031355385 -0.057839222
000380 8f 82 76 bc d1 0b a5 bd f7 04 08 bd e1 5f 55 bd
       -0.015045776 -0.080588944 -0.03320786 -0.05209339
000390 fc 06 5a bc 97 bb 06 bd e0 a3 bd bd bc e2 63 bc
       -0.013307329 -0.032893743 -0.09259772 -0.013909038
0003a0 3a 53 9b bd 53 e9 58 bd 1c 35 d8 bb f4 80 21 bd
       -0.075842336 -0.05295689 -0.006598128 -0.03942962
0003b0 a7 60 5d bd 07 ec 1d bd 87 b9 38 bc 2f f5 f4 bc
       -0.054047253 -0.03855517 -0.011274702 -0.029902069
0003c0 12 be fe bb 9f 05 2d bd 28 2a 85 bd 15 f5 52 bd
       -0.007774123 -0.04224169 -0.06502181 -0.05150326
0003d0 54 d5 92 bd 93 63 ef bc 24 82 5a bd f8 b9 96 bd
       -0.07169595 -0.029222285 -0.053346768 -0.073596895
0003e0 10 1c 04 bd 95 76 20 bd 2a 1c c4 bc f6 12 e0 bc
       -0.032253325 -0.03917559 -0.02393921 -0.027352791
0003f0 41 34 ca 3b 36 02 ec 39 c7 9a 18 bd ba 2e 9a 3a
       0.00617078 0.00045015075 -0.037256982 0.0011763193

weight f4 [64, 64, 3, 3]
000000 ed c8 9d 3d 6a b5 bc 3c b4 5b a9 3d 10 de 9d 3d
       0.07704339 0.023035724 0.08269444 0.07708371
000010 f4 df 00 3c 74 95 99 3c bc ea a9 3c 74 d5 b0 3b
       0.007865895 0.018748023 0.020741813 0.0053965393
000020 bc 6b 33 3c b6 08 fc 3c 64 b4 af 3c ef 8a 65 3d
       0.010950979 0.030765872 0.021448322 0.0560407
000030 b5 c1 55 3d 4c 6d 41 3d d4 2e 40 3d 95 f8 50 3d
       0.052186687 0.047223374 0.04691966 0.051018316
000040 66 75 9d b9 ad 3b c0 3c 5a 73 18 bd 79 d6 3a bd
       -0.00030032842 0.023465956 -0.037219383 -0.045614693
000050 c1 4e 37 bd f1 df 73 bd 9d ee 9f bc 86 d2 0e bd
       -0.04475284 -0.05953974 -0.01952296 -0.03486874
000060 07 2e d0 bd a5 bb 8a bd 8f ad eb bc 58 d8 fd bd
       -0.10165029 -0.067740716 -0.028769283 -0.1239478
000070 1b 51 1b be 22 34 21 be 2a 88 1f be e7 1e 27 be
       -0.15167658 -0.15742543 -0.15579286 -0.16320382
000080 3b d9 0a be 35 e6 47 be 66 90 37 be 90 56 1a be
       -0.1355943 -0.19521411 -0.17926177 -0.15072083
000090 fb 55 84 3c 39 66 f3 3b c6 00 83 3d b4 ca 54 bc
       0.01615428 0.0074279574 0.06396632 -0.012987781
0000a0 7e 25 13 3d e8 b5 5a 3d 5c 43 15 3b 9a ea 6b 3d
       0.035924427 0.053396136 0.0022775745 0.05759678
0000b0 f8 62 b3 3c dd 11 7b 3d 83 87 a9 3d 07 9d c6 3d
       0.021897778 0.061296333 0.082778 0.09697919
0000c0 6a ca 99 3d 63 dd 71 3d a6 0a 99 3d b0 a5 56 3d
       0.075093105 0.05904902 0.07472734 0.052404106
0000d0 36 9b 99 3d a8 c3 d4 3d 73 17 fe 3c 9a 86 bb 3c
       0.07500307 0.10388881 0.03101704 0.022891331
0000e0 49 9d 21 3d 3b 40 ac 3d 0f 34 bd 3c bf cf 89 3c
       0.03945664 0.084106885 0.023096113 0.016822694
0000f0 81 e0 8e 3d 4a 8a 43 3d 10 fc 3d 3d b4 6e 2e 3d
       0.069764145 0.047739305 0.046382964 0.042586043
000100 12 bd c5 3c c6 c5 85 3d 5f dc a0 bb e2 99 f9 3c
       0.024138007 0.06531863 -0.004909083 0.030468885
000110 90 38 15 bb a7 d8 58 3d e3 b7 49 3d 62 f7 10 3c
       -0.002276931 0.05294099 0.049247634 0.008848043
000120 3d f0 37 3b d4 14 13 ba 16 74 33 bd 45 65 72 bd
       0.0028066777 -0.00056107086 -0.04381188 -0.05917861
000130 f9 0f 8e 3b cc 16 7e bd c2 86 79 bc 95 32 7b bd
       0.0043354 -0.06203346 -0.015229883 -0.061327536
000140 70 e1 78 bd 6a 2a 57 3d 1e cd b3 3d 18 68 b4 3d
       -0.06076187 0.052530684 0.087793574 0.08808917
000150 02 22 67 3d e1 5e a0 3d 93 9e c6 3d b9 d2 6b 3d
       0.056428917 0.07830597 0.096982144 0.057574008
000160 a8 28 a6 3d 92 21 a9 3d 5e 12 da 3c 1f 3d fd 3c
       0.08113223 0.08258356 0.026620086 0.030912934
000170 a2 16 2e 3d 0c e2 5e 3d 26 f3 93 3c 7b bb 93 3d
       0.042502053 0.054414794 0.018060278 0.072134934
000180 ce eb ec 3c b9 7b 0c 3d 1e c8 bf 3d ac b6 8c 3d
       0.028921034 0.03429768 0.09364341 0.068707794
000190 36 37 74 3d 75 f4 ca 3d 36 e7 35 3d c1 c7 b9 3d
       0.059622966 0.09909908 0.044409953 0.09071303
0001a0 a9 0d c2 3d e6 71 ee 3c 6a ea a8 3d 47 f0 75 3d
       0.09475262 0.029107045 0.08247836 0.0600436
0001b0 4b 50 9c bc ae 05 ed bc 2e 08 ed bc 6e da 86 bc
       -0.019081255 -0.028933372 -0.028934564 -0.016461577
0001c0 a2 29 db 3b 23 56 e8 bc 46 f6 d6 3c fd d0 34 3d
       0.0066883126 -0.028361386 0.02624048 0.04414462
0001d0 26 43 bc bc 6c 94 36 bc b1 81 8c ba 79 f0 5b bd
       -0.022981238 -0.011143785 -0.0010719803 -0.05369613
0001e0 d2 93 a6 bd 68 46 81 bd 02 d8 30 bc e8 60 1d bd
       -0.08133663 -0.06312257 -0.010793688 -0.038422495
0001f0 df ed e3 bc 8f a6 7c bd 07 0b f0 3c dd ad 79 3d
       -0.027823387 -0.06168228 0.029302133 0.060956825
000200 17 27 f1 bb 36 c0 bb 3c 21 25 28 3d 7f d2 0e 3c
       -0.007359396 0.022918802 0.041051034 0.008717178
000210 1b 83 34 3c 32 b2 25 3d 2b 70 2a bb d3 1e 39 3d
       0.011017586 0.040453143 -0.0026006799 0.045195412
000220 ac f1 30 3d 0a 7d 8c 3d 33 c0 fb 3d e6 fa 65 3d
       0.043199226 0.06859787 0.122925185 0.05614748
000230 f4 5a d7 3d 62 6b 5c 3d 0d 86 fa 3d 91 88 b6 3d
       0.10515395 0.053813346 0.122325994 0.08912767
000240 e1 d9 0d 3d 02 36 03 3b 84 eb c5 3c 25 81 8b 3d
       0.034631614 0.0020021205 0.024160154 0.06811742
000250 d4 66 80 3c 9c bf 05 3d 13 30 4b 3d 84 a2 21 3d
       0.015674032 0.032653436 0.049606394 0.039461628
000260 49 67 8d 3c f6 1c 49 bb 57 15 31 3d 79 04 5f 3d
       0.017261164 -0.0030687428 0.043233242 0.054447625
000270 56 f3 ce 3b 01 fd 12 3d 2c 6e 7b bb 5f 88 1d 3d
       0.006315629 0.035885815 -0.0038365228 0.03846013
000280 55 3e a1 bb 1a 3c 26 ba 95 5d 99 bd 9a 16 15 bc
       -0.0049207606 -0.00063413533 -0.074885525 -0.009099627
000290 4d 65 f5 bc 78 40 8a bd 49 fa a6 bd ec de f4 bc
       -0.02995553 -0.06750578 -0.08153207 -0.029891454
0002a0 34 77 a0 bd e7 f4 aa bb c0 0f 9f bd 43 c6 b1 bc
       -0.07835236 -0.005217183 -0.07766676 -0.021700984
0002b0 60 1e 25 bd 93 4d 01 bd 01 44 bb bc 8a 6f e1 bc
       -0.04031217 -0.03156812 -0.022859575 -0.027519006
0002c0 68 23 09 bd 46 da 07 3c 1c 10 9f 3c 83 74 0d bc
       -0.03348103 0.008291787 0.019416861 -0.008633736
0002d0 b9 99 12 3d 73 15 68 3d 44 b7 4f 3d 8f 5d 49 3d
       0.035791133 0.05666108 0.050711885 0.04916149
0002e0 25 0e ad 3c b5 6c 0e bb 85 72 60 bc 54 fc b3 3c
       0.021124909 -0.0021732275 -0.013699179 0.021970905
0002f0 d4 26 16 3d c0 2e 30 bd 41 9f 43 bd f8 43 52 bd
       0.036658123 -0.043013334 -0.0477593 -0.05133435
000300 6b 7a c6 bc ec f3 2d bb dd a2 7f bb 84 69 35 bd
       -0.024228295 -0.0026543094 -0.0039006986 -0.04429008
000310 7d 4d 92 bb 89 69 8c bd 9e a7 9b 3c 5b f8 3d 3d
       -0.0044648037 -0.06856067 0.019000825 0.04637943
000320 5b eb c3 3c 06 ff 6d 3d ed a2 84 3d 08 85 d8 3b
       0.023915937 0.058104537 0.06476388 0.0066076554
000330 01 bd d1 3c 71 a9 67 3d e6 11 3f 3d 44 94 ce 3d
       0.02560282 0.056558076 0.04664793 0.10086873
000340 8f 94 13 3e 55 58 0f 3e c7 f8 10 3e d8 0a 1c 3e
       0.1441214 0.1399854 0.14157401 0.15238512
000350 51 a0 07 3e 87 11 23 3e f5 f7 f2 3d 33 57 c8 3d
       0.1324475 0.15924655 0.118637 0.09782257
000360 0c b4 f3 3a 7a 37 f5 bc 98 25 b2 bc 20 35 01 bc
       0.0018593087 -0.02993368 -0.021746442 -0.007886201
000370 82 40 58 bc c0 7f 5c 3c db fd 5d bd bd 14 8e bb
       -0.013198974 0.013458192 -0.054197174 -0.0043359683
000380 e6 2d 64 bc 3a a9 a8 3d f8 c9 d9 3d 49 88 e1 3d
       -0.013926959 0.082354024 0.106342256 0.110123225
000390 01 86 00 3e 9f 94 f5 3d 9a 1f 06 3e 44 57 d1 3d
       0.12551118 0.11991238 0.13097993 0.10221723
0003a0 50 f4 e8 3d 7b d9 f4 3d 8a 02 c3 bb eb 1b 57 3d
       0.11374724 0.119555436 -0.0059512304 0.05251686
0003b0 39 45 0e 3d de 0d 8d 3c bc 9b 87 3c 9a 6a b8 3b
       0.034733985 0.017218526 0.016553752 0.0056279423
0003c0 57 01 73 3c 3b 69 86 3d 76 95 07 3c f4 00 89 3d
       0.014831862 0.0656304 0.00827538 0.06689635
0003d0 22 f8 17 bc a9 d5 70 3d 6a c3 93 3c 68 8e 9e bb
       -0.009275468 0.058797512 0.018037517 -0.0048387535
0003e0 ac 78 63 3d 99 34 f2 3b 22 35 ed 3c 63 fc 37 3d
       0.055535004 0.007391524 0.028956 0.04491843
0003f0 b5 3f ce bc 7d 8b 1a bd 63 1a d6 bc 59 60 b7 3b
       -0.025176862 -0.037730683 -0.026135629 0.0055962023

weight_orig f4 [1, 64, 3, 3]
000000 ee 4b e6 3c 88 c4 cc 3c 06 a2 1d 3d 20 aa 4d 3c
       0.028112378 0.024996057 0.038484596 0.012552768
000010 38 2a c0 3c d3 7e f4 bc b1 b8 72 3c 94 33 98 bc
       0.023457631 -0.02984563 0.014814542 -0.018579282
000020 ef 86 fb bb 60 f2 23 bc 59 b2 7b bd 53 af 04 bd
       -0.0076759974 -0.010006517 -0.061449382 -0.032393765
000030 ed 55 5e bd 34 a7 a1 bc 8c 3d 0a bd 03 c1 3a bd
       -0.054281164 -0.019733049 -0.033750102 -0.045594227
000040 d7 34 2a bc 3b 0c 85 bd 8f 6b 8b 3b db 54 36 bb
       -0.010388575 -0.064964734 0.0042547653 -0.0027821574
000050 4a 81 d6 3c eb be 56 3c cb 01 a6 3c 03 b7 e2 bb
       0.026184697 0.013107042 0.020264527 -0.0069187894
000060 85 04 cc 3c 60 33 42 3d 97 70 d2 bc 29 20 21 3d
       0.024904499 0.047412276 -0.025688453 0.03933731
000070 19 0d d3 3c 00 e2 55 bb 8b 5f 5e 3d ba f5 5b 3d
       0.025763081 -0.0032635927 0.054290336 0.05370114
000080 7f 1e 40 3c 62 ef 45 3d 68 8b 68 3b 12 da 83 bb
       0.011726021 0.048323996 0.0035483483 -0.0040237987
000090 b5 ee 99 3d 23 44 0e 3d 55 48 97 3d 09 49 03 3d
       0.07516233 0.03473295 0.07386843 0.032052074
0000a0 cd 33 b8 3c 1e b1 2b 3d b4 97 b7 bb 3d fb 38 3d
       0.022485638 0.04191696 -0.005602801 0.045161474
0000b0 4f bd 3e 3d bb 2b 89 bc 67 95 5a bd 5b 6b 9b 3b
       0.046567257 -0.016744485 -0.053365137 0.0047430224
0000c0 a0 7d 4c bb 99 6f 5b bc f0 47 c2 3c 83 7c 81 bc
       -0.0031202808 -0.013393306 0.023715943 -0.015806442
0000d0 39 f0 46 3c 5d 42 10 3c 3c ae 2c 3d a8 bc 35 3d
       0.0121422345 0.008804885 0.04215835 0.04436937
0000e0 41 af 87 3d da 82 a4 3d c6 7c 6a 3d 25 a5 1e 3d
       0.06625224 0.080327705 0.0572479 0.038731713
0000f0 5e 51 91 3d f0 7f ee 3c 6d ec 34 3d f2 14 bc bb
       0.07095598 0.02911374 0.044170786 -0.0057398016
000100 b3 be f4 bb 07 34 8f bd 1a d8 59 bd 66 bd 60 bd
       -0.007469022 -0.06992345 -0.053184606 -0.054868124
000110 24 9c 3c bd 9e 1a e5 bc af 0d 97 bd 95 5a d3 bc
       -0.046047345 -0.027966794 -0.07375657 -0.025800029
000120 46 04 83 bd ed 3c 83 bc ff 77 5e bd 4c 8c 90 bc
       -0.063972995 -0.016020263 -0.054313656 -0.017645024
000130 a0 d0 a9 bc f9 31 5d bd 7f a6 dd 3b f7 72 0b 3c
       -0.020729363 -0.054002736 0.0067642326 0.0085112965
000140 eb 0d f6 bc 56 44 7b 3d 0f db 6a 3b ae 7a fd bc
       -0.030035933 0.061344467 0.0035836136 -0.030942287
000150 32 4e 72 3d ea 93 3a bc c4 c5 0d bb 46 60 42 3c
       0.059156604 -0.0113878045 -0.002163277 0.011863774
000160 a9 69 04 3b 92 9c 0c bc e8 e7 ea bb 5f 9e ec b8
       0.002020458 -0.008582251 -0.0071687587 -0.00011282856
000170 90 af 2b bd 7f 3e 30 bb 80 16 21 3b 6e 6a a8 bd
       -0.041915476 -0.002689272 0.0024580061 -0.08223425
000180 27 4b 2a bc 32 f2 18 bd b4 77 90 bd 84 2b 48 39
       -0.010393894 -0.03734035 -0.070540816 0.00019089697
000190 86 c2 b3 bc 95 c6 6a bc 55 20 53 bd ff 72 67 bd
       -0.021943342 -0.014329572 -0.051544506 -0.056506153
0001a0 22 b8 e4 3b 2a d4 a5 3c b6 04 74 bc 13 9c 5a bc
       0.006979958 0.02024277 -0.014893701 -0.013342875
0001b0 37 3c 7e 3c 52 29 00 3d 08 74 b8 bc 74 f1 fd 3c
       0.015517286 0.031289406 -0.022516266 0.030998923
0001c0 16 56 e3 3c 1d 82 69 3d a5 4c 14 3c 25 89 ca 3b
       0.02775101 0.05700885 0.009051477 0.0061808997
0001d0 cb 66 96 3d 47 bf 74 bc ed 56 ac bd 12 a0 b4 3c
       0.07343825 -0.014938182 -0.08415017 0.022048984
0001e0 75 75 56 bd 5c 5f cd bc 74 84 1a bd c6 3f 99 3b
       -0.05235811 -0.025069885 -0.037723973 0.004676792
0001f0 ce 09 75 bd 7e f1 9e 3b 08 a0 14 bd 01 5e 8d bd
       -0.059823804 0.0048505655 -0.03628543 -0.069026954
000200 3e e1 35 bd 90 bc 13 3c 7b bd a4 bd 20 ec ed bd
       -0.04440426 0.009017125 -0.08043953 -0.11617303
000210 b5 f7 27 bd f4 ab 61 bd 0b 14 23 bd 05 46 fa bc
       -0.041007716 -0.055095628 -0.039814036 -0.030550966
000220 a5 f5 89 bd d9 70 3c bd 3c 7c 53 bd 2a 6d 4a bb
       -0.06736306 -0.046006057 -0.05163215 -0.003088782
000230 f2 6a aa bc fe 51 2b bc d5 8b 45 bd 71 98 fc bc
       -0.020802949 -0.01045656 -0.048229057 -0.030834408
000240 5b f2 ea 3b f0 b9 9b 3c 66 e9 1f 3d 54 bd 0b bc
       0.0071700043 0.01900956 0.039040945 -0.008529026
000250 96 9b fc bc a3 fb f1 3c 50 18 db bc 8e a3 a4 3c
       -0.030835908 0.029538935 -0.026744992 0.02009752
000260 16 cc f6 3c 21 f9 a1 bd 25 cd 19 bd 65 39 81 bd
       0.030126613 -0.07908846 -0.037549157 -0.06309775
000270 83 8c b6 bd c7 e1 91 bd 84 d3 50 bd 94 86 5f bd
       -0.08913519 -0.07123142 -0.050982967 -0.054571703
000280 6a be cb bd f4 14 9f bd 55 ab 83 3d ce a4 4f 3d
       -0.09948428 -0.07767668 0.06429163 0.05069428
000290 5a c0 63 3c bc 1d a1 3d fe 04 8d 3d 43 a5 2a 3d
       0.013900841 0.078669995 0.06885718 0.041661512
0002a0 75 c2 b5 3c dc 1d 5e 3d ba d4 fc 3c e7 25 8a bd
       0.02218745 0.054227695 0.030863155 -0.067455105
0002b0 e7 9e 0b bd 55 7e c6 bc 1b 89 c2 bd 26 db c6 bd
       -0.034087088 -0.024230162 -0.09498807 -0.09709768
0002c0 3b 7a 87 bd 4c d0 17 bd 80 4a c0 bc b1 ca 65 bd
       -0.066151105 -0.03706388 -0.023473024 -0.056101505
0002d0 68 37 bd 3b 52 fa bb 3c 96 69 a3 3d 98 da 80 3b
       0.005774427 0.02294651 0.07979123 0.0039323084
0002e0 51 cf d3 3c 27 2b 0a 3d ce 3c 53 3d d2 28 70 3c
       0.025855692 0.03373256 0.05157166 0.01465817
0002f0 b4 80 a1 3d c1 64 98 bb 41 25 39 bd a3 f2 84 bc
       0.07885876 -0.0046506827 -0.045201544 -0.01622898
000300 f2 da 96 bd 26 f2 10 bd 57 90 23 bd 3b 26 76 bc
       -0.07365979 -0.03538718 -0.039932575 -0.015023763
000310 bc 7c 8a bd d9 df 11 3d 8b 10 dc bb bf 9a dd bc
       -0.067620724 0.03561387 -0.0067158393 -0.027051328
000320 34 23 0b bc ba ae 07 bd 3e 27 c3 3c 1e 3b 01 bd
       -0.00849228 -0.033125617 0.023822423 -0.03155052
000330 c8 5c 1f bd 3b 6d 13 bd cb 40 f8 bc 84 6a 1d bd
       -0.038906842 -0.035992842 -0.030304333 -0.03843166
000340 50 e3 6e bd 95 e8 0b bd 31 d1 bb bd d1 ed 26 bd
       -0.05832225 -0.034157354 -0.091707595 -0.040754143
000350 45 c6 d3 bc 5d 9e 94 bd cf f7 9b bd c9 b1 35 bd
       -0.025851378 -0.07256768 -0.07615625 -0.044359002
000360 fc a8 9f bd 8e 86 a4 bd b4 cc 0b bd 3c c2 65 bc
       -0.07795903 -0.08033477 -0.034130767 -0.01402336
000370 e7 0d a5 bd e4 6c 72 bd 33 45 0c bc 06 30 35 bd
       -0.08059292 -0.059185877 -0.00856142 -0.04423525
000380 be dc 2f bd cd cd a9 3c c8 53 83 3b 9c e7 1a 3d
       -0.042935126 0.020728016 0.0040077902 0.037818536
000390 2d aa 04 3d cf 4d 23 bc 85 4e c3 3c 68 06 e0 bc
       0.032388855 -0.0099672815 0.023841152 -0.027346805
0003a0 70 fe 3c bc cc 8c 49 bc 17 2e d9 bb 6f 7e 36 3c
       -0.011535272 -0.012301635 -0.006627809 0.011138543
0003b0 23 bf 1c bb 3e 0f 95 bb f1 b6 42 3d f1 ed 4d 3c
       -0.0023917637 -0.004548936 0.047537748 0.012568937
0003c0 e6 17 f9 3c a5 4f 63 3c c5 ec ff 3c 36 60 57 bc
       0.030406903 0.013873969 0.03124083 -0.013145497
0003d0 38 c6 65 bd f4 14 a8 bd 15 2a 88 bd a0 37 dd bc
       -0.05609724 -0.082071215 -0.066486515 -0.027004063
0003e0 e8 0b 71 bd 0c 43 7c bc 0b 38 10 bd c4 f8 c6 bc
       -0.058849245 -0.015396845 -0.035209697 -0.024288543
0003f0 07 d7 96 bd 17 c6 02 bd da 11 fc bc 05 ae 4b bd
       -0.07365232 -0.031927194 -0.030770231 -0.049726505

weight_mask f4 [1, 64, 3, 3]
000000 00 00 80 3f 00 00 80 3f 00 00 80 3f 00 00 00 00
       1.0 1.0 1.0 0.0
000010 00 00 80 3f 00 00 80 3f 00 00 80 3f 00 00 80 3f
       1.0 1.0 1.0 1.0
000020 00 00 80 3f 00 00 80 3f 00 00 80 3f 00 00 80 3f
       1.0 1.0 1.0 1.0
000030 00 00 80 3f 00 00 80 3f 00 00 00 00 00 00 80 3f
       1.0 1.0 0.0 1.0
000040 00 00 80 3f 00 00 80 3f 00 00 80 3f 00 00 80 3f
       1.0 1.0 1.0 1.0
000050 00 00 00 00 00 00 80 3f 00 00 80 3f 00 00 80 3f
       0.0 1.0 1.0 1.0
000060 00 00 80 3f 00 00 80 3f 00 00 80 3f 00 00 80 3f
       1.0 1.0 1.0 1.0
000070 00 00 80 3f 00 00 00 00 00 00 80 3f 00 00 80 3f
       1.0 0.0 1.0 1.0
000080 00 00 80 3f 00 00 80 3f 00 00 80 3f 00 00 80 3f
       1.0 1.0 1.0 1.0
000090 00 00 80 3f 00 00 00 00 00 00 80 3f 00 00 80 3f
       1.0 0.0 1.0 1.0
0000a0 00 00 80 3f 00 00 80 3f 00 00 80 3f 00 00 80 3f
       1.0 1.0 1.0 1.0
0000b0 00 00 80 3f 00 00 80 3f 00 00 80 3f 00 00 80 3f
       1.0 1.0 1.0 1.0
0000c0 00 00 80 3f 00 00 80 3f 00 00 80 3f 00 00 80 3f
       1.0 1.0 1.0 1.0
0000d0 00 00 80 3f 00 00 80 3f 00 00 80 3f 00 00 80 3f
       1.0 1.0 1.0 1.0
0000e0 00 00 80 3f 00 00 80 3f 00 00 80 3f 00 00 80 3f
       1.0 1.0 1.0 1.0
0000f0 00 00 80 3f 00 00 80 3f 00 00 80 3f 00 00 80 3f
       1.0 1.0 1.0 1.0
000100 00 00 80 3f 00 00 80 3f 00 00 80 3f 00 00 80 3f
       1.0 1.0 1.0 1.0
000110 00 00 80 3f 00 00 00 00 00 00 80 3f 00 00 80 3f
       1.0 0.0 1.0 1.0
000120 00 00 80 3f 00 00 80 3f 00 00 80 3f 00 00 80 3f
       1.0 1.0 1.0 1.0
000130 00 00 00 00 00 00 80 3f 00 00 80 3f 00 00 80 3f
       0.0 1.0 1.0 1.0
000140 00 00 80 3f 00 00 80 3f 00 00 80 3f 00 00 00 00
       1.0 1.0 1.0 0.0
000150 00 00 80 3f 00 00 80 3f 00 00 80 3f 00 00 80 3f
       1.0 1.0 1.0 1.0
000160 00 00 80 3f 00 00 80 3f 00 00 00 00 00 00 80 3f
       1.0 1.0 0.0 1.0
000170 00 00 80 3f 00 00 80 3f 00 00 00 00 00 00 80 3f
       1.0 1.0 0.0 1.0
000180 00 00 80 3f 00 00 80 3f 00 00 80 3f 00 00 80 3f
       1.0 1.0 1.0 1.0
000190 00 00 00 00 00 00 80 3f 00 00 80 3f 00 00 80 3f
       0.0 1.0 1.0 1.0
0001a0 00 00 80 3f 00 00 00 00 00 00 80 3f 00 00 80 3f
       1.0 0.0 1.0 1.0
0001b0 00 00 80 3f 00 00 80 3f 00 00 00 00 00 00 80 3f
       1.0 1.0 0.0 1.0
0001c0 00 00 80 3f 00 00 80 3f 00 00 80 3f 00 00 80 3f
       1.0 1.0 1.0 1.0
0001d0 00 00 80 3f 00 00 80 3f 00 00 80 3f 00 00 00 00
       1.0 1.0 1.0 0.0
0001e0 00 00 80 3f 00 00 80 3f 00 00 80 3f 00 00 80 3f
       1.0 1.0 1.0 1.0
0001f0 00 00 80 3f 00 00 80 3f 00 00 80 3f 00 00 80 3f
       1.0 1.0 1.0 1.0
000200 00 00 80 3f 00 00 00 00 00 00 80 3f 00 00 80 3f
       1.0 0.0 1.0 1.0
000210 00 00 80 3f 00 00 80 3f 00 00 00 00 00 00 80 3f
       1.0 1.0 0.0 1.0
000220 00 00 80 3f 00 00 80 3f 00 00 80 3f 00 00 80 3f
       1.0 1.0 1.0 1.0
000230 00 00 80 3f 00 00 80 3f 00 00 80 3f 00 00 80 3f
       1.0 1.0 1.0 1.0
000240 00 00 80 3f 00 00 80 3f 00 00 80 3f 00 00 00 00
       1.0 1.0 1.0 0.0
000250 00 00 00 00 00 00 80 3f 00 00 80 3f 00 00 80 3f
       0.0 1.0 1.0 1.0
000260 00 00 80 3f 00 00 80 3f 00 00 80 3f 00 00 80 3f
       1.0 1.0 1.0 1.0
000270 00 00 80 3f 00 00 80 3f 00 00 80 3f 00 00 80 3f
       1.0 1.0 1.0 1.0
000280 00 00 80 3f 00 00 80 3f 00 00 80 3f 00 00 80 3f
       1.0 1.0 1.0 1.0
000290 00 00 80 3f 00 00 80 3f 00 00 80 3f 00 00 80 3f
       1.0 1.0 1.0 1.0
0002a0 00 00 80 3f 00 00 80 3f 00 00 00 00 00 00 80 3f
       1.0 1.0 0.0 1.0
0002b0 00 00 80 3f 00 00 80 3f 00 00 80 3f 00 00 80 3f
       1.0 1.0 1.0 1.0
0002c0 00 00 80 3f 00 00 80 3f 00 00 00 00 00 00 80 3f
       1.0 1.0 0.0 1.0
0002d0 00 00 00 00 00 00 80 3f 00 00 80 3f 00 00 80 3f
       0.0 1.0 1.0 1.0
0002e0 00 00 80 3f 00 00 80 3f 00 00 80 3f 00 00 80 3f
       1.0 1.0 1.0 1.0
0002f0 00 00 80 3f 00 00 80 3f 00 00 80 3f 00 00 80 3f
       1.0 1.0 1.0 1.0
000300 00 00 80 3f 00 00 80 3f 00 00 80 3f 00 00 80 3f
       1.0 1.0 1.0 1.0
000310 00 00 80 3f 00 00 00 00 00 00 80 3f 00 00 80 3f
       1.0 0.0 1.0 1.0
000320 00 00 00 00 00 00 80 3f 00 00 80 3f 00 00 80 3f
       0.0 1.0 1.0 1.0
000330 00 00 80 3f 00 00 80 3f 00 00 80 3f 00 00 80 3f
       1.0 1.0 1.0 1.0
000340 00 00 80 3f 00 00 80 3f 00 00 80 3f 00 00 80 3f
       1.0 1.0 1.0 1.0
000350 00 00 80 3f 00 00 80 3f 00 00 80 3f 00 00 80 3f
       1.0 1.0 1.0 1.0
000360 00 00 80 3f 00 00 80 3f 00 00 80 3f 00 00 00 00
       1.0 1.0 1.0 0.0
000370 00 00 80 3f 00 00 80 3f 00 00 80 3f 00 00 80 3f
       1.0 1.0 1.0 1.0
000380 00 00 80 3f 00 00 80 3f 00 00 80 3f 00 00 80 3f
       1.0 1.0 1.0 1.0
000390 00 00 80 3f 00 00 80 3f 00 00 80 3f 00 00 00 00
       1.0 1.0 1.0 0.0
0003a0 00 00 80 3f 00 00 00 00 00 00 80 3f 00 00 80 3f
       1.0 0.0 1.0 1.0
0003b0 00 00 80 3f 00 00 80 3f 00 00 80 3f 00 00 80 3f
       1.0 1.0 1.0 1.0
0003c0 00 00 80 3f 00 00 80 3f 00 00 80 3f 00 00 80 3f
       1.0 1.0 1.0 1.0
0003d0 00 00 80 3f 00 00 80 3f 00 00 80 3f 00 00 80 3f
       1.0 1.0 1.0 1.0
0003e0 00 00 80 3f 00 00 80 3f 00 00 80 3f 00 00 80 3f
       1.0 1.0 1.0 1.0
0003f0 00 00 80 3f 00 00 00 00 00 00 80 3f 00 00 80 3f
       1.0 0.0 1.0 1.0
