weights/Act_Sigmoid_VDSR_model_path.pth (torch, 606679 bytes, 8 tensors)

weight f4 [64, 1, 3, 3]
-0.2678276 0.016505823 0.11921466 -0.15910551 0.1908883 0.12457825 0.35096174 -0.08699348
-0.27510414 0.16429421 0.21278755 0.29848874 0.19557016 0.095161125 -0.32049558 0.25878277
-0.17786752 -0.057385672 -0.17245947 -0.30572507 -0.18431447 0.31894726 0.25750783 -0.059866074
0.28174987 0.11181499 0.31972513 -0.17466755 -0.18127286 0.06595957 0.005265391 0.11217984
0.08704082 -0.29423815 0.10808866 -0.30692592 0.29582262 -0.051444862 -0.33289593 -0.014457976
-0.27602008 0.20485188 -0.25642815 -0.31702685 0.039311536 0.08174834 0.15256928 0.35165814
-0.1833013 -0.033280052 0.078825496 0.1015529 -0.08594778 0.38018227 -0.1522598 -0.36649942
-0.055054802 0.0020909728 -0.025818372 -0.15005958 0.1526716 -0.022858774 0.11551624 0.05550048
0.08928766 0.15488972 -0.06474557 -0.1857378 -0.26603743 0.1429789 -0.14510553 0.29373622
-0.015620561 -0.22680502 -0.20778775 -0.3213709 0.15325904 -0.30297944 0.32248932 0.16318068
-0.045057226 0.061567366 0.27990618 0.29934275 -0.07425155 -0.24090068 -0.10272836 -0.2298365
0.019961856 0.0017651587 -0.25129476 -0.032530695 -0.31796533 -0.32787567 0.28317815 0.27041495
0.09262296 -0.13503134 0.11638283 0.052608833 -0.1219129 -0.29545835 -0.3064124 0.322374
-0.10876948 0.23658344 0.1834296 0.17513396 -0.31975487 -0.04603298 0.0023703605 -0.33500564
-0.3371939 0.2863694 0.28072178 0.16830683 0.07548185 0.08556165 0.18022041 -0.150499
-0.22435504 -0.06883828 -0.26126122 0.19689819 -0.1708929 -0.2508929 0.24690603 0.19027184
-0.07924846 -0.21896644 -0.20744231 0.0660642 0.043751594 -0.11720063 0.04615786 0.31210786
0.015925348 -0.27103305 -0.10030763 -0.25563595 -0.14193258 0.06858232 0.22929095 -0.2751845
0.2091068 0.23852171 0.077215195 0.24429742 -0.29653794 -0.24783228 -0.018031051 0.2360268
-0.2696752 0.12904556 -0.046837647 0.07493133 -0.20299634 0.06602263 0.17203054 -0.21135275
-0.109084755 0.062765695 0.35525262 -0.0021063588 0.05479754 0.12354395 -0.044913065 0.066446
-0.09035601 0.25400853 0.22333683 -0.012912586 -0.29255128 0.06886918 0.26305243 0.2110141
0.32340336 -0.08621701 0.050584935 0.13056806 -0.22580048 -0.15236169 0.252699 -0.17395695
0.13103192 -0.23607168 -0.2896615 0.18264496 0.017819053 -0.28965 0.20987153 -0.37152705
-0.015193183 -0.34040144 -0.28680784 0.12009422 -0.04812159 0.08915946 -0.21105894 0.2375704
0.27880982 0.15211424 0.032838643 -0.20260845 -0.10612157 -0.27978903 -0.29684287 0.14692868
-0.32419044 -0.034892913 0.24221964 0.08866645 -0.22895251 -0.27472767 -0.15348923 -0.36938077
0.13731869 0.16314812 -0.262331 0.089045584 -0.20993339 0.28815305 0.21859337 0.24141824
0.09221937 0.18158232 -0.2052215 -0.055049825 0.12698232 -0.05906482 0.28973952 0.06059075
-0.13188834 -0.18988828 0.26096535 -0.09968049 0.13107558 -0.19992262 0.20348364 0.35891238
0.25615135 -0.15355748 -0.21345064 0.09670793 -0.040462784 0.08272476 -0.19400488 -0.06692159
0.17368245 -0.015484548 -0.2572604 0.11987129 -0.19753301 0.2150465 -0.19831434 -0.043746494
00000000: b320 89be 3837 873c d126 f43d 8eec 22be
00000010: 3978 433e e222 ff3d 42b1 b33e a329 b2bd
00000020: 73da 8cbe be3c 283e fbe4 593e 84d3 983e
00000030: 8b43 483e d6e3 c23d ff17 a4be 2d7f 843e
00000040: e722 36be 3d0d 6bbd 3799 30be ff87 9cbe
00000050: efbc 3cbe 0e4d a33e 11d8 833e 2136 75bd
00000060: 8541 903e 42ff e43d 03b3 a33e 0ddc 32be
00000070: 989f 39be d015 873d 4d89 ac3b 8bbe e53d
00000080: 7542 b23d 62a6 96be 965d dd3d 6525 9dbe
00000090: 1076 973e d9b7 52bd 5671 aabe 26e1 6cbc
000000a0: 8152 8dbe b1c4 513e 8d4a 83be 5851 a2be
000000b0: 2205 213d ac6b a73d 1f3b 1c3e 890c b43e
000000c0: 56b3 3bbe aa50 08bd 436f a13d f8fa cf3d
000000d0: 6405 b0bd 40a7 c23e fee9 1bbe d0a5 bbbe
000000e0: 2581 61bd b408 093b 0d81 d3bc 38a9 19be
000000f0: f255 1c3e 5342 bbbc c793 ec3d 7954 633d
00000100: 73dc b63d 699b 1e3e 5399 84bd 0d32 3ebe
00000110: 0f36 88be 1069 123e 8b96 14be 9864 963e
00000120: 62ed 7fbc 933f 68be 50c6 54be ba8a a4be
00000130: f0ef 1c3e 1f20 9bbe 521d a53e d618 273e
00000140: ed8d 38bd 102e 7c3d dd4f 8f3e 7443 993e
00000150: 3211 98bd abae 76be 3f63 d2bd 425a 6bbe
00000160: 0c87 a33c e65c e73a b5a9 80be e83e 05bd
00000170: 5acc a2be 52df a7be bafc 903e d473 8a3e
00000180: 1bb1 bd3d a845 0abe 1f5a ee3d 5c7c 573d
00000190: 78ad f9bd 5146 97be 16e2 9cbe 340e a53e
000001a0: 88c2 debd ee42 723e f8d4 3b3e 5156 333e
000001b0: e9b6 a3be 148d 3cbd 0d58 1b3b dc85 abbe
000001c0: aea4 acbe 039f 923e c4ba 8f3e a058 2c3e
000001d0: 3a96 9a3d f23a af3d b38b 383e 691c 1abe
000001e0: 54bd 65be 16fb 8cbd 08c4 85be ae9f 493e
000001f0: 8cfe 2ebe 0975 80be efd4 7c3e 9fd6 423e
00000200: 044d a2bd bd38 60be c26b 54be ab4c 873d
00000210: df34 333d e206 f0bd 0610 3d3d 9acc 9f3e
00000220: e075 823c d8c4 8abe 166e cdbd b7e2 82be
00000230: c656 11be e374 8c3d 3fcb 6a3e fce4 8cbe
00000240: 1820 563e 093f 743e 0023 9e3d 1a29 7a3e
00000250: d2d3 97be bfc7 7dbe dbb5 93bc 02b1 713e
00000260: de12 8abe 8524 043e d5d8 3fbd 9975 993d
00000270: 46de 4fbe df36 873d c628 303e db6c 58be
00000280: d467 dfbd 4d8b 803d ace3 b53e d60a 0abb
00000290: 6373 603d 9c04 fd3d c3f6 37bd d714 883d
000002a0: 920c b9bd 680d 823e 69b2 643e 508f 53bc
000002b0: 48c9 95be 490b 8d3d cfae 863e 1514 583e
000002c0: 2095 a53e 8b92 b0bd 2632 4f3d a2b3 053e
000002d0: 3e38 67be b404 1cbe c361 813e c521 32be
000002e0: 3b2d 063e c6bc 71be 834e 94be 4807 3b3e
000002f0: 43f9 913c 014d 94be 90e8 563e cb38 bebe
00000300: d4ec 78bc 1949 aebe 7ad8 92be f5f3 f53d
00000310: 251b 45bd 3c99 b63d d61f 58be a845 733e
00000320: 29c0 8e3e d6c3 1b3e d081 063d 9778 4fbe
00000330: 4456 d9bd 8240 8fbe cafb 97be 7974 163e
00000340: 4afc a5be dfeb 0ebd 6d08 783e c196 b53d
00000350: 8772 6abe 1ba9 8cbe 482c 1dbe 7a1f bdbe
00000360: 459d 0c3e 4d10 273e 4050 86be 885d b63d
00000370: c7f8 56be cc88 933e f1d6 5f3e 5836 773e
00000380: 82dd bc3d b7f0 393e 9625 52be ed7b 61bd
00000390: a707 023e f4ed 71bd bd58 943e 022e 783d
000003a0: bd0d 07be 1372 42be 409d 853e 4925 ccbd
000003b0: ad38 063e 84b8 4cbe 045e 503e 5dc3 b73e
000003c0: 4526 833e 2c3e 1dbe ce92 5abe cf0e c63d
000003d0: 4ebc 25bd 996b a93d 37a9 46be 300e 89bd
000003e0: d0d9 313e e7b2 7dbc a3b7 83be 147f f53d
000003f0: 1846 4abe 2635 5c3e ea12 4bbe 862f 33bd

weight f4 [64, 64, 3, 3]
0.043758146 0.073007695 0.053827375 0.033253375 0.04619405 0.07802037 0.09150067 0.06001996
0.08143852 0.048009433 0.08316892 0.02659896 0.08216499 0.06552369 0.057998504 0.04405455
0.043445203 0.06754928 0.054041807 0.0845179 0.051163577 0.09283816 0.03946203 0.08314753
0.07769573 0.06045156 0.059100006 0.03206704 0.030215506 0.044519365 0.07943331 0.068100564
0.096766375 0.04226045 0.104065396 0.05613753 0.059706785 0.06255425 0.09246351 0.05499484
0.053840432 0.07841045 0.030223759 0.028292269 0.10435451 0.04971282 0.10361251 0.045839716
0.041224487 0.09618351 0.05504274 0.09327097 0.079907045 0.05993891 0.042508654 0.0959547
0.037398845 0.053106777 0.030047197 0.038646568 0.050778277 0.10096125 0.034460757 0.074116714
0.1006002 0.090161614 0.06960436 0.07810117 0.044879846 0.08270568 0.09952616 0.09346241
0.04812545 0.08845403 0.09287889 0.044840798 0.046291556 0.08761593 0.03396715 0.105316125
0.055949897 0.07015867 0.07322518 0.07549632 0.065074235 0.08591104 0.057505235 0.09520012
0.06953523 0.05593924 0.042178188 0.06753329 0.03857982 0.076912336 0.100415714 0.034200888
0.07023891 0.058047406 0.06406395 0.029831871 0.0427967 0.061141834 0.07767538 0.09448587
0.028357677 0.03500759 0.09541562 0.09108065 0.10945203 0.064133435 0.029443564 0.058767635
0.10335461 0.084776 0.047855716 0.109267734 0.08563895 0.03650552 0.03544046 0.10961339
0.07146157 0.077524826 0.10421771 0.049603853 0.064776056 0.03006117 0.03482132 0.09778263
0.0737075 0.10629624 0.08412216 0.06327445 0.03889474 0.032875754 0.035697702 0.074393146
0.049652096 0.035289172 0.097257614 0.05646265 0.10680395 0.05435892 0.082924284 0.043074075
0.056100976 0.039537076 0.03172975 0.0678135 0.031268973 0.054398924 0.065048054 0.10629021
0.032838915 0.0507511 0.047524698 0.091803916 0.029496612 0.055783667 0.03957073 0.0833659
0.046370313 0.030109493 0.061735976 0.08183455 0.10539792 0.042806555 0.10004633 0.061927572
0.107191466 0.09576234 0.08069455 0.03887988 0.048249215 0.046220932 0.0838184 0.06987143
0.06431978 0.06147029 0.040455926 0.10111805 0.074537955 0.051103864 0.027751695 0.055188194
0.045111753 0.029363561 0.066089794 0.05757259 0.06426032 0.029673725 0.10777505 0.08652353
0.09933434 0.05384027 0.1088229 0.09361154 0.07172355 0.0726222 0.076744266 0.09197294
0.047753535 0.08913194 0.09366641 0.07607108 0.06041101 0.029031295 0.041935414 0.069094226
0.07560545 0.054336842 0.041527588 0.10687785 0.041820604 0.040365025 0.08747847 0.08673111
0.07203676 0.052877788 0.07305097 0.05008252 0.08351744 0.08649293 0.04865922 0.029113226
0.03053683 0.084695496 0.084017 0.03752796 0.07301604 0.06579683 0.037147596 0.045189824
0.08584779 0.1077152 0.06574123 0.089081444 0.08837012 0.04380499 0.10667524 0.03629763
0.08542546 0.059986223 0.09858852 0.06832142 0.07275628 0.092535995 0.056433085 0.06529021
0.031291384 0.08431309 0.06957213 0.061343733 0.029468482 0.10285127 0.09955316 0.03846609
00000000: be3b 333d 0f85 953d 187a 5c3d b134 083d
00000010: f935 3d3d 25c9 9f3d b464 bb3d 7dd7 753d
00000020: 3dc9 a63d 8aa5 443d 7754 aa3d 10e6 d93c
00000030: 1e46 a83d 4931 863d d78f 6d3d 8b72 343d
00000040: 99f3 313d 4757 8a3d f15a 5d3d b917 ad3d
00000050: e690 513d ef21 be3d f0a2 213d 4149 aa3d
00000060: f01e 9f3d 0e9c 773d d912 723d bb58 033d
00000070: 8286 f73c f059 363d eead a23d 4f78 8b3d
00000080: 732d c63d 4b19 2d3d 3d20 d53d 77f0 653d
00000090: 1a8f 743d 711c 803d 825d bd3d 4542 613d
000000a0: c987 5c3d a895 a03d d197 f73c 30c5 e73c
000000b0: d1b7 d53d ac9f 4b3d cc32 d43d 6dc2 3b3d
000000c0: 02db 283d dcfb c43d 7f74 613d da04 bf3d
000000d0: 4ea6 a33d 8182 753d 8e1d 2e3d e683 c43d
000000e0: 882f 193d 7e86 593d 8a25 f63c dd4b 1e3d
000000f0: e2fc 4f3d c6c4 ce3d b926 0d3d 81ca 973d
00000100: 7a07 ce3d a7a6 b83d bb8c 8e3d 82f3 9f3d
00000110: eed3 373d 9861 a93d 5fd4 cb3d 3869 bf3d
00000120: 311f 453d 6327 b53d 4a37 be3d fcaa 373d
00000130: 379c 3d3d fb6f b33d 2321 0b3d fbaf d73d
00000140: b82b 653d 59af 8f3d 15f7 953d d19d 9a3d
00000150: a445 853d 21f2 af3d 9c8a 6b3d 48f8 c23d
00000160: 7d68 8e3d 8b20 653d 09c3 2c3d e54e 8a3d
00000170: e005 1e3d 3784 9d3d c1a6 cd3d 3b16 0c3d
00000180: 6bd9 8f3d 1ec3 6d3d f633 833d f861 f43c
00000190: 984b 2f3d dc6f 7a3d 4514 9f3d cf81 c13d
000001a0: 5c4e e83c 1e64 0f3d 4469 c33d 7e88 ba3d
000001b0: 6328 e03d 6458 833d a133 f13c 55b6 703d
000001c0: 95ab d33d 0a9f ad3d 5b04 443d c3c7 df3d
000001d0: 7963 af3d d086 153d 042a 113d fc7c e03d
000001e0: 725a 923d 56c5 9e3d 1870 d53d 692d 4b3d
000001f0: 4fa9 843d d842 f63c cda0 0e3d 4242 c83d
00000200: f5f3 963d d8b1 d93d 3d48 ac3d 0996 813d
00000210: 1750 1f3d baa8 063d c137 123d 6f5b 983d
00000220: ff5f 4b3d 618b 103d 002f c73d 6145 673d
00000230: 08bc da3d 75a7 5e3d 35d4 a93d 716e 303d
00000240: 23ca 653d a1f1 213d 0ef7 013d cee1 8a3d
00000250: e513 003d 68d1 5e3d ea37 853d aeae d93d
00000260: 1982 063d 63e0 4f3d 42a9 423d b103 bc3d
00000270: e1a2 f13c 6a7d 643d eb14 223d bebb aa3d
00000280: ccee 3d3d 2fa8 f63c ddde 7c3d df98 a73d
00000290: ddda d73d ed55 2f3d 17e5 cc3d c4a7 7d3d
000002a0: 3387 db3d 0c1f c43d 2f43 a53d 8240 1f3d
000002b0: f8a0 453d 2952 3d3d fba8 ab3d c118 8f3d
000002c0: 17ba 833d 45c8 7b3d 1db5 253d fb16 cf3d
000002d0: 5ba7 983d 4952 513d 8657 e33c 040d 623d
000002e0: 1ac7 383d da8b f03c 165a 873d 3cd1 6b3d
000002f0: ea9a 833d 5016 f33c 2ab9 dc3d 4033 b13d
00000300: cd6f cb3d 9d87 5c3d 8ade de3d 68b7 bf3d
00000310: cce3 923d f3ba 943d 192c 9d3d 4f5c bc3d
00000320: 3699 433d ce8a b63d 2dd4 bf3d 28cb 9b3d
00000330: 8971 773d 0ad3 ed3c 78c4 2b3d 4681 8d3d
00000340: 08d7 9a3d 4f90 5e3d d518 2a3d c6e2 da3d
00000350: 154c 2b3d cc55 253d e927 b33d 15a0 b13d
00000360: 0288 933d 6196 583d bf9b 953d 5423 4d3d
00000370: 310b ab3d 3523 b13d e44e 473d dc7e ee3c
00000380: 6028 fa3c d574 ad3d 1b11 ac3d ebb6 193d
00000390: 6f89 953d 7dc0 863d 1428 183d f718 393d
000003a0: f7d0 af3d c999 dc3d 57a3 863d 5570 b63d
000003b0: 65fb b43d dc6c 333d 8c78 da3d d3ac 143d
000003c0: 8bf3 ae3d 1db4 753d c7e8 c93d 1aec 8b3d
000003d0: 3f01 953d 8383 bd3d 6126 673d e0b6 853d
000003e0: 652b 003d 57ac ac3d d57b 8e3d 9143 7b3d
000003f0: e367 f13c b0a3 d23d 87e2 cb3d 9e8e 1d3d

weight f4 [64, 64, 3, 3]
-0.06589413 -0.05298783 -0.09867043 -0.092977576 -0.09050261 -0.11537101 -0.05342121 -0.0843931
-0.04897028 -0.05956209 -0.06826236 -0.08639445 -0.035262186 -0.072118826 -0.08166795 -0.08814252
-0.09924535 -0.03545885 -0.08402421 -0.06558345 -0.09966969 -0.10732692 -0.10692663 -0.049349207
-0.047173306 -0.06336295 -0.08623995 -0.06934123 -0.10465708 -0.040668704 -0.10306325 -0.051530145
-0.053034216 -0.07065659 -0.062706664 -0.05244218 -0.09989702 -0.06606054 -0.050967436 -0.07211145
-0.091069885 -0.08766336 -0.047342643 -0.11038995 -0.1092323 -0.104846895 -0.03890575 -0.038655825
-0.10280174 -0.05699552 -0.045184877 -0.07532714 -0.09150197 -0.06592734 -0.060275543 -0.067961924
-0.08074959 -0.06974833 -0.101824395 -0.047161717 -0.091352366 -0.080853 -0.06072984 -0.085124336
-0.0880961 -0.04367618 -0.11612591 -0.11886175 -0.086617894 -0.10189107 -0.04830983 -0.12136895
-0.09835333 -0.087124 -0.036419194 -0.039998237 -0.04792242 -0.021310223 -0.047588367 -0.032603458
-0.032724384 -0.091919735 -0.04502616 -0.046695486 -0.059432637 -0.10172887 -0.08889751 -0.06386261
-0.102121875 -0.037176274 -0.07672939 -0.10775454 -0.057436712 -0.08370399 -0.061556797 -0.07532325
-0.08488462 -0.044365745 -0.07894452 -0.11675436 -0.05669678 -0.072287425 -0.11274718 -0.09303073
-0.11857311 -0.06703298 -0.049566984 -0.0667984 -0.08365572 -0.042554516 -0.03456455 -0.09200035
-0.035144933 -0.09820935 -0.057555467 -0.06552128 -0.08923671 -0.03461791 -0.053257685 -0.047353055
-0.075000726 -0.06931492 -0.075316995 -0.110637926 -0.11416546 -0.10569504 -0.06161394 -0.07148007
-0.06901443 -0.039588876 -0.10742937 -0.041979946 -0.04580852 -0.104480825 -0.12124307 -0.09338438
-0.12036821 -0.051341068 -0.09099974 -0.1158178 -0.048883725 -0.071920425 -0.04703156 -0.08779891
-0.076383695 -0.06564557 -0.06515066 -0.09813806 -0.072663754 -0.07584871 -0.036814608 -0.09859245
-0.0643721 -0.09648348 -0.019356929 -0.06876959 -0.041638136 -0.09432514 -0.099848166 -0.057228748
-0.10060277 -0.0860944 -0.097318776 -0.07939241 -0.053015426 -0.10050635 -0.10654022 -0.09628793
-0.108253926 -0.09257361 -0.075261876 -0.03948447 -0.024665685 -0.05668917 -0.041102357 -0.04216959
-0.033965677 -0.023492616 -0.06077172 -0.041550964 -0.06026308 -0.08979639 -0.10233255 -0.031737447
-0.0362388 -0.027440274 -0.039179668 -0.0546371 -0.029108958 -0.03029598 -0.09213024 -0.058636546
-0.06870943 -0.07833809 -0.0962856 -0.099938594 -0.06676926 -0.08665001 -0.024725284 -0.026827158
-0.07803006 -0.02368562 -0.06274194 -0.023248259 -0.026273241 -0.026366577 -0.024679707 -0.11265465
-0.10216308 -0.1163193 -0.094139084 -0.10685874 -0.08348408 -0.054951984 -0.107739694 -0.11623623
-0.0914711 -0.07008481 -0.06327563 -0.0926634 -0.068828106 -0.11865852 -0.08824003 -0.11085239
-0.08906228 -0.06295636 -0.108754486 -0.11683861 -0.070356146 -0.11913751 -0.119818754 -0.123667404
-0.0980555 -0.050904583 -0.100469485 -0.10679073 -0.10361823 -0.09709295 -0.114154704 -0.08047661
-0.116402164 -0.10160924 -0.07414239 -0.08331638 -0.08880507 -0.056347445 -0.09652203 -0.06028697
-0.041833486 -0.0944966 -0.06459096 -0.056138065 -0.07208552 -0.07836504 -0.06588981 -0.100273214
00000000: 80f3 86bd c409 59bd b913 cabd 076b bebd
00000010: 6f59 b9bd a347 ecbd 33d0 5abd 4ad6 acbd
00000020: 0f95 48bd 61f7 73bd 23cd 8bbd 93ef b0bd
00000030: 156f 10bd 09b3 93bd 8741 a7bd 1184 b4bd
00000040: 2541 cbbd 4d3d 11bd e314 acbd 9e50 86bd
00000050: 9f1f ccbd 37ce dbbd 59fc dabd 6522 4abd
00000060: cc38 41bd 6fc4 81bd 929e b0bd c602 8ebd
00000070: 7356 d6bd 3a94 26bd d312 d3bd 4611 53bd
00000080: 683a 59bd 67b4 90bd 5a6c 80bd 9dcd 56bd
00000090: cf96 ccbd c04a 87bd 3bc3 50bd 2baf 93bd
000000a0: d982 babd d988 b3bd 5cea 41bd 2014 e2bd
000000b0: 2fb5 dfbd f8b9 d6bd a35b 1fbd 9255 1ebd
000000c0: b889 d2bd 2274 69bd c713 39bd 1e45 9abd
000000d0: 6365 bbbd ea04 87bd 7de3 76bd 9f2f 8bbd
000000e0: 0b60 a5bd 36d8 8ebd 4f89 d0bd a52c 41bd
000000f0: f316 bbbd 4296 a5bd dabf 78bd ab55 aebd
00000100: ba6b b4bd cbe5 32bd 6cd3 edbd ca6d f3bd
00000110: b964 b1bd 44ac d0bd 87e0 45bd 4990 f8bd
00000120: 786d c9bd 116e b2bd 4b2c 15bd 31d5 23bd
00000130: 4d4a 44bd c792 aebc 05ec 42bd 348b 05bd
00000140: 010a 06bd 6a40 bcbd 5a6d 38bd c443 3fbd
00000150: a36f 73bd 3a57 d0bd e60f b6bd 66ca 82bd
00000160: 4625 d1bd 2646 18bd 4c24 9dbd 6aae dcbd
00000170: c242 6bbd ff6c abbd fb22 7cbd 1343 9abd
00000180: fdd7 adbd dbb8 35bd aaad a1bd e91c efbd
00000190: e23a 68bd 6e0b 94bd fee7 e6bd e586 bebd
000001a0: 75d6 f2bd 9648 89bd c006 4bbd 99cd 88bd
000001b0: b153 abbd a54d 2ebd 8f93 0dbd ae6a bcbd
000001c0: 22f4 0fbd fc21 c9bd 48bf 6bbd 0530 86bd
000001d0: bcc1 b6bd 82cb 0dbd bb24 5abd 47f5 41bd
000001e0: fb99 99bd fbf4 8dbd cc3f 9abd 2396 e2bd
000001f0: 95cf e9bd a476 d8bd e65e 7cbd 2564 92bd
00000200: 7057 8dbd f227 22bd ee03 dcbd 2af3 2bbd
00000210: b7a1 3bbd 0bfa d5bd 494e f8bd 4f40 bfbd
00000220: 9c83 f6bd 034b 52bd 125e babd e231 edbd
00000230: 4d3a 48bd 044b 93bd 2aa4 40bd eacf b3bd
00000240: 0e6f 9cbd 2f71 86bd b66d 85bd 9bfc c8bd
00000250: bcd0 94bd 9256 9bbd eaca 16bd d7ea c9bd
00000260: 85d5 83bd 2199 c5bd 6c92 9ebc 12d7 8cbd
00000270: c08c 2abd 8a2d c1bd 327d ccbd b168 6abd
00000280: d308 cebd 4352 b0bd 114f c7bd 7d98 a2bd
00000290: b426 59bd 46d6 cdbd c231 dabd 9b32 c5bd
000002a0: 3cb4 ddbd 3c97 bdbd e622 9abd 78ba 21bd
000002b0: b10f cabc e732 68bd f25a 28bd 05ba 2cbd
000002c0: 981f 0bbd 9673 c0bc c4eb 78bd 5831 2abd
000002d0: 6bd6 76bd 2be7 b7bd ba93 d1bd 20ff 01bd
000002e0: 236f 14bd 6dca e0bc dc7a 20bd 27cb 5fbd
000002f0: e975 eebc 462f f8bc c7ae bcbd e02c 70bd
00000300: 88b7 8cbd b86f a0bd 6231 c5bd 9bac ccbd
00000310: 52be 88bd 8f75 b1bd ae8c cabc a1c4 dbbc
00000320: 39ce 9fbd 5808 c2bc d97e 80bd 2273 bebc
00000330: fb3a d7bc b8fe d7bc 192d cabc 7bb7 e6bd
00000340: e03a d1bd d038 eebd fecb c0bd c1d8 dabd
00000350: b4f9 aabd 5515 61bd a1a6 dcbd 430d eebd
00000360: 3355 bbbd a088 8fbd a796 81bd 4fc6 bdbd
00000370: c0f5 8cbd 3d03 f3bd 30b7 b4bd 9406 e3bd
00000380: 4966 b6bd 44ef 80bd acba debd 1549 efbd
00000390: e216 90bd 5efe f3bd 8963 f5bd 5645 fdbd
000003a0: 52d1 c8bd 5381 50bd f2c2 cdbd 19b5 dabd
000003b0: cb35 d4bd abd8 c6bd f1c9 e9bd ecd0 a4bd
000003c0: 4264 eebd 8118 d0bd f7d7 97bd c7a1 aabd
000003d0: 6fdf b5bd 94cc 66bd 58ad c5bd 78ef 76bd
000003e0: 9759 2bbd 6f87 c1bd 4448 84bd 07f1 65bd
000003f0: 93a1 93bd da7d a0bd 3df1 86bd 0b5c cdbd

weight f4 [64, 64, 3, 3]
-0.11095096 -0.109666005 -0.058811788 -0.0862553 -0.05963307 -0.046716504 -0.07437187 -0.09313225
-0.076605484 -0.09310076 -0.052457955 -0.06433797 -0.051136527 -0.04309648 -0.0632831 -0.10450416
-0.106325805 -0.045382082 -0.08371804 -0.09548 -0.11933989 -0.06274985 -0.045188956 -0.051772494
-0.046102293 -0.08059935 -0.117309906 -0.08549782 -0.078621805 -0.064328015 -0.10320999 -0.050892446
-0.058159236 -0.11394761 -0.051455066 -0.07521869 -0.089456275 -0.042549394 -0.06496962 -0.102278225
-0.044612456 -0.11630963 -0.03918667 -0.041910533 -0.09044535 -0.073908314 -0.07408594 -0.1017908
-0.09294777 -0.045192532 -0.108731255 -0.067761466 -0.054278 -0.11912477 -0.0655689 -0.10197298
-0.10263136 -0.05218159 -0.061250858 -0.11006075 -0.056531783 -0.10684727 -0.11520686 -0.09663268
-0.08212921 -0.06116233 -0.12159695 -0.0473412 -0.105910376 -0.12383627 -0.064405255 -0.0628793
-0.093169115 -0.051028736 -0.08844076 -0.046911445 -0.057784725 -0.079941325 -0.09189257 -0.0932768
-0.037482463 -0.09302865 -0.09707557 -0.05530797 -0.042162664 -0.08621714 -0.0956642 -0.049538717
-0.11475156 -0.08111424 -0.06842147 -0.11023579 -0.058049668 -0.071928665 -0.04422466 -0.09275436
-0.11380212 -0.10180809 -0.088118576 -0.058118954 -0.073361665 -0.09611622 -0.054327853 -0.052175038
-0.08826984 -0.059454262 -0.06611975 -0.06346853 -0.08007017 -0.073550254 -0.043438394 -0.115254626
-0.049322497 -0.055740252 -0.10949577 -0.111623205 -0.06586876 -0.07236478 -0.1348267 -0.079111926
-0.08533628 -0.088426925 -0.06894127 -0.12792405 -0.14301553 -0.07422763 -0.04502207 -0.077087834
-0.046495046 -0.10622556 -0.06017429 -0.08106608 -0.10127045 -0.07995232 -0.09652149 -0.04836556
-0.08261406 -0.10289198 -0.055109322 -0.11148393 -0.09590237 -0.1169714 -0.05874428 -0.08179954
-0.119221866 -0.10704064 -0.067627914 -0.045647565 -0.088718146 -0.057531305 -0.0653518 -0.03877635
-0.11649959 -0.08137697 -0.09327871 -0.0732451 -0.12172404 -0.0799545 -0.04702988 -0.10952325
-0.07783928 -0.11841701 -0.044199858 -0.11336241 -0.08907345 -0.05430411 -0.107020654 -0.059741255
-0.11260522 -0.08875532 -0.09331056 -0.0846577 -0.08680678 -0.04525325 -0.11632916 -0.0687614
-0.057692107 -0.11046829 -0.06876861 -0.09878246 -0.03662565 -0.08509621 -0.04576863 -0.056994133
-0.10259254 -0.042670194 -0.07467257 -0.10904983 -0.073491335 -0.059696387 -0.085639425 -0.10115909
-0.11639864 -0.07742407 -0.11833577 -0.053512715 -0.048604023 -0.11394285 -0.088917784 -0.11121118
-0.077416874 -0.0413331 -0.09790056 -0.04275639 -0.10801033 -0.093207456 -0.08006661 -0.07571499
-0.12008206 -0.071508534 -0.056991424 -0.083554454 -0.116994046 -0.11953086 -0.09161746 -0.08424757
-0.059997194 -0.086151004 -0.082492836 -0.05920595 -0.057871424 -0.070838824 -0.042345963 -0.10210969
-0.07777497 -0.043283705 -0.07147779 -0.05101944 -0.04414021 -0.118854605 -0.05844781 -0.09093957
-0.04702476 -0.10608208 -0.10661677 -0.093148775 -0.07085503 -0.11297503 -0.12650226 -0.046387512
-0.08710266 -0.066191465 -0.08626773 -0.10458007 -0.10800986 -0.044033498 -0.0912924 -0.066140704
-0.052758235 -0.052903704 -0.107990295 -0.10542437 -0.04777352 -0.099649064 -0.105175674 -0.11469423
00000000: 423a e3bd 9298 e0bd a1e4 70bd 9ea6 b0bd
00000010: ce41 74bd ce59 3fbd 4750 98bd 1fbc bebd
00000020: 56e3 9cbd 9cab bebd 27de 56bd a0c3 83bd
00000030: 8974 51bd ef85 30bd 929a 81bd 4706 d6bd
00000040: 58c1 d9bd 90e2 39bd 5d74 abbd 058b c3bd
00000050: 7968 f4bd fe82 80bd 0e18 39bd 650f 54bd
00000060: c2d5 3cbd 4611 a5bd 2d40 f0bd 7b19 afbd
00000070: 7804 a1bd 68be 83bd c25f d3bd 9974 50bd
00000080: 6138 6ebd 5d5d e9bd 8cc2 52bd 420c 9abd
00000090: da34 b7bd 4648 2ebd cb0e 85bd 3f77 d1bd
000000a0: 8dbb 36bd be33 eebd 3482 20bd 61aa 2bbd
000000b0: 693b b9bd 3e5d 97bd 5fba 97bd b277 d0bd
000000c0: 675b bebd ce1b 39bd 7eae debd 86c6 8abd
000000d0: 9c52 5ebd b0f7 f3bd fd48 86bd 36d7 d0bd
000000e0: 6430 d2bd 5dbc 55bd 2ee2 7abd 8867 e1bd
000000f0: df8d 67bd bed2 dabd 93f1 ebbd 5be7 c5bd
00000100: 5c33 a8bd 5a85 7abd d207 f9bd d9e8 41bd
00000110: 8ae7 d8bd df9d fdbd e7e6 83bd ddc6 80bd
00000120: 73cf bebd 8203 51bd 6e20 b5bd 3726 40bd
00000130: adaf 6cbd 47b8 a3bd 2c32 bcbd e807 bfbd
00000140: 3687 19bd ce85 bebd 8ecf c6bd 9c8a 62bd
00000150: c2b2 2cbd 9d92 b0bd 98eb c3bd 1ce9 4abd
00000160: de02 ebbd 391f a6bd 8e20 8cbd 4dc3 e1bd
00000170: 7dc5 6dbd 564f 93bd eb24 35bd fff5 bdbd
00000180: 1611 e9bd c380 d0bd 8377 b4bd 240e 6ebd
00000190: a43e 96bd 95d8 c4bd e286 5ebd 7eb5 55bd
000001a0: d1c6 b4bd 5086 73bd cb69 87bd cafb 81bd
000001b0: d4fb a3bd 84a1 96bd 75ec 31bd 9e0a ecbd
000001c0: 6306 4abd e44f 64bd 513f e0bd b59a e4bd
000001d0: 33e6 86bd fc33 94bd 0310 0abe 6f05 a2bd
000001e0: cac4 aebd 2d19 b5bd 1531 8dbd 86fe 02be
000001f0: aa72 12be a804 98bd 1069 38bd 3ae0 9dbd
00000200: 9771 3ebd c98c d9bd 5179 76bd f905 a6bd
00000210: e266 cfbd 0bbe a3bd 0fad c5bd f71a 46bd
00000220: 8f31 a9bd 08b9 d2bd 50ba 61bd b051 e4bd
00000230: 7668 c4bd b48e efbd d89d 70bd 8486 a7bd
00000240: 982a f4bd 2038 dbbd 8180 8abd f1f8 3abd
00000250: dcb1 b5bd f2a5 6bbd 2ad7 85bd f3d3 1ebd
00000260: 5697 eebd f8a8 a6bd e908 bfbd 8701 96bd
00000270: 744a f9bd 2fbf a3bd 67a2 40bd ba4d e0bd
00000280: 336a 9fbd 9e84 f2bd e90a 35bd 8d2a e8bd
00000290: 246c b6bd fd6d 5ebd a52d dbbd 3fb3 74bd
000002a0: 919d e6bd 59c5 b5bd 9b19 bfbd 0461 adbd
000002b0: c1c7 b1bd 795b 39bd fc3d eebd c7d2 8cbd
000002c0: 8f4e 6cbd 333d e2bd 8fd6 8cbd 754e cabd
000002d0: c704 16bd ec46 aebd e377 3bbd ae72 69bd
000002e0: 0a1c d2bd f1c6 2ebd efed 98bd 8455 dfbd
000002f0: a082 96bd 3384 74bd b963 afbd 7f2c cfbd
00000300: 6962 eebd 8390 9ebd 065a f2bd 2630 5bbd
00000310: 0315 47bd de5a e9bd 871a b6bd b0c2 e3bd
00000320: bd8c 9ebd e64c 29bd 1780 c8bd 5321 2fbd
00000330: 8534 ddbd 8de3 bebd f6f9 a3bd 7610 9bbd
00000340: 95ed f5bd 1173 92bd d76f 69bd 991e abbd
00000350: 939a efbd 98cc f4bd efa1 bbbd fd89 acbd
00000360: 9ebf 75bd f06f b0bd 01f2 a8bd f081 72bd
00000370: 960a 6dbd f213 91bd f672 2dbd e31e d1bd
00000380: 7c48 9fbd 414a 31bd f362 92bd c3f9 50bd
00000390: 5dcc 34bd 0b6a f3bd f966 6fbd 863e babd
000003a0: 099d 40bd 9041 d9bd e559 dabd c9c4 bebd
000003b0: 711c 91bd 745f e7bd cf89 01be d500 3ebd
000003c0: e162 b2bd 648f 87bd 23ad b0bd 132e d6bd
000003d0: 4634 ddbd 785c 34bd 83f7 babd c774 87bd
000003e0: 0519 58bd 8eb1 58bd 042a ddbd bbe8 d7bd
000003f0: 2bae 43bd cf14 ccbd 5866 d7bd cfe4 eabd

weight f4 [64, 64, 3, 3]
-0.08779676 -0.069105014 -0.07266402 -0.061585985 -0.03188935 -0.050395053 -0.048014138 -0.058701232
-0.069142364 -0.057534583 -0.11191309 -0.053374324 -0.12488789 -0.066899374 -0.065605134 -0.10635413
-0.0829426 -0.086936966 -0.06754412 -0.12549685 -0.07952295 -0.082954615 -0.12458929 -0.082751706
-0.09410442 -0.09479945 -0.086136185 -0.08971452 -0.13711147 -0.08706712 -0.10590886 -0.12839164
-0.07365963 -0.11014708 -0.09028067 -0.1085352 -0.031199833 -0.04607991 -0.04658261 -0.06532278
-0.09065325 -0.08624243 -0.085829064 -0.09341427 -0.09342857 -0.11374026 -0.12617321 -0.10415109
-0.1073722 -0.12352588 -0.064327255 -0.11553957 -0.059574466 -0.08148329 -0.08231563 -0.058021888
-0.042793553 -0.042472523 -0.067494705 -0.10121379 -0.034917302 -0.10074925 -0.06710891 -0.1220284
-0.0808904 -0.10272784 -0.0789797 -0.0779674 -0.14266282 -0.10696029 -0.11682286 -0.08704254
-0.043073945 -0.10441457 -0.09604914 -0.044827852 -0.07221382 -0.04117227 -0.072967805 -0.05202041
-0.08439266 -0.10663701 -0.11120671 -0.08109486 -0.09183565 -0.09269626 -0.05297704 -0.06556821
-0.06845561 -0.11242613 -0.08532321 -0.105293214 -0.048941642 -0.02755074 -0.087822564 -0.07288535
-0.036569513 -0.08425521 -0.070734166 -0.061574884 -0.12886336 -0.047827896 -0.07916125 -0.11236108
-0.10394429 -0.12772244 -0.05675531 -0.08448907 -0.062979735 -0.08106726 -0.07514216 -0.06221386
-0.0677929 -0.08911535 -0.03180572 -0.04484751 -0.10620276 -0.08306149 -0.04611415 -0.073340185
-0.050463162 -0.044467025 -0.04356058 -0.09524081 -0.032008756 -0.07603974 -0.095198885 -0.028222036
-0.10312489 -0.049860984 -0.058980167 -0.07281553 -0.082277924 -0.03946432 -0.09655828 -0.09389578
-0.10456714 -0.10253016 -0.1037332 -0.09707288 -0.06882476 -0.10242565 -0.06176076 -0.11743122
-0.084843725 -0.11611843 -0.095099404 -0.14614505 -0.12274122 -0.07993665 -0.13359718 -0.13250363
-0.12355684 -0.07107423 -0.037772566 -0.05652513 -0.055891685 -0.056710135 -0.05175151 -0.09892106
-0.028049853 -0.065636925 -0.10743922 -0.111243196 -0.10913134 -0.096765526 -0.1291564 -0.10307748
-0.10478797 -0.07665596 -0.0609165 -0.053450845 -0.10504376 -0.07242272 -0.047013626 -0.10112881
-0.09003366 -0.1024491 -0.03912837 -0.07839789 -0.048559286 -0.06426612 -0.049203385 -0.123829745
-0.057182495 -0.12361192 -0.110316955 -0.047854543 -0.08922511 -0.10501935 -0.051847905 -0.050656218
-0.10714163 -0.049069915 -0.032913443 -0.08467952 -0.067630865 -0.032511435 -0.026416037 -0.046895005
-0.10532673 -0.063278764 -0.03554461 -0.07179815 -0.10500123 -0.061952796 -0.09832068 -0.10538866
-0.054120615 -0.046355214 -0.04943863 -0.051666435 -0.037000168 -0.073767215 -0.09107256 -0.09617206
-0.09798462 -0.106788814 -0.048562527 -0.09990447 -0.03175333 -0.03544738 -0.055905037 -0.09794485
-0.061396338 -0.060796592 -0.10245538 -0.09912715 -0.111302 -0.066789836 -0.074904785 -0.12474068
-0.127014 -0.05604002 -0.106065415 -0.0845941 -0.08836649 -0.12647732 -0.07717954 -0.10504122
-0.048279975 -0.08037859 -0.09574201 -0.046874754 -0.07890525 -0.05588311 -0.12774533 -0.07840961
-0.121956654 -0.04987094 -0.11328301 -0.10727636 -0.030920923 -0.11001138 -0.074127294 -0.10309756
00000000: cace b3bd ee86 8dbd e0d0 94bd 9641 7cbd
00000010: 689e 02bd 0b6b 4ebd 79aa 44bd b470 70bd
00000020: 839a 8dbd 62a9 6bbd b132 e5bd 099f 5abd
00000030: 39c5 ffbd 8a02 89bd fc5b 86bd 32d0 d9bd
00000040: cfdd a9bd 020c b2bd 9254 8abd 3f82 00be
00000050: eedc a2bd 1ce4 a9bd ab28 ffbd ba79 a9bd
00000060: d1b9 c0bd 3726 c2bd 2b68 b0bd 3fbc b7bd
00000070: f366 0cbe 3f50 b2bd bfe6 d8bd 1979 03be
00000080: dcda 96bd cb94 e1bd 12e5 b8bd b447 debd
00000090: cb96 ffbc 4abe 3cbd 68cd 3ebd f3c7 85bd
000000a0: 69a8 b9bd df9f b0bd 26c7 afbd fb4f bfbd
000000b0: 7a57 bfbd a7f0 e8bd 8d33 01be 2b4d d5bd
000000c0: f5e5 dbbd 23fb fcbd 02be 83bd 03a0 ecbd
000000d0: 5b04 74bd b6e0 a6bd 1995 a8bd 5ca8 6dbd
000000e0: 4b48 2fbd abf7 2dbd aa3a 8abd 2d49 cfbd
000000f0: 7205 0fbd 9f55 cebd 6570 89bd 07ea f9bd
00000100: dea9 a5bd f962 d2bd 1cc0 a1bd 5fad 9fbd
00000110: 3416 12be ff0d dbbd d340 efbd 5c43 b2bd
00000120: 4e6e 30bd 4ed7 d5bd 69b5 c4bd 699d 37bd
00000130: d7e4 93bd 41a4 28bd 2570 95bd 5a13 55bd
00000140: 0fd6 acbd 8164 dabd 58c0 e3bd 1015 a6bd
00000150: 5414 bcbd 89d7 bdbd 74fe 58bd a048 86bd
00000160: 7432 8cbd ac3f e6bd efbd aebd f8a3 d7bd
00000170: 0877 48bd 17b2 e1bc 51dc b3bd ea44 95bd
00000180: eac9 15bd ff8d acbd 13dd 90bd f235 7cbd
00000190: c2f4 03be 2fe7 43bd 4b1f a2bd 911d e6bd
000001a0: bee0 d4bd acc9 02be 4278 68bd 9b08 adbd
000001b0: 85fb 80bd 9706 a6bd 22e4 99bd f6d3 7ebd
000001c0: 01d7 8abd 1c82 b6bd b746 02bd 06b2 37bd
000001d0: d580 d9bd 241c aabd 31e2 3cbd 6133 96bd
000001e0: 76b2 4ebd 0e23 36bd 946c 32bd 9d0d c3bd
000001f0: 9d1b 03bd b9ba 9bbd a2f7 c2bd e631 e7bc
00000200: 2433 d3bd 083b 4cbd 3095 71bd 4f20 95bd
00000210: 5481 a8bd 57a5 21bd 59c0 c5bd 6e4c c0bd
00000220: 4c27 d6bd 55fb d1bd 1272 d4bd 25ce c6bd
00000230: fff3 8cbd 8ac4 d1bd daf8 7cbd c87f f0bd
00000240: 8cc2 adbd 80cf edbd 7ac3 c2bd 0ca7 15be
00000250: c05f fbbd d4b5 a3bd b3cd 08be 08af 07be
00000260: 5e0b fdbd 5e8f 91bd 68b7 1abd e586 67bd
00000270: aeee 64bd e348 68bd 64f9 53bd 2097 cabd
00000280: cec8 e5bc a76c 86bd 1809 dcbd 79d3 e3bd
00000290: 4180 dfbd 012d c6bd 9341 04be 491a d3bd
000002a0: 139b d6bd cdfd 9cbd 9483 79bd 46ef 5abd
000002b0: 2f21 d7bd 5d52 94bd 5c91 40bd 9f1c cfbd
000002c0: 9163 b8bd d5d0 d1bd 1245 20bd 138f a0bd
000002d0: 1ae6 46bd f59d 83bd 7d89 49bd 739a fdbd
000002e0: 3138 6abd 3f28 fdbd dbed e1bd 2003 44bd
000002f0: a8bb b6bd 6314 d7bd 785e 54bd e57c 4fbd
00000300: 126d dbbd 89fd 48bd 3fd0 06bd 756c adbd
00000310: 0d82 8abd b62a 05bd 7266 d8bc fa14 40bd
00000320: 8ab5 d7bd 4c98 81bd 3a97 11bd e90a 93bd
00000330: e30a d7bd 37c2 7dbd 5a5c c9bd 03d6 d7bd
00000340: 94ad 5dbd f7de 3dbd 2980 4abd 2fa0 53bd
00000350: 7d8d 17bd 4413 97bd 4084 babd dbf5 c4bd
00000360: 29ac c8bd 18b4 dabd 80e9 46bd b79a ccbd
00000370: c80f 02bd 4631 11bd aefc 64bd 4f97 c8bd
00000380: ba7a 7bbd d905 79bd 20d4 d1bd 2d03 cbbd
00000390: 4ef2 e3bd 1cc9 88bd ae67 99bd 0b78 ffbd
000003a0: f50f 02be 388a 65bd d338 d9bd ac3f adbd
000003b0: 7ef9 b4bd 4583 01be 4f10 9ebd da1f d7bd
000003c0: 39c1 45bd 889d a4bd 6314 c4bd beff 3fbd
000003d0: 1399 a1bd b0e5 64bd accf 02be 3895 a0bd
000003e0: 69c4 f9bd 7945 4cbd ec00 e8bd b5b3 dbbd
000003f0: e04d fdbc a54d e1bd 0dd0 97bd d024 d3bd

weight_orig f4 [1, 64, 3, 3]
-0.077998735 -0.016778598 -0.050394434 -0.022265278 -0.025317848 -0.05280637 -0.07916868 -0.024505273
-0.0672072 -0.040537648 -0.033330213 -0.03801821 -0.051843908 -0.04703667 -0.10256096 -0.09460355
-0.049451083 -0.034778435 -0.025064439 0.022516197 0.08012928 0.06493747 0.0025219808 0.026726514
0.035324924 0.019170746 0.078747 0.027954223 0.015752545 0.032105725 0.009867693 0.024390897
0.05837838 0.05388238 0.037913147 0.08745354 -0.032206733 -0.0541623 -0.018317867 -0.020111
-0.090924 -0.05612953 0.001481805 -0.06164427 -0.010842702 0.015927782 0.051250357 0.06975256
-0.009927493 0.05892758 0.023755072 0.053411096 0.0033395342 -0.034654424 -0.07300911 -0.044833396
-0.04169936 -0.039534252 0.009801757 -0.10935163 -0.09993828 -0.10683151 -0.07384542 -0.05725626
-0.056288164 -0.009752244 -0.034221627 -0.03292976 -0.067038804 -0.0480869 -0.055278327 -0.0179084
0.002484615 0.014474306 0.02438314 0.052952763 0.06691602 0.042467497 0.0117890695 0.05724444
0.04655681 -0.06929005 -0.046601832 -0.062180303 -0.052996095 -0.023758 -0.04567832 -0.028795816
-0.05632621 -0.032063033 -0.034452703 -0.034801256 -0.05667726 -0.043901794 -0.10241504 -0.029847626
-0.029714638 -0.06701401 -0.07238131 0.02813713 0.051478695 0.009834554 0.076487035 0.03702604
0.0068406193 0.072823904 0.047894992 -0.011043167 0.051204104 0.06653682 0.045445815 0.031504832
0.045516185 0.044413965 -0.038604792 0.013470647 0.036067307 0.0005610528 -0.07829122 -0.029536784
-0.006848944 -0.035149373 -0.04359193 -0.020445159 -0.026085334 -0.073210664 0.029872432 0.012455669
-0.001384329 0.05253346 0.049226146 0.038644794 0.060379248 0.066981055 0.03604809 0.06384115
0.043802526 0.01058177 -0.03776383 0.012593184 0.06502249 0.0331586 0.059632972 0.039061863
-0.042177793 -0.08890041 -0.030152086 -0.048608463 0.023338448 -0.030246621 -0.027042257 -0.10914345
-0.043274738 -0.08596119 -0.039175082 -0.07928928 -0.06455019 -0.09577079 -0.04784898 -0.06631608
-0.06985786 -0.030595124 0.0123200165 -0.015165806 0.010754552 0.029250095 0.0025622211 0.06045801
0.08663875 0.03788591 0.037429117 0.04255722 0.003710403 0.056566063 0.047444146 0.042544845
0.035490632 0.01634588 0.08317377 0.005059255 -0.06673678 -0.089668125 -0.07937891 -0.06443964
-0.025513802 -0.08636068 -0.04264169 0.040956277 -0.051158354 0.0657817 0.06743027 -0.004686717
0.015125251 0.0093734 0.04838815 0.025147252 0.07294491 0.010027931 0.05236386 0.019782921
0.055944614 0.019076347 0.028039351 0.06415465 0.018260917 0.0694096 0.0057307933 0.008965299
0.01129421 0.04291945 0.03991078 0.04729061 -0.0027072579 0.08514629 0.0042938436 0.014157701
0.04010687 0.07741486 0.035241712 0.025620142 0.046274725 0.023941876 0.057544727 -0.03858807
0.02565449 -0.000338763 0.050905228 0.0049380325 0.03750844 0.030220896 0.013926849 0.05815431
0.06353684 0.0015446991 0.031323086 0.005641019 0.02851215 0.031640474 0.052828167 0.05113132
0.006442283 0.051669605 0.0749782 0.013802495 0.024699736 0.07773781 0.057527624 0.06176859
0.043579496 0.036622357 0.051275417 0.020461934 -0.022066182 -0.043740086 -0.0016151995 -0.062106937
00000000: cdbd 9fbd 4573 89bc 656a 4ebd ac65 b6bc
00000010: 6067 cfbc 7e4b 58bd 3023 a2bd 48bf c8bc
00000020: eea3 89bd ce0a 26bd 4385 08bd fcb8 1bbd
00000030: 475a 54bd 86a9 40bd 7b0b d2bd 82bf c1bd
00000040: 388d 4abd d573 0ebd f053 cdbc e373 b83c
00000050: d21a a43d f0fd 843d d147 253b 90f1 da3c
00000060: deb0 103d f80b 9d3c 1b46 a13d 4100 e53c
00000070: 7b0b 813c 4b81 033d 1bac 213c 6bcf c73c
00000080: 2b1e 6f3d c5b3 5c3d d14a 1b3d d71a b33d
00000090: 35eb 03bd 4ad9 5dbd 5a0f 96bc d3bf a4bc
000000a0: 5d36 babd 14e8 65bd 2039 c23a b47e 7cbd
000000b0: 97a5 31bc fb7a 823c e5eb 513d 6eda 8e3d
000000c0: eca6 22bc 0c5e 713d ff99 c23c 98c5 5a3d
000000d0: 16dc 5a3b ccf1 0dbd cd85 95bd 39a3 37bd
000000e0: f3cc 2abd abee 21bd 8c97 203c bff3 dfbd
000000f0: 71ac ccbd 7bca dabd 443c 97bd 8a85 6abd
00000100: 6b8e 66bd e0c7 1fbc fa2b 0cbd 5be1 06bd
00000110: a44b 89bd c5f6 44bd 876b 62bd a3b4 92bc
00000120: ecd4 223b a425 6d3c 27bf c73c ffe4 583d
00000130: 440b 893d 66f2 2d3d f126 413c 2579 6a3d
00000140: 5bb2 3e3d f1e7 8dbd 90e1 3ebd c6b0 7ebd
00000150: 6f12 59bd 23a0 c2bc 3119 3bbd 34e5 ebbc
00000160: 50b6 66bd 8754 03bd 471e 0dbd c38b 0ebd
00000170: 6a26 68bd 5ed2 33bd fabe d1bd 0283 f4bc
00000180: 1d6c f3bc a43e 89bd a73c 94bd d77f e63c
00000190: 53db 523d 1c21 213c 3ca5 9c3d 9ea8 173d
000001a0: 4627 e03b b324 953d 8a2d 443d 66ee 34bc
000001b0: 65bb 513d 7544 883d 6425 3a3d 360b 013d
000001c0: 2e6f 3a3d 6beb 353d 0f20 1ebd fdb3 5c3c
000001d0: 50bb 133d 9e13 133a 2657 a0bd 20f7 f1bc
000001e0: 1b6d e0bb caf8 0fbd 748d 32bd 9b7c a7bc
000001f0: e9b0 d5bc 79ef 95bd 08b7 f43c dd12 4c3c
00000200: 6072 b5ba 532d 573d 5ba1 493d 014a 1e3d
00000210: 3b50 773d 5d2d 893d 29a7 133d 26bf 823d
00000220: 476a 333d 295f 2d3c 3fae 1abd a453 4e3c
00000230: 832a 853d 50d1 073d b441 743d 55ff 1f3d
00000240: 9fc2 2cbd 6b11 b6bd 8201 f7bc ab19 47bd
00000250: 4630 bf3c c3c7 f7bc b987 ddbc 9a86 dfbd
00000260: da40 31bd 6c0c b0bd 0d76 20bd 6b62 a2bd
00000270: e432 84bd 7a23 c4bd 4bfd 43bd bad0 87bd
00000280: a311 8fbd a0a2 fabc e5d9 493c 007a 78bc
00000290: dc33 303c e59d ef3c f0ea 273b d1a2 773d
000002a0: a86f b13d 422e 1b3d 464f 193d 7b50 2e3d
000002b0: 3c2a 733b d1b1 673d cb54 423d 8143 2e3d
000002c0: a05e 113d cce7 853c 0257 aa3d 1bc8 a53b
000002d0: 4bad 88bd eca3 b7bd 6991 a2bd eef8 83bd
000002e0: 5202 d1bc dedd b0bd 0da9 2ebd c5c1 273d
000002f0: 6c8b 51bd 8eb8 863d e218 8a3d 0893 99bb
00000300: e7cf 773c e492 193c a732 463d 9c01 ce3c
00000310: 2464 953d 314c 243c 7d7b 563d cb0f a23c
00000320: 2e26 653d 0046 9c3c c8b2 e53c 8363 833d
00000330: eb97 953c 9f26 8e3d 61c9 bb3b 31e3 123c
00000340: 5a0b 393c 4ecc 2f3d 7c79 233d ccb3 413d
00000350: 406c 31bb 2e61 ae3d 5fb3 8c3b b4f5 673c
00000360: 1a47 243d af8b 9e3d 9d59 103d 55e1 d13c
00000370: 918a 3d3d c121 c43c 05b4 6b3d 860e 1ebd
00000380: 5d29 d23c 009c b1b9 0082 503d 38cf a13b
00000390: 73a2 193d d091 f73c 702d 643c 3733 6e3d
000003a0: 9a1f 823d 8077 ca3a a34c 003d 4cd8 b83b
000003b0: 5092 e93c 7199 013d 5962 583d 136f 513d
000003c0: c919 d33b 82a3 533d 2c8e 993d dc23 623c
000003d0: 1a57 ca3c 0035 9f3d 16a2 6b3d 1001 7d3d
000003e0: 6a80 323d 5301 163d 2c06 523d c99f a73c
000003f0: 23c4 b4bc ce28 33bd 1ab5 d3ba d863 7ebd

weight_mask f4 [1, 64, 3, 3]
1.0 1.0 1.0 1.0 1.0 1.0 1.0 1.0
1.0 1.0 1.0 0.0 1.0 1.0 1.0 1.0
1.0 1.0 0.0 1.0 1.0 1.0 1.0 1.0
1.0 1.0 1.0 1.0 1.0 0.0 1.0 1.0
1.0 1.0 1.0 1.0 1.0 1.0 1.0 1.0
1.0 1.0 0.0 1.0 1.0 1.0 1.0 1.0
0.0 1.0 1.0 1.0 1.0 0.0 1.0 1.0
1.0 1.0 0.0 1.0 1.0 1.0 1.0 1.0
1.0 0.0 1.0 1.0 1.0 1.0 1.0 0.0
1.0 0.0 1.0 1.0 1.0 1.0 1.0 1.0
1.0 1.0 1.0 1.0 1.0 1.0 1.0 1.0
1.0 1.0 1.0 1.0 1.0 1.0 1.0 1.0
1.0 1.0 1.0 1.0 1.0 1.0 1.0 1.0
1.0 1.0 1.0 0.0 1.0 1.0 1.0 1.0
1.0 1.0 0.0 1.0 1.0 1.0 1.0 1.0
1.0 1.0 1.0 1.0 1.0 1.0 1.0 1.0
0.0 1.0 1.0 1.0 1.0 1.0 1.0 1.0
1.0 1.0 0.0 1.0 1.0 1.0 1.0 1.0
1.0 1.0 1.0 1.0 0.0 0.0 1.0 1.0
1.0 1.0 1.0 1.0 1.0 1.0 1.0 1.0
1.0 1.0 1.0 0.0 1.0 1.0 0.0 1.0
1.0 1.0 1.0 1.0 1.0 1.0 1.0 1.0
1.0 1.0 1.0 1.0 1.0 1.0 1.0 1.0
1.0 1.0 1.0 0.0 1.0 1.0 1.0 0.0
1.0 1.0 1.0 1.0 1.0 1.0 1.0 1.0
1.0 1.0 1.0 1.0 1.0 1.0 1.0 1.0
1.0 1.0 1.0 1.0 0.0 1.0 1.0 1.0
1.0 1.0 1.0 1.0 1.0 1.0 1.0 0.0
1.0 0.0 1.0 1.0 1.0 1.0 0.0 1.0
1.0 0.0 1.0 1.0 1.0 1.0 1.0 1.0
1.0 1.0 1.0 1.0 1.0 1.0 1.0 1.0
1.0 1.0 1.0 1.0 0.0 1.0 1.0 1.0
00000000: 0000 803f 0000 803f 0000 803f 0000 803f
00000010: 0000 803f 0000 803f 0000 803f 0000 803f
00000020: 0000 803f 0000 803f 0000 803f 0000 0000
00000030: 0000 803f 0000 803f 0000 803f 0000 803f
00000040: 0000 803f 0000 803f 0000 0000 0000 803f
00000050: 0000 803f 0000 803f 0000 803f 0000 803f
00000060: 0000 803f 0000 803f 0000 803f 0000 803f
00000070: 0000 803f 0000 0000 0000 803f 0000 803f
00000080: 0000 803f 0000 803f 0000 803f 0000 803f
00000090: 0000 803f 0000 803f 0000 803f 0000 803f
000000a0: 0000 803f 0000 803f 0000 0000 0000 803f
000000b0: 0000 803f 0000 803f 0000 803f 0000 803f
000000c0: 0000 0000 0000 803f 0000 803f 0000 803f
000000d0: 0000 803f 0000 0000 0000 803f 0000 803f
000000e0: 0000 803f 0000 803f 0000 0000 0000 803f
000000f0: 0000 803f 0000 803f 0000 803f 0000 803f
00000100: 0000 803f 0000 0000 0000 803f 0000 803f
00000110: 0000 803f 0000 803f 0000 803f 0000 0000
00000120: 0000 803f 0000 0000 0000 803f 0000 803f
00000130: 0000 803f 0000 803f 0000 803f 0000 803f
00000140: 0000 803f 0000 803f 0000 803f 0000 803f
00000150: 0000 803f 0000 803f 0000 803f 0000 803f
00000160: 0000 803f 0000 803f 0000 803f 0000 803f
00000170: 0000 803f 0000 803f 0000 803f 0000 803f
00000180: 0000 803f 0000 803f 0000 803f 0000 803f
00000190: 0000 803f 0000 803f 0000 803f 0000 803f
000001a0: 0000 803f 0000 803f 0000 803f 0000 0000
000001b0: 0000 803f 0000 803f 0000 803f 0000 803f
000001c0: 0000 803f 0000 803f 0000 0000 0000 803f
000001d0: 0000 803f 0000 803f 0000 803f 0000 803f
000001e0: 0000 803f 0000 803f 0000 803f 0000 803f
000001f0: 0000 803f 0000 803f 0000 803f 0000 803f
00000200: 0000 0000 0000 803f 0000 803f 0000 803f
00000210: 0000 803f 0000 803f 0000 803f 0000 803f
00000220: 0000 803f 0000 803f 0000 0000 0000 803f
00000230: 0000 803f 0000 803f 0000 803f 0000 803f
00000240: 0000 803f 0000 803f 0000 803f 0000 803f
00000250: 0000 0000 0000 0000 0000 803f 0000 803f
00000260: 0000 803f 0000 803f 0000 803f 0000 803f
00000270: 0000 803f 0000 803f 0000 803f 0000 803f
00000280: 0000 803f 0000 803f 0000 803f 0000 0000
00000290: 0000 803f 0000 803f 0000 0000 0000 803f
000002a0: 0000 803f 0000 803f 0000 803f 0000 803f
000002b0: 0000 803f 0000 803f 0000 803f 0000 803f
000002c0: 0000 803f 0000 803f 0000 803f 0000 803f
000002d0: 0000 803f 0000 803f 0000 803f 0000 803f
000002e0: 0000 803f 0000 803f 0000 803f 0000 0000
000002f0: 0000 803f 0000 803f 0000 803f 0000 0000
00000300: 0000 803f 0000 803f 0000 803f 0000 803f
00000310: 0000 803f 0000 803f 0000 803f 0000 803f
00000320: 0000 803f 0000 803f 0000 803f 0000 803f
00000330: 0000 803f 0000 803f 0000 803f 0000 803f
00000340: 0000 803f 0000 803f 0000 803f 0000 803f
00000350: 0000 0000 0000 803f 0000 803f 0000 803f
00000360: 0000 803f 0000 803f 0000 803f 0000 803f
00000370: 0000 803f 0000 803f 0000 803f 0000 0000
00000380: 0000 803f 0000 0000 0000 803f 0000 803f
00000390: 0000 803f 0000 803f 0000 0000 0000 803f
000003a0: 0000 803f 0000 0000 0000 803f 0000 803f
000003b0: 0000 803f 0000 803f 0000 803f 0000 803f
000003c0: 0000 803f 0000 803f 0000 803f 0000 803f
000003d0: 0000 803f 0000 803f 0000 803f 0000 803f
000003e0: 0000 803f 0000 803f 0000 803f 0000 803f
000003f0: 0000 0000 0000 803f 0000 803f 0000 803f

weight f4 [1, 64, 3, 3]
-0.077998735 -0.016778598 -0.050394434 -0.022265278 -0.025317848 -0.05280637 -0.07916868 -0.024505273
-0.0672072 -0.040537648 -0.033330213 -0.0 -0.051843908 -0.04703667 -0.10256096 -0.09460355
-0.049451083 -0.034778435 -0.0 0.022516197 0.08012928 0.06493747 0.0025219808 0.026726514
0.035324924 0.019170746 0.078747 0.027954223 0.015752545 0.0 0.009867693 0.024390897
0.05837838 0.05388238 0.037913147 0.08745354 -0.032206733 -0.0541623 -0.018317867 -0.020111
-0.090924 -0.05612953 0.0 -0.06164427 -0.010842702 0.015927782 0.051250357 0.06975256
-0.0 0.05892758 0.023755072 0.053411096 0.0033395342 -0.0 -0.07300911 -0.044833396
-0.04169936 -0.039534252 0.0 -0.10935163 -0.09993828 -0.10683151 -0.07384542 -0.05725626
-0.056288164 -0.0 -0.034221627 -0.03292976 -0.067038804 -0.0480869 -0.055278327 -0.0
0.002484615 0.0 0.02438314 0.052952763 0.06691602 0.042467497 0.0117890695 0.05724444
0.04655681 -0.06929005 -0.046601832 -0.062180303 -0.052996095 -0.023758 -0.04567832 -0.028795816
-0.05632621 -0.032063033 -0.034452703 -0.034801256 -0.05667726 -0.043901794 -0.10241504 -0.029847626
-0.029714638 -0.06701401 -0.07238131 0.02813713 0.051478695 0.009834554 0.076487035 0.03702604
0.0068406193 0.072823904 0.047894992 -0.0 0.051204104 0.06653682 0.045445815 0.031504832
0.045516185 0.044413965 -0.0 0.013470647 0.036067307 0.0005610528 -0.07829122 -0.029536784
-0.006848944 -0.035149373 -0.04359193 -0.020445159 -0.026085334 -0.073210664 0.029872432 0.012455669
-0.0 0.05253346 0.049226146 0.038644794 0.060379248 0.066981055 0.03604809 0.06384115
0.043802526 0.01058177 -0.0 0.012593184 0.06502249 0.0331586 0.059632972 0.039061863
-0.042177793 -0.08890041 -0.030152086 -0.048608463 0.0 -0.0 -0.027042257 -0.10914345
-0.043274738 -0.08596119 -0.039175082 -0.07928928 -0.06455019 -0.09577079 -0.04784898 -0.06631608
-0.06985786 -0.030595124 0.0123200165 -0.0 0.010754552 0.029250095 0.0 0.06045801
0.08663875 0.03788591 0.037429117 0.04255722 0.003710403 0.056566063 0.047444146 0.042544845
0.035490632 0.01634588 0.08317377 0.005059255 -0.06673678 -0.089668125 -0.07937891 -0.06443964
-0.025513802 -0.08636068 -0.04264169 0.0 -0.051158354 0.0657817 0.06743027 -0.0
0.015125251 0.0093734 0.04838815 0.025147252 0.07294491 0.010027931 0.05236386 0.019782921
0.055944614 0.019076347 0.028039351 0.06415465 0.018260917 0.0694096 0.0057307933 0.008965299
0.01129421 0.04291945 0.03991078 0.04729061 -0.0 0.08514629 0.0042938436 0.014157701
0.04010687 0.07741486 0.035241712 0.025620142 0.046274725 0.023941876 0.057544727 -0.0
0.02565449 -0.0 0.050905228 0.0049380325 0.03750844 0.030220896 0.0 0.05815431
0.06353684 0.0 0.031323086 0.005641019 0.02851215 0.031640474 0.052828167 0.05113132
0.006442283 0.051669605 0.0749782 0.013802495 0.024699736 0.07773781 0.057527624 0.06176859
0.043579496 0.036622357 0.051275417 0.020461934 -0.0 -0.043740086 -0.0016151995 -0.062106937
00000000: cdbd 9fbd 4573 89bc 656a 4ebd ac65 b6bc
00000010: 6067 cfbc 7e4b 58bd 3023 a2bd 48bf c8bc
00000020: eea3 89bd ce0a 26bd 4385 08bd 0000 0080
00000030: 475a 54bd 86a9 40bd 7b0b d2bd 82bf c1bd
00000040: 388d 4abd d573 0ebd 0000 0080 e373 b83c
00000050: d21a a43d f0fd 843d d147 253b 90f1 da3c
00000060: deb0 103d f80b 9d3c 1b46 a13d 4100 e53c
00000070: 7b0b 813c 0000 0000 1bac 213c 6bcf c73c
00000080: 2b1e 6f3d c5b3 5c3d d14a 1b3d d71a b33d
00000090: 35eb 03bd 4ad9 5dbd 5a0f 96bc d3bf a4bc
000000a0: 5d36 babd 14e8 65bd 0000 0000 b47e 7cbd
000000b0: 97a5 31bc fb7a 823c e5eb 513d 6eda 8e3d
000000c0: 0000 0080 0c5e 713d ff99 c23c 98c5 5a3d
000000d0: 16dc 5a3b 0000 0080 cd85 95bd 39a3 37bd
000000e0: f3cc 2abd abee 21bd 0000 0000 bff3 dfbd
000000f0: 71ac ccbd 7bca dabd 443c 97bd 8a85 6abd
00000100: 6b8e 66bd 0000 0080 fa2b 0cbd 5be1 06bd
00000110: a44b 89bd c5f6 44bd 876b 62bd 0000 0080
00000120: ecd4 223b 0000 0000 27bf c73c ffe4 583d
00000130: 440b 893d 66f2 2d3d f126 413c 2579 6a3d
00000140: 5bb2 3e3d f1e7 8dbd 90e1 3ebd c6b0 7ebd
00000150: 6f12 59bd 23a0 c2bc 3119 3bbd 34e5 ebbc
00000160: 50b6 66bd 8754 03bd 471e 0dbd c38b 0ebd
00000170: 6a26 68bd 5ed2 33bd fabe d1bd 0283 f4bc
00000180: 1d6c f3bc a43e 89bd a73c 94bd d77f e63c
00000190: 53db 523d 1c21 213c 3ca5 9c3d 9ea8 173d
000001a0: 4627 e03b b324 953d 8a2d 443d 0000 0080
000001b0: 65bb 513d 7544 883d 6425 3a3d 360b 013d
000001c0: 2e6f 3a3d 6beb 353d 0000 0080 fdb3 5c3c
000001d0: 50bb 133d 9e13 133a 2657 a0bd 20f7 f1bc
000001e0: 1b6d e0bb caf8 0fbd 748d 32bd 9b7c a7bc
000001f0: e9b0 d5bc 79ef 95bd 08b7 f43c dd12 4c3c
00000200: 0000 0080 532d 573d 5ba1 493d 014a 1e3d
00000210: 3b50 773d 5d2d 893d 29a7 133d 26bf 823d
00000220: 476a 333d 295f 2d3c 0000 0080 a453 4e3c
00000230: 832a 853d 50d1 073d b441 743d 55ff 1f3d
00000240: 9fc2 2cbd 6b11 b6bd 8201 f7bc ab19 47bd
00000250: 0000 0000 0000 0080 b987 ddbc 9a86 dfbd
00000260: da40 31bd 6c0c b0bd 0d76 20bd 6b62 a2bd
00000270: e432 84bd 7a23 c4bd 4bfd 43bd bad0 87bd
00000280: a311 8fbd a0a2 fabc e5d9 493c 0000 0080
00000290: dc33 303c e59d ef3c 0000 0000 d1a2 773d
000002a0: a86f b13d 422e 1b3d 464f 193d 7b50 2e3d
000002b0: 3c2a 733b d1b1 673d cb54 423d 8143 2e3d
000002c0: a05e 113d cce7 853c 0257 aa3d 1bc8 a53b
000002d0: 4bad 88bd eca3 b7bd 6991 a2bd eef8 83bd
000002e0: 5202 d1bc dedd b0bd 0da9 2ebd 0000 0000
000002f0: 6c8b 51bd 8eb8 863d e218 8a3d 0000 0080
00000300: e7cf 773c e492 193c a732 463d 9c01 ce3c
00000310: 2464 953d 314c 243c 7d7b 563d cb0f a23c
00000320: 2e26 653d 0046 9c3c c8b2 e53c 8363 833d
00000330: eb97 953c 9f26 8e3d 61c9 bb3b 31e3 123c
00000340: 5a0b 393c 4ecc 2f3d 7c79 233d ccb3 413d
00000350: 0000 0080 2e61 ae3d 5fb3 8c3b b4f5 673c
00000360: 1a47 243d af8b 9e3d 9d59 103d 55e1 d13c
00000370: 918a 3d3d c121 c43c 05b4 6b3d 0000 0080
00000380: 5d29 d23c 0000 0080 0082 503d 38cf a13b
00000390: 73a2 193d d091 f73c 0000 0000 3733 6e3d
000003a0: 9a1f 823d 0000 0000 a34c 003d 4cd8 b83b
000003b0: 5092 e93c 7199 013d 5962 583d 136f 513d
000003c0: c919 d33b 82a3 533d 2c8e 993d dc23 623c
000003d0: 1a57 ca3c 0035 9f3d 16a2 6b3d 1001 7d3d
000003e0: 6a80 323d 5301 163d 2c06 523d c99f a73c
000003f0: 0000 0080 ce28 33bd 1ab5 d3ba d863 7ebd
