weights/Act_ReLu_SRCNN_model_path.pth (torch, 84119 bytes, 6 tensors)

weight f4 [64, 1, 9, 9]
000000 26 28 1b be b8 ae 2d be 42 b8 0c 3c 5e 9c 0b be
       -0.15152034 -0.16961181 0.008588852 -0.13633868
000010 d9 a7 ba bd 65 a8 9f 3c 07 8b 36 be 31 d5 93 3c
       -0.09114046 0.019489476 -0.17826472 0.018045994
000020 ec 5b 67 bd b0 0b 23 be 43 a9 18 be 32 13 87 bd
       -0.056484148 -0.15922427 -0.14908318 -0.06595458
000030 60 c1 2e be 8f f0 bd 3b 45 77 3c be c6 6f 36 bd
       -0.17065954 0.005796499 -0.18404873 -0.04454019
000040 ea 35 36 be 57 24 77 bd df 15 25 bd 9c c9 4f bd
       -0.17794004 -0.06033739 -0.04030406 -0.05072938
000050 da 02 cf 3c 38 b8 13 be 5a cb 6d bd 92 3f 09 be
       0.025269914 -0.14425743 -0.05805526 -0.13403156
000060 a0 e3 ad bd 03 29 30 be 82 73 66 bd d3 82 05 be
       -0.08490682 -0.17203145 -0.0562625 -0.13038187
000070 b7 3d ee bd ac 7f 9a bd e7 19 03 be 47 b8 59 bc
       -0.11632865 -0.07543883 -0.1280285 -0.013288564
000080 22 ff b5 bd 49 13 44 bd 57 d4 05 be 0c f1 cf 3c
       -0.08886553 -0.047869954 -0.13069282 0.025383495
000090 19 7f 4b bd 44 8f 2e bd 50 14 2a be 52 38 03 be
       -0.049681757 -0.042617097 -0.16609311 -0.12814453
0000a0 0f 0f c1 bd df 95 13 be aa 61 b4 bd 48 5f a2 3c
       -0.094267 -0.1441264 -0.088076904 0.019820824
0000b0 fe b2 9d 3c 4e 4c fe bd 3e c2 c2 bc 27 b9 1b 3c
       0.01925039 -0.12416898 -0.023774263 0.009504593
0000c0 02 05 35 3c 09 c9 2f be d0 58 4b bd 3f b9 42 be
       0.011048557 -0.17166533 -0.049645245 -0.19015978
0000d0 70 18 d8 bd 9e 8c ba 3c 7e 58 16 bd 6f 86 a0 bb
       -0.10551536 0.02277213 -0.036705486 -0.0048988382
0000e0 4d 0a 84 bc ba 65 fe bd c4 ae 9b bd a2 8f 21 bd
       -0.016118193 -0.124217466 -0.07601693 -0.03944362
0000f0 11 da 0a bd 10 7a 02 bd f2 2b 8b 3b 7c fe ca bc
       -0.03389937 -0.03185469 0.004247182 -0.02477955
000100 a3 30 36 be 4e 30 5d bd 12 c3 dd bd 25 12 aa bd
       -0.17791991 -0.054001145 -0.10828222 -0.08304242
000110 36 bc 82 bd 9d 8f f5 bd e3 fc 9b 3c 8b a1 d7 bd
       -0.06383555 -0.11990283 0.019041484 -0.10528859
000120 f4 9c 7e 3c b6 78 84 3c 51 93 5f bd 62 9e 04 be
       0.01554035 0.01617084 -0.05458385 -0.12951043
000130 7c a3 a1 bd 15 b9 6f 3c 40 df 2b be bd 6b 20 bd
       -0.0789251 0.014631529 -0.16784382 -0.039165247
000140 95 80 40 be 70 1e cc 3d 52 ab e3 3d a4 9c 53 bb
       -0.1879905 0.09966743 0.11116661 -0.003228941
000150 ed ae a5 bd ba 0b a2 bd 16 0b d6 bd 08 a2 04 bd
       -0.08090005 -0.07912393 -0.10451333 -0.032381088
000160 dd eb f2 3c 59 85 8b bd cb 3b 9e 3b 8d c0 c1 3d
       0.029653484 -0.068125434 0.004828905 0.09460554
000170 88 ee 6b 3d 87 c0 9c bd 16 b1 e2 bd f5 9b 4e ba
       0.057600528 -0.07653909 -0.11068933 -0.0007881516
000180 fc 12 5c bd f4 0f ca 3d 84 4b 29 3a 6b 97 92 bd
       -0.053729042 0.09866324 0.0006458091 -0.07157787
000190 07 ba 80 bd 35 46 42 3d 39 87 4a 3d 6e 9c 34 3d
       -0.06285482 0.047430236 0.049445365 0.044094495
0001a0 54 ea 8c 3b a8 46 1d 3d 33 e3 86 3d da 85 8d 3d
       0.004300395 0.03839746 0.065863036 0.06910296
0001b0 3b 12 40 bd b7 f0 9a 3d b3 e7 1a 3a 5d f4 b0 bd
       -0.046892386 0.07565444 0.00059091597 -0.086403586
0001c0 7f ee 60 bd b0 31 13 3d c5 e9 fd bc 50 41 e8 b8
       -0.054914948 0.035936058 -0.030995259 -0.000110747875
0001d0 bb 6c b3 3c 4e 41 46 3d 06 26 c9 3c 0c a5 02 3d
       0.021902433 0.048402123 0.024554264 0.031895682
0001e0 49 67 15 be 4b e2 23 be 22 df 4a be b9 39 79 bd
       -0.14590181 -0.16004293 -0.19811681 -0.060846064
0001f0 99 a3 7b 3c 0e a1 0a bd b7 dc 95 bd 8e 63 78 bd
       0.015358829 -0.033845 -0.07317489 -0.060641818
000200 9a c2 31 3d c1 2a 9c bd e7 e1 64 bc bc b8 12 3c
       0.043398477 -0.07625342 -0.013969875 0.008955177
000210 88 31 57 bd e2 ea 10 3c b6 66 c3 bd 5f af 3e bb
       -0.05253747 0.008845063 -0.09541075 -0.0029096229
000220 95 ee 43 bd 7b 68 da bd b5 fc 06 be 2e cb da bd
       -0.04783495 -0.10664459 -0.13182338 -0.10683285
000230 bb 6d 2c bd 06 f9 39 bd 2c ca 0b be af 7b b3 3d
       -0.042096835 -0.045403503 -0.13651341 0.08763825
000240 c2 64 6b bd d9 8b c4 3d b4 66 b4 bd 7a 11 34 bd
       -0.057469137 0.09596986 -0.088086516 -0.04396198
000250 cc 6d 15 3d 9f 91 c8 bd 43 d7 f2 bd 50 d5 c5 3d
       0.036481664 -0.097934 -0.11857464 0.09659827
000260 87 53 96 3c 65 62 ff 3d 03 f8 04 3e 0c f9 b6 bd
       0.018350376 0.12469939 0.12985234 -0.08934221
000270 d8 ad 18 3d 15 41 49 3c fe 09 a7 bc 61 f8 0c 3d
       0.037275165 0.012283583 -0.020390507 0.03441656
000280 9a 64 be 3d 8d 48 51 bc ac 6f da bb e3 97 a0 bd
       0.09296532 -0.012773645 -0.0066661444 -0.0784147
000290 b0 e2 ab bd ac 8b f6 3c 4a 80 85 bd e0 4e b1 bd
       -0.083928466 0.030095898 -0.0651861 -0.08657622
0002a0 20 23 11 3d 7b 61 42 bb a5 bb 0d be 9f d2 9d bd
       0.03543389 -0.0029660154 -0.13841112 -0.077061884
0002b0 3e 8b 60 bd 3a 4a b2 bd f6 06 01 be 88 4f 02 3d
       -0.05482029 -0.08705564 -0.12600312 0.03181413
0002c0 f8 e5 97 3d 72 24 95 bc 9a 19 ad bd 8c 31 29 3d
       0.0741691 -0.018205855 -0.08452149 0.041307017
0002d0 b3 c7 68 3d e7 c2 c2 bc 92 62 6d bd 06 9a 9f 3d
       0.056831073 -0.023774577 -0.057955332 0.077930495
0002e0 ea 1a d3 bc 0b 6c 4e 3d ea 76 10 be ae 71 4f 3d
       -0.02576967 0.050396007 -0.14107862 0.050645523
0002f0 66 f2 43 bd a4 00 46 3d a3 34 da bd 37 27 35 3d
       -0.04783859 0.048340455 -0.10654571 0.04422685
000300 c3 3b 39 3c df 15 33 bd 52 06 02 be 45 07 b4 3c
       0.011305752 -0.04372203 -0.12697724 0.021976123
000310 bb 06 a1 3d af 74 01 3d c6 a3 9d bd d3 3f 40 bd
       0.07862612 0.03160542 -0.07697253 -0.046935868
000320 b4 3b a9 3d 9d a8 b4 3d 64 ad 8a 3c c8 e5 f8 3b
       0.082633406 0.08821223 0.016928382 0.0075957514
000330 d4 b8 c1 bc 6f 73 b2 bd a8 14 82 bd a3 ee 57 3d
       -0.023647703 -0.087134235 -0.06351596 0.052717816
000340 8e 0d 6a ba 68 2b 3b 3d 08 bf 58 bd d1 1a 66 bc
       -0.00089284114 0.045695692 -0.052916557 -0.0140444795
000350 f9 2c 83 bd 99 14 1a 3d 64 92 bd bd 05 61 b3 bd
       -0.06405062 0.0376173 -0.092564374 -0.087587394
000360 9f 69 7e bd c1 14 a4 bc d9 c5 ad 3c ce 4a 8e bd
       -0.062112447 -0.020029427 0.021212505 -0.069478616
000370 62 81 70 bd 32 f8 ee 3c ea 7a 00 be 53 6c 3d bd
       -0.05871714 0.029171083 -0.12546888 -0.046245884
000380 40 2d c1 bd 34 07 77 3d 14 9d 56 bd 2d b9 77 bc
       -0.09432459 0.060309604 -0.052395895 -0.015119833
000390 fb ce 8e 3d c5 c7 9c 3d d6 d5 6d 3b 36 9e 8b bd
       0.06973072 0.076552905 0.0036290786 -0.06817286
0003a0 ec 2a 00 be ba 38 be 3c d2 9c 85 bc 13 01 ff bc
       -0.12516373 0.023220409 -0.01631013 -0.031128442
0003b0 34 df 7e 3d 0e 99 16 bd 12 b8 e8 3c 7a 9c c4 bd
       0.06222458 -0.036767058 0.028408084 -0.09600158
0003c0 8d b3 32 bb 19 2e f0 bd be c6 3e 3d 36 38 43 3d
       -0.0027267665 -0.117275424 0.046576254 0.04766103
0003d0 1f 6b 1a bd c9 08 14 be 58 9e ab bd e5 69 64 3d
       -0.037699815 -0.14456476 -0.08379811 0.05576505
0003e0 16 36 2c bd 57 19 26 be 60 cb e2 bd 0b fb ba bc
       -0.042043768 -0.16220604 -0.11073947 -0.022824785
0003f0 ec 3e 86 bd f4 a3 83 3b d0 89 3a bd 80 6a 43 3c
       -0.0655497 0.0040173475 -0.045541584 0.011927247

bias f4 [64]
000000 2a cd f8 bc 58 25 6d bd 2c 03 a0 bd 2b fc 08 be
       -0.030371267 -0.057896942 -0.07813105 -0.13377444
000010 b6 84 9e be 96 24 01 be d3 81 cb 3c b8 59 73 3b
       -0.30960625 -0.12611613 0.024842178 0.0037132334
000020 5b 6c ef bd e3 5f 93 3d f8 cb 87 bd 10 b7 06 be
       -0.11690589 0.07196023 -0.06630701 -0.1315577
000030 76 0e b2 bd 5b 37 db 3c 74 dd e4 bd ac 69 89 bc
       -0.086941645 0.026759794 -0.11175051 -0.016774021
000040 7b e6 0d be 65 bb 10 bd 93 15 2d be 43 eb a8 3b
       -0.13857453 -0.035334963 -0.16902761 0.0051549985
000050 96 57 18 be 73 d4 92 bd b4 08 20 be 11 16 ab 3c
       -0.14877161 -0.07169428 -0.1562832 0.020884546
000060 e9 5f 9b bd 50 4b a6 3b 15 4f ca bd bf 32 26 be
       -0.07586653 0.005074896 -0.09878365 -0.16230296
000070 a0 43 0b be 76 f4 17 bc 29 5e 75 3c 40 59 6b bd
       -0.13600016 -0.009274593 0.014976063 -0.057458162
000080 49 41 9e bd cd bf de 3d 60 c0 b1 bc b4 ee e1 bd
       -0.07727296 0.10876427 -0.021698177 -0.11031857
000090 96 30 6a bd e5 04 f5 bd bc be f7 3c b2 3c 8e 3c
       -0.05717524 -0.11963824 0.030242316 0.017362926
0000a0 22 8a 2c be 2d ce 92 bd 59 d2 e6 bd fd cf 28 bc
       -0.16849568 -0.07168231 -0.112705894 -0.0103034945
0000b0 07 86 64 be bf 3d 71 bd 76 eb c7 3c 3b 51 87 bd
       -0.22316752 -0.058896776 0.024404269 -0.0660729
0000c0 52 83 ad 3a 82 12 a5 bd 9f 28 37 bd 73 a0 04 3b
       0.0013237989 -0.08060171 -0.044716474 0.0020237237
0000d0 f6 c4 20 be 95 ec f1 bd 0f ca c2 3d 60 67 f3 bc
       -0.15700135 -0.118127026 0.09511196 -0.029712379
0000e0 88 de 85 bd aa 42 ac bd a4 4d 04 3d 35 8c 0c be
       -0.06536585 -0.08411153 0.032300606 -0.1372536
0000f0 d6 98 03 be 1f 5b 36 be 09 d0 20 3d dc eb 42 bc
       -0.12851271 -0.17808197 0.039260898 -0.011897054

weight f4 [32, 64, 1, 1]
000000 40 18 32 bd 3e e4 f7 bc 77 51 58 bd c3 91 7d bd
       -0.043480158 -0.030260202 -0.052812066 -0.061906587
000010 1d 9f 27 be 50 ef 17 bd ac 9b d4 bd 28 8b f1 bc
       -0.1636929 -0.03709346 -0.103812546 -0.0294853
000020 4e 72 ff bd c0 6f c3 bd 92 72 97 3d e6 ec c9 bd
       -0.12472974 -0.09542799 0.073948994 -0.09859638
000030 56 25 b5 bd 34 3a 68 3d dc 02 fb bd 14 2e a2 3d
       -0.08845012 0.05669613 -0.12256405 0.07918945
000040 70 8c df 3d 1a 95 a8 3d 80 30 05 bc 19 bd 21 bd
       0.10915458 0.08231564 -0.008129239 -0.03948698
000050 d4 40 35 3d 20 25 d5 bd 74 0c 3d 3d 8e ef 15 be
       0.044251278 -0.10407472 0.046154454 -0.14642164
000060 33 a7 c1 bd 87 a9 93 bd c6 d9 d7 3d 6f 28 08 3d
       -0.09455719 -0.07210069 0.10539584 0.033241685
000070 50 9b 3a 3d 2a b7 f5 bd 83 ea 2c be d5 bc e6 3c
       0.045558274 -0.119978264 -0.16886334 0.028166214
000080 dd 02 41 bd 1a a4 2b be ac c0 86 3d 00 fb aa bb
       -0.04712187 -0.16761819 0.06579718 -0.00521791
000090 80 3a 8b ba 00 80 3e 39 8a 17 b2 bd 88 04 8b bd
       -0.0010622293 0.00018167496 -0.08695896 -0.06787974
0000a0 34 95 a4 3d 8a d5 c8 bd a7 e5 e7 3c 02 64 de 3d
       0.08036271 -0.09806354 0.028307749 0.10858919
0000b0 7a 61 0c be 12 4e ac bd 13 33 97 bd 46 02 48 3d
       -0.1370906 -0.08413328 -0.073827885 0.048830293
0000c0 40 dc 72 3c 28 c4 4e bd 28 e2 28 3d 60 6d 67 3d
       0.0148230195 -0.050480038 0.041231304 0.056500793
0000d0 20 bf 7d 3c 3c a3 8f bd 3f aa 7e 3d 00 0c 2d bb
       0.015487462 -0.07013556 0.062174078 -0.0026404858
0000e0 10 33 97 3d 9c 05 74 bd 64 a1 0f bd a0 6d d1 3b
       0.07382786 -0.059575662 -0.035066023 0.006391242
0000f0 57 0c bf bd 0a 08 ef 3c f0 fb 94 3c 8c be 0f bd
       -0.093285255 0.029178638 0.01818654 -0.03509383
000100 41 94 af 3d f8 0a ec bd 31 a1 f7 bd 39 5e 8d 3d
       0.08573199 -0.115255296 -0.12091292 0.06902737
000110 30 b7 bd bd 9d 7d de bd 8d d0 78 bd e3 02 84 bc
       -0.09263456 -0.108638026 -0.060745765 -0.016114658
000120 88 af 2f 3e 06 d7 2d bd 26 96 1d bd 07 96 d2 bd
       0.17156804 -0.04244139 -0.03847327 -0.10282522
000130 20 84 b6 bd b0 7d 26 3e a0 49 de 3c c6 b5 1d be
       -0.089119196 0.16258883 0.027134717 -0.15401372
000140 60 f5 4c 3d 58 e4 2e be 55 30 10 3d 21 0f 1f be
       0.050038695 -0.17079294 0.035202343 -0.15533115
000150 92 3a 73 bb 8e c6 39 3d 94 a7 b5 bd 87 58 97 bd
       -0.0037113768 0.045355372 -0.088698536 -0.07389932
000160 4e c0 78 bd 36 f9 14 be 10 97 46 bd 90 d5 7e 3d
       -0.06073027 -0.14548191 -0.04848391 0.062215388
000170 16 20 1d 3e e3 32 0a 3d 5c 12 c3 3d 7b d6 0e 3d
       0.15344271 0.033739936 0.09524986 0.034872513
000180 5f f0 cb 3c dc 44 04 be d3 07 d3 3d cf 49 0a 3d
       0.024894891 -0.12916893 0.10304227 0.033761796
000190 cb b5 0e 3d 4c e0 63 bd 90 64 1b 3e 0c 7e cb 3d
       0.03484134 -0.055633828 0.1517508 0.09936151
0001a0 a0 82 e9 3b 7a 5f 8f 3d db 50 03 be 9a 53 67 3d
       0.0071261674 0.070006326 -0.12823813 0.056476213
0001b0 ce 89 91 3d 38 df 0a 3d 52 16 f5 3c 99 60 0b 3d
       0.07106362 0.033904284 0.02991787 0.03402767
0001c0 86 a8 42 3d c8 90 d3 3b b6 bc 00 be 70 15 e6 3c
       0.047523998 0.0064564683 -0.12571988 0.028086394
0001d0 e0 73 01 3d 7d 7e 8a bd 88 39 20 bd 5c da 88 3d
       0.031604648 -0.06762407 -0.039117366 0.06682274
0001e0 de 43 27 3e 21 97 f3 bc 90 73 bf bc d9 86 c1 bc
       0.16334483 -0.02973515 -0.023370534 -0.02362387
0001f0 48 58 54 bd c5 20 9d bd f0 88 e3 3d c4 77 90 3d
       -0.051842004 -0.07672266 0.11110103 0.070540935
000200 e0 89 29 3d 4f 37 4a bd 83 83 4e bd e4 11 f1 bd
       0.041391253 -0.049369153 -0.050418388 -0.117709905
000210 62 15 17 be da 8b 38 3c 0a 46 1f bd c6 a6 23 bc
       -0.1475425 0.011263812 -0.038885154 -0.009988492
000220 25 37 14 be 22 1c 13 be 5d 62 aa bd 78 aa 89 bd
       -0.14474161 -0.143662 -0.083195426 -0.067219675
000230 46 ec da bd e2 7c d6 bd 78 07 00 bd 45 9f 38 be
       -0.10689597 -0.10473038 -0.031257123 -0.18029507
000240 b2 aa 1a 3d 31 bd d6 bd 5c a4 00 bd 5b 7f bd bd
       0.037760444 -0.10485304 -0.031406745 -0.09252807
000250 47 79 2c be 6a 9a 91 bb fd fc 00 3e cd 5d bc bd
       -0.16843139 -0.0044434564 0.12596507 -0.091975786
000260 07 a5 0b 3d 62 a3 3d bc c8 e0 d9 bd a6 fb 15 bd
       0.03409293 -0.011574598 -0.10638577 -0.036616944
000270 05 a2 1a 3a 69 6d 34 be c1 36 a6 bd 52 ca 50 3d
       0.00058987766 -0.17619862 -0.08115912 0.050974198
000280 97 d2 96 bd 4e ae bf bd c8 9c 1b be 14 0d f1 bd
       -0.073643856 -0.09359418 -0.15196526 -0.117700726
000290 c9 16 f4 bd 90 b7 a2 bd e8 e2 89 bd 95 15 00 be
       -0.119184084 -0.07945168 -0.06732732 -0.12508233
0002a0 04 4b 03 bd 69 ed 15 be 13 c9 fe bd 76 39 d7 bd
       -0.032053962 -0.14641346 -0.124406956 -0.10509007
0002b0 b8 29 19 be 5a d2 55 3c 83 f3 2b be c0 c7 a8 3c
       -0.1495732 0.01305064 -0.16792111 0.02060306
0002c0 c7 0b e3 bc 54 40 91 bd 42 c4 cc bd 4c 51 97 bc
       -0.027715577 -0.07092348 -0.09998371 -0.018471383
0002d0 50 96 7d 3d e2 16 bc bd db dd e1 bd 5e c7 a0 bc
       0.061910927 -0.09184052 -0.11028644 -0.019626316
0002e0 22 35 1e 3d 07 ac 20 be da a1 f9 bc bf 07 14 be
       0.03862489 -0.15690623 -0.030472685 -0.1445608
0002f0 b6 b3 e3 bd a7 36 46 3d a7 59 33 be 17 7e af bc
       -0.111182615 0.048391964 -0.17514668 -0.021422429
000300 9c d7 00 bd 66 97 8f bd 70 52 44 bd 4c 34 ae 3d
       -0.03145562 -0.07011299 -0.04793018 0.085060686
000310 cc 8b c1 3d 10 fa f5 3c 8e c7 d8 3d 28 20 e7 3d
       0.09450492 0.030026466 0.10584937 0.1128543
000320 3a 0d e3 bd 42 f5 d1 bd c8 08 c7 bd 6c b8 30 bd
       -0.11086507 -0.10251857 -0.09718472 -0.04314463
000330 ec ff 72 bd 96 b5 be bd aa 7d f8 bd 70 ea 60 bc
       -0.059326097 -0.093119785 -0.121333435 -0.013727769
000340 d8 09 a4 bc c2 3a d3 bd 7c 5b 41 3d da 57 ad bd
       -0.020024225 -0.103139415 0.047206387 -0.08464022
000350 50 fb 61 3c 7c c0 45 bd 2c 8a a0 bd c8 69 ef bd
       0.013792828 -0.04827927 -0.07838854 -0.11690098
000360 d0 57 44 bd 86 fd e6 3d 0c 02 70 bd ec 51 20 bd
       -0.047935307 0.112788245 -0.058595702 -0.039140627
000370 6a d4 84 3d 50 60 51 bc 98 09 60 bd 46 56 b4 3d
       0.06485827 -0.01277931 -0.05469665 0.08805518
000380 70 85 c9 bd d0 27 eb bd b8 17 7e 3d c0 d2 cb 3b
       -0.09839904 -0.11482203 0.06203434 0.0062201917
000390 48 3f fb bc e8 14 90 3d d8 bc dd bc bc 03 a2 3d
       -0.030669823 0.070352376 -0.027067587 0.079108685
0003a0 80 0f 1e bd 50 00 0a bc bc 2b 61 3d 40 c9 5f bd
       -0.038589 -0.008422926 0.05497335 -0.054635286
0003b0 60 b6 0d bc 32 23 c5 3d 48 e1 15 bd b8 bd 9a 3d
       -0.008649439 0.096258536 -0.036591798 0.07555717
0003c0 a8 a4 ce bc e4 b2 f1 bd e4 31 fe bd 6a e9 cb bd
       -0.025224999 -0.11801699 -0.1241186 -0.099566296
0003d0 c8 01 e0 bc 4c 7f ca 3d 60 a0 27 bd 64 32 fc 3d
       -0.0273446 0.09887561 -0.04092443 0.12314299
0003e0 da 38 de 3d d8 29 78 bd da 3d 91 bd 40 32 98 3b
       0.10850687 -0.06058678 -0.070918754 0.004644662
0003f0 b0 ef 93 3c e2 7c db bd f6 76 f8 bd 40 6e 94 3d
       0.018058628 -0.10717179 -0.12132065 0.07247591

bias f4 [32]
000000 a2 e3 98 bd 6b 45 d2 bd cb e7 81 bc d4 fb 9d bd
       -0.074652925 -0.10267147 -0.015857598 -0.07714048
000010 d3 28 b7 bd 0b 84 b6 bd 36 ee 8f bd 40 73 c1 bc
       -0.089433335 -0.08911904 -0.07027857 -0.023614526
000020 6b d6 7f b9 80 14 31 be a0 da 2c bd 81 a2 8f bd
       -0.00024398572 -0.17292976 -0.042200685 -0.07013417
000030 32 23 31 bd 8e ac 4c bd eb 66 dc bd 9d db 29 be
       -0.043246455 -0.04996925 -0.107618175 -0.16587682
000040 2b 38 43 be 7f a7 bc bd 09 e3 2d bc db 73 44 bd
       -0.19064395 -0.09211635 -0.010613211 -0.04796205
000050 27 cb 65 bd 78 b2 bb bd 85 c9 0d be 65 53 ad bc
       -0.056101944 -0.091648996 -0.13846405 -0.02115793
000060 a6 a9 f3 3b ee e7 2a bc 2f 98 87 bd 53 3f 07 be
       0.007435995 -0.010431273 -0.066208236 -0.1320775
000070 bd 09 94 bd 00 81 05 be fb a1 ad bd d5 12 0f bb
       -0.0722842 -0.13037491 -0.08478161 -0.0021831293

weight f4 [16, 32, 5, 5]
000000 bc 7b b5 bc 4a 45 23 3c 41 b0 9b ba d1 0c a5 3b
       -0.022153728 0.00996525 -0.0011878089 0.005036928
000010 5a 7e 30 3d a7 17 8c bc 8c 67 39 39 a5 de 64 3c
       0.04308925 -0.017101122 0.00017681549 0.013969098
000020 95 32 32 3d 5d 22 ae b9 f0 68 6f bb cd f0 23 3d
       0.04350527 -0.0003321347 -0.0036531053 0.040024567
000030 43 57 64 3d ed 17 0f 3d b4 e9 33 3c 80 bc 38 3a
       0.05574728 0.034934927 0.010981012 0.00070471317
000040 08 ee dd 3c 6e db 04 bd 60 73 aa 3b e6 ae f7 3c
       0.027091041 -0.032435827 0.005201742 0.030234765
000050 fc 6e 8a 3c a1 e0 90 bc e6 a9 ed 3c a1 cf bc bc
       0.016898625 -0.017685236 0.029011678 -0.023048224
000060 d4 75 c7 3c 03 f0 b5 bb 35 8d 16 bd 20 a0 84 bc
       0.024348177 -0.0055522933 -0.03675576 -0.016189635
000070 63 1e 8e bc 00 9d 00 bd 16 1c 22 bd 6d eb 0f bc
       -0.017348474 -0.031399727 -0.039577566 -0.008784157
000080 e9 50 10 bc 1e d5 48 bd 84 3e 43 bc 0b 96 b5 bc
       -0.008808353 -0.04903137 -0.01191676 -0.022166273
000090 09 a3 32 bd 4e 30 2d bd 45 61 b0 bc 13 bc 1c bb
       -0.043612514 -0.042282395 -0.021530757 -0.0023915812
0000a0 f9 ba 71 bd 2d 82 09 bc 12 e6 7f bd f4 3f dc bc
       -0.0590162 -0.008392853 -0.06247527 -0.026885964
0000b0 c5 dc 80 bc 52 21 e7 bb 6a 96 64 bd 59 9a 87 bd
       -0.015730271 -0.0070535326 -0.05580751 -0.06621236
0000c0 40 1e c6 bc 19 ad d1 bc 57 36 00 3d f2 ff b6 3d
       -0.024184346 -0.025595235 0.031301823 0.089355364
0000d0 e7 81 a6 3d 56 80 05 3d 0d f5 7c 3d 17 af fc 3c
       0.08130246 0.032593094 0.061757136 0.030845208
0000e0 ee 7d 94 3d b8 fc 97 3d e3 32 1e 3d fc d8 04 3d
       0.07250582 0.07421249 0.038622748 0.032433495
0000f0 e4 b1 b0 3d 6c a2 2a 3d ed c9 a3 3d c6 39 b0 3d
       0.0862768 0.041658804 0.07997499 0.086047694
000100 40 9c c2 3d c6 ab 6b 3d a2 1c b7 3d 60 2e 8c 3d
       0.095024586 0.057536863 0.08941008 0.06844783
000110 9b d9 5b 3d 47 d5 d8 3c 0a 25 78 3d af 57 9a 3d
       0.05367432 0.026468886 0.0605822 0.075362556
000120 ad a3 4c 3d c4 4b cc 3c bb 94 92 3d 00 b1 ad 3b
       0.04996078 0.024938472 0.07157274 0.005300641
000130 f8 5d 02 3c 77 c3 07 3d 5e c3 c8 bc 8c a1 10 bc
       0.007956974 0.033145394 -0.02450722 -0.008827578
000140 00 db d9 b9 41 25 fc bc d8 d9 de bc 49 8d c6 bc
       -0.00041552633 -0.030779483 -0.027203485 -0.024237292
000150 35 95 8c bc 90 83 35 bc 00 dc 6f 3b 86 b5 b9 3c
       -0.017160991 -0.01107873 0.0036599636 0.022669565
000160 36 41 77 bc 36 65 a2 bc 33 70 08 bd 49 ec 0e 3d
       -0.015091231 -0.019823652 -0.033310127 0.034893308
000170 60 92 e5 3a 60 2c c3 bb a0 33 08 bd 20 55 f0 3a
       0.0017514937 -0.0059562176 -0.03325236 0.0018335916
000180 f4 49 df bb f8 27 85 3b c8 c6 dd bc 6e c6 53 bc
       -0.006814236 0.0040636025 -0.027072325 -0.012925727
000190 94 16 56 bd ed 7f ca bc 98 a8 b6 bc 37 19 91 bd
       -0.052267626 -0.024719203 -0.022297189 -0.070848875
0001a0 b5 d2 50 bd 6c 9a 2a bd 84 ad 46 bd e5 03 40 bd
       -0.050982196 -0.041651174 -0.04850532 -0.046878714
0001b0 fa 3c 59 bd 2a 0a d3 bc fd b3 5e bd 5d bb f7 bc
       -0.053036667 -0.025761683 -0.05437087 -0.030240709
0001c0 70 13 15 bd 83 af fb bc be d7 2f bc ec 69 a1 bd
       -0.03639549 -0.030723339 -0.010732589 -0.07881531
0001d0 71 3d 93 bd c1 9d 9c bd 51 ec 1f bd 53 ac 1e bd
       -0.071894534 -0.07647277 -0.03904373 -0.03873856
0001e0 b4 2a 96 bd 52 4c 6f bd 4e 91 51 bd 30 7f 96 bc
       -0.07332364 -0.058422394 -0.051163964 -0.018371195
0001f0 dd 5c 15 bd b8 54 17 3d 9d 10 8e 3c 29 34 88 3d
       -0.036465514 0.03694603 0.017341906 0.06650574
000200 13 21 25 3d dd 6d 1f 3c 44 4a f4 bc be 1b 3a 3e
       0.040314745 0.009730783 -0.029820569 0.18174645
000210 b2 a0 d6 3d 06 49 7f bd 18 b2 23 3c 9f 1f 9d 3d
       0.10479869 -0.0623255 0.009991191 0.07672047
000220 e2 15 0d 3e 66 76 f1 3d 24 45 4f 3d cc 9d 2b 3d
       0.13777879 0.11790161 0.050603047 0.041898534
000230 3b 20 15 bd eb c0 7e bd 13 73 2e bc 2f 50 3b bd
       -0.03640769 -0.0621957 -0.010647553 -0.045730766
000240 87 73 55 bd 47 f1 10 3d 6f b5 1f 3d 79 d0 96 3c
       -0.05211213 0.03538635 0.038991388 0.018409954
000250 87 bd 1b 3c 83 bd be bc 58 a4 86 3d d6 59 dc 3c
       0.009505636 -0.023283726 0.06574315 0.026898306
000260 a4 cf 02 3d 2a db 91 3d 17 ba 96 3d eb c0 fc 3c
       0.031936303 0.0712188 0.073597126 0.03085371
000270 92 4b c9 3d 19 34 13 3d cd 11 8c 3d cb e2 ac 3d
       0.09828867 0.035938356 0.06839333 0.08441695
000280 3f db 86 3d 87 58 3f 3d 07 c1 4e 3d 84 6b 82 3d
       0.065847866 0.046715286 0.050477054 0.06368163
000290 66 17 a4 3d 10 0b 0c 3d c8 bd 43 3d e7 ec 80 3d
       0.080122754 0.034190238 0.04778841 0.062951855
0002a0 c2 d8 8b 3d 32 50 ac 3c 1d 41 dd 3c 79 90 8c 3d
       0.06828453 0.021034334 0.027008587 0.068634935
0002b0 2b a8 4a 3d 33 d9 12 3d ea 90 1b 3d 94 9a b0 3d
       0.049476784 0.03585167 0.037979998 0.086232334
0002c0 d0 cf 3f 3d 1c c1 0c 3d e6 ce 8d 3d ff f8 ef 3c
       0.046829045 0.03436385 0.06924228 0.029293535
0002d0 4c b1 bc 3d de d5 65 3d c3 cc 50 3d 51 71 46 3d
       0.09213504 0.056112163 0.050976526 0.04844791
0002e0 cc 2f 89 3d a5 53 7e 3d cc d4 65 3d 5b c1 ae 3d
       0.0669857 0.06209149 0.056111142 0.085329734
0002f0 fa 19 54 3d 74 1f c1 3d 0e bf 3a 3d bf 2b 11 3d
       0.051782586 0.09429827 0.04559236 0.03544211
000300 c8 80 61 3d 05 7b 6f 3d 05 f7 4b 3d 7d 07 8b 3d
       0.055054456 0.05846693 0.049796123 0.06788538
000310 7a 69 20 3d 4f 9a 33 3d 68 a4 96 3d 43 46 e3 3c
       0.03916309 0.043848332 0.07355577 0.027743464
000320 67 a4 8a 3d e9 e6 85 3d 66 58 a2 3d 94 b2 44 3d
       0.067696385 0.06538183 0.07927017 0.048021868
000330 1c e0 64 3d 40 f0 06 3d 72 94 83 3d b5 1c b8 3d
       0.05587779 0.032943964 0.06424798 0.089898504
000340 47 eb 5a 3d f5 26 53 3d f8 ce 7c 3d 83 3b 04 3d
       0.053447034 0.051550824 0.06172082 0.032283317
000350 76 23 8d 3d f4 c2 a5 3d 95 4f e3 3c af 2c 81 3d
       0.06891529 0.08093825 0.027747909 0.06307351
000360 52 3d 07 3d de c5 af 3d a9 eb c1 3d 8b f4 21 3d
       0.033017464 0.08582662 0.09468777 0.039539855
000370 fc 82 25 3d 2d 1b 51 3d 4c 86 1c 3d f7 a7 12 3d
       0.04040812 0.051051307 0.038214013 0.035804715
000380 40 b3 92 3d b1 46 8b bd 13 1a 24 bd aa cb a4 bd
       0.071630955 -0.06800593 -0.04006393 -0.08046658
000390 7e a1 95 bd 3c ec 42 bd e6 84 05 bd 32 21 a0 bd
       -0.07306193 -0.047588572 -0.032597445 -0.078188315
0003a0 7d 70 80 bd 29 94 9c bd 02 80 98 bc 41 fb 88 bd
       -0.062714554 -0.07645447 -0.018615726 -0.06688548
0003b0 d4 1d 3f bc 3a 1e 18 bd 09 9f c3 bc da c7 9b bd
       -0.011664826 -0.0371382 -0.023879545 -0.07606478
0003c0 ba 96 66 bd 39 18 80 bd 44 2a 02 bd 3d dd 28 bd
       -0.056296088 -0.0625462 -0.03177859 -0.041226614
0003d0 02 2a 5c bd 4a 9d bf bc d5 06 17 bd 53 6c 98 bd
       -0.053751 -0.023390431 -0.03687175 -0.07442536
0003e0 8f ab 30 bd b2 ff 52 bd 77 4f 19 be 04 27 20 be
       -0.04313236 -0.05151338 -0.1497172 -0.15639883
0003f0 f6 0f 65 3e 59 3b 4e be 5a 5d c0 3d 50 65 ab bd
       0.2236937 -0.20139827 0.093928054 -0.08368933

bias f4 [16]
000000 23 4c 55 3d 2c d2 37 3d 10 e6 32 3d 21 fb 44 3d
       0.052074563 0.04487817 0.043676436 0.048091058
000010 1b 5a 2e 3d eb d1 13 3d 4f 93 0f 3d 9f 53 2c 3d
       0.0425664 0.036088865 0.035052594 0.042071935
000020 5f 15 2c 3d 85 d4 06 3d 0f 91 0b 3d 46 25 2c 3d
       0.04201257 0.03291752 0.034073886 0.042027734
000030 7c fb 46 3d a6 03 24 3d bf e2 2d 3d 9d 6b 42 3d
       0.048579678 0.040042542 0.04245257 0.04746591
