weights/Act_Sigmoid_FSRCNN_model_path.pth (torch, 64897 bytes, 15 tensors)

weight f4 [64, 1, 5, 5]
0	0x3b8f5b8d	0.0043749274
1	0xbd491f88	-0.049102336
2	0x3e204d84	0.1565457
3	0xbdd346f5	-0.10316268
4	0x3eb86edf	0.36022088
5	0xbe43d07f	-0.19122504
6	0x3e438090	0.19092011
7	0x3dcaca0e	0.0990182
8	0xbe68292d	-0.22671957
9	0x3bb86f36	0.0056284918
10	0x3ebb5403	0.36587533
11	0x3dc7e340	0.097601414
12	0x3de7c10c	0.11316118
13	0x3e520f20	0.20513582
14	0xbe43d02f	-0.19122384
15	0xbe3ec02a	-0.18627992
16	0x3e29db05	0.16587456
17	0x3eafb177	0.34315082
18	0x3dab1826	0.08354215
19	0x3e4d687b	0.20059387
20	0xbdda9ef8	-0.10674852
21	0x3ecd6ddc	0.4012288
22	0xbd8099c9	-0.06279332
23	0x3d8b8adb	0.06813594
24	0x3e620ef5	0.22076018
25	0x3d396ab8	0.04526779
26	0xbdc018c1	-0.093797214
27	0xbd6f1b26	-0.0583755
28	0x3d877a27	0.066150956
29	0xbe2f58d0	-0.17123723
30	0x3d349c2b	0.044094246
31	0xbd570423	-0.05249418
32	0xbdf270de	-0.11837934
33	0xbea1df9c	-0.31615913
34	0xbdb49ee7	-0.08819371
35	0xbed7a991	-0.42121556
36	0x3ce4037a	0.027833689
37	0xbc84dd72	-0.016218875
38	0x3e183cf9	0.14867009
39	0x3e41bb56	0.18919119
40	0xbea77118	-0.3270347
41	0x3ddf53d6	0.10904662
42	0x3d86aad4	0.06575552
43	0x3e7366c7	0.23769675
44	0xbd35e8d8	-0.04441151
45	0x3bdfc37a	0.0068287225
46	0xbebb8efa	-0.3663252
47	0xbc876ba2	-0.016530816
48	0xbea1d657	-0.3160884
49	0x3e671fd7	0.2257074
50	0x3dded1c9	0.10879857
51	0xbe60b00d	-0.21942158
52	0xbe944ecb	-0.28966364
53	0x3bcff6ab	0.006346544
54	0x3cde7dec	0.027159654
55	0x3da4db04	0.080495864
56	0xbd229e98	-0.039702028
57	0xbd0d422e	-0.034486942
58	0xbe650585	-0.22365387
59	0xbd6a3de9	-0.05718795
60	0xbd8411b3	-0.06448688
61	0x3e4c1dd8	0.1993326
62	0x3e4b6d39	0.19865884
63	0xbed360d0	-0.412848
64	0xbda1ff59	-0.07910032
65	0x3edb4ad3	0.42830524
66	0xbd04e54b	-0.032445233
67	0x3e219273	0.15778522
68	0x3e3a8a1d	0.18216749
69	0xbe18871d	-0.14895292
70	0xbeaf8319	-0.34279707
71	0xbeccc175	-0.39991346
72	0xbda849b7	-0.08217185
73	0x3dafdc9f	0.08587002
74	0xbe0036a0	-0.12520838
75	0x3d0226dd	0.031775344
76	0xbe224840	-0.15847874
77	0xbca07cc6	-0.019590747
78	0x3d8ec171	0.0697049
79	0xbd52ce51	-0.05146629
80	0xbd2c5487	-0.0420728
81	0xbd68cb79	-0.05683467
82	0x3e8e019b	0.277356
83	0x3e581c45	0.21104534
84	0x3db0cbed	0.08632646
85	0x3e4e4055	0.20141728
86	0xbe18f37f	-0.14936636
87	0xbe308568	-0.1723839
88	0xbd269f73	-0.040679406
89	0xbe39b1aa	-0.1813418
90	0x3ea4a35b	0.3215588
91	0x3d66db47	0.056361463
92	0x3dd49147	0.10379272
93	0x3d9d1477	0.07669919
94	0x3ea81fd8	0.32836795
95	0xbe99c097	-0.30029747
96	0xbddb3496	-0.10703389
97	0x3dcc9b71	0.099905856
98	0xbdacedfa	-0.08443828
99	0xbdeba603	-0.115062736
100	0x3d937d32	0.072016135
101	0x3ec1a986	0.3782465
102	0x3df969fb	0.12178417
103	0xbe9b3f38	-0.3032167
104	0x3e75fc56	0.2402204
105	0xbe11e8af	-0.14248918
106	0xbbcfa620	-0.0063369423
107	0xbe14ba18	-0.14524114
108	0xbb0c628d	-0.0021421046
109	0xbe4021be	-0.18762872
110	0xbea2d83f	-0.31805608
111	0xbd345f60	-0.04403627
112	0xbd359203	-0.0443287
113	0x3e084b72	0.1331003
114	0x3e625803	0.22103886
115	0xbe012000	-0.12609863
116	0x3e8dbdaf	0.2768378
117	0xbeb68465	-0.35647884
118	0xbe559341	-0.20856954
119	0xbde72e6b	-0.112881504
120	0xbe15d910	-0.14633584
121	0x3e9474e5	0.28995433
122	0x3d93af73	0.07211199
123	0x3e0500a5	0.12988527
124	0x3e179745	0.14803798
125	0x3e128b18	0.14310873
126	0x3e38c16d	0.18042536
127	0xbe5269af	-0.20548128
128	0x3e18a0d1	0.14905097
129	0x3e450e5a	0.19243756
130	0x3dd56bab	0.10420927
131	0x3d891b32	0.0669464
132	0x3e80a76e	0.2512774
133	0x3f075d14	0.528764
134	0x3dcb1b93	0.09917369
135	0xbe899a45	-0.2687551
136	0xbc200ab0	-0.009768173
137	0xbe402c19	-0.18766822
138	0x3d631c2f	0.0554468
139	0x3d5664ec	0.05234234
140	0xbd50fdd9	-0.051023338
141	0x3ebf77e1	0.37396148
142	0xbd8d70a6	-0.069062516
143	0x3eadd7f9	0.33953837
144	0x3ddfcd95	0.109278835
145	0x3d675b6f	0.056483682
146	0x3d55e935	0.052224357
147	0x3e627539	0.2211503
148	0x3dc88fbb	0.097930394
149	0x3e93ea01	0.28889468
150	0x3e181eab	0.14855449
151	0xbe74b95e	-0.23898837
152	0xbd902f3f	-0.070402615
153	0xbd93cf4d	-0.07217274
154	0xbedb2d4f	-0.42808005
155	0xbe6adb32	-0.22935179
156	0x3e6ff3a6	0.23432788
157	0xbe0316ba	-0.12801638
158	0xbedd5b3b	-0.43233666
159	0xbd91ec41	-0.0712514
160	0xbe0e086e	-0.13870403
161	0xbe2884e1	-0.1645694
162	0xbe8c80cd	-0.27442017
163	0xbe706401	-0.23475648
164	0xbeb63017	-0.35583565
165	0x3c890636	0.016726594
166	0xbe9283b3	-0.28616104
167	0x3dc3efaf	0.095672004
168	0xbdf35a5e	-0.118824705
169	0xbcb9ce5c	-0.022681408
170	0x3ae6667a	0.0017578148
171	0x3e2f119f	0.17096566
172	0x3e3710e1	0.17877533
173	0xbcd87a66	-0.026425552
174	0x3e592627	0.2120596
175	0xbe9fc189	-0.31202343
176	0xbd221578	-0.039571255
177	0x3e441e3c	0.19152158
178	0xbe42907c	-0.19000429
179	0x3dc8d396	0.09805982
180	0x3dcf325a	0.10117026
181	0x3d229e96	0.03970202
182	0xbea193a4	-0.31557953
183	0xbe923615	-0.28556886
184	0xbea751cc	-0.32679594
185	0xbd4f4b4a	-0.05060891
186	0xbe65e658	-0.2245115
187	0x3e059bbd	0.1304769
188	0xbd35440d	-0.04425435
189	0xbe8aeff1	-0.27136186
190	0x3cdc91e9	0.026925044
191	0xbddd214c	-0.107973665
192	0x3e8da4c9	0.27664784
193	0x3c9d7b28	0.019223765
194	0x3e7466b0	0.23867297
195	0xbeddf994	-0.43354475
196	0xbbee2076	-0.0072670532
197	0xbdd28f99	-0.10281295
198	0xbe01beb2	-0.126704
199	0xbe59faf8	-0.21287143
200	0xbb812323	-0.003940956
201	0x3b244a56	0.0025068722
202	0xbe40cc32	-0.18827894
203	0x3e75a475	0.23988517
204	0xbf07b78b	-0.5301444
205	0x3bb548a5	0.0055323415
206	0x3e82f91f	0.2558069
207	0x3e09523f	0.1341028
208	0x3e39e37d	0.18153186
209	0x3cf49c32	0.029859636
210	0xbde77e68	-0.11303407
211	0xbe62dc58	-0.22154367
212	0xbdb9773b	-0.090559445
213	0xbc288afb	-0.010287042
214	0xbd16ce0d	-0.0368176
215	0xbe405a04	-0.18784338
216	0xbdc3dc33	-0.09563484
217	0x3e1202d0	0.14258885
218	0xbe1e6915	-0.15469773
219	0xbec8a7a5	-0.39190403
220	0x3e327a1d	0.17429395
221	0xbbb7b997	-0.005606841
222	0x3daf0ade	0.085469946
223	0x3bc5bcb5	0.0060344585
224	0xbd67bde9	-0.056577597
225	0x3ead6c20	0.33871555
226	0xbe7ecdec	-0.2488324
227	0x3d820523	0.06348636
228	0x3dfb3035	0.12265054
229	0xbd455654	-0.048178032
230	0xbe46520b	-0.19367234
231	0xbec9beeb	-0.3940347
232	0xbe4bedfb	-0.19915001
233	0xbe7ff0e6	-0.24994239
234	0xbe5ea2a3	-0.21741728
235	0x3e0045c6	0.12526616
236	0xbf09afed	-0.53784066
237	0x3c6612e1	0.014042587
238	0x3ec9d02f	0.39416644
239	0xbe539273	-0.20661335
240	0xbd13749b	-0.035999876
241	0xbe7f098b	-0.24905984
242	0xbdf432c8	-0.11923748
243	0xbd939123	-0.07205417
244	0xbd7bca10	-0.061472
245	0x3d8ec4c2	0.06971122
246	0x3b34aa77	0.0027567425
247	0x3d492188	0.049104244
248	0xbe77050a	-0.24123016
249	0xbd0cb3ae	-0.034351043
250	0x3e417799	0.18893279
251	0xbe2537c3	-0.16134553
252	0xbe012524	-0.12611824
253	0x3dba60b2	0.091004744
254	0xbc840e59	-0.016120123
255	0x3e5dfa05	0.21677406

bias f4 [64]
0	0x3d38918f	0.04506069
1	0xbd82b2af	-0.063817374
2	0xbd51dc35	-0.051235396
3	0x3d3b8051	0.04577667
4	0x3d18772a	0.03722302
5	0x3d867575	0.06565372
6	0xbd88a737	-0.06672519
7	0xbd4967c0	-0.04917121
8	0xbd3b4fec	-0.045730516
9	0xbd660c37	-0.056163993
10	0xbd426c94	-0.04746683
11	0xbd80973c	-0.06278846
12	0x3d8714f7	0.065957956
13	0xbd8605fe	-0.06544112
14	0xbd3ee502	-0.046605118
15	0xbd89043f	-0.06690263
16	0x3d05c24d	0.032656003
17	0xbd83c0d6	-0.06433265
18	0xbd3125d0	-0.04324895
19	0x3d2e6cca	0.042584218
20	0x3d33c73f	0.043891188
21	0xbd870249	-0.06592233
22	0x3d6f698a	0.05845026
23	0xbd8279f7	-0.06370919
24	0x3d807162	0.06271626
25	0xbd887b96	-0.06664197
26	0xbd43b833	-0.047783088
27	0x3d34583e	0.044029467
28	0x3d9b8de1	0.07595421
29	0x3d885635	0.06657068
30	0x3d842172	0.06451692
31	0x3d36a38e	0.04458957
32	0xbd846f6e	-0.06466566
33	0xbd439e6b	-0.0477585
34	0x3d74f9f5	0.05980869
35	0x3d3db5ae	0.04631584
36	0xbd40a7ae	-0.04703491
37	0x3d3e71e3	0.04649533
38	0x3d7dfb32	0.062007137
39	0xbd851c00	-0.06499481
40	0xbd7b3308	-0.061327964
41	0x3d86e6c9	0.065869875
42	0xbd5c5069	-0.053787623
43	0x3d3716e6	0.044699572
44	0x3d3947e4	0.045234576
45	0xbd3e46ba	-0.04645417
46	0xbd81871a	-0.06324597
47	0xbd85361f	-0.065044634
48	0xbd84016b	-0.06445583
49	0x3d82b96a	0.06383021
50	0x3d7d3da5	0.061826367
51	0xbd464b97	-0.04841193
52	0x3d344b70	0.044017255
53	0xbd8148bf	-0.06312703
54	0xbd8c1a1e	-0.06840919
55	0x3d73f18b	0.059556525
56	0x3d4411bd	0.04786848
57	0xbd680db5	-0.056653697
58	0xbd3dae80	-0.046308994
59	0x3d8fe3f9	0.07025904
60	0xbd8de76c	-0.06928906
61	0xbc41cea2	-0.01182905
62	0x3d885cf6	0.06658356
63	0xbd869b41	-0.06572581

weight f4 [12, 64, 1, 1]
0	0xbe5bb2ff	-0.21455
1	0xbeeb5977	-0.45966694
2	0xbda19e01	-0.07891465
3	0x3d2499d8	0.04018578
4	0xbd9cc711	-0.076551564
5	0xbce05cba	-0.027387965
6	0xbe0a7dca	-0.13524547
7	0x3e26a057	0.16272102
8	0xbd13f0e8	-0.036118418
9	0x3d8ae89c	0.06782648
10	0x3e21938f	0.15778945
11	0xbe32ff36	-0.17480168
12	0xbea1e323	-0.31618604
13	0xbe00c9af	-0.12576936
14	0xbe4d8adf	-0.20072506
15	0x3ec621a2	0.38697535
16	0x3da00b8c	0.078147024
17	0xbe166e4c	-0.14690512
18	0xbdd49845	-0.103806056
19	0xbd948f31	-0.07253874
20	0xbe38656d	-0.18007441
21	0x3e82f851	0.25580075
22	0xbe197705	-0.14986809
23	0x3dbeef33	0.093229674
24	0xbddf87a4	-0.10914543
25	0xbeb2d01b	-0.34924397
26	0xbec78a68	-0.38972783
27	0xbeb6a505	-0.35672775
28	0xbe94ed7e	-0.29087442
29	0xbda5311f	-0.0806601
30	0xbc0e5026	-0.008686101
31	0xbe39fe6f	-0.18163465
32	0xbe3e544d	-0.18586846
33	0xbd7b0e4a	-0.061292924
34	0x3d79404e	0.06085234
35	0xbdbab4be	-0.09116505
36	0x3e60e34b	0.21961705
37	0xbed8c8da	-0.42340738
38	0xbeca1647	-0.3947012
39	0xbe1a96aa	-0.15096536
40	0x3dbd6a3f	0.092487805
41	0x3e25ebf5	0.16203292
42	0x3e03d740	0.1287508
43	0xbe4ab3ea	-0.19795194
44	0xb99519ac	-0.00028438622
45	0x3dc18907	0.09449964
46	0xbe869de4	-0.26292336
47	0xbe95d44b	-0.2926353
48	0x3e2b2f59	0.1671728
49	0xbe97b342	-0.2962895
50	0xbd8471ca	-0.06467016
51	0x3e697215	0.22797425
52	0x3df6d1ba	0.12051721
53	0xbd34237f	-0.043979164
54	0x3d79cd25	0.060986657
55	0xbe187dbc	-0.14891714
56	0xbe0ab576	-0.13545784
57	0x3e7576f9	0.23971166
58	0xbe6b80d6	-0.22998366
59	0xbebbac57	-0.36654922
60	0xbe83b1b1	-0.25721505
61	0x3d8bfc11	0.06835187
62	0x3d897e3c	0.067135304
63	0xbe12b0bb	-0.1432523
64	0x3e182fbd	0.1486196
65	0x3e47f67f	0.19527625
66	0xbe90b577	-0.28263447
67	0x3da0c3c2	0.07849838
68	0xbb8a9c41	-0.0042300527
69	0x3dfa0c6c	0.122094005
70	0x3d2efb15	0.04271992
71	0xbe621199	-0.22077025
72	0xbe8fc186	-0.28077334
73	0x3e5a433b	0.21314709
74	0xbeaf8274	-0.34279215
75	0x3cc261de	0.023728307
76	0xbab5f8b1	-0.001388332
77	0x3d1132a8	0.0354487
78	0xbe20dcb1	-0.15709187
79	0x3e4a536d	0.19758387
80	0xbc5f35e2	-0.0136236865
81	0x3da180d8	0.07885903
82	0x3e019149	0.12653078
83	0x3ec4435a	0.38332635
84	0x3eb90a93	0.3614088
85	0xbdc24a4f	-0.094868295
86	0x3e8afd15	0.2714621
87	0x3d454c5d	0.04816853
88	0x3da02dfc	0.07821271
89	0x3e856b6f	0.26058528
90	0x3c673a44	0.014113013
91	0x3ec4250c	0.38309515
92	0xbdb97234	-0.09054986
93	0xbe26c1d0	-0.16284871
94	0x3dd8d49d	0.10587428
95	0x3edeeebb	0.43541512
96	0x3dba3782	0.090926185
97	0x3e87fb08	0.2655871
98	0xba54fc28	-0.00081247324
99	0x3e126eb3	0.14300041
100	0xbf012e46	-0.5046123
101	0x3ecf80dc	0.40528
102	0xbc8299b2	-0.015942428
103	0xbe0c4013	-0.13696317
104	0x3e7b2d60	0.24529028
105	0x3c073f82	0.008254888
106	0xbd80ca17	-0.062885456
107	0x3e115417	0.14192234
108	0x3eaad9d7	0.33369324
109	0xbddb9d10	-0.10723317
110	0x3e61f568	0.22066271
111	0xbe8f5d24	-0.28000748
112	0x3e2f3bc0	0.17112637
113	0xbe2da035	-0.16955645
114	0xbd9c59f4	-0.07634345
115	0xbd41354e	-0.047169976
116	0xbe109b5e	-0.14121768
117	0x3e8efa64	0.27925408
118	0x3e93b4cb	0.28848872
119	0x3ee34538	0.44388747
120	0xbc70fe72	-0.014709102
121	0x3ecdc406	0.40188617
122	0x3ddabda3	0.106807016
123	0x3d9a2d0f	0.075281255
124	0x3d163376	0.03667017
125	0x3edc5665	0.43034664
126	0x3e498513	0.1967967
127	0x3efe4831	0.49664453
128	0x3c17aa77	0.009256951
129	0x3cb7071a	0.022342253
130	0x3e7f6cd5	0.2494386
131	0x3e3a1bb8	0.18174636
132	0x3e828430	0.25491476
133	0x3eb36416	0.35037297
134	0x3e3d64fa	0.18495551
135	0x3d8525d4	0.06501356
136	0x3de5b7f9	0.112167306
137	0x3ea00433	0.31253204
138	0x3ddfe739	0.10932774
139	0xbe86e9b9	-0.2635019
140	0x3db70409	0.089363165
141	0xbe59eca8	-0.21281683
142	0x3d8427ce	0.06452905
143	0xbde379b1	-0.11107195
144	0xbe927440	-0.28604317
145	0xbe8ed7b5	-0.27898946
146	0xbf404433	-0.75104064
147	0xbd7da348	-0.061923295
148	0x3ec3bd82	0.3823052
149	0xbd305438	-0.043049067
150	0xbe209a65	-0.15683897
151	0xbd423962	-0.047418006
152	0x3e39cdfa	0.1814498
153	0xbcc04b6e	-0.023473468
154	0x3e081733	0.132901
155	0x3e8f1319	0.27944258
156	0x3cfcb492	0.030847821
157	0x3eb83189	0.35975292
158	0x3e000876	0.12503228
159	0xbdea5d84	-0.11443618
160	0x3d9aff87	0.07568269
161	0x3c778a4f	0.015108659
162	0x3e0df924	0.13864571
163	0x3d93da59	0.07219381
164	0xbe89e4d3	-0.26932392
165	0x3e640ef2	0.22271326
166	0x3dc5965c	0.096478194
167	0x3e655f77	0.22399698
168	0x3d97a3e2	0.07404305
169	0x3ebc3aec	0.36763704
170	0xbc923409	-0.017847078
171	0xbe058af7	-0.13041292
172	0x3e772e7a	0.24138823
173	0x3bf18a01	0.0073711877
174	0xbed41837	-0.41424724
175	0xbe3b3ae7	-0.18284188
176	0x3e8233c8	0.2543013
177	0x3e8dc08e	0.2768597
178	0x3d933bbd	0.071891285
179	0x3e830d35	0.25596014
180	0x3f1b3c15	0.6063855
181	0xbeb6d11d	-0.35706416
182	0x3e800830	0.25006247
183	0x3e95aa5e	0.29231542
184	0x3e37d6d6	0.17953047
185	0x3e228e61	0.15874626
186	0x3ede380a	0.4340213
187	0xbf047016	-0.5173353
188	0x3d97b083	0.07406714
189	0x3e8553db	0.2604054
190	0xbe01f132	-0.12689665
191	0x3e760d1b	0.24028437
192	0xbe004218	-0.12525213
193	0x3e7cc39d	0.24683996
194	0xbf326105	-0.6967929
195	0xbdac9a27	-0.0842784
196	0xbc5b944a	-0.013402054
197	0x3db5536b	0.08853801
198	0x3c5033b7	0.012707642
199	0x3ea3b1c9	0.31971577
200	0xbd5dd162	-0.05415476
201	0xbe8f83f8	-0.28030372
202	0x3d0058e0	0.031334758
203	0xbcabf545	-0.020990977
204	0xbe022c99	-0.12712325
205	0x3d82fdc3	0.063960575
206	0xbdc9e60e	-0.098583326
207	0x3c08aaa8	0.008341469
208	0xbdd38a99	-0.1032917
209	0xbe79afc9	-0.24383463
210	0x3d8f55ab	0.06998762
211	0x3e29da47	0.16587172
212	0x3db77a3c	0.08958861
213	0x3e96a2bf	0.2942104
214	0x3d500528	0.050786167
215	0xbe33997e	-0.17539021
216	0x3efde5c8	0.49589372
217	0xbefaa4af	-0.4895377
218	0xbdeca91a	-0.11555691
219	0x3ec4d53b	0.38443932
220	0xbd85bde9	-0.06530363
221	0x3e70c5b0	0.23512912
222	0x3d948c84	0.07253364
223	0x3e8b4edf	0.2720861
224	0x3c2bc904	0.010484938
225	0xbe889645	-0.26677147
226	0x3d24944a	0.040180482
227	0x3e9165c8	0.28397965
228	0x3ee8388c	0.45355642
229	0xbdd53f44	-0.104124576
230	0xbd25378d	-0.04033618
231	0x3e22dc98	0.15904462
232	0xbd0336a6	-0.03203454
233	0x3edb7e2f	0.42869708
234	0xbde82d68	-0.113367856
235	0xbdbf10bc	-0.09329364
236	0x3dc146ab	0.09437307
237	0x3be61e95	0.0070226886
238	0xbde5163f	-0.11185884
239	0x3ea10014	0.31445372
240	0x3d6b5138	0.057450503
241	0x3ea50c19	0.32235792
242	0x3e126098	0.1429466
243	0x3e29dc05	0.16587837
244	0x3d132a35	0.035928924
245	0x3db22d74	0.08700076
246	0x3e96afd4	0.2943102
247	0xbd3c38f5	-0.045952756
248	0x3c9443e2	0.018098775
249	0x3ef39c18	0.47580028
250	0x3ed43ad5	0.41451135
251	0x3e359841	0.17733862
252	0x3df2a6e7	0.1184824
253	0x3d4331c7	0.047654893
254	0x3e8b7710	0.27239275
255	0xbe37ba94	-0.17942268

bias f4 [12]
0	0xbd84fdeb	-0.064937435
1	0x3d76ddde	0.060270183
2	0x3d83af42	0.06429912
3	0x3d3fecbe	0.046856634
4	0x3d437e94	0.047728136
5	0xbd83d5ef	-0.06437289
6	0x3d795c98	0.06087932
7	0xbd862cc1	-0.06551505
8	0x3d1df3f0	0.038562715
9	0x3d8b5cd2	0.068048134
10	0x3d86c3f4	0.06580344
11	0x3d0dec35	0.034649093

weight f4 [12, 12, 3, 3]
0	0x3e975b2f	0.29561755
1	0x3dca1199	0.09866638
2	0x3ce46832	0.027881715
3	0xbe117df2	-0.142082
4	0x3eedb36c	0.4642595
5	0xbc9eac18	-0.01936917
6	0x3e93162e	0.2872786
7	0xbe6ad082	-0.22931102
8	0xbe2a196b	-0.16611259
9	0x3ed325c1	0.4123974
10	0xbdafb18b	-0.085787855
11	0xbcf2ef58	-0.029655144
12	0x3e0f1c81	0.13975717
13	0xbe0531bf	-0.13007258
14	0x3c17587f	0.009237408
15	0xbe4101cb	-0.1884834
16	0x3e7ec778	0.24880779
17	0xbeae0ffd	-0.33996573
18	0x3e04cd30	0.12968898
19	0xbf44f41b	-0.76934975
20	0x3e49e3f7	0.19715868
21	0xbd9cd765	-0.07658271
22	0x3dce0cd8	0.100610435
23	0xbc4a93df	-0.012364357
24	0x3eced364	0.40395653
25	0xbd44ce3f	-0.048048254
26	0xbc70d7cb	-0.014699887
27	0x3e46ab1d	0.19401212
28	0x3ec02d63	0.37534627
29	0xbe2c54f7	-0.16829287
30	0xbe243099	-0.16034164
31	0xbdebac89	-0.11507518
32	0x3dda2863	0.106522344
33	0x3d2304a6	0.039799355
34	0x3e1fd753	0.15609483
35	0x3eef3c21	0.46725562
36	0x3e6e102f	0.23248361
37	0x3dbecc5e	0.09316324
38	0x3defd115	0.11709801
39	0xbe8a3576	-0.26993912
40	0x3c191bf8	0.009345047
41	0x3d50d570	0.0509848
42	0xbc34596d	-0.011007649
43	0x3eb3573d	0.35027495
44	0xbe8b3546	-0.27189082
45	0x3e22d8a0	0.15902948
46	0x3e186ffb	0.14886467
47	0xbd628608	-0.055303603
48	0x3c5c53e7	0.013447738
49	0xbe556ca5	-0.20842226
50	0xbdb952de	-0.09049009
51	0xbda494a0	-0.080361605
52	0x3e34a864	0.17642361
53	0x3e978a93	0.2959791
54	0xbd9c22c1	-0.07623816
55	0x3e88ecbf	0.26743123
56	0x3d1b606f	0.037933763
57	0x3e3a441e	0.18190047
58	0x3dc1eba8	0.09468776
59	0xbe57f8c3	-0.21090989
60	0x3e9373f2	0.28799397
61	0xbea291b3	-0.31751785
62	0xbd9d6416	-0.076851055
63	0xbd44a0e0	-0.048004985
64	0xbe21ece7	-0.15813027
65	0xbd552b5d	-0.052043308
66	0x3d30650d	0.04306512
67	0xbdbd11ab	-0.092318855
68	0xbd9b7bbd	-0.075919606
69	0xbb55c1c1	-0.0032616707
70	0x3d394327	0.045230057
71	0x3e902606	0.2815401
72	0x3eb5b28a	0.35487777
73	0x3dafd7e4	0.085861
74	0x3c2a67bb	0.010400708
75	0xbd2bd73b	-0.041953307
76	0xbeb4344a	-0.35196143
77	0xbed15138	-0.40882277
78	0x3d351036	0.044204913
79	0x3e9d60c1	0.3073788
80	0xbd656e53	-0.056013416
81	0x3f2d4aa4	0.6769202
82	0x3d8c11f8	0.06839365
83	0x3dc30fad	0.09524474
84	0x3ddfbd21	0.10924745
85	0xbe933ec4	-0.28758824
86	0x3da31890	0.07963669
87	0x3e854545	0.2602941
88	0x3e98b9b3	0.29829177
89	0x3e278bd2	0.16361931
90	0xbcc87d52	-0.02447382
91	0x3eaabcdd	0.33347216
92	0x3d1e04bc	0.038578734
93	0x3e378ba3	0.17924361
94	0x3e851680	0.2599373
95	0xbe6fd7aa	-0.23422113
96	0xbde50c3f	-0.111839764
97	0x3eb156ea	0.34636623
98	0x3e0c05da	0.13674107
99	0xbf07b64d	-0.53012544
100	0x3e365a2c	0.17807835
101	0x3ed10ed6	0.4083163
102	0x3f156405	0.5835574
103	0xbe491dfa	-0.19640341
104	0x3e0081ce	0.12549517
105	0x3e4901e1	0.19629623
106	0x3e7b7f9e	0.24560401
107	0xbe712cf8	-0.2355231
108	0xbe564d55	-0.20927937
109	0xbcd425e7	-0.02589698
110	0x3eb11200	0.34584045
111	0x3d946670	0.07246101
112	0xbcd0b04a	-0.025474686
113	0xbdb9bb96	-0.09068982
114	0xbe866ec7	-0.2625639
115	0xbd22fb9e	-0.039790742
116	0x3e3073d6	0.17231688
117	0xbb2dee3d	-0.0026539706
118	0x3d8c69a6	0.06856088
119	0xbd8e57bc	-0.06950328
120	0x3ecd7fec	0.4013666
121	0xba243476	-0.0006263921
122	0xbd8b4269	-0.06799776
123	0x3ebf86f4	0.3740765
124	0xbd943a03	-0.07237627
125	0xbdb1c04e	-0.08679257
126	0x3d69eb08	0.05710891
127	0x3d83a341	0.064276226
128	0x3d784aa9	0.060618076
129	0x3e610019	0.21972694
130	0xba69e702	-0.00089226675
131	0xbe083a58	-0.13303506
132	0xbe21bac5	-0.15793903
133	0x3e88d3a4	0.2672397
134	0x3e02f379	0.1278819
135	0x3d83c304	0.06433681
136	0x3e8a3b67	0.26998445
137	0x3e897d77	0.26853535
138	0x3d72adc1	0.059247736
139	0xbd82bb20	-0.063833475
140	0x3e0e1d73	0.13878421
141	0xbc86581a	-0.016399432
142	0x3eb4633d	0.35231963
143	0xb8de45bf	-0.00010598776
144	0x3eb85b90	0.36007357
145	0x3ea7ace0	0.3274908
146	0xbe78cbe0	-0.24296522
147	0x3e554c0f	0.20829795
148	0x3e4de51f	0.20106934
149	0xbea3f9a5	-0.320264
150	0xbc4277f7	-0.011869422
151	0x3e2f2381	0.17103387
152	0x3db37cc5	0.08764032
153	0xbe898b7b	-0.26864228
154	0x3d9eba37	0.077503614
155	0xbe8a9461	-0.2706633
156	0x3e5c1892	0.21493748
157	0x3e9a7bcc	0.30172575
158	0x3e260091	0.16211154
159	0x3e7d13a9	0.24714531
160	0xbea31010	-0.31848192
161	0xbd25f15b	-0.040513378
162	0x3d9264e6	0.07148151
163	0x3e075de4	0.1321941
164	0x3ea9feda	0.3320225
165	0xbe690d69	-0.22759022
166	0xba095de8	-0.00052401284
167	0x3e861d99	0.26194456
168	0x3e2c7998	0.1684326
169	0x3de10f93	0.10989299
170	0xbddb043f	-0.10694169
171	0xbcd3d99c	-0.0258606
172	0xbe632f53	-0.22186022
173	0xbeab09ef	-0.33406016
174	0x3e441875	0.19149955
175	0xbe8936ed	-0.26799718
176	0xbe20112c	-0.1563155
177	0x3e2a05e8	0.16603816
178	0xbe1b78ff	-0.15182875
179	0x3ef92a34	0.4866501
180	0x3ce43376	0.02785657
181	0x3e209a3f	0.1568384
182	0x3c1c6b8e	0.009547127
183	0xbe4b6ef2	-0.19866541
184	0x3e0dba61	0.13840629
185	0x3e69cd03	0.22832112
186	0x3d9a1b97	0.075247936
187	0x3d47d71c	0.04878913
188	0x3d49000b	0.049072307
189	0x3d179255	0.037004787
190	0x3e8cce0d	0.27500954
191	0x3d47e03f	0.048797842
192	0xbeccf230	-0.40028524
193	0xbe96b42c	-0.29434335
194	0xbe3b99e5	-0.18320425
195	0x3d2650f6	0.040604554
196	0xbe37946e	-0.17927715
197	0xbe59225a	-0.2120451
198	0xbeff2dee	-0.4983973
199	0xbd029cb5	-0.03188773
200	0x3de37879	0.11106963
201	0xbccbe316	-0.024888556
202	0x3db07a49	0.08617074
203	0x3e0ea916	0.13931689
204	0x3de4cab8	0.11171478
205	0x3e8e61ff	0.2780914
206	0x3e913b25	0.28365436
207	0x3ee8292d	0.45343915
208	0x3e74764a	0.23873249
209	0x3e704dcf	0.23467182
210	0xbe439111	-0.19098307
211	0x3eb4c037	0.35302898
212	0x3e856558	0.26053882
213	0x3e192b44	0.14957911
214	0x3edc6a5e	0.43049902
215	0xbe035244	-0.1282435
216	0xbc417458	-0.011807524
217	0x3d97ab65	0.07405738
218	0x3e3e1709	0.18563475
219	0x3d179d80	0.037015438
220	0x3e40243d	0.18763824
221	0x3db4aec4	0.088223964
222	0x3ed77955	0.42084756
223	0x3df51bc5	0.11968187
224	0x3d4e10a6	0.050308846
225	0xbccb6be9	-0.024831729
226	0x3d95d5df	0.07316183
227	0x3b781772	0.0037855771
228	0xbe5eb35a	-0.21748105
229	0x3e88c836	0.2671525
230	0x3ef7b8f1	0.48383287
231	0xbe0218d1	-0.12704779
232	0xbecd147f	-0.400547
233	0x3cd254f5	0.025675276
234	0x3d8f2e01	0.069911964
235	0x3dd8b2aa	0.105809525
236	0x3cfce0e9	0.030868964
237	0x3e390018	0.18066442
238	0x3e7dadb5	0.24773295
239	0x3e48125c	0.19538254
240	0xbcba1a4c	-0.022717617
241	0xbea124c2	-0.31473356
242	0x3ea191ca	0.3155654
243	0x3e43c4d0	0.19118047
244	0x3daceaee	0.08443247
245	0xbe9cce18	-0.30625987
246	0x3c468542	0.012116732
247	0x3ebea138	0.37232375
248	0xbd758cf2	-0.05994887
249	0x3d3ee1db	0.04660211
250	0xbd833d9d	-0.06408236
251	0x3e81f2e5	0.25380626
252	0xbe649245	-0.22321422
253	0x3da09b3c	0.078421086
254	0x3dfbb14e	0.122896776
255	0xbdcdd698	-0.10050696

bias f4 [12]
0	0x3d953bf6	0.07286827
1	0x3d2827bd	0.041053522
2	0x3d84fbf8	0.06493372
3	0x3d877f2b	0.06616052
4	0x3d4ccdaa	0.050000824
5	0x3d416f6b	0.047225397
6	0xbd893752	-0.06700005
7	0x3d846f02	0.064664856
8	0x3d4c2f50	0.04984981
9	0x3d3ffb0c	0.046870276
10	0x3d8418d3	0.06450047
11	0xbd3caea8	-0.046065003

weight f4 [12, 12, 3, 3]
0	0xbd07f822	-0.033195622
1	0x3e3b136e	0.1826913
2	0x3e02f817	0.12789951
3	0x3ddd8d83	0.10818007
4	0x3e0f40c0	0.13989544
5	0xbddba5dd	-0.10724995
6	0x3eeb9f49	0.46019962
7	0x3d1a4073	0.03765912
8	0xbba2938f	-0.004961438
9	0xbda4ecbe	-0.080529675
10	0x3d959f2b	0.073057495
11	0x3e9a04a4	0.30081666
12	0x3d3b7c27	0.045772698
13	0xbea673f9	-0.32510355
14	0x3cdc2ef3	0.026877856
15	0x3e82bbb7	0.2553384
16	0xbde95b75	-0.11394397
17	0x3e0d45eb	0.13796203
18	0xbe9c87be	-0.30572313
19	0x3cdb0730	0.026736826
20	0x3e2aaa3e	0.16666505
21	0xbe0773b0	-0.13227725
22	0x3d7b0030	0.061279476
23	0xbe091140	-0.13385487
24	0x3e10be05	0.14134987
25	0x3e638d21	0.22221805
26	0x3e661a6a	0.22471014
27	0x3eab5c2f	0.33468768
28	0x3ecc0b22	0.39852244
29	0x3e4a0d91	0.19731738
30	0x3e21a6f9	0.15786351
31	0xbe3be519	-0.18349113
32	0x3e0a60fd	0.1351356
33	0x3dbbe38d	0.09174261
34	0xbeaffcd1	-0.3437257
35	0x3db76152	0.08954109
36	0xbe9132e2	-0.28359133
37	0xbdfa5075	-0.12222377
38	0x3e2a7a6c	0.16648263
39	0x3e848f16	0.25890416
40	0x3d9ed923	0.07756259
41	0x3e6a2b22	0.22868016
42	0x3ea63ba9	0.32467392
43	0x3ec03ba3	0.375455
44	0xbc0e6150	-0.008690193
45	0xbe0a16d4	-0.1348527
46	0x3f173a52	0.59073365
47	0xbdd5dcd7	-0.104425125
48	0xbcd3724a	-0.025811333
49	0x3d230867	0.039802935
50	0x3da3e3f7	0.08002465
51	0x3e828d68	0.2549851
52	0x3dc56231	0.09637869
53	0xbe498701	-0.19680406
54	0xbe24ea1e	-0.16104934
55	0xbdd0e012	-0.10198988
56	0x3c16c054	0.009201128
57	0xbbf1e129	-0.0073815775
58	0xbe7458cc	-0.23861998
59	0x3e39c95a	0.18143216
60	0xbe167b72	-0.14695528
61	0x3dbb55bc	0.09147212
62	0xbe5ef587	-0.21773349
63	0x3ed6dbaa	0.41964465
64	0x3dc892f2	0.097936526
65	0xbd0b7cf0	-0.034054697
66	0xbdb2d05a	-0.08731146
67	0x3d0c7fcb	0.03430156
68	0xbe41f32d	-0.1894042
69	0xbe26cef7	-0.16289888
70	0xbe3b67df	-0.18301342
71	0x3ccbc1b2	0.024872635
72	0x3e909ceb	0.2824472
73	0xbd8f8e4f	-0.07009565
74	0xbe28a760	-0.16470098
75	0x3e6a15d2	0.22859886
76	0x3e368b5a	0.17826596
77	0x3d1480bc	0.036255583
78	0x3e3d9754	0.18514758
79	0x3eddac72	0.43295628
80	0xbdf03b7e	-0.11730097
81	0x3e9591f2	0.2921291
82	0x3ead18fd	0.33808127
83	0x3e2e674a	0.17031589
84	0xbdcc9946	-0.09990172
85	0x3e9426d9	0.28935888
86	0x3eb6d8c2	0.35712248
87	0x3e3a8d9b	0.1821808
88	0x3e207615	0.15670045
89	0x3dcae930	0.09907758
90	0xbe82e693	-0.2556654
91	0x3e4802a6	0.1953226
92	0xbe16ab2f	-0.14713739
93	0x3e8d3b58	0.27584338
94	0xbd301da1	-0.042997006
95	0x3ee84151	0.45362332
96	0xbe22ba39	-0.15891351
97	0xbe0a7f3d	-0.135251
98	0x3dff8f72	0.12478532
99	0xbe9edb10	-0.31026506
100	0xbee7a07d	-0.4523963
101	0xbe2d2daa	-0.1691195
102	0xbe88b183	-0.2669793
103	0x3e208b2b	0.15678088
104	0xbefba6e9	-0.4915078
105	0x3e880ca1	0.26572135
106	0xbe01c53a	-0.12672892
107	0xbcbeeb4b	-0.023305556
108	0x3dce6acc	0.10078964
109	0xbdf7a619	-0.120922275
110	0x3e627c52	0.22117737
111	0xbe4b6f37	-0.19866644
112	0xbd89889a	-0.06715508
113	0x3d9fa5f5	0.07795326
114	0xbe1d0e73	-0.15337543
115	0x3d6fb0c0	0.05851817
116	0xbe07cff9	-0.13262929
117	0x3d86f2c0	0.0658927
118	0xbe15cf73	-0.14629917
119	0x3ecbe71b	0.39824757
120	0xbdb1b336	-0.0867676
121	0x3d592b6b	0.053019922
122	0xbd450c55	-0.048107464
123	0x3e2bcfb5	0.16778453
124	0x3c4e8b8f	0.012606516
125	0x3d825caf	0.06365334
126	0xbd0e5eb5	-0.03475829
127	0x3f2db08a	0.678475
128	0x3ea551f9	0.32289103
129	0xbc00f79f	-0.0078715375
130	0xbeb225c0	-0.34794426
131	0x3e2f0e45	0.17095287
132	0x3e5791f5	0.21051772
133	0xbd5be8de	-0.053688876
134	0x3d4cd5c4	0.05000855
135	0xbe69db67	-0.22837602
136	0x3e8a2c79	0.26987055
137	0xbd0c90da	-0.03431783
138	0x3d639f75	0.055571992
139	0xbd263bb3	-0.040584277
140	0xbe365d9a	-0.17809144
141	0xbe38800b	-0.18017595
142	0x3dccb15b	0.09994765
143	0xbe321383	-0.17390256
144	0x3d20d4f2	0.03926558
145	0xbe9bb389	-0.30410412
146	0xbd6adc76	-0.057339154
147	0xbe31b394	-0.1735366
148	0xbbd6aeeb	-0.0065516136
149	0xbecf635e	-0.405055
150	0x3e292ba9	0.16520561
151	0xbddfcdb6	-0.10927908
152	0xbe75b52d	-0.23994894
153	0xbe2c9a81	-0.16855814
154	0x3d6e00d7	0.05810627
155	0xbd30e7bf	-0.04318976
156	0x3e7bf6d6	0.24605879
157	0x3ddc9929	0.107714005
158	0x3df7a51c	0.12092039
159	0x3ceb7196	0.028740685
160	0x3d63566b	0.055502336
161	0xbd6a4044	-0.057190195
162	0xbdcd380d	-0.100204565
163	0xbe25cc7f	-0.1619129
164	0x3ed5d5bf	0.41764638
165	0x3daa9ce8	0.08330709
166	0x3d4a479a	0.04938469
167	0xbdeab73a	-0.11460729
168	0x3dc61ad5	0.096730866
169	0xbe4aa668	-0.19790041
170	0xbdfd264d	-0.12360821
171	0x3e6043b8	0.21900833
172	0xbdf73dce	-0.12072335
173	0x3de6dffb	0.1127319
174	0xbd3c996a	-0.046044745
175	0x3da25776	0.07926838
176	0x3db5b769	0.08872873
177	0x3e318c2e	0.1733863
178	0x3de43816	0.1114351
179	0x3ca12a70	0.019673556
180	0x3e69e69f	0.22841881
181	0xbacf3b40	-0.0015810505
182	0x3dd1f377	0.10251515
183	0x3ec1120f	0.3770909
184	0x3ebb7659	0.3661373
185	0x3e601f34	0.21886903
186	0xbb98f881	-0.004668296
187	0x3da18c61	0.07888103
188	0x3e177320	0.1479001
189	0xbe98a038	-0.29809737
190	0xbcce7495	-0.025202075
191	0xbb34d215	-0.002759104
192	0x3d5031ee	0.050828867
193	0xbd2fec88	-0.042950183
194	0x3df8b8d0	0.12144625
195	0xbd96e739	-0.07368321
196	0xbe31f3c6	-0.17378148
197	0xbe1a2386	-0.15052614
198	0x3d3e8ac8	0.04651907
199	0x3dff79de	0.12474416
200	0x3d37d872	0.044884153
201	0xbeae1038	-0.3399675
202	0x3e20f4aa	0.15718332
203	0xbcf1027d	-0.029420132
204	0x3cbb99cd	0.022900486
205	0x3e334424	0.17506462
206	0x3e2b4216	0.16724429
207	0x3e132e74	0.14373189
208	0x3e8dbc2e	0.27682632
209	0x3ee5f808	0.44915795
210	0xbd4cf80f	-0.050041255
211	0xbe509a0e	-0.20371267
212	0xbde12b74	-0.10994616
213	0x3e844279	0.25831965
214	0xbd427a12	-0.047479697
215	0x3e36a9f2	0.17838266
216	0x3d78b727	0.060721543
217	0x3d0eb77a	0.034842946
218	0x3e892a68	0.26790166
219	0xbe7242d6	-0.23658308
220	0xbcf4bbba	-0.029874671
221	0x3e3e1c3a	0.18565455
222	0x3b4c0060	0.0031128153
223	0x3e442b87	0.1915723
224	0xbe1406fe	-0.14455792
225	0xbe8064b1	-0.2507682
226	0xbea5839f	-0.3232698
227	0x3e8f333b	0.27968773
228	0xbcd60450	-0.026125103
229	0xbdba284f	-0.090897195
230	0x3e09d958	0.13461816
231	0x3e5e0008	0.216797
232	0x3e7814ff	0.2422676
233	0xbe039dc7	-0.12853156
234	0x3ddba723	0.10725238
235	0xbe241e51	-0.1602719
236	0x3eef308f	0.46716735
237	0x3ea1cfe3	0.31603917
238	0xbea5902c	-0.32336557
239	0xbe9be76f	-0.30450007
240	0x3ef69c40	0.48166084
241	0xbe9eb99f	-0.31000993
242	0xbe44761a	-0.19185677
243	0x3ebbc48e	0.36673397
244	0x3e286ce9	0.16447796
245	0x3e6965df	0.22792767
246	0xbdf19da7	-0.11797648
247	0x3de29604	0.110637695
248	0xbe109410	-0.14118981
249	0x3e4a1131	0.1973312
250	0xbe56e3eb	-0.20985381
251	0xbc2fcb13	-0.010729569
252	0xbe769537	-0.24080358
253	0xbdd1d0c1	-0.10244895
254	0x3ea890ba	0.32922918
255	0xbda4a1aa	-0.080386475

bias f4 [12]
0	0xbcf6c78f	-0.030124454
1	0x3d5470a5	0.05186524
2	0xbd3b2475	-0.045689065
3	0xbd8eb574	-0.06968203
4	0xbd489c5e	-0.04897725
5	0x3d866386	0.06561951
6	0xbd4d2d49	-0.050092015
7	0xbd448f53	-0.047988247
8	0x3d88c34d	0.06677876
9	0x3d2eeba8	0.042705208
10	0xbd39b332	-0.04533691
11	0xbd76014a	-0.060059823

weight f4 [12, 12, 3, 3]
0	0x3e9a58cc	0.30145872
1	0x3deb8fe2	0.11502053
2	0x3db3799d	0.0876343
3	0x3e479ac2	0.19492629
4	0xbe31413d	-0.17310043
5	0xbdf04c43	-0.11733296
6	0x3ea06f55	0.3133494
7	0xbed70f0b	-0.42003664
8	0xbdedf28e	-0.11618529
9	0xbe1ceae3	-0.15323977
10	0xbf156095	-0.583505
11	0x3ec5fb5c	0.38668334
12	0x3e1284b9	0.14308442
13	0xbe2516bb	-0.16121952
14	0x3ebbd9a0	0.36689472
15	0xbe8c280b	-0.273743
16	0xbe885bd3	-0.26632556
17	0x3e054392	0.13014057
18	0xbea1ea1f	-0.31623933
19	0xbdf61539	-0.12015767
20	0xbdfa95c3	-0.12235596
21	0x3dc296ac	0.09501395
22	0x3dad82a9	0.08472187
23	0xbdf61554	-0.12015787
24	0x3ce7e73f	0.028308509
25	0xbe0d6166	-0.13806686
26	0x3d1fc26c	0.039003775
27	0x3ee061d9	0.43824652
28	0xbe14e633	-0.14540939
29	0xbe325661	-0.17415763
30	0xbe0913ec	-0.13386506
31	0x3e760ff8	0.24029529
32	0xbb83dac6	-0.0040238826
33	0x3e8467ec	0.25860536
34	0xbe5ec0b8	-0.21753204
35	0xbe53e39f	-0.206923
36	0x3e077184	0.13226897
37	0xbefcf0fb	-0.49402604
38	0x3e3e584d	0.18588372
39	0x3e75565a	0.23958722
40	0xbc895c09	-0.016767519
41	0x3e6a4b75	0.22880347
42	0xbd8805c9	-0.066417284
43	0xbee0b52d	-0.43888226
44	0x3a87cde5	0.0010361044
45	0x3cc18fe4	0.023628183
46	0xbd2dede5	-0.042463202
47	0x3e962555	0.29325357
48	0xbcd9ae64	-0.026572414
49	0xbd80e99d	-0.06294558
50	0x3b4070ea	0.0029364177
51	0x3dbc2ce9	0.091882534
52	0xbd6ab0e9	-0.05729762
53	0x3cc7195f	0.02430409
54	0x3c5a7f20	0.013335973
55	0x3c7e1568	0.015508033
56	0x381152df	3.4647874e-05
57	0xbea8df8a	-0.32983047
58	0xbe3a07ec	-0.18167084
59	0xbd0c6768	-0.034278303
60	0x3c8d4319	0.017243909
61	0xbe492bfe	-0.19645688
62	0xbe719493	-0.23591833
63	0xbe049e3b	-0.12950985
64	0x3db6ba5c	0.08922264
65	0x3df65b16	0.12029092
66	0x3df1debb	0.118100606
67	0x3e8da4b1	0.27664712
68	0x3e61173b	0.21981518
69	0x3e254967	0.16141282
70	0xbed69b96	-0.41915578
71	0x3ebb4327	0.3657467
72	0x3eb74f9a	0.3580292
73	0x3ec278ad	0.37982693
74	0x3e5b5692	0.21419743
75	0xbe926f9f	-0.28600785
76	0x3e307cf6	0.17235169
77	0x3e10d27d	0.14142795
78	0x3ebf6d7f	0.37388226
79	0x3e968312	0.29396874
80	0x3e2b9345	0.16755398
81	0x3e6ea495	0.2330497
82	0xbdffdbca	-0.12493093
83	0x3d01a635	0.031652648
84	0x3e00bf85	0.12573059
85	0x3e458d79	0.19292249
86	0x3dd3fca3	0.10350921
87	0x3ec418bb	0.38300118
88	0xbdbf8339	-0.093512006
89	0x3f3984f1	0.7246848
90	0x3eaae3f6	0.33377045
91	0x3e615f82	0.2200909
92	0x3e7c2425	0.24623163
93	0x3d7f136a	0.062274374
94	0x3e0e9356	0.13923392
95	0xbec01dcc	-0.37522733
96	0x3e84b731	0.25921014
97	0x3c3d476e	0.011552675
98	0xbe074c9b	-0.13212816
99	0x3e0d0cf3	0.13774471
100	0x3d4fdd96	0.05074843
101	0xbce8f7e4	-0.028438516
102	0xbe8bbb9b	-0.2729157
103	0x3e173a31	0.14768292
104	0x3e04bdac	0.12962979
105	0x3ddba334	0.10724488
106	0x3cf177a7	0.029476
107	0xbeb8cd75	-0.3609425
108	0x3e9e9086	0.30969638
109	0x3e3ac695	0.18239816
110	0xbea0f0ed	-0.31433812
111	0x3e4ce496	0.20009074
112	0x3cfa33fa	0.030542362
113	0x3d96beb8	0.073605955
114	0xbd24cd53	-0.040234875
115	0xbe76ed50	-0.24113965
116	0x3f00ceb5	0.5031541
117	0x3dbe3853	0.09288087
118	0xbe077140	-0.13226795
119	0xbe1a13ad	-0.15046568
120	0xbdcaee7e	-0.0990877
121	0xbe1b594b	-0.15170781
122	0x3eaecf7d	0.34142676
123	0x3d561c68	0.052273184
124	0x3d9e6e2e	0.07735859
125	0xbec3f3be	-0.38271898
126	0xbe15d9a9	-0.14633812
127	0xbeec3604	-0.4613496
128	0xbde887c5	-0.11354021
129	0xbdc6d600	-0.09708786
130	0xbd1a654b	-0.037694257
131	0x3e8948dd	0.26813403
132	0xbecb78d2	-0.39740616
133	0xbe4d98c9	-0.20077814
134	0xbee31b80	-0.44356918
135	0x3d5b244c	0.053501412
136	0xbe918a23	-0.28425702
137	0x3c9bc0c7	0.019012822
138	0xbec8f0b2	-0.39246136
139	0xbcda663b	-0.026660075
140	0xbc76207a	-0.015022391
141	0xbecfe76c	-0.40606248
142	0x3e2ad855	0.16684087
143	0xbde28577	-0.11060613
144	0x3e25a76f	0.16177152
145	0xbd4fed2f	-0.050763305
146	0xbe33d35e	-0.17561099
147	0x3e6e93ae	0.23298523
148	0xbeac5204	-0.33656323
149	0xbdb4df97	-0.08831709
150	0xbe985236	-0.29750222
151	0xbeee2639	-0.46513537
152	0x3ee0edca	0.4393142
153	0x3e0a6955	0.13516743
154	0x3def1ac7	0.11675029
155	0xbd62c276	-0.055361234
156	0x3da2d311	0.07950414
157	0x3e22f669	0.1591431
158	0xbe2915f8	-0.16512287
159	0x3e5cec11	0.21574427
160	0xbdca5197	-0.09878843
161	0x3ebee707	0.37285635
162	0xbd6475fa	-0.055776574
163	0xbdc2bf0c	-0.095090955
164	0x3e6ad66b	0.22933356
165	0xbe4be56c	-0.19911736
166	0xbe02e2e5	-0.12781866
167	0x3eca6b35	0.39534917
168	0xbea7b17d	-0.327526
169	0xbec23709	-0.37932613
170	0x3e224a33	0.15848617
171	0x3e22198f	0.15830062
172	0xbedd78fe	-0.43256372
173	0x3c100461	0.0087901065
174	0xbd6be26b	-0.057588976
175	0xbe85023b	-0.25978264
176	0xbd93312c	-0.07187113
177	0xbd60eb52	-0.05491192
178	0x3c5a14ed	0.013310653
179	0xbd3c8509	-0.04602531
180	0xbd82f429	-0.06394226
181	0x3c9e00b4	0.019287445
182	0x3e65a443	0.22425942
183	0x3e4e4b62	0.20145944
184	0x3e9b03e6	0.30276412
185	0xbea248a3	-0.31696042
186	0x3d42525b	0.04744182
187	0xbdb60a45	-0.088886775
188	0x3eedcd23	0.4644557
189	0x3d51c952	0.051217385
190	0xbe2abadf	-0.16672848
191	0xbe37199b	-0.17880861
192	0x3f0b1252	0.5432483
193	0x3ea7b6f2	0.32756764
194	0x3d4b266e	0.049597196
195	0xbe0954b1	-0.13411213
196	0x3e3d2c4e	0.18473932
197	0x3db1bfa9	0.086791344
198	0x3de6f1ec	0.11276612
199	0x3e4f5fdd	0.20251413
200	0x3d0fb664	0.03508605
201	0x3d4bae63	0.049726855
202	0xbead9601	-0.33903506
203	0x3e6f06df	0.23342465
204	0xbe510d00	-0.20415115
205	0x3e8ceb02	0.27523047
206	0x3d9c9b3d	0.07646797
207	0xbdc4e8f4	-0.09614745
208	0xbe33c274	-0.17554647
209	0x3d468220	0.04846394
210	0xbd31095b	-0.043221813
211	0x3cae307c	0.021263354
212	0xbd9c1e5e	-0.076229796
213	0xbe839b4a	-0.25704414
214	0xbea4e878	-0.3220861
215	0xbe384733	-0.1799591
216	0x3e13663b	0.14394467
217	0x3d59265c	0.053015098
218	0x3e9252cd	0.28578797
219	0x3df40466	0.119149014
220	0x3e16f34b	0.14741246
221	0x3e9d2ac8	0.30696702
222	0x3d10d419	0.035358522
223	0x3e593153	0.21210222
224	0x3ce8596c	0.028362952
225	0x3e67b071	0.22625901
226	0xbc8ad199	-0.016945647
227	0xbe285f52	-0.16442612
228	0xbe013e21	-0.12621357
229	0x3e1090e7	0.14117776
230	0xbe1c0330	-0.15235591
231	0xbea1ddb2	-0.31614453
232	0x3e643a59	0.22287883
233	0xbde74d1e	-0.11294006
234	0xbc5ba730	-0.01340656
235	0xbe873daa	-0.26414233
236	0x3cfa0951	0.03052202
237	0xbd8d9721	-0.06913591
238	0x3dde1cc8	0.10845333
239	0xbe820433	-0.2539383
240	0xbe02cb1e	-0.12772796
241	0x3bc0bb4f	0.005881704
242	0xbe385ebf	-0.18004893
243	0xbe6a899a	-0.22904053
244	0xbe43ca5c	-0.19120163
245	0xbe854cfb	-0.26035294
246	0xbe63b101	-0.2223549
247	0x3de01e24	0.10943249
248	0x3cf8bae4	0.030362554
249	0xbd330b0f	-0.04371172
250	0xbd746bfe	-0.059673302
251	0xbdea0a9c	-0.11427805
252	0xbeeedd4c	-0.4665321
253	0xbec092f4	-0.37612116
254	0xbed254f6	-0.41080445
255	0x3e005aab	0.12534587

bias f4 [12]
0	0x3d3be686	0.04587414
1	0x3d3ca335	0.046054084
2	0x3d8ad44a	0.06778772
3	0x3d3a2249	0.045442853
4	0xbd63d755	-0.05562528
5	0x3d4dd26f	0.050249513
6	0xbd87faeb	-0.06639656
7	0x3d3ec788	0.046577007
8	0xbd707c71	-0.058712427
9	0x3d3beb50	0.04587871
10	0xbd88fcab	-0.066888176
11	0xbd700587	-0.05859902

weight f4 [12, 12, 3, 3]
0	0xbd9789a2	-0.07399298
1	0x3d78fa41	0.060785536
2	0x3d816921	0.0631888
3	0xbdea2106	-0.1143208
4	0x3cd9fd22	0.026609961
5	0xbe7786be	-0.24172494
6	0x3e552986	0.20816621
7	0x3d59daac	0.053187057
8	0xbd85c148	-0.06531006
9	0xbe276e15	-0.16350587
10	0x3d8e603f	0.06951951
11	0x3ebfd1ac	0.37464654
12	0xbd8604ae	-0.06543861
13	0x3da6a559	0.08137006
14	0xbe1e29c3	-0.15445618
15	0xbe551b1f	-0.20811127
16	0x3e5bc451	0.21461608
17	0xbe30f2ec	-0.17280167
18	0xbd34516d	-0.044022966
19	0xbd23061e	-0.039800756
20	0xbef6a728	-0.48174405
21	0x3f017c62	0.5058042
22	0x3d6073c2	0.054797895
23	0x3e98dea4	0.2985736
24	0x3ec61a29	0.38691834
25	0xbe8107c7	-0.25201246
26	0x3eaaafbd	0.33337203
27	0x3db66581	0.08906079
28	0x3e15553c	0.14583296
29	0x3e16381a	0.14669839
30	0x3e662bd3	0.22477655
31	0xbea5ba52	-0.32368714
32	0x3e04ce7c	0.12969393
33	0xbe53319f	-0.20624398
34	0x3dcaf4a4	0.09909943
35	0xbd4f0870	-0.050545156
36	0x3dd4447f	0.10364627
37	0x3e9bf8b0	0.3046317
38	0x3e05bed8	0.13061082
39	0x3e437c49	0.1909038
40	0x3de305c3	0.11085083
41	0xbe64bd24	-0.22337776
42	0xbe86b96c	-0.2631334
43	0x3e516c32	0.2045143
44	0xbe0e1571	-0.13875367
45	0x3dc2b2c6	0.095067546
46	0x3e898f55	0.26867166
47	0xbdc7735c	-0.097388
48	0x3e5bd142	0.21466544
49	0xbdd4af7a	-0.10385032
50	0xbd5beb2a	-0.053691067
51	0x3e71c32c	0.23609608
52	0xbcbb4cc5	-0.022863755
53	0xbe24131a	-0.16022912
54	0xbed2f7b7	-0.41204616
55	0xbcbb854d	-0.022890711
56	0x3ebf3ba5	0.37350193
57	0xbcdb97be	-0.026805755
58	0xbd3e947e	-0.046528332
59	0xbe692ae5	-0.22770269
60	0xbe746374	-0.23866063
61	0xbe802c8d	-0.2503399
62	0xbe1ff434	-0.156205
63	0xbea4915a	-0.32142144
64	0xbd9521b9	-0.07281823
65	0x3dcaad6c	0.09896359
66	0xbe22d34a	-0.15900913
67	0x3f008d61	0.5021573
68	0xbe901b7d	-0.28145972
69	0xbdb4fa9b	-0.08836862
70	0x3d3157e3	0.043296706
71	0x3de71ea0	0.11285138
72	0xbebade4c	-0.36497724
73	0x3eec8918	0.46198344
74	0xbee69f74	-0.45043528
75	0xbd6e914c	-0.058244035
76	0x3e3ab3e6	0.18232688
77	0xbe71a97f	-0.23599814
78	0xbe4868f9	-0.19571294
79	0xbdfa42b5	-0.122197546
80	0xbe79e2cc	-0.24402922
81	0x3dee618d	0.116397
82	0xbe135867	-0.14389192
83	0x3e814382	0.25246817
84	0x3db66d55	0.08907572
85	0xbcdc0d42	-0.02686179
86	0x3e3e4848	0.1858226
87	0x3e8b82ce	0.27248234
88	0xbce9aeaf	-0.028525678
89	0xbe82f963	-0.25580892
90	0xbe1fc990	-0.15604234
91	0xbe567aa9	-0.20945229
92	0xbd6a1883	-0.057152282
93	0xbecab4a1	-0.39590934
94	0xbd390b9d	-0.04517709
95	0x3c9807a6	0.018558335
96	0xbc9d41ca	-0.01919641
97	0xbdb1341e	-0.08652519
98	0xbe37fa4b	-0.17966573
99	0x3e46019b	0.1933655
100	0xbeadb3a6	-0.33926123
101	0xbe8ad8a9	-0.27118424
102	0xbee5a13d	-0.44849578
103	0xbe82f9a6	-0.25581092
104	0x3efe3912	0.49652916
105	0x3d869892	0.06572069
106	0x3eab9c19	0.3351753
107	0x3e63f8c6	0.22262868
108	0x38c0c4e5	9.191948e-05
109	0x3e26ec96	0.16301188
110	0xbe3cd0ab	-0.18438976
111	0x3dbb0339	0.09131474
112	0xbe4b9bea	-0.19883695
113	0x3e6baeb5	0.23015864
114	0xbdf228a3	-0.11824157
115	0x3e6d5b33	0.23179321
116	0x3eecfab1	0.46285012
117	0x3d0aff43	0.033934843
118	0xbea5c122	-0.3237391
119	0x3e3acb9c	0.18241733
120	0xbd0db769	-0.03459874
121	0x3d138548	0.03601578
122	0xbe45173f	-0.19247149
123	0x3ebf38c0	0.37347984
124	0xbda1a895	-0.078934826
125	0x3e42ea2f	0.19034646
126	0x3e979aaf	0.29610202
127	0x3d8f8d90	0.07009423
128	0xbdb54a41	-0.088520534
129	0x3da4f9e9	0.08055479
130	0x3dd1d90c	0.102464765
131	0xbdc0da2a	-0.094166115
132	0x3d10df8a	0.035369433
133	0x3c3d5351	0.011555509
134	0x3ed6effe	0.41979975
135	0x3ea306c8	0.3184111
136	0x3ecbbfbb	0.39794716
137	0x3e9ebabc	0.31001842
138	0x3e3a87ec	0.18215913
139	0x3e8774bf	0.26456258
140	0x3dd56a15	0.10420624
141	0xbe57bb88	-0.21067631
142	0xbe8515f3	-0.25993308
143	0xbd1219d4	-0.035669163
144	0x3d8713fc	0.065956086
145	0x3e064cb7	0.13115202
146	0xbc5adbdd	-0.013358084
147	0x3e5ecc35	0.21757586
148	0x3e2f648c	0.171282
149	0x3e49d449	0.19709887
150	0x3e9045e2	0.28178316
151	0x3d7adfbf	0.061248537
152	0xbc811ade	-0.015759882
153	0xbe750a93	-0.23929815
154	0x3ed683b6	0.41897362
155	0xbcd966e9	-0.02653833
156	0xbde07ac8	-0.10960919
157	0x3e00be4a	0.1257259
158	0x3ef4f678	0.4784429
159	0x3e72ea1b	0.23722117
160	0x3e41d0bc	0.18927282
161	0x3e11249f	0.14174126
162	0xbe8f1601	-0.27946475
163	0xbe8ec95c	-0.27888
164	0xbea3ce8c	-0.3199352
165	0x3e36cb8b	0.17851083
166	0xbd6ee4db	-0.058323722
167	0xbe98d318	-0.29848552
168	0xbdaebc69	-0.0853203
169	0xbeb4ccd9	-0.35312536
170	0xbd1e9b52	-0.038722344
171	0xbe8dfaff	-0.27730557
172	0xbdd2e965	-0.10298423
173	0x3da2c233	0.07947197
174	0x3e0a1dcb	0.13487928
175	0xbae0675b	-0.0017120646
176	0xbc96418e	-0.018341806
177	0x3d780a0a	0.06055645
178	0xbee7cefc	-0.45275104
179	0x3d8342b2	0.064092055
180	0xbdc2022b	-0.0947307
181	0x3bcad700	0.006190181
182	0xbea17204	-0.315323
183	0xbe70c256	-0.23511633
184	0x3cdfba16	0.027310412
185	0xbeae2173	-0.34009895
186	0xbe4b95cd	-0.19881363
187	0xbe0d7c72	-0.13817003
188	0x3efed248	0.49769807
189	0xbd57c83d	-0.052681196
190	0xbe595cd6	-0.2122682
191	0x3db461cb	0.08807715
192	0xbc478d6e	-0.012179716
193	0x3f0f8655	0.5606435
194	0xbe05a4ea	-0.13051191
195	0x3e478fa2	0.19488385
196	0xbe340b62	-0.17582467
197	0xbdbaaabe	-0.09114598
198	0x3daf94eb	0.08573326
199	0xbed0238a	-0.40652114
200	0x3eecb59d	0.4623231
201	0xbd638469	-0.055546198
202	0xbe8ae41a	-0.27127153
203	0xbe2cd595	-0.1687835
204	0x3e74e5ea	0.2391583
205	0xbd04e1ac	-0.03244178
206	0x3a7deaf2	0.00096861937
207	0xbd95afd9	-0.07308931
208	0xbdd78150	-0.10522711
209	0xbe8f3b70	-0.27975035
210	0xbe4a4c73	-0.19755726
211	0x3e62e0ec	0.22156113
212	0x3de5dd4e	0.11223851
213	0xbc0c8504	-0.008576635
214	0x3ecd5456	0.40103406
215	0x3d0ce511	0.034398142
216	0x3ec4d973	0.3844715
217	0x3e64625d	0.22303148
218	0x3d7a9ddc	0.061185703
219	0x3e34ac16	0.1764377
220	0x3e0632af	0.13105272
221	0x3e4d9c78	0.2007922
222	0x3d6cf284	0.05784847
223	0xbe5e1406	-0.21687326
224	0x3c34a611	0.011025921
225	0x3d6d25b0	0.05789727
226	0x3d3a5b85	0.045497436
227	0x3e8c3406	0.2738344
228	0x3d618c4f	0.05506545
229	0xbc2254f8	-0.009907953
230	0x3db75bd3	0.08953061
231	0x3e84fa00	0.25971985
232	0x3e4eceed	0.20196123
233	0x3ea9a120	0.3313074
234	0x3ec4204d	0.38305894
235	0xbd73b7e0	-0.05950153
236	0x3efb4aba	0.4908045
237	0x3e4a56df	0.19759701
238	0x3e9203ed	0.2851862
239	0x3d2c290b	0.04203133
240	0xbd90a172	-0.07062043
241	0x3dc88c1c	0.09792349
242	0xbd1f2b71	-0.03885979
243	0x3e535838	0.20639122
244	0xbe8a62be	-0.2702846
245	0x3e327824	0.17428643
246	0x3d3c5bbc	0.045985922
247	0x3d1cf7d6	0.038322292
248	0x3d89501b	0.06704732
249	0x3d7b2668	0.061315924
250	0x3ee978c6	0.45599955
251	0x3d4d411e	0.05011093
252	0xbe12aed0	-0.14324498
253	0xbed99fa6	-0.42504615
254	0xbe64ba18	-0.22336614
255	0xbea29aca	-0.3175872

bias f4 [12]
0	0x3daa6cc3	0.08321526
1	0xbb1b2330	-0.0023672096
2	0x3d3fe7ba	0.04685185
3	0x3d42bbc9	0.047542367
4	0xbd8557cb	-0.06510886
5	0xbd863b15	-0.06554238
6	0x3d8d9fc2	0.06915237
7	0x3dbf3961	0.09337116
8	0x3d751187	0.05983117
9	0x3da7106b	0.08157428
10	0x3db09673	0.08622446
11	0xbd8c1bba	-0.06841226

weight f4 [64, 12, 1, 1]
0	0xbe6d0bfb	-0.23149101
1	0xbf12a199	-0.5727783
2	0xbe1f4a4b	-0.15555684
3	0xbebd6606	-0.369919
4	0xbf10de5b	-0.5658929
5	0xbee4eb09	-0.44710568
6	0xbf46ebc5	-0.77703506
7	0xbebf9725	-0.37420002
8	0xbf10d82e	-0.56579864
9	0xbf469624	-0.77572846
10	0xbf27b9fc	-0.65518165
11	0xbe6f2839	-0.23355187
12	0xbf02db44	-0.5111582
13	0xbd1d581c	-0.038414106
14	0xbf7b4464	-0.9815123
15	0xbf07a0df	-0.52979845
16	0xbf46a5de	-0.77596843
17	0xbed482cd	-0.41506043
18	0xbec9aaa8	-0.39388013
19	0xbf292ca4	-0.6608374
20	0xbf40a7d4	-0.75256085
21	0xbf69066a	-0.9102541
22	0xbefb4b73	-0.49081
23	0x3d3ad17c	0.045609936
24	0xbf12acad	-0.5729473
25	0xbf2387bd	-0.63878995
26	0xbf0f35a9	-0.55941254
27	0xbf0ac52a	-0.542071
28	0xbf60f9fe	-0.8788146
29	0xbf30e290	-0.69095707
30	0xbeb2255e	-0.34794134
31	0xbed0ab1a	-0.4075554
32	0xbf0dec6a	-0.55438864
33	0xbf32693f	-0.6969184
34	0xbedc9d51	-0.43088773
35	0xbe9aee01	-0.30259708
36	0xbf088281	-0.53324133
37	0xbeec4581	-0.46146777
38	0xbf2aa657	-0.66660064
39	0xbe6b0721	-0.22951938
40	0xbf279195	-0.65456516
41	0xbeccb0b1	-0.39978555
42	0xbeff751b	-0.49894032
43	0xbf400d89	-0.75020653
44	0xbee6b26a	-0.45057994
45	0xbf4bf68c	-0.79673076
46	0xbe15c326	-0.14625224
47	0x3d8e6d4e	0.06954442
48	0xbf5e5713	-0.86851615
49	0xbf05a774	-0.5220864
50	0xbf20b5ff	-0.62777704
51	0xbdab5003	-0.083648704
52	0xbf37308a	-0.7155844
53	0xbded2589	-0.11579425
54	0xbf0d18ed	-0.5511616
55	0xbf1ec123	-0.62013453
56	0xbed0d7f6	-0.40789765
57	0xbf8d5bec	-1.1043677
58	0xbe812734	-0.25225222
59	0x3e3a515e	0.18195102
60	0xbf466bf5	-0.7750848
61	0xbe9e3060	-0.30896282
62	0xbf1c15d2	-0.60970795
63	0xbf131d61	-0.57466704
64	0xbf10c48f	-0.56549925
65	0xbe64d9a0	-0.22348642
66	0xbec7dd77	-0.39036152
67	0xbdd3391f	-0.10313629
68	0xbeed8aa0	-0.46394825
69	0xbf120a24	-0.57046723
70	0xbf1475e7	-0.57992405
71	0x3e39573a	0.1809968
72	0xbf466b27	-0.7750725
73	0xbebd55dc	-0.36979568
74	0xbeccbd11	-0.39987996
75	0xbeaabb5e	-0.33346075
76	0xbf339ff0	-0.7016592
77	0xbe4b3d9e	-0.19847724
78	0xbf3cffac	-0.73827624
79	0xbeeb6a9d	-0.45979777
80	0xbf004bab	-0.5011546
81	0xbf23d641	-0.639988
82	0xbf2ab2ba	-0.66678965
83	0xbcb4e1b5	-0.022080282
84	0xbebd7df6	-0.37010163
85	0xbe226eae	-0.15862533
86	0xbf15b449	-0.5847822
87	0xbf3334a0	-0.70002174
88	0xbf24ba1e	-0.6434649
89	0xbf0f49e0	-0.559721
90	0xbf094989	-0.5362783
91	0xbee79331	-0.45229486
92	0xbf096010	-0.53662205
93	0xbf300a27	-0.6876549
94	0xbf33c17c	-0.7021711
95	0xbbe95b58	-0.0071214847
96	0xbf512a61	-0.8170529
97	0xbed6affe	-0.41931146
98	0xbf30bc6d	-0.69037515
99	0xbec83217	-0.39100716
100	0xbef6925a	-0.48158532
101	0xbf442038	-0.7661166
102	0xbef7976c	-0.48357713
103	0xbf1e3fd5	-0.6181615
104	0xbefa9033	-0.4893814
105	0xbe2c55fa	-0.16829672
106	0xbf236801	-0.6383057
107	0xbe9aa6a0	-0.3020525
108	0xbedc9371	-0.4308124
109	0xbe57a534	-0.21059114
110	0xbf3d5219	-0.73953396
111	0xbf6c9aee	-0.92423904
112	0xbf13ebe3	-0.5778181
113	0xbea9399a	-0.3305176
114	0xbea73a47	-0.3266165
115	0xbf1b78ca	-0.60731184
116	0xbda4374b	-0.08018359
117	0xbf509490	-0.8147669
118	0xbedf231c	-0.43581474
119	0xbe8e68c9	-0.2781432
120	0xbf000d2a	-0.50020087
121	0xbe52ab26	-0.205731
122	0xbf0aa497	-0.54157394
123	0xbec44c5c	-0.38339508
124	0xbeb242e9	-0.34816673
125	0xbe496957	-0.1966909
126	0xbf3bde5c	-0.7338617
127	0xbf6fdc6b	-0.93695706
128	0xbf1467b8	-0.5797076
129	0xbf8006b9	-1.0002052
130	0xbeeb6a5c	-0.45979583
131	0x3e6302dd	0.22169061
132	0xbf5431cd	-0.8288849
133	0xbead167b	-0.33806214
134	0xbf1cee68	-0.6130128
135	0xbece0b44	-0.4024297
136	0xbf1d2811	-0.6138926
137	0xbedf9a38	-0.43672347
138	0xbeddfac4	-0.4335538
139	0xbf4ed54d	-0.8079422
140	0xbec51cd9	-0.38498572
141	0xbf36980e	-0.7132577
142	0xbebe9d66	-0.3722946
143	0xbefc202b	-0.49243292
144	0xbe905b82	-0.28194815
145	0xbe8c8da5	-0.27451816
146	0xbf291991	-0.66054636
147	0xbefc0030	-0.49218893
148	0xbebf4839	-0.3735979
149	0xbf249c2f	-0.6430082
150	0xbf5b8500	-0.85749817
151	0xbeb5f6cf	-0.35539863
152	0xbf2a5518	-0.6653609
153	0xbeeda46f	-0.46414515
154	0xbed05e46	-0.40696925
155	0xbade14c1	-0.0016943441
156	0xbf58f050	-0.8474169
157	0xbe616fe0	-0.22015333
158	0xbed2822a	-0.41114932
159	0xbf143aec	-0.5790241
160	0xbecd9325	-0.40151325
161	0xbf168a69	-0.5880495
162	0xbf04ceca	-0.51878035
163	0xbf37aba4	-0.7174628
164	0xbf11b33d	-0.5691412
165	0xbf250dc6	-0.6447414
166	0xbf0ec580	-0.5577011
167	0x3e80337d	0.25039282
168	0xbf65125e	-0.8948115
169	0xbeb82a05	-0.35969558
170	0xbf45eefa	-0.77317774
171	0xbedb3989	-0.42817333
172	0xbf1f9c4e	-0.6234788
173	0xbea51719	-0.32244185
174	0xbf21577d	-0.6302412
175	0xbe8c3037	-0.27380535
176	0xbe7b8f1f	-0.24566315
177	0xbf1099bc	-0.5648458
178	0xbe95d418	-0.29263377
179	0x3e461b4c	0.1934635
180	0xbf6289cf	-0.8849153
181	0xbe76b4f9	-0.24092473
182	0xbef3b084	-0.47595608
183	0xbf5d53f7	-0.86456245
184	0xbf150e05	-0.5822452
185	0xbef159bb	-0.4713877
186	0xbeb8a0c6	-0.3606016
187	0xbee1eb5f	-0.44124886
188	0xbf6e875c	-0.9317529
189	0x3e01ff83	0.12695126
190	0xbf25cb4d	-0.6476334
191	0xbe4ce321	-0.20008518
192	0xbf1a20b3	-0.60206145
193	0xbf0b68bf	-0.54456705
194	0xbf39078a	-0.7227713
195	0xbea031fc	-0.31288135
196	0xbf299ef8	-0.6625819
197	0xbeaec869	-0.34137276
198	0xbf0511a8	-0.51980066
199	0xbf070c53	-0.5275318
200	0xbf1cf608	-0.61312914
201	0xbf9d5424	-1.2291303
202	0xbd341077	-0.043961015
203	0xbd993db5	-0.07482473
204	0xbea2fd3e	-0.31833833
205	0xbe933e1e	-0.2875833
206	0xbee46687	-0.44609472
207	0xbeb0fe43	-0.34568986
208	0xbf07d177	-0.53053993
209	0xbf120a63	-0.570471
210	0xbefd9b25	-0.49532428
211	0xbefbdcd9	-0.4919193
212	0xbe80d72c	-0.25164163
213	0xbf3c2430	-0.7349272
214	0xbefa07e2	-0.4883414
215	0x3d2d44f0	0.042302072
216	0xbeaeb8a6	-0.3412525
217	0xbf168043	-0.5878946
218	0xbf0a6a95	-0.5406888
219	0xbf05f389	-0.5232473
220	0xbeb86b74	-0.3601948
221	0xbf0b2037	-0.5434603
222	0xbf516471	-0.81793886
223	0xbf0fb24e	-0.56131446
224	0xbf2b4b7f	-0.6691207
225	0xbe5a9463	-0.21345668
226	0xbf0ee7b1	-0.55822283
227	0x3da69ff4	0.081359774
228	0xbf343041	-0.7038613
229	0xbe7d15e4	-0.24715382
230	0xbedd35b9	-0.4320505
231	0xbf08347d	-0.5320509
232	0xbe73274e	-0.23745462
233	0xbdad9394	-0.08475414
234	0xbf2bf23f	-0.67166513
235	0xbf1feb04	-0.6246798
236	0xbf065f6f	-0.5248937
237	0xbf080fd3	-0.53149146
238	0xbf23178b	-0.637078
239	0xbe59effd	-0.21282955
240	0xbf289b62	-0.65862095
241	0xbe8865ef	-0.2664027
242	0xbf67f023	-0.90600795
243	0xbf08d6f5	-0.53453
244	0xbf352605	-0.7076114
245	0xbea93ca9	-0.33054093
246	0xbf1e6f08	-0.6188817
247	0xbf4150dd	-0.7551401
248	0xbf05b893	-0.5223476
249	0xbf7aa23c	-0.979038
250	0xbd3a4f4a	-0.045485772
251	0x3e25e127	0.1619917
252	0xbf3f4649	-0.7471662
253	0xbee05e3a	-0.4382189
254	0xbf31931d	-0.693651
255	0xbe8457af	-0.25848147
