weights/Act_LeakyReLu_FSRCNN_model_path.pth (torch, 65035 bytes, 15 tensors)

weight f4 [64, 1, 5, 5]
000000 92 18 38 bc 34 56 a2 bd 4d c8 5e bd 62 72 51 be
       -0.011236327 -0.07926598 -0.05439024 -0.2045379
000010 b0 85 2c 3e 4f ec 06 bf 55 42 10 bd 34 e0 e9 bd
       0.16847873 -0.5270433 -0.03521951 -0.114197165
000020 5b 84 e9 be 44 35 d3 be a3 0a 15 3d 3e 47 27 bc
       -0.45608792 -0.41251576 0.036387097 -0.010209857
000030 4a 07 4b bb b3 e4 62 be 6b 2b ab 3e 81 54 16 3e
       -0.0030979686 -0.22157554 0.33431563 0.14680673
000040 f9 40 85 be a4 fc 8f 3e 69 98 74 bd 7c 4b 40 bd
       -0.26026133 0.28122437 -0.059715662 -0.046946988
000050 68 99 e0 be 46 1b 64 3e c5 92 a6 be ee a5 15 be
       -0.4386704 0.22276029 -0.3253385 -0.14614078
000060 7b df c7 be 4f 9c 4c bd b4 71 c0 bd d1 1d 0b bd
       -0.3903769 -0.049953755 -0.09396687 -0.033963982
000070 60 b8 ba be a1 1d 26 be 44 bc 40 bd d1 29 30 be
       -0.36468792 -0.1622224 -0.047054544 -0.17203452
000080 2c ba 53 bd fe e2 ac be db ca 8b 3c 00 58 bb be
       -0.05169122 -0.3376693 0.017064502 -0.36590576
000090 a0 a0 00 be a5 88 1f be f4 64 f0 bd e6 61 04 be
       -0.12561274 -0.1557947 -0.11738005 -0.1292797
0000a0 4c 0b ce be b1 64 e1 be 32 31 4a be 4c eb 90 be
       -0.40242994 -0.44022134 -0.19745329 -0.28304517
0000b0 6a a6 c0 be d0 f1 a9 be b2 88 0c be 96 49 7e 3d
       -0.37626964 -0.331923 -0.1372402 0.062081896
0000c0 77 6a 6c be 3e 88 cf be 37 1b 99 3e 55 22 ef bc
       -0.23087488 -0.40533632 0.29903576 -0.029191175
0000d0 2e 08 5f be 09 46 96 3d 2d 7b b4 bd de 66 e5 3e
       -0.21780464 0.07337577 -0.088125564 0.44805044
0000e0 d5 45 46 bd 38 da 50 bc 7f 85 9c 3d a7 02 aa 3e
       -0.04840644 -0.01274734 0.0764265 0.3320515
0000f0 08 48 e0 bd 3a 2b b7 3e 42 68 cd 3e a7 d5 1c 3f
       -0.10951239 0.35775167 0.40118605 0.6126351
000100 30 9e 8e 3e 7e d0 a7 3d 75 43 5b bd af 34 1a be
       0.27855062 0.081940636 -0.05353113 -0.1505916
000110 da 63 fa 3e de 13 a8 bd 7a 68 8b 3e 5c 31 e0 3b
       0.48904306 -0.08206914 0.27228147 0.0068418216
000120 73 60 c4 3c d4 9c 95 3e 3d 2f 5b 3d 7d d9 e9 3e
       0.023971772 0.29221213 0.053511847 0.45673743
000130 fd ad 3d 3e f0 2d ec 3e 32 76 c4 3e 01 03 2c 3e
       0.18523403 0.46128798 0.38371426 0.16798021
000140 b6 82 63 3e 43 8c 18 ba 9c 54 08 3e 81 03 74 3e
       0.22217831 -0.00058192405 0.13313526 0.23829462
000150 fb fb 48 3e c3 f3 d9 3e 82 89 93 3e aa 4f 52 3e
       0.19627373 0.42568788 0.28815848 0.20538202
000160 b0 fd 74 3e 61 93 90 3e 07 93 07 3f 93 44 9f 3e
       0.23924899 0.2823744 0.5295872 0.31107005
000170 17 12 25 3e 5d 1f dc 3e 3d a7 aa 3e 18 7c fc 3e
       0.16120182 0.42992678 0.33330718 0.49313426
000180 27 49 b6 3e a7 ae 92 3d 36 91 01 3e b9 a2 10 3e
       0.35602686 0.071622185 0.1265305 0.14124574
000190 bc fd 0e bf 53 9e e6 be bc 52 c1 be 6c a0 07 be
       -0.5585592 -0.45042667 -0.37758434 -0.1324479
0001a0 5d 9b 2a be f1 19 4f be df 21 d2 be 22 ba de be
       -0.16660829 -0.2022474 -0.41041467 -0.43501383
0001b0 93 38 73 be 81 a1 fc bd 70 3f e8 3c 60 a9 92 be
       -0.2375205 -0.12335492 0.028350562 -0.28644848
0001c0 d9 7d 5b be 4b 6a b4 be 02 b9 1a bf dc 99 da bc
       -0.21434726 -0.35237345 -0.6043855 -0.026684694
0001d0 01 0b 60 3e 19 e6 e4 bd 1f 5d c7 be 74 32 93 be
       0.21879198 -0.111767 -0.38938233 -0.2874943
0001e0 a7 24 5d be 3a 52 4f 3e 43 4f f3 be bf 6f 3a be
       -0.21596013 0.2024621 -0.4752141 -0.1820669
0001f0 66 d5 e7 be 5c 43 33 3e 26 04 cf bd 8a 1f 9a be
       -0.45279998 0.17506164 -0.10108213 -0.30102187
000200 16 4f 32 3e 51 39 c6 be 8e 30 24 be 4b ac b4 bc
       0.17412981 -0.38715604 -0.16034147 -0.022054812
000210 5e 10 20 be 78 16 1e be 99 22 8e be 16 29 c8 3e
       -0.15631244 -0.15438259 -0.2776077 0.39093846
000220 90 08 87 3d a4 36 90 3d 60 d3 d1 be 75 05 b9 be
       0.0659343 0.07041672 -0.4098158 -0.36136976
000230 bb 66 ab be 92 6a aa 3d 2d 4b 35 be e3 48 51 be
       -0.33476815 0.08321108 -0.17704459 -0.2043796
000240 ba ef 3a 3e a5 e2 24 bc 4b c7 09 be 17 a2 87 3e
       0.18255511 -0.010063802 -0.1345493 0.26490852
000250 84 51 e5 3d 9a f7 19 3c 9e 7c 77 3c 5c 34 b4 be
       0.111971885 0.009397412 0.015105395 -0.35196197
000260 5f fd 57 be b2 a4 b2 be 69 08 94 be b2 2e 3d 3d
       -0.21092747 -0.34891278 -0.28912666 0.04618711
000270 b2 ee 06 3e 08 90 00 bd f8 76 e4 be 13 14 71 3d
       0.13176993 -0.03138736 -0.44622016 0.058857035
000280 51 95 1f 3e 24 7f 8b be f3 0f a4 be 68 59 d1 be
       0.15584303 -0.27245438 -0.32043418 -0.40888524
000290 58 c1 89 3d a2 14 2b 3d 31 2d 93 be 8d 98 87 be
       0.067263305 0.041767724 -0.28745416 -0.26483575
0002a0 b6 0d 81 be 9c 0d 70 be d0 98 98 be 0c c7 2f 3d
       -0.25205773 -0.23442692 -0.29804087 0.042914435
0002b0 fc 0c 98 be f7 dc c5 3c 25 00 24 3e e6 18 2d 3e
       -0.29697406 0.024153216 0.1601568 0.16904029
0002c0 de 67 ce 3d 82 e3 02 bf ff 1e c6 3c d1 de 9f 3b
       0.10078405 -0.511284 0.024184702 0.0048788567
0002d0 aa 2f 33 be 78 63 cf 3d 69 dc 6e be 18 0c 23 bf
       -0.17498651 0.10126394 -0.23326267 -0.6369033
0002e0 22 9b cd be 85 fd 12 be eb 8c b3 bc 70 ef 9e be
       -0.4015742 -0.14354523 -0.02191778 -0.3104205
0002f0 e8 f9 15 bf 32 d7 5a bd 03 a6 2b be 22 82 0b be
       -0.5858445 -0.053427882 -0.16762547 -0.1362386
000300 24 f4 ae bd b7 2b 37 3e 4a 17 6a be 8e bf 83 be
       -0.0854266 0.1788777 -0.22860447 -0.25732082
000310 4d 31 ab bc b2 99 45 be 5d 2f 3f be ed 8f 38 be
       -0.020897532 -0.19296911 -0.18670411 -0.18023653
000320 3d 3a d1 be 4c 6d 2b be 11 48 d0 bd a1 5d a1 be
       -0.40864745 -0.16740912 -0.101699956 -0.31516746
000330 cb d5 42 be 89 6f 95 be 77 91 de 3d fd 3d 76 be
       -0.19026868 -0.29186657 0.10867589 -0.24047084
000340 7a 4d 04 bf 25 cb a2 3c b5 d2 2d be 1c 61 80 3d
       -0.5168072 0.019872257 -0.1697491 0.06268522
000350 ab c6 f3 be 29 87 19 be c2 3b 97 be 24 d0 54 be
       -0.4761251 -0.14992966 -0.2953778 -0.20782524
000360 c4 21 74 be 8f 30 78 bd 1e 4a 78 be a7 6b 32 3c
       -0.23841006 -0.060593184 -0.24247023 0.010889924
000370 d4 38 91 be 9d 79 97 3d c6 a9 a7 3b 98 d4 82 be
       -0.2836367 0.07396243 0.005116674 -0.2555282
000380 76 b7 e7 bd 91 96 a7 3e 28 31 e6 3e c1 1e 86 3e
       -0.11314289 0.3273206 0.44959378 0.26195338
000390 cd 7c 6b 3e 15 94 37 bd 1a 31 28 3f e6 61 bb 3d
       0.22996826 -0.044818956 0.65699923 0.09149532
0003a0 85 92 72 3e c9 fd 17 3e 23 e1 4c 3e b5 0b e0 3e
       0.23688705 0.14842905 0.20007758 0.43758932
0003b0 53 4f 04 3f aa db 92 3c 6b ba df 3e b0 75 5d 3e
       0.5168354 0.01792701 0.43696913 0.21626925
0003c0 6f cf e5 3e 32 b9 1a 3f b3 08 3d 3e 9f 4b 6a 3e
       0.44884822 0.60438836 0.1846035 0.2288041
0003d0 cf 9c d6 3d 34 e0 9b 3e 61 1d 98 3e ad ba 90 bc
       0.104791276 0.3044449 0.29709914 -0.017667139
0003e0 7d c2 b7 3e 77 51 12 3f b5 83 bb be b1 6f 85 3d
       0.3589057 0.57155555 -0.36623922 0.06515444
0003f0 5b 95 b0 be d8 92 09 bf 69 2a c4 3e 38 f9 5f bc
       -0.3448895 -0.5373969 0.38313606 -0.013670258

bias f4 [64]
000000 58 63 12 be 6d db 00 be 08 d6 f6 3d 55 15 80 3e
       -0.14295709 -0.12583704 0.12052542 0.25016275
000010 7c 4e 8b be d3 3b d2 bd 97 a3 24 be 9e b0 93 be
       -0.27208316 -0.10265317 -0.1607803 -0.28845686
000020 bd 01 32 be 08 8d 45 3e 66 82 c3 bd e5 f6 25 be
       -0.17383476 0.1929208 -0.09546356 -0.16207464
000030 db 6a 36 be 34 42 05 3c 9a 63 20 be ab 81 d7 be
       -0.178142 0.00813346 -0.15662995 -0.42091116
000040 8e f1 2d be 48 99 91 be 08 27 03 bf e7 8d 0c be
       -0.16986677 -0.28437257 -0.5123143 -0.13726006
000050 56 ca 8e be 2f 19 4b 3e eb e6 d6 be f3 fd 06 3e
       -0.27888745 0.19833826 -0.4197305 0.13182811
000060 fa 6e 8e be b6 85 17 be e4 32 46 bd db 48 9e 3c
       -0.27819043 -0.147971 -0.048388377 0.01932185
000070 68 2b 3b be 24 84 24 be 15 04 8c 3d 66 75 22 be
       -0.18278277 -0.16066033 0.06836716 -0.15865096
000080 e7 5f 0a be f9 af 3a be b4 2e 1f be 08 89 1d be
       -0.13513146 -0.1823119 -0.1554516 -0.15384305
000090 8f 43 35 3e 86 16 bf bd 0d e1 05 3f 5c 71 94 be
       0.17701553 -0.09330468 0.52296525 -0.28992736
0000a0 f0 1a 2f be 4f aa ca be 21 d1 9e be a1 ae 67 be
       -0.1710012 -0.3958306 -0.31018928 -0.2262521
0000b0 b5 d8 33 3f 14 b9 a3 bd 0e 37 78 be 28 67 5a be
       0.70252544 -0.07994285 -0.24239752 -0.21328413
0000c0 2e 36 10 be bd 02 71 3e 4c 4c 5b be f9 1f 90 3e
       -0.14083168 0.23536201 -0.21415824 0.28149393
0000d0 c9 c9 9b be 9e 88 a9 be 80 04 35 be 05 a2 7d bd
       -0.30427387 -0.33112043 -0.17677498 -0.061922092
0000e0 1c 83 f0 be df 04 81 be 87 19 e3 bd 08 dd 98 be
       -0.4697503 -0.2519903 -0.11088853 -0.29856133
0000f0 e6 92 07 3e 1a c1 a7 be 58 d7 a8 be 99 85 f6 bd
       0.13239631 -0.32764512 -0.32976794 -0.120372005

weight f4 [12, 64, 1, 1]
000000 f0 1c 88 be 9f 7f 0a be 72 bd 4d bf 12 5f a7 be
       -0.26584578 -0.13525246 -0.80367196 -0.3268972
000010 58 6f e1 3e 22 cc a2 3d 22 30 3d 3c 5c b5 fb 3d
       0.4403026 0.079490915 0.01154712 0.12290451
000020 4e 67 43 3f 8d 92 07 3e 0b 3d 55 bd ff b3 8a 3e
       0.76329505 0.13239498 -0.05206017 0.2709045
000030 7e ac d4 be 1b 8f dd be ce 4d 28 3d 74 25 f9 3e
       -0.4153785 -0.43273243 0.041089825 0.48661387
000040 82 3a dd 3e 0d 53 2c be a9 1c 8b 3e c2 6c ad 3d
       0.432087 -0.16828556 0.27170303 0.084680095
000050 6c 9c af bd b4 b3 41 3d 6b 48 6b 3e c4 2d a3 be
       -0.08574757 0.04729052 0.22976844 -0.31870854
000060 b0 b6 68 be 89 ff 85 be d6 95 01 3f 34 c7 86 be
       -0.2272594 -0.2617152 0.50619256 -0.26323855
000070 8d 97 0a 3e c6 b9 a8 bd 30 bd 43 3b ae e9 9a 3e
       0.13534375 -0.082385585 0.0029867403 0.30256408
000080 79 06 ac 3e 85 b3 3e 3d b4 cf b7 be f8 7e 02 3f
       0.33598688 0.046557922 -0.35900652 0.5097499
000090 ce 27 dd 3d 50 05 07 3e 70 33 48 be ea d5 24 bd
       0.10798608 0.1318562 -0.19550872 -0.040243067
0000a0 ff ef bc be 07 d1 b8 3e 0b 10 dd 3d 5c 19 f5 bd
       -0.36901852 0.36096975 0.107940756 -0.119677275
0000b0 2f a7 60 bd 7c 88 9a 3e aa e8 d6 3d 50 a6 f2 3e
       -0.05484694 0.30182254 0.10493596 0.4739251
0000c0 73 7b 12 be 9d 24 5f be 61 4b ea 3d c3 b4 81 be
       -0.14304905 -0.2179131 0.11440159 -0.25333223
0000d0 a4 79 a2 bc eb 3f db 3e 42 83 18 3e 70 14 0a 3d
       -0.019833393 0.42822203 0.14893821 0.033710897
0000e0 2c 5c d8 3e 69 71 83 3e 0a 39 d3 bc 31 da c3 3e
       0.42257822 0.25672463 -0.025784034 0.38252404
0000f0 d0 d5 8d 3d 3e 9c 86 3e fc fc 38 be cc 31 41 be
       0.06925547 0.26291078 -0.18065256 -0.18866652
000100 4c 9b ba bd 93 35 38 3f 0c 35 86 ba 81 00 e2 be
       -0.09111652 0.7195675 -0.0010239198 -0.4414101
000110 de d6 d7 be f7 10 e8 3e 5e 29 a0 be c6 e3 21 bf
       -0.42156118 0.45325443 -0.3128156 -0.6323818
000120 69 0d 10 bf 7a d5 d9 be 5c c6 e4 3e d8 8a eb 3c
       -0.5627046 -0.42545682 0.44682586 0.02875273
000130 81 fa 57 3e 30 2b 97 be 9b 85 94 3d 35 1c bd bd
       0.21091653 -0.29525137 0.07252046 -0.09233896
000140 bf 29 ea be 62 8e 1b be 1a 63 2e be 11 57 e7 3d
       -0.45734975 -0.15191033 -0.17029992 0.112959035
000150 ec 16 8b 3e b4 11 90 bd 7b 6e 36 3d c2 ef 0d be
       0.27165926 -0.070346266 0.044538956 -0.13860992
000160 67 df eb bc 2a ad d7 3d d5 9d 8e be 54 ca 10 be
       -0.02879305 0.10531075 -0.2785479 -0.14139682
000170 36 f7 a4 3e 66 57 08 bf 74 3f 03 3f 94 08 0a bf
       0.32219857 -0.5325836 0.51268697 -0.5391934
000180 08 54 3b bf 81 6b 09 bf c0 e3 9e 3e b5 ed 0b be
       -0.73175097 -0.5367966 0.31033134 -0.13664897
000190 39 7c c1 3e 06 a1 71 3f 07 da cf bd 11 dd a0 bf
       0.37790087 0.9438633 -0.10149007 -1.2567464
0001a0 c6 62 8f 3e bb 28 c5 3e d0 58 ca be 84 ec 21 3f
       0.28005046 0.38507637 -0.39520884 0.6325152
0001b0 a1 93 74 3e 28 41 00 3d 57 48 ef 3e 40 ba b1 be
       0.23884441 0.031312138 0.46734878 -0.3471241
0001c0 a8 63 2d be af f7 1a 3e 42 b3 0f 3f f4 de 4a be
       -0.16932547 0.15133546 0.561329 -0.19811612
0001d0 b3 fb 01 3f 20 52 97 be cd 45 17 3e f8 d6 bf 3e
       0.5077469 -0.29554844 0.1477272 0.37468696
0001e0 b6 fc 3f bf ee a3 23 3e 75 5d 97 3d 08 45 3a bf
       -0.7499498 0.15980503 0.073908724 -0.72761583
0001f0 20 a6 04 be 56 8f 11 bd 57 20 3b bf 44 02 d3 be
       -0.12953997 -0.035537086 -0.7309622 -0.41212666
000200 a7 83 74 be 4f a0 47 3e d2 2d 02 bc a0 3b a5 be
       -0.23878346 0.19494747 -0.007945495 -0.32272053
000210 28 49 54 3f 9e 4d 4d 3e 7e 69 e1 be ab 3c 8c 3e
       0.8292413 0.2004914 -0.44025797 0.27390036
000220 d5 e2 8e 3e d5 34 a7 3d 26 0a 5a be c7 ea ed 3d
       0.27907434 0.08164374 -0.21292934 0.11617046
000230 db 77 34 bf c8 8e 0a be 00 83 ac 3e f9 83 35 3f
       -0.70495385 -0.13531029 0.33693695 0.709045
000240 d9 53 3d be 3f 10 a3 3e 31 01 c1 3e a2 2c ac 3e
       -0.18489017 0.31848332 0.3769622 0.33627802
000250 aa 6f 28 3e 01 1f b3 be d3 88 55 be cc a9 ac bc
       0.16448846 -0.34984592 -0.20852976 -0.02107706
000260 f0 3c 04 be e6 7e 17 bf 64 1b da be c2 ae 49 3e
       -0.12913871 -0.59178007 -0.42599022 0.19695571
000270 76 e3 51 be 2a cd 9a 3c b4 9c 17 3f 5e 74 a6 3e
       -0.20496926 0.018896658 0.59223485 0.32510656
000280 f7 28 7a 3e 90 8a fc 3d 8e 41 f5 be 3c 5d b0 3e
       0.2442969 0.12331116 -0.47901577 0.34446132
000290 0e 87 b7 3e 3a 0a 61 3f 96 be 1f bf 08 dd a5 be
       0.35845226 0.8790623 -0.62400186 -0.32395196
0002a0 83 4d ee bd fa 51 91 be 0c 6b c9 3d f4 66 04 be
       -0.11635878 -0.28382856 0.09834871 -0.12929899
0002b0 4a b1 d6 3d 5a d7 68 be 8f 3f c6 3e df 23 ac be
       0.10483034 -0.227384 0.38720366 -0.33621117
0002c0 03 2e b1 3c fb 7b 85 bf 09 4a fc 3e ac 63 b1 bd
       0.021628385 -1.0428461 0.49275234 -0.08661589
0002d0 a4 f3 bb be ca 12 85 bc 28 c5 2d be 6c 7d 9f 3e
       -0.3670932 -0.01624431 -0.1696974 0.31150377
0002e0 e3 a0 e7 3c 3e 81 a1 be 34 5d 00 be 38 82 1b be
       0.028274959 -0.31543916 -0.12535554 -0.15186393
0002f0 c6 a7 a9 bd 91 5e 95 3d d0 dc a9 be 34 21 b9 3e
       -0.08283953 0.07293428 -0.3317628 0.36158144
000300 a5 2d 73 3e 82 02 58 3e 35 a5 09 3d 61 29 22 bf
       0.23747881 0.21094707 0.03360482 -0.6334439
000310 b5 dc 1e 3e 24 30 00 3f cd 9d 8c 3d 86 81 96 3d
       0.1551388 0.50073457 0.068660356 0.073489234
000320 26 a5 9d 3d eb 73 23 be ea 96 37 3e fc 4a 46 be
       0.07697515 -0.15962188 0.17928663 -0.19364542
000330 a6 07 98 3e 7c 29 cd be 76 17 bb bc 25 50 2c 3f
       0.29693335 -0.40070713 -0.022838335 0.6730979
000340 0d a0 c4 3d 43 33 35 3d 31 56 54 3f 50 3f 89 3e
       0.0960084 0.04423834 0.8294402 0.26806116
000350 13 9b 0f 3e 28 46 bc be 3b ed 55 3e 96 bf ba be
       0.14024 -0.36772275 0.20891277 -0.36474293
000360 1d 6c 62 be af d0 0d bd 35 44 de 3e 78 47 6c be
       -0.22111554 -0.034622844 0.43411413 -0.23074138
000370 fa 1c 36 3f 74 74 d2 bc 55 c2 d3 be 43 82 f4 bd
       0.71137965 -0.025690295 -0.413592 -0.11938908
000380 e3 ee 8c bd 23 e1 33 bc cd 08 4a be 33 b8 3f 3d
       -0.068815015 -0.01097897 -0.1972992 0.046806525
000390 5a 39 b4 be d3 92 db 3e 4d b2 ce bb 93 37 93 3d
       -0.35200006 0.42885455 -0.006307876 0.07188334
0003a0 04 b1 e1 bd 48 70 66 3f 17 a7 33 be a4 c2 b1 3e
       -0.11020091 0.9001508 -0.17544208 0.34718812
0003b0 38 ed 1f bf d5 cb b1 3e ea 10 a6 be 7d 2d 1c be
       -0.6247134 0.34725824 -0.3243478 -0.15251727
0003c0 86 5e e5 3d 6a 6c 8e bd 43 08 9e 3e 40 57 f1 be
       0.111996695 -0.06954272 0.30865678 -0.4713688
0003d0 bd 3a 9e 3f 37 ca 1c 3e 08 7e 44 3e 4a 2b aa be
       1.2361676 0.15311514 0.19188702 -0.33236152
0003e0 b3 9f b2 be e4 73 c9 3e 86 af 83 3e e3 95 45 3e
       -0.34887466 0.3934623 0.2571985 0.19295458
0003f0 33 94 83 be c7 3c 24 bd 15 eb 82 be 6c 51 a9 be
       -0.25699005 -0.040097024 -0.25569978 -0.33069932

bias f4 [12]
000000 02 3a 2b be 64 19 f7 bd 02 9e 1f be dd a2 0b bf
       -0.16721347 -0.1206539 -0.15587619 -0.54545385
000010 21 61 5e be 54 fd a8 be b2 fc 26 be 67 1b c7 be
       -0.21716739 -0.33005774 -0.16307333 -0.38888094
000020 ce 85 7d be b3 dc c3 be 7d 6f 6b be fb 87 3b be
       -0.24758074 -0.38254318 -0.22991748 -0.18313591

weight f4 [12, 12, 3, 3]
000000 05 2d f1 be 91 81 cf 3e 14 ad 52 be 02 b1 4b be
       -0.4710466 0.4052854 -0.20573837 -0.19891742
000010 f8 ca f2 3d 2d 1d 54 3d 47 7e 32 bd 14 63 bb 3d
       0.118551195 0.051785637 -0.04357746 0.09149757
000020 f4 81 d8 bd 0b 22 27 3e ba c2 11 be af d3 b6 3d
       -0.105716616 0.1632158 -0.14234439 0.08927094
000030 19 de 62 3d d4 b9 7a 3e e7 f6 77 be a4 b5 d5 bc
       0.05538759 0.2448495 -0.2421528 -0.02608759
000040 9f 3b 1a 3e bc ad 7a 3e 7b 2e d8 3d 84 cb cb 3c
       0.15061806 0.24480337 0.105557404 0.024877317
000050 44 f0 9c 3e 4f a1 7b 3d 62 8a d9 3c 74 ed 07 3e
       0.30652058 0.061433133 0.026555244 0.13274175
000060 26 db d2 3c 2d f9 91 bd e7 7c c2 3c 6c 12 c6 3e
       0.025739264 -0.07127605 0.023741199 0.3868593
000070 a9 4a 73 be cc 1a f9 bd 35 3f 05 3e 83 d2 7a 3c
       -0.2375895 -0.12163314 0.13012393 0.015308979
000080 a6 86 89 3e 6a 6c 72 3e 56 f6 64 3d 0d c9 2a bd
       0.2686054 0.23674169 0.055898987 -0.041695643
000090 18 17 b7 3e c8 f3 7e 3e 37 54 b5 3e e3 49 03 3e
       0.35759807 0.24897683 0.35415813 0.12821154
0000a0 96 25 db 3e 33 47 15 bd 8a 73 55 bd cc 26 89 3e
       0.42802113 -0.036444854 -0.05211214 0.26787412
0000b0 48 fc 0d 3f 70 62 05 3f b7 7b e2 3d 51 e1 be 3e
       0.55463076 0.5210333 0.11058753 0.37281278
0000c0 58 21 00 3f 06 c3 04 3f 52 ba 79 3e 5f 5e 69 3e
       0.5005088 0.5186008 0.24387482 0.22789906
0000d0 c5 5c fd 3e ee 81 63 bc c4 4a 89 be 92 3f 67 be
       0.4948484 -0.013885958 -0.26814854 -0.22582844
0000e0 d2 e8 49 be 3b 7a 4a bc 1d 2e 4c ba 63 e2 99 be
       -0.1971772 -0.012358244 -0.0007788854 -0.30055532
0000f0 a0 18 fd be ab c7 af 3d e3 63 80 3d 1e 79 54 3e
       -0.4943285 0.085830055 0.06269052 0.20749328
000100 c0 3f 62 be eb 01 2d 3d 9a e4 a6 bd 4c f5 08 3d
       -0.22094631 0.042238157 -0.08149071 0.03343706
000110 9c 43 ae bc 32 20 3d 3d 79 1f 0c be 9b f8 73 3e
       -0.021272473 0.046173282 -0.13683881 0.23825304
000120 b5 ed a8 be 24 5d 08 be bd 13 0c bf 99 d4 0a bf
       -0.32993856 -0.1331678 -0.5471762 -0.5423065
000130 ee fd 68 bd 91 ae 96 be 89 30 12 be 32 5f 7a be
       -0.05688279 -0.2943006 -0.14276327 -0.24450377
000140 5f 05 a8 be ce 52 03 bf bb cc fe be 54 70 7c be
       -0.32816598 -0.51298225 -0.49765572 -0.24652225
000150 a4 98 a7 be 0c 74 9c be 01 c0 2d be f6 28 90 be
       -0.32733643 -0.30557287 -0.16967775 -0.2815625
000160 9d d2 05 be d5 6b 97 be 02 2a d4 be 07 53 f6 bd
       -0.13068624 -0.29574457 -0.414383 -0.12027555
000170 c0 4e 61 be 17 8b 94 be 5f 11 43 be ae 32 9a be
       -0.22002697 -0.29012367 -0.19049595 -0.3011679
000180 d2 9d f6 bc dc 32 a0 be e0 f4 49 be a4 13 10 bc
       -0.030104551 -0.31288803 -0.19722319 -0.008793745
000190 a3 4c 8b be 97 ed 07 bf 35 ad 0c bf 5b fb ea be
       -0.27206907 -0.5309691 -0.5495179 -0.45894894
0001a0 1f af ac bc 32 a8 1a bf 47 dd 20 bf e4 73 84 be
       -0.021079598 -0.60412896 -0.6283764 -0.25869668
0001b0 db a9 96 3e 55 ef 47 be cc d7 4f 3e 74 d8 6c 3e
       0.29426464 -0.19524892 0.20297164 0.23129445
0001c0 85 e1 2b 3b 99 03 41 3e 85 be c6 bd d5 a1 a7 3d
       0.002622695 0.18849029 -0.097043075 0.08185164
0001d0 a8 b0 ad be e7 62 d9 3d 9d b2 aa 3e bb ba 01 3e
       -0.3392384 0.10614567 0.33339396 0.12668888
0001e0 44 c9 89 3e 95 f5 d4 3e f2 2e 9b 3e 04 38 c4 3e
       0.26911366 0.41593614 0.30309254 0.38323987
0001f0 ce 76 94 3e 4d 9f a1 3e 2a ca 93 3e 1e 73 3b 3e
       0.2899689 0.3156685 0.28865176 0.18305632
000200 67 7a 34 3d c9 b3 65 3e 76 c7 e3 bd 6b c9 85 3d
       0.044062044 0.22431864 -0.111220285 0.06532558
000210 11 5f 5f 3e 7f 61 ad 3e 1f bc 76 3e 89 af b7 3e
       0.21813609 0.33863446 0.240952 0.3587611
000220 13 3a b0 3d eb c4 03 3f c7 a6 72 3e b6 1b 2b 3e
       0.08604827 0.5147235 0.23696433 0.1670979
000230 cc 87 16 3e 7e 99 01 3f 40 24 f0 3e d3 b0 2f be
       0.1470024 0.50624835 0.46902657 -0.17157297
000240 66 ef 91 be e3 8a 82 3e 05 35 c4 bd fb 5f 67 3e
       -0.2850296 0.25496587 -0.09580425 0.22595207
000250 3f 0a 2a be 35 93 19 bd a1 34 17 3e ae 75 19 3f
       -0.16605471 -0.037493903 0.1476617 0.5994519
000260 6c fc e2 3d fb 3e a0 3d 13 21 38 bd d4 a2 01 be
       0.11083302 0.078245126 -0.044953417 -0.1265977
000270 8f d5 fa bd 54 8a 09 be 05 d0 1f be e1 bb 23 bd
       -0.12247764 -0.13431674 -0.15606697 -0.039974097
000280 cc 23 4f be 8d 1e 08 be 01 f1 8d bd 99 0f 97 3e
       -0.20228499 -0.13292904 -0.069307335 0.29504088
000290 ec d2 9f bd 66 77 23 bc 6f b1 3e be af 59 11 3e
       -0.07803902 -0.009977197 -0.18622373 0.14194368
0002a0 8a dc c7 3d d8 92 a1 bd ed d6 b6 bd 1c 65 73 3b
       0.09758861 -0.07889336 -0.089277126 0.0037139123
0002b0 12 10 ca 3e 62 43 2c 3e ae 71 9e 3e 4c 5a 12 3e
       0.39465386 0.1682258 0.30946106 0.14292258
0002c0 a2 a1 b3 3e 0d 39 9f 3d 5e 3b 18 3f 17 99 ea 3e
       0.35084254 0.077745534 0.5946559 0.45819923
0002d0 e4 25 ee 3d 32 c8 34 be 58 93 96 3e 20 16 f6 bd
       0.11628321 -0.17654493 0.2940929 -0.12015939
0002e0 7f 55 84 3e 82 6d 90 3e 46 d9 4e be 38 a0 1f bc
       0.25846478 0.28208548 -0.2020007 -0.009742789
0002f0 eb 2b 1e 3e de 8c 8c 3d 69 dc c8 bd d1 ef d5 3e
       0.15446441 0.06862806 -0.09807665 0.41784528
000300 aa 23 19 bf 34 9d e0 3d 56 4e 81 be b8 8e 4c be
       -0.59820044 0.10967484 -0.25255078 -0.19976318
000310 8c 08 4c 3d 5e 0a 64 be 01 8f 55 bd aa c8 8b 3d
       0.04981284 -0.2226958 -0.052138332 0.06825383
000320 9d 5a 5c be e1 1c 8e 3e 69 64 82 be 49 77 c7 bd
       -0.21518941 0.27756408 -0.25467232 -0.09739549
000330 de 3c 03 be 18 ae 82 be 51 2c 74 bb a8 4c 19 3f
       -0.12816188 -0.25523448 -0.003725786 0.59882593
000340 3e d2 21 3f c9 b7 22 3f 0e 39 76 3e 33 7d 6c 3e
       0.6321143 0.63561684 0.24045202 0.23094635
000350 2e 2a 8f bc e2 01 23 3f f0 dc 2d 3f 41 63 c1 3e
       -0.017476168 0.6367475 0.6791525 0.37771037
000360 00 06 29 3e 87 ab f7 bc a0 b7 b6 3e 70 1b e6 3e
       0.16506195 -0.030233158 0.3568697 0.44942808
000370 b3 69 81 be c8 4e b4 3e 14 d4 f1 3b 9b bd 47 3e
       -0.25275955 0.35216355 0.007380018 0.19505922
000380 77 88 04 bd 08 80 0c bf 85 f6 a7 be 83 80 02 bf
       -0.032356706 -0.5488286 -0.32805267 -0.50977343
000390 38 07 5d bf 83 28 76 bf 0b 3f f6 be 59 b6 25 bf
       -0.8633914 -0.96155566 -0.48094973 -0.64731365
0003a0 3b c3 44 bf 62 85 21 bf 05 c5 72 be 84 1c 39 bd
       -0.768604 -0.6309415 -0.2370797 -0.04519321
0003b0 a6 bc dd 3d 39 16 e3 bd a7 b4 02 3e 27 d2 51 3d
       0.108269975 -0.11088223 0.12764226 0.051225808
0003c0 65 86 da 3d 34 1d d0 3d db 48 50 3e e3 c1 d0 3e
       0.10670165 0.1016182 0.20340292 0.40772924
0003d0 41 bf 4f 3f 22 e8 38 3f cd 95 ba 3d 22 6a cb 3d
       0.81151205 0.72229207 0.091106035 0.099323526
0003e0 d8 d3 16 3e 30 af 08 3f f3 1f e8 3e 87 3d c4 3e
       0.1472925 0.53392315 0.45336875 0.38328192
0003f0 6b 53 d3 3b 1d 87 16 3d 44 87 33 be dc dd d6 be
       0.006449153 0.036749948 -0.17532068 -0.4196614

bias f4 [12]
000000 9b dc 1f be f2 d9 da bd 18 f7 a2 3e ec ed 3a 3c
       -0.15611498 -0.10686101 0.31829143 0.011409264
000010 5d dc 6d bd aa 5f 64 bd 09 f7 c5 3c b0 6b 81 be
       -0.058071483 -0.055755295 0.024165647 -0.25277472
000020 dc 9f 2f be a1 06 31 3e 88 54 26 bd 6e 20 24 3e
       -0.17150825 0.17287685 -0.04060796 0.16027996

weight f4 [12, 12, 3, 3]
000000 38 96 8f 3d 14 12 a7 bd 57 26 91 3e 27 bb f3 3e
       0.07011074 -0.08157745 0.28349563 0.47603723
000010 de c4 b5 3e 1a 23 96 3e 96 88 15 3d 17 01 42 be
       0.3550176 0.29323655 0.03650721 -0.18945728
000020 87 b5 45 3e d7 53 11 be 6b 1c 89 bd a9 d3 08 3e
       0.19307528 -0.14192139 -0.066948734 0.13361992
000030 de 4a 3f 3b 29 c5 a7 3d fb f3 61 3d 13 88 38 bd
       0.0029188911 0.08191902 0.05516432 -0.045051645
000040 ac 61 16 bd 8f 69 84 3e 9d 2a c4 bd 6d 8f c5 be
       -0.03671424 0.25861785 -0.0957844 -0.38585988
000050 f3 2f 39 3d 3f 73 3f bd 87 c4 08 be 2f 15 c0 bd
       0.045211744 -0.046740767 -0.13356219 -0.093790404
000060 e9 5b 54 bc 47 88 c7 3b f4 c7 b4 3e 34 67 43 be
       -0.012961366 0.0060892436 0.35308802 -0.19082338
000070 3b 7e 56 be f5 b1 b7 3d 4b fd b9 3a 67 86 70 bc
       -0.2094659 0.089694895 0.0014189867 -0.0146804815
000080 f7 3d 4c 3d 75 e0 93 be 09 83 9b 3d 8f 57 17 3e
       0.04986378 -0.28882185 0.07593352 0.14779495
000090 eb 2b 3f 3e 78 da 01 be 7a 05 ce 3d 10 24 07 3e
       0.18669097 -0.12680995 0.10059638 0.1319735
0000a0 fc 35 18 3f a6 5b 60 3e 70 99 ab 3d de 14 79 3e
       0.59457374 0.21909961 0.08378875 0.24324366
0000b0 fc cf c1 3e 5e fe 3e 3f ed 21 82 3e c3 30 e3 3e
       0.37853992 0.74606884 0.25416508 0.4437314
0000c0 0b ae 60 3e f8 d5 a3 3e e0 a9 a5 3c d7 8d 43 bd
       0.21941392 0.31999183 0.020222604 -0.04774269
0000d0 10 cf 9e 3d 40 af 3e 3d 1a 42 55 bd 31 23 e9 be
       0.07754338 0.04655385 -0.052064992 -0.4553466
0000e0 5a 7d 18 be c2 35 d2 3b 66 e6 a1 be ec 2f a4 3d
       -0.14891568 0.0064151 -0.31621093 0.08016953
0000f0 cb 09 b4 bc 3e 3b 94 3d 3e 8c 0d be f1 59 b2 be
       -0.021977326 0.07237862 -0.1382303 -0.34834245
000100 25 a8 39 be 7d 1f f4 3d f6 3e 94 be d7 8a cf bc
       -0.18130548 0.119200684 -0.28954285 -0.025334759
000110 41 9d dc 3d b3 16 4a be c7 b6 1f be cd 76 8c bc
       0.10772181 -0.19735222 -0.15597068 -0.017146492
000120 66 0b f3 be 94 cc 29 bf b8 80 fb be 51 bb 84 be
       -0.47469634 -0.66327786 -0.49121642 -0.2592416
000130 80 01 a2 bd 40 df 82 3e b0 7e 2b be cb 1a 8f 3d
       -0.07910442 0.2556095 -0.16747546 0.06987532
000140 e3 1b 99 be 0d f6 c1 3d 16 1d e7 be 80 d8 37 be
       -0.29904088 0.094707586 -0.45139378 -0.17953682
000150 3c 79 24 be 1c 59 87 bc 00 5d da 3d f2 8e 96 3d
       -0.16061872 -0.016521983 0.106622696 0.073514834
000160 41 f1 bb bb 0c 7b fe be d8 d7 af 3e 8f bc b2 3d
       -0.005735547 -0.49703252 0.34344363 0.08727371
000170 14 2d 9d 3e 7c cc 05 3e 06 5b 37 be 8c 52 f4 3e
       0.30698454 0.13066286 -0.17905816 0.47719228
000180 4c 14 ba 3e b9 6e e1 3d 6e fc ba 3e 24 ce 02 3e
       0.3634361 0.11007447 0.36520714 0.12773949
000190 ff 50 89 3d 8f 0c 32 3e 98 c6 e8 3b c2 6f 9f 3e
       0.06704902 0.17387603 0.0071037523 0.31139952
0001a0 67 c7 ab 3d 8c 41 87 be 57 32 c3 bc 2d 2c d1 3d
       0.08387642 -0.26417196 -0.023827715 0.10213504
0001b0 17 b1 9f 3e e2 95 8a be 74 41 80 3c e9 30 f5 bd
       0.31189796 -0.27067477 0.01565621 -0.119722195
0001c0 ff 9f 91 be 4e bd 93 bd 27 66 e8 bd 89 48 97 bd
       -0.2844238 -0.072138414 -0.11347609 -0.07386882
0001d0 6a 3f 27 be c9 57 88 3e 37 90 35 3f 6a aa eb 3e
       -0.16332784 0.26629475 0.7092318 0.46028453
0001e0 0e 74 e5 3e e8 0c 0b 3f 92 6d 8a 3e 1d cd ab 3e
       0.44815105 0.5431657 0.2703672 0.33554927
0001f0 b1 f2 f4 3e db c5 61 3f 7f d5 60 be de 85 0b be
       0.4784141 0.8819253 -0.21956442 -0.13625285
000200 a9 b7 8e be de 13 5f be 7e 05 cb bd ed 5e 0a bf
       -0.27874497 -0.21784922 -0.09913157 -0.54051095
000210 b1 9a 58 be 05 68 ad be 94 1c cd be 9a 32 3d be
       -0.2115276 -0.33868423 -0.40060866 -0.18476334
000220 61 07 41 be c2 19 0e bc e6 13 6f bd 3b b5 c1 be
       -0.18850471 -0.008673133 -0.058368586 -0.3783358
000230 30 0d d7 be 5d 16 85 bd 4c 49 fd be cc f4 d8 3c
       -0.4200225 -0.06498406 -0.49469984 0.026483916
000240 7c 4c 72 bd 78 d5 94 3d 74 1b 83 3e 9b dc 3a be
       -0.059154972 0.072672784 0.25606883 -0.18248217
000250 17 37 d5 be 29 d9 98 be 27 73 65 be bf a6 17 3e
       -0.41643593 -0.2985318 -0.22407208 0.14809702
000260 ac 87 4d bd f8 e6 1a be 67 9c f7 be 13 2e e4 be
       -0.050178215 -0.1512717 -0.48361513 -0.44566402
000270 ed 7d 3f 3d 8b cd 84 be 8d 2e 15 3e 01 1c 03 be
       0.04675095 -0.25938067 0.14568539 -0.12803651
000280 dd db 17 be dc 7a 64 be 85 fd 43 bc 7a 2f 7b 3e
       -0.14829965 -0.22312492 -0.011962299 0.2452983
000290 f9 93 5f 3d 1e 32 b0 3e 57 4f cf be 5f 84 19 3d
       0.054584477 0.34413236 -0.4049022 0.037479755
0002a0 bc 7c cd 3b 57 6f 0d 3e 80 d0 80 3e 1d e6 db 3d
       0.006270973 0.13812004 0.25159073 0.1073725
0002b0 a4 22 20 3e 20 ef c5 3d 6e 66 f3 be d2 98 c5 3d
       0.15638214 0.0966475 -0.47539085 0.09648289
0002c0 d9 0e 8a 3c 4d df 33 be 30 ac dd bd c9 62 9b 3d
       0.016852783 -0.17565651 -0.10823858 0.07587201
0002d0 de 9d af 3c 96 0c 79 be 2d 83 7b be 4c 31 f2 bd
       0.021437582 -0.24321207 -0.24561758 -0.11825809
0002e0 1d 2a 99 3c 13 5e 3a bd bb 94 c7 be 9e f9 cd be
       0.018696839 -0.045499872 -0.3898066 -0.40229505
0002f0 bf 6f 3c 3e fe 03 e6 be c1 9e 5a be f5 1c a1 be
       0.18402003 -0.4492492 -0.21349622 -0.31467405
000300 da 59 3b be dc bb cd bd 78 3b ef be 5f 11 b0 be
       -0.18295994 -0.10045597 -0.4672506 -0.34388253
000310 43 ed 13 be 01 e9 fe be bb 81 ec 3d 06 17 ba be
       -0.14445977 -0.49787143 0.115481816 -0.3634569
000320 34 73 ba 3e 23 13 93 be 86 e8 61 ba 22 e5 98 3e
       0.36416018 -0.28725538 -0.00086177175 0.29862314
000330 93 95 37 3e 04 f9 07 be 47 96 e2 be db 9e 2e 3e
       0.17928152 -0.13278586 -0.44255278 0.17052786
000340 f4 9b 2e 3e ca e8 d2 3e 36 fd 32 bd 84 4a 9b 3e
       0.17051679 0.4119323 -0.043698512 0.30330288
000350 78 3b c0 3e 89 86 0c 3f 38 21 8f 3e 7b 2c 54 3e
       0.3754537 0.54892784 0.2795503 0.20720093
000360 62 05 7b 3e c3 cd 8a 3d 33 c6 d5 bd 97 50 95 3e
       0.24513772 0.06777527 -0.10438194 0.29163048
000370 5c 4d 83 be 6c cc cd be 6f e2 bf bd c0 c2 43 be
       -0.25644958 -0.40195024 -0.09369361 -0.1911726
000380 a4 b1 3a be a4 2f 96 3e be 5c ca 3e 82 c0 6d 3e
       -0.18231827 0.29333222 0.39523882 0.23217967
000390 b0 39 3c 3f e5 fd c9 3e 33 e7 cb 3e db 1d 45 3e
       0.73525524 0.3945152 0.39824829 0.1924967
0003a0 cb b6 06 3f e7 ff d1 3d 1f 58 d5 bd 54 bc f2 be
       0.5262267 0.102538876 -0.104171984 -0.47409308
0003b0 13 49 a0 bc 82 43 8b be 02 f2 86 be 6f d4 b9 be
       -0.019566095 -0.27199942 -0.26356512 -0.36294886
0003c0 96 6a 98 be 00 ee 19 bf 04 57 a2 be e1 b3 10 bf
       -0.2976882 -0.60128784 -0.31707013 -0.56524473
0003d0 b2 37 3e be ab 13 ea be 9d c1 10 bf 68 44 1c bf
       -0.18575934 -0.4571813 -0.5654543 -0.6104188
0003e0 26 ef e2 be 78 c0 59 be e4 51 b9 be b4 20 0f bf
       -0.4432308 -0.21264827 -0.3619529 -0.55909276
0003f0 89 3a 2c 3c e0 9c 99 bd 94 c5 95 bd ad 01 93 be
       0.010512003 -0.07500625 -0.07313076 -0.28712216

bias f4 [12]
000000 a0 ae 41 3f b6 71 3f bd 2f 1c 1e bd a3 9e 1a 3e
       0.7565708 -0.046739303 -0.038601097 0.15099578
000010 80 9a 2c 3f 93 dc c6 be 69 b9 c7 3e ac 86 9d bd
       0.6742325 -0.3884016 0.39008644 -0.07691702
000020 00 f2 b1 3e 6e 2d 27 bf 31 d9 39 3e 8f e2 d7 bd
       0.34754944 -0.65303695 0.18149258 -0.105412595

weight f4 [12, 12, 3, 3]
000000 48 30 ab 3d 73 48 02 be 39 8a 66 3d 42 68 66 3d
       0.08358818 -0.1272295 0.056284163 0.05625177
000010 dd 19 d4 be 43 78 34 bd e4 8e 6d 3d 65 02 56 bd
       -0.41425982 -0.044060003 0.0579976 -0.052248377
000020 2f 74 0e be db 4c 1e be 71 dd b2 3e 02 d9 4b 3e
       -0.13911508 -0.15459006 0.3493457 0.19907
000030 9a 95 6d 3d 3b 65 c0 3d fb 23 db 3d 7d 9e 62 be
       0.058004 0.09394308 0.10700222 -0.22130771
000040 a2 d1 a9 3d b1 26 f3 3d cc 12 cf be bc fc fa be
       0.082919374 0.11872614 -0.40444028 -0.49020946
000050 e1 43 d6 3e f2 cd 8f bd 18 1d 62 b9 c9 7c f1 be
       0.41848662 -0.07021703 -0.00021563878 -0.47165516
000060 65 e4 53 3e 5a dc 38 be ef 1c e2 bd ad e8 a5 3d
       0.20692594 -0.18052807 -0.11040675 0.0810102
000070 79 69 d9 bc 00 90 96 be e4 0d 00 be 79 9e e1 3c
       -0.026539551 -0.29406738 -0.12505299 0.027541386
000080 a1 f9 02 3e fa 8f 20 3e 23 2d 85 3e 22 a2 1f 3f
       0.12790538 0.15679923 0.26011 0.6235677
000090 76 99 90 bd e0 11 3e be f4 85 65 3d 8a ac 4a be
       -0.0706052 -0.18561506 0.05603595 -0.19792381
0000a0 ad 77 eb be 95 af 98 be 50 fe 8c bd f6 8e 05 be
       -0.45989743 -0.29821458 -0.06884444 -0.13042817
0000b0 40 21 07 bf f0 fa c9 be 17 88 89 3c bc 5a a0 bd
       -0.5278511 -0.39449263 0.016788526 -0.07829806
0000c0 84 af 3f be 87 d7 16 be be 6b 78 be ee c7 0b 3e
       -0.18719298 -0.14730655 -0.2425985 0.13650486
0000d0 82 9c 5b 3e 6c 91 46 3e 3f 2f 9d 3e 9c f3 0a be
       0.21446422 0.19391412 0.30700108 -0.13569492
0000e0 79 a2 af 3d bc cd 4b be 0f c8 99 3e c1 3a dc 3e
       0.08575911 -0.199027 0.30035445 0.43013576
0000f0 92 53 cb 3e 85 48 d6 bd 9b 4b 3d 3d 26 7b 15 3e
       0.39712197 -0.10463051 0.04621468 0.14597759
000100 9a 8d a4 3d 17 a0 ca 3d 38 f5 91 3e 0e c5 97 3e
       0.08034821 0.09893816 0.285074 0.29642528
000110 6c 76 af 3e b4 09 c0 3e 7a a5 65 3e 83 54 a6 3e
       0.34270036 0.37507403 0.22426406 0.32486352
000120 f2 83 b2 3e 99 6c 88 3e 54 30 85 3e a8 a8 82 3e
       0.3486629 0.26645353 0.26013434 0.255193
000130 71 a2 2c 3e 71 39 32 3f 9f b2 fc 3e a3 4d 56 3e
       0.16858841 0.696189 0.49355027 0.20928054
000140 36 67 08 3f 4d 6d 65 3e d3 cd 01 3c 91 36 11 3f
       0.5328249 0.22404976 0.0079226075 0.56723887
000150 4d ab b0 3e 93 b7 d5 3e 92 25 92 3e 59 44 d9 3d
       0.34505692 0.4174162 0.2854429 0.106087394
000160 c7 a9 ce 3e 13 c6 9f 3e d6 6a e2 3e 15 4b a7 3e
       0.40363905 0.31205806 0.44222134 0.3267447
000170 6e 0d c7 3e be e2 f7 3e f5 e5 29 3e e6 3f 92 3e
       0.38877434 0.48415178 0.16591628 0.28564376
000180 40 fa 68 3e 03 58 08 3f af 2e 42 3e 88 bd 85 3e
       0.22751713 0.53259295 0.18963121 0.26121163
000190 e0 64 79 be f2 d9 d9 bd c7 d0 06 3e 3b 6d b8 be
       -0.24354887 -0.10637273 0.1316558 -0.36020836
0001a0 9f 4f 54 3e 0d 2b 3d 3f fe 4e 8a be 15 4a 87 3d
       0.20733498 0.73893815 -0.2701339 0.06605927
0001b0 67 60 ca bd f6 50 ca bd a0 f4 8c be ff 0f 07 be
       -0.098816685 -0.09878723 -0.27530384 -0.13189696
0001c0 07 52 c4 be b3 7b 0f bf c9 84 ab be 6c c8 ab be
       -0.38343832 -0.56048125 -0.33499745 -0.33551347
0001d0 15 6c e0 be cc e4 86 be ac a4 ac bd 52 2e 9c 3e
       -0.4383246 -0.26346433 -0.08429846 0.3050409
0001e0 76 a7 11 be 5f 59 af be b1 79 cd be 68 f1 a8 bc
       -0.14224038 -0.34247872 -0.40131906 -0.020622924
0001f0 a7 2c 7b be ff 23 01 be 56 2d ea be b2 de 35 3e
       -0.24528752 -0.12611388 -0.45737714 0.17760733
000200 14 e7 91 be 8a d2 20 be d9 a9 fa be 67 ba c8 be
       -0.2849661 -0.15705314 -0.48957708 -0.39204714
000210 c9 e2 c8 be 29 db 98 be 7b fd 09 be f3 7b 20 be
       -0.39235523 -0.29854706 -0.13475601 -0.15672283
000220 b9 5f 65 3e 85 92 9b 3d c2 62 2e 3d 1e a0 20 3d
       0.22399797 0.07596306 0.04257465 0.0392152
000230 cb 23 66 bc 1c 13 71 bd 8f 55 3f 3d 1f 2e a7 3d
       -0.01404662 -0.058856115 0.046712454 0.08163094
000240 0e ed 25 bd c5 e4 10 bf e5 b7 82 be 24 b7 34 bf
       -0.040509276 -0.56599075 -0.25530925 -0.7059195
000250 e9 8f 8b be cf c4 9a be 1f cf 06 be 0a 69 aa be
       -0.27258232 -0.30228278 -0.13164948 -0.33283263
000260 df a2 9f bd 1a 85 2f bf b8 f0 0a bf 15 de 3f bf
       -0.07794737 -0.6856247 -0.5427356 -0.74948245
000270 0b 8b 23 bf 0f c2 58 bf 0e 87 09 bf f7 6c 49 bf
       -0.6388404 -0.8467111 -0.537217 -0.7868189
000280 6a 34 e4 be 4d 14 62 bf d1 a9 ee 3d 89 db 14 3d
       -0.4457124 -0.88312227 0.11653484 0.036342178
000290 43 a1 31 3d 46 b8 1c 3e 04 13 0d 3e 76 05 c3 bd
       0.04336668 0.1530467 0.13776785 -0.09522526
0002a0 53 18 e7 3d 3a f7 6f 3e 68 1e 86 3b 39 ab 9c 3e
       0.11283936 0.23434153 0.00409298 0.30599383
0002b0 9d a4 c0 3d 6c ad 5f 3d f6 fe a6 3e b5 ab 2d 3e
       0.094063975 0.054608747 0.32616395 0.16960032
0002c0 bc 84 60 be 29 fc 80 bd c6 dd 8a 3d 38 25 f3 3e
       -0.21925634 -0.06298096 0.06780581 0.47489333
0002d0 13 b8 51 3e 97 1c 16 3f 56 7f 3b 3f 5c bc 12 3f
       0.20480375 0.58637375 0.73241174 0.57318664
0002e0 c0 b2 3c 3f 58 22 0d 3f 60 5f 47 3e e7 5e 30 3f
       0.7371025 0.5513053 0.19469976 0.6889481
0002f0 0d d4 9e 3e b1 21 de 3e 23 53 2b 3f a0 ed f9 3d
       0.31021157 0.4338508 0.6692373 0.122035265
000300 c6 a2 04 3f b3 e8 5a 3e 68 3a 09 3d 27 32 80 3e
       0.5181087 0.2137783 0.033502966 0.25038263
000310 1e bb 0c 3e e5 f7 dd 3e 08 f0 50 bc 72 11 a1 be
       0.13743255 0.4335319 -0.01275254 -0.31458622
000320 40 b5 95 3d 6e ff de bd 9b c6 98 3e d5 cd fc 3c
       0.07309961 -0.10888563 0.29839024 0.030859867
000330 6e 9e 33 3e 6f 45 ab 3e 77 44 b4 bb d3 e4 0b be
       0.17540905 0.3345141 -0.0055013257 -0.13661508
000340 4c 55 90 bc 8f b8 0c 3e 8c 3f 9b 3c 13 b7 3c be
       -0.017618798 0.13742279 0.0189512 -0.18429212
000350 22 93 d3 be 5d 14 bf 3e 40 39 a9 bd f9 d1 e7 be
       -0.4132319 0.37320223 -0.08262873 -0.45277384
000360 3c fe d3 3c 87 96 7c 3d 85 cf be 3e c5 70 3c 3e
       0.025878064 0.06166699 0.372677 0.18402393
000370 98 e8 30 be ff 0b 01 be 21 47 72 bd 0b 5b 79 be
       -0.17276227 -0.12602232 -0.059149865 -0.24351136
000380 ca d4 15 be 79 2e 1b be d0 4a 45 3e bb d3 05 3e
       -0.14631954 -0.15154447 0.1926682 0.1306905
000390 59 3c 2b bd df 36 b2 3e 5f bf 5f be ed 08 93 be
       -0.0418056 0.34807488 -0.21850346 -0.28717747
0003a0 19 8c 87 bc 1f 35 ed 3c d7 01 f9 be ff a9 dc bd
       -0.016546296 0.028955994 -0.48634216 -0.10774612
0003b0 b0 e8 9f 3e 5e 2c 23 be cf ec 1a be 8d 0d 15 bf
       0.31232214 -0.15934893 -0.15129398 -0.582238
0003c0 cb 8b 12 be ac 90 ad bd ec db f8 bd ad 49 93 3e
       -0.1431114 -0.084748596 -0.12151322 0.28767148
0003d0 f5 27 e9 3d 00 0c be bc 0a 36 84 be 6c 2c 0e be
       0.11384574 -0.023199081 -0.2582248 -0.13884133
0003e0 71 e8 12 3f ad ba 7e 3e 96 8b 76 3e a9 5f cb 3e
       0.5738593 0.24875899 0.24076685 0.3972142
0003f0 16 29 b1 be 84 09 5b be cc 19 fd 3c 47 56 1c be
       -0.3460166 -0.21390349 0.03089609 -0.15267287

bias f4 [12]
000000 dc 9c b7 be e1 58 0c be 0d b7 98 bc 3c 87 d8 3e
       -0.35861862 -0.1370578 -0.018641973 0.42290676
000010 07 f0 02 bd ba 87 0f be 61 7d f8 3e 0e 91 34 3d
       -0.03196719 -0.1401662 0.48533157 0.044083647
000020 e9 6e 99 3e cb 61 18 3e 40 2a ae 3e 6f fd 1a bf
       0.2996743 0.14881055 0.3401661 -0.6054296

weight f4 [12, 12, 3, 3]
000000 c3 56 f0 3c 7e a4 91 be d5 f1 cd be 59 6e 27 3e
       0.029338246 -0.2844581 -0.40223566 0.16350688
000010 4c 11 16 3e 4a 36 0d 3e ff dd 91 3e d5 00 c7 bd
       0.14655036 0.13790241 0.28489682 -0.097169556
000020 e2 9b 76 be 34 15 9a 3e a0 1d d7 3d 34 90 d6 3e
       -0.24082902 0.30094302 0.105036974 0.41906893
000030 9e 46 c8 3e 56 8f 14 3f 1c 3a 3a 3f de 01 6b bd
       0.39116377 0.58031213 0.7274492 -0.057374828
000040 cc 46 6a 3f 59 ef bc 3d 89 a6 78 3d 79 cc 56 ba
       0.9151428 0.092253394 0.060705695 -0.0008193921
000050 00 3f 40 be ab 7e e1 bd 99 e4 ff bd 40 b1 88 be
       -0.18774033 -0.11010488 -0.124947734 -0.2669773
000060 a2 74 89 be a5 42 0e be 24 e6 da 3c 8d 02 a6 be
       -0.26846796 -0.1389261 0.026721068 -0.3242382
000070 38 09 0f bf 4f a7 42 be fe 31 84 be f7 26 aa be
       -0.5587344 -0.19009136 -0.2581939 -0.33232853
000080 c9 04 5c be 05 9f d0 be 99 9c d0 be 57 bb ec be
       -0.214862 -0.40746322 -0.40744475 -0.4623668
000090 8f 6f d7 3d c3 14 34 be ac 8c 1a be 48 92 4a 3e
       0.10519325 -0.17586045 -0.15092725 0.19782364
0000a0 64 b0 fe 3d 0e 79 7d 3e a2 37 40 3e 38 9a 15 be
       0.124359876 0.2475321 0.18771222 -0.14609611
0000b0 72 b9 bf 3d e2 87 c3 3d f9 e9 3d 3a 0e b2 b2 bc
       0.09361543 0.09547402 0.00072446425 -0.021813419
0000c0 ea 6f df 3d 12 c0 45 be 71 6a 1e 3e eb 1e 52 be
       0.10910018 -0.1931155 0.15470292 -0.20519607
0000d0 95 5b 98 be 20 38 bb 3e 0f f8 d2 be 80 a9 c5 be
       -0.29757372 0.36566257 -0.4120488 -0.3860588
0000e0 41 e9 56 be d9 7a 02 bb ed a0 82 be f9 fe 2b be
       -0.20987417 -0.0019909649 -0.25513402 -0.16796483
0000f0 2b db 9b be ed d9 c8 be 6b f6 80 bd 80 54 ba 3d
       -0.3044065 -0.39228764 -0.062970005 0.09098148
000100 e8 40 2f 3e de b9 09 3e c9 b2 18 bd a9 2f 56 3e
       0.17114604 0.13449809 -0.037279878 0.20916618
000110 bd 05 39 3f 3e b2 b4 3b ff 3a 09 be ac 02 8e 3e
       0.7227438 0.005514412 -0.13401411 0.27736413
000120 65 3d 26 3e d6 00 0e 3e 69 bb 91 be 61 96 9e bc
       0.16234358 0.13867506 -0.28463295 -0.019358816
000130 eb 02 94 be 30 a0 12 3e a8 29 b7 be 8d f3 b0 be
       -0.28908476 0.14318919 -0.3577397 -0.34560814
000140 47 0b dc 3d 58 93 7e be b0 86 ad 3d be 17 9d 3e
       0.107443385 -0.24860895 0.08472955 0.30682176
000150 40 a0 89 3e 8a b7 d8 3e 7c fd a5 bd 49 dd 03 3e
       0.26880074 0.4232753 -0.08104989 0.12877382
000160 be 57 7e 3e 2f 78 16 3f 25 3d 53 be 47 2d bc 3e
       0.24838158 0.58777136 -0.20628794 0.36753294
000170 12 98 5e 3e e6 69 f8 3e 9e d9 c6 3e ee 61 b7 3d
       0.21737698 0.48518294 0.38837904 0.089542255
000180 75 9e 14 3f 2d 2c 2c bc ae 37 ce 3d 46 cc da be
       0.58054286 -0.010508579 0.10069214 -0.42733973
000190 ec 7e dc bd cd ed 9e bd 02 4a cd 3c 41 43 f2 be
       -0.10766396 -0.07760201 0.025059704 -0.47316936
0001a0 c5 e6 b2 3e d3 42 f8 bb 52 3c c0 3e dc ee 78 be
       0.34941688 -0.0075763254 0.3754602 -0.24309868
0001b0 91 73 01 be 5d 1c 98 be 87 02 0b be ba 3c e0 bd
       -0.12641741 -0.2970914 -0.13575183 -0.10949083
0001c0 20 61 a9 be f1 79 82 bd d9 a0 04 bf 70 d4 a4 be
       -0.33081913 -0.06370915 -0.51807934 -0.32193327
0001d0 bd 83 6e be 58 98 ee 3d f0 06 01 3e e4 bf 91 3e
       -0.23292442 0.11650151 0.12600303 0.28466713
0001e0 5e 18 ed 3c 30 5d 5a 3e bc 55 d4 3e 44 ee 25 bd
       0.028942283 0.2132461 0.4147166 -0.04051043
0001f0 fa 6f 2b be 59 d1 be bd fa 2e e4 3d f4 c5 cf bd
       -0.16741934 -0.09317274 0.111417726 -0.101451784
000200 41 ab f0 3d 27 4a 8c 3e d8 d1 49 3e 6e cf f5 3d
       0.11751414 0.27400324 0.19708955 0.12002455
000210 19 9f 80 bc 73 ab 9e 3e 42 76 23 bc b5 63 6b 3d
       -0.015700864 0.3099018 -0.009976925 0.057468135
000220 88 f1 3d 3d 4e 11 08 3e b9 87 34 3e ed f2 69 be
       0.04637292 0.13287851 0.17629899 -0.22846575
000230 56 96 82 be 04 c0 c0 bd 8e 43 47 be 61 7f 68 be
       -0.25505322 -0.09411624 -0.19459364 -0.22704841
000240 03 d7 6a 3e 40 42 90 bd 97 ea 4f 3e df 35 4c bc
       0.22933583 -0.07043886 0.20304333 -0.012464016
000250 e0 61 e9 bd 8e 38 ee bd 17 ad 61 bd b2 3e 38 be
       -0.11395621 -0.11631881 -0.055096712 -0.17992666
000260 c8 b6 96 3e 1d 6b 19 be ad 21 12 3e 32 10 59 be
       0.29436326 -0.14982267 0.14270659 -0.21197584
000270 cc 15 a6 be e7 26 fc bd 0e 70 5e be a1 8b 15 3c
       -0.32438505 -0.123121075 -0.21722433 0.009127528
000280 59 e4 84 be 64 43 f5 3d 2f 3c 60 bd 6f 95 9b 3d
       -0.25955465 0.11975744 -0.054744896 0.075968616
000290 f1 fc a0 3d ee e8 25 be 8a 41 0d bf 94 de e0 3d
       0.07860745 -0.16202137 -0.5517813 0.109799534
0002a0 20 95 ca be 4d 04 00 bf ee 9f 1b 3e 12 90 7b 3e
       -0.39566898 -0.5000656 0.15197727 0.24566677
0002b0 9d a9 3c 3e 1e 3b 1b 3e 57 e0 3e be 3c 73 5a 3d
       0.18424077 0.1515927 -0.18640266 0.053332552
0002c0 4a 75 01 3e a4 16 ba be 11 1d 8b bc d4 ba 79 bd
       0.12642398 -0.36345398 -0.016981633 -0.06096919
0002d0 45 3a 11 be 88 7a fc be 14 dc 9a 3e f5 b4 d6 bd
       -0.14182384 -0.49312234 0.3024603 -0.104837336
0002e0 83 be 8a 3d 4b 58 89 bd c1 9d 88 be 6c b2 3a 3e
       0.067746185 -0.06706294 -0.26682857 0.18232125
0002f0 7f e9 54 3e 0e ba 88 3d d1 4f 3c 3e e2 38 a4 3e
       0.20792197 0.06676112 0.18389823 0.32074648
000300 68 5f f4 bc 97 39 c9 3d 0f 8c ad 3c f5 29 43 bc
       -0.02983065 0.098254375 0.02118495 -0.011911859
000310 2d 07 7c 3c 92 d9 26 bd 70 c5 0e be 8a 24 9b 3d
       0.01538257 -0.040734835 -0.13942504 0.07575329
000320 21 4b 4d 3e 61 e5 d7 bd b9 27 cc 3e 8d 1b 11 3e
       0.2004819 -0.105417974 0.39874056 0.14170666
000330 f0 7c c0 3d 4e f0 ea bd 09 66 b9 3e 06 c1 33 be
       0.0939883 -0.11471616 0.3621066 -0.17554101
000340 a1 c7 e4 bd 28 ec c4 bd 11 fd aa 3d f1 d1 d4 3c
       -0.11170889 -0.09615356 0.0834905 0.025979014
000350 62 61 ca 3d 32 e5 15 be 97 68 19 be ed a8 28 3e
       0.098818555 -0.14638212 -0.14981304 0.1647069
000360 9b ac 9c 3e 03 44 c1 3e 42 6b a2 3e 61 c0 38 3f
       0.30600438 0.377472 0.31722456 0.72168547
000370 77 04 0e 3d da f1 f9 3e 1a 03 c4 3e 1d 04 78 3e
       0.034672227 0.4881733 0.38283616 0.24220319
000380 a9 de 2f 3e 56 bd 93 3e d1 d2 02 3f b8 40 1d 3f
       0.17174782 0.2885539 0.5110293 0.6142688
000390 84 66 ba 3e 66 7f 14 3f 93 77 23 3f b7 7d b8 3e
       0.36406338 0.58006895 0.6385433 0.36033413
0003a0 be 04 3a 3f 49 fb 0a 3f 49 20 86 3c e7 1c 4c be
       0.72663486 0.5428968 0.016372817 -0.199329
0003b0 7f b6 72 be 38 76 d0 be e4 c6 38 be 9f d3 bf bd
       -0.23702429 -0.40715194 -0.18044621 -0.093665354
0003c0 be 7c d4 3d 48 32 f3 be 53 86 31 bd f9 13 3f 3c
       0.10375355 -0.474993 -0.043340992 0.011662477
0003d0 23 7b cc be 5f 3e f6 3d 8e e1 27 be 13 66 2f bf
       -0.39937696 0.12023615 -0.16394636 -0.6851513
0003e0 82 ae 16 bf a4 fd 9f be 99 bf a9 bd 4c 16 89 be
       -0.5886003 -0.312482 -0.082884975 -0.26774824
0003f0 10 62 95 3e 0e 95 33 3e 11 9d dd 3e 93 02 11 3d
       0.29176378 0.17537329 0.43283895 0.035402846

bias f4 [12]
000000 6d ab 88 bf 62 88 2c bf 6f 41 4b bf fb fe 8b bf
       -1.0677315 -0.67395604 -0.7939672 -1.0937189
000010 99 21 f0 be 9c eb 2c bf f6 54 47 bf 9f 25 4a bf
       -0.46900633 -0.6754701 -0.77864015 -0.78963655
000020 3a 04 f4 be b1 fa ae bf 47 14 a4 be 4e c7 91 be
       -0.47659475 -1.3670255 -0.3204672 -0.2847237
