weights/Act_Tanh_VDSR_model_path.pth (torch, 606649 bytes, 8 tensors)

weight f4 [64, 1, 3, 3]
000000 cf bf 03 3d f8 fa 9b be 09 48 44 be 4e cc 2e 3e
       0.032165345 -0.3046491 -0.19168104 0.17070124
000010 e9 25 d0 3d 96 57 2b be 31 c0 ca 3d 0f 1c 34 be
       0.10163481 -0.1673263 0.09899939 -0.17588829
000020 49 d5 4d 3e 1f 2f 5b 3e 68 24 57 be a0 e0 c9 3d
       0.20100893 0.21404694 -0.21009982 0.09857297
000030 be 18 35 3e 2d 0a b3 be 32 73 a5 3d 4d d1 81 3e
       0.1768522 -0.349687 0.080786124 0.25354996
000040 72 aa dd 3d 99 46 df 3d 75 ba 0d 3e 21 bf a2 3d
       0.108235255 0.10902137 0.13840659 0.07946611
000050 33 32 9e 3e a9 9d 98 3e 17 6d 94 3e 23 25 70 be
       0.30897674 0.29807785 0.2898948 -0.23451667
000060 7f c0 95 be 57 6e aa be 53 c9 18 3e 15 01 5d 3e
       -0.29248425 -0.33287308 0.14920549 0.21582444
000070 d3 8c 8c 3e bf 80 dc bd 8a 7f 73 bd 4a 09 54 be
       0.2745119 -0.10766744 -0.059447803 -0.20706668
000080 d1 ea eb bd c3 4c 9c 3d 9f 75 98 be 5f 3b 2e 3c
       -0.11519397 0.07631829 -0.29777238 0.010634272
000090 4f 7e f8 3b 8b 08 57 be 62 27 c5 3d 62 2e 90 3e
       0.0075834165 -0.20999353 0.09626652 0.28160387
0000a0 34 1d da 3d a2 13 77 3e f3 7f f1 3c 87 fd 2d 3e
       0.10650101 0.24128583 0.029479956 0.16991244
0000b0 f5 71 4e be dc 4e 1a 3e 03 65 22 3e c4 a0 63 3e
       -0.20160659 0.15069145 0.15858845 0.22229296
0000c0 47 f8 0d 3e e7 56 a2 3e db 5b 59 be b0 21 89 be
       0.13864242 0.31706926 -0.21226446 -0.26783514
0000d0 d9 e2 b2 3d de 6a a2 be 90 46 16 3e 21 39 e6 3c
       0.08734674 -0.31722158 0.14675355 0.028103413
0000e0 da af bc 3e bf 18 8c 3e b8 16 8e be 6b 40 e0 bd
       0.36852914 0.2736263 -0.27751708 -0.10949787
0000f0 c1 d7 a4 3e 7e 76 8a be b1 b6 4f be db 03 a5 bd
       0.32195857 -0.27043527 -0.20284535 -0.08057376
000100 0d 93 1b 3d 47 50 84 be 4c 6c 3d 3e f4 26 8e 3d
       0.037982035 -0.25842497 0.18498343 0.069410235
000110 d1 fe 91 be d5 f6 87 be c6 e2 ad bd fe ef 50 be
       -0.28514722 -0.26555505 -0.08490519 -0.2040405
000120 05 92 51 3d 6d c7 04 be c4 00 0d bd 91 2b ad bd
       0.051164646 -0.129667 -0.03442456 -0.08455575
000130 29 32 4c be 92 42 5d be 2d ba 65 3e b2 f6 3d 3e
       -0.1994101 -0.21607426 0.22434302 0.18551138
000140 9d 35 6e be 75 8c 67 be 24 42 2b 3e c1 63 30 3e
       -0.2326264 -0.22612174 0.1672445 0.17225553
000150 1b 0f 02 3e 41 42 0f 3e 20 36 b9 3d 46 3c a0 bd
       0.12701075 0.13990118 0.09043527 -0.07823996
000160 12 69 40 3e 4e ea 63 3d 42 5a ba 3e 49 d2 8a 3d
       0.18790081 0.055643372 0.36396986 0.0677839
000170 72 55 01 be 8e 14 80 be 36 38 36 be d9 4d 1a 3d
       -0.12630251 -0.25015682 -0.1779488 0.037671898
000180 6f 9f 86 be ba 18 cd 3e c2 e8 ad 3e 9a 85 a1 3e
       -0.26293513 0.40057927 0.33966643 0.31547242
000190 41 12 99 3e cb a3 4f be 90 3e 93 3d d3 90 86 3e
       0.2989674 -0.20277326 0.07189667 0.26282367
0001a0 e4 98 4f 3e 46 3e 9c bc e2 02 84 be 5b 2b 37 3d
       0.20273167 -0.019072663 -0.2578345 0.04471908
0001b0 c1 bd d8 3d 84 4d a8 3d 7d 59 fe 3d f5 ae 38 3e
       0.10583068 0.0821791 0.12419412 0.18035491
0001c0 bb 83 b5 be f5 95 eb 3d a2 2d 29 3d fc b8 a9 bd
       -0.35452065 0.115032114 0.041303284 -0.08287236
0001d0 95 fd 46 bc 77 d7 1d bd f8 6b 13 3e 1e 15 aa 3e
       -0.01214542 -0.03853556 0.14396656 0.33219236
0001e0 02 59 48 3b 04 83 9f 3e a5 2d ac 3e 16 60 4f be
       0.003057063 0.31154644 0.33628574 -0.20251498
0001f0 f9 13 2a be 92 aa 0b be 4d 81 5a 3e 91 99 3e 3d
       -0.16609181 -0.13639286 0.21338387 0.04653317
000200 9f 30 43 3e 03 06 96 3d fa 4f f4 3d 6b 75 1d 3e
       0.19061516 0.073253654 0.11929317 0.15376823
000210 89 c8 54 3e 2d 5e 82 be 12 bc bf be cb 45 16 be
       0.20779623 -0.25462475 -0.37448174 -0.14675061
000220 f8 5f 4c be a2 ca 24 be 21 1b cf 3d 86 00 81 3e
       -0.19958484 -0.16092923 0.10112596 0.25195712
000230 77 6f ae 3d 13 99 ae be 38 3d 36 be 16 e7 7c bd
       0.08517354 -0.3410116 -0.1779679 -0.06174382
000240 e8 88 8c 3d 88 fb a1 3e e4 09 ab 3e ad a0 64 3d
       0.0686205 0.31637216 0.33405983 0.055817295
000250 61 2b 26 be c9 ca 3b be 7c 78 10 be c4 5d 10 be
       -0.16227485 -0.18339075 -0.14108461 -0.14098269
000260 7e 03 05 3e 15 7f 91 3e c8 cc 41 be 36 e5 50 be
       0.12989613 0.28417268 -0.18925774 -0.20399937
000270 77 23 64 3e ed 40 8d 3e 08 d3 2a be ef ed e9 3d
       0.22279154 0.27588597 -0.16682065 0.11422335
000280 ed 31 f5 3c bd 70 33 3d 9f 2f 71 3e 48 7e 80 be
       0.029931033 0.043808687 0.23553322 -0.25096345
000290 b8 82 d2 bc d6 9f 3a be a9 fd 9a 3e c3 ce cb 3b
       -0.025697097 -0.18225035 0.30271652 0.0062197163
0002a0 d7 13 a7 be e0 33 09 be 93 d4 eb bd fd cd 79 3e
       -0.32632324 -0.13398695 -0.11515155 0.24394985
0002b0 4e d9 c1 bd 32 34 9e be 4a 69 1b be 49 f3 93 be
       -0.09465276 -0.30899197 -0.15176883 -0.2889655
0002c0 3d 4e 04 bd c0 c0 01 3e af 3a fd 3d 4c 83 77 be
       -0.032301176 0.12671185 0.12364709 -0.2417118
0002d0 4c 48 a1 be 4e 35 9f be dd 3d d0 3d 12 8f b4 be
       -0.3150047 -0.31095356 0.101680495 -0.35265404
0002e0 b1 96 72 3e 5f 06 93 3e d2 e6 90 3e f6 e3 9b 3d
       0.23690297 0.28715798 0.28301102 0.076118395
0002f0 45 68 4a 3e f4 6d 5b 3e 97 5f 92 3d 8d 7f aa 3d
       0.19766338 0.21428663 0.071471386 0.0832511
000300 57 88 97 3e 82 11 68 be d1 14 65 be fc 28 4b 3e
       0.29596207 -0.22662929 -0.22371222 0.19839853
000310 5c b0 84 be c3 f9 4c 3d 3a 90 55 be 72 0a 50 be
       -0.25915802 0.05004288 -0.208558 -0.20316485
000320 3d fe 78 bd 37 32 8d 3e 35 28 90 3e 7b b6 9c be
       -0.060789336 0.27577373 0.28155676 -0.30607972
000330 01 74 6d be 38 de a9 3d 7c ad 3a bd 93 22 9e be
       -0.23188783 0.08294338 -0.045575604 -0.30885753
000340 88 63 13 bb 2f a3 dc bd 9f e7 ae be ff 0d 85 bc
       -0.0022489745 -0.10773312 -0.34161088 -0.016242025
000350 a7 1a 75 bd 82 47 57 3e 7e 86 06 3d 29 b6 9e 3c
       -0.05983987 0.21023372 0.032843105 0.01937397
000360 af a7 3f 3d 50 f7 99 be e3 01 a1 bd 8b af 58 3e
       0.046790775 -0.30071497 -0.07861688 0.21160714
000370 94 1a ae be 9e 0f b4 bd 1e 19 5e be 81 7d 1d 3e
       -0.34004653 -0.08792041 -0.21689269 0.15379907
000380 ee c7 f1 bc 9f 0e fc 3d 3b 42 91 3d cf 21 56 3e
       -0.02951428 0.12307476 0.070927106 0.20911334
000390 a3 31 57 be 10 31 c9 3e fa 50 0d be 72 68 bd bd
       -0.21015029 0.39295244 -0.13800421 -0.09248437
0003a0 fa ab 3f 3e a2 1c 0e 3e eb 8c a0 3d d2 d3 9b be
       0.18717948 0.1387811 0.07839378 -0.30435044
0003b0 a6 68 4c be 89 dc 21 be 10 6b 57 be c0 b1 99 bd
       -0.19961795 -0.15806784 -0.21036935 -0.07504606
0003c0 96 48 56 3e b9 c7 94 3e be f8 bd 3d c5 82 da 3c
       0.20926127 0.29058626 0.092759594 0.026673684
0003d0 26 60 f4 3b 4f e4 f1 3d 86 0c 42 bd 09 90 b9 bd
       0.007457751 0.118111245 -0.047375225 -0.09060676
0003e0 6c 77 03 3e 69 31 6d 3e a8 23 2e 3e 87 82 69 3d
       0.12838525 0.2316338 0.1700579 0.057009246
0003f0 55 eb 35 3e a2 99 f2 bd 21 e0 30 be c0 c5 29 3c
       0.17765553 -0.118457094 -0.17272998 0.010362089

weight f4 [64, 64, 3, 3]
000000 58 2e f2 3c d1 bb 73 3d 21 bf a3 3d 65 ed a1 3d
       0.029563114 0.059505288 0.07995439 0.079066075
000010 90 d9 65 3d 46 36 90 3c ea 7e c4 3c 48 02 a2 3c
       0.056115687 0.017604005 0.023986299 0.019776478
000020 97 4b 15 3b d6 34 92 bd fb 67 84 bd c8 85 81 bd
       0.002278065 -0.07138984 -0.06465145 -0.06324345
000030 ad e8 8c bd 9a 14 23 bc ad da 97 bd 64 10 f7 bb
       -0.06880317 -0.009953642 -0.07414756 -0.0075397957
000040 59 15 95 bd 61 e1 92 bd cd 6a 95 bd ae 29 3e bb
       -0.07279462 -0.07171894 -0.07295761 -0.0029016542
000050 21 42 f3 bc ba c7 5a bd 0a 64 75 bd 09 ad 9b bc
       -0.029694619 -0.05341313 -0.059909858 -0.019003408
000060 ca b7 7b bd a4 fe 41 bd 03 cd 19 bd b3 11 2b bd
       -0.06145457 -0.047361985 -0.03754903 -0.041764926
000070 de be 08 bd 8f f4 f8 bc 01 03 82 bd ce 95 78 bd
       -0.03338515 -0.030390052 -0.06348229 -0.06068974
000080 a5 c2 69 bd f7 f3 3b bd 5e 25 33 bd fd d9 54 bd
       -0.057070393 -0.04588696 -0.043736808 -0.051965702
000090 1a 0d a4 bc 43 6a 09 bd 37 8a 86 bd 9e a8 5a bd
       -0.020025779 -0.033548605 -0.06569331 -0.053383462
0000a0 e3 87 9c bd 89 29 7f bd 78 73 6a bd 6c 30 34 bd
       -0.07643106 -0.06229547 -0.057239026 -0.04399149
0000b0 bc 5b 86 bd aa f6 96 bd 6d f7 a6 bc 91 36 48 bd
       -0.06560466 -0.07371266 -0.020381654 -0.048880164
0000c0 4a c6 8e bd 1e ff 4b bd 56 76 c9 bc c6 84 a8 bd
       -0.069714144 -0.049803846 -0.02459256 -0.082284495
0000d0 78 e5 21 bd d0 7b 80 bd 3b 0d 8e bd e5 bd c0 bc
       -0.03952548 -0.06273615 -0.06936117 -0.023528049
0000e0 80 99 78 bd 53 e6 d7 39 be d8 72 bd 0d c8 94 bd
       -0.060693264 0.000411796 -0.059288733 -0.07264719
0000f0 53 2e 0f bd 9e e2 66 bd 8b 67 95 bd f7 9b 99 3c
       -0.034956288 -0.056368463 -0.0729514 0.018751128
000100 1c 5e 9a 3d 33 be a3 3d 28 9a 53 3d be c2 92 3d
       0.07537481 0.07995262 0.051660687 0.071660504
000110 4d 45 17 3d 68 19 82 3d 8c b6 17 3d 84 2c 8f 3d
       0.036931325 0.06352502 0.037039325 0.069909126
000120 e5 ed c7 3c 15 46 63 ba 00 b6 31 3c f9 93 71 3d
       0.02440543 -0.0008669806 0.010846615 0.05897901
000130 d1 d6 a1 3d 06 b8 4b 3d 25 14 4e 3b 62 f4 99 3b
       0.07902301 0.049736045 0.0031445113 0.004698322
000140 12 cb 2f 3d 91 ac 80 bd 34 1b ff bd af 84 c4 bd
       0.042918272 -0.062829144 -0.124563605 -0.0959562
000150 ac 4e c4 bd 52 d0 d3 bd 37 12 69 bd 9d 64 df bd
       -0.09585318 -0.10342468 -0.056902137 -0.10907862
000160 d5 f4 2b bd ec bd 87 bd 40 af c4 3c 67 97 80 3d
       -0.041981537 -0.066280216 0.024009347 0.06278878
000170 86 86 aa 3d 43 ec 37 3d fb 5c 7b 3d 3e ec 76 3d
       0.083264396 0.04490305 0.06136797 0.06028389
000180 4f 38 98 3c 5b 46 6b 3d 5a 8d 5b 3d a5 47 c7 bb
       0.018581538 0.057440143 0.0536016 -0.0060815387
000190 4e e8 21 bd 19 25 26 bd ac 9e 62 bd 4a e4 9c ba
       -0.039528184 -0.040562723 -0.055327103 -0.0011969891
0001a0 92 60 4a bd a0 37 60 bd a8 b7 4a bd 59 d8 b1 bc
       -0.049408503 -0.054740548 -0.049491554 -0.021709608
0001b0 9d dd c4 bc 4e 83 80 bd 0e 1f 53 bc 71 5e 87 bd
       -0.024031455 -0.062750444 -0.012885822 -0.0660981
0001c0 93 da 20 bc ff d7 ae bb c5 d6 52 bd ac e6 ae bb
       -0.009817737 -0.0053358073 -0.05147435 -0.005337557
0001d0 32 cc 99 bc ed 28 bb bd 56 6a 45 bd 37 09 90 bd
       -0.018774126 -0.09138665 -0.048197113 -0.070330076
0001e0 ac 6b 55 bd ba fc 9d bd c8 07 bb bd 70 f4 0d bd
       -0.052104637 -0.077142194 -0.091323435 -0.034656942
0001f0 67 f8 f8 bd 58 cb f1 bd 1d b6 a3 3b 94 2b 46 bc
       -0.12156754 -0.11806363 0.004996075 -0.012095351
000200 e9 35 31 bc ce 5d 32 bc 48 bf 07 bc 27 f2 90 bd
       -0.010816076 -0.010886623 -0.008285351 -0.07077437
000210 b8 60 d1 bc 42 6c c7 bc b9 9d 08 bd 9c 88 99 3d
       -0.025558814 -0.024343614 -0.03335354 0.07496759
000220 78 6c 6f 3d 0d 08 05 3c 09 7e 4a 3d b6 68 85 3d
       0.058453053 0.008119595 0.049436603 0.06514113
000230 1a 8b 4a 3d bb 57 7e 3c 2e 50 a4 3d bb d9 a2 3d
       0.049449064 0.015523846 0.080231056 0.07951685
000240 97 f3 37 3d 05 74 84 3d e8 41 95 3d d8 89 50 3d
       0.04491004 0.064674415 0.07287961 0.050912708
000250 30 df d9 3c 73 03 a4 3d 97 ab 90 3c 28 4a 97 3d
       0.026595682 0.080084704 0.017659945 0.07387191
000260 fc 9e 93 3c 7a 62 2e bd 19 3a 34 bd cf 2f 8d bd
       0.018020146 -0.042574383 -0.04400072 -0.068938844
000270 d1 2a a9 bd d3 61 4b bd 7f a6 1a bc a9 2e 8d bc
       -0.0826012 -0.04965384 -0.00943911 -0.017234163
000280 0b ed 8b bc 44 69 a7 bd 12 45 34 3b 90 59 da 3c
       -0.017080804 -0.08174375 0.002750699 0.026654035
000290 8e 0b 9a 3d 8a c7 16 3d 36 5b 85 3d b8 b7 90 3d
       0.07521735 0.03681139 0.06511538 0.070662916
0002a0 ee 96 6a 3c e3 1b 9b 3a e3 70 10 3d 90 26 d9 3c
       0.014318211 0.0011833872 0.035263907 0.026507646
0002b0 f8 17 9b 3b 2e 57 98 3d 10 73 40 3d 29 2b 9a 3c
       0.004733082 0.07438503 0.046984732 0.018819408
0002c0 a1 36 11 3d 63 d3 88 3d 36 74 8a 3b 0c eb 7c 3d
       0.03545249 0.06680944 0.004225279 0.061747596
0002d0 db 2f 30 bd ee f3 08 bd e3 31 74 bd cf 1c 60 bd
       -0.04301439 -0.033435754 -0.05961789 -0.054714974
0002e0 dd 8e b1 bc 00 83 97 bd 31 4e 38 bd 11 ae 94 bd
       -0.021674568 -0.07398033 -0.044996444 -0.07259763
0002f0 2c ec 12 bd 9c ca fb 3c f7 91 ac 3b f7 16 95 3d
       -0.035869762 0.03073626 0.005266424 0.07279771
000300 de f9 90 3d d1 83 df 3c 5e dc 5c 3d d6 52 37 3d
       0.070789084 0.027284535 0.053921096 0.044756733
000310 f8 bd 5f 3d ce 8b 4d 3d be 4b a2 3d 98 f9 f7 3b
       0.054624528 0.050182156 0.07924603 0.0075675957
000320 ad 58 67 3d 99 4f 14 3d 3e dc bf 3b 50 93 83 3d
       0.056481052 0.036208723 0.0058551123 0.06424582
000330 d3 4f c2 3c cd 47 a9 3d 22 24 8e 3d e8 1d 63 3d
       0.023719704 0.08265648 0.069404855 0.055448443
000340 b5 56 38 3d 11 82 d1 3d 58 1c f6 3d 24 1b 7a 3d
       0.045004565 0.10229886 0.12017125 0.06106104
000350 27 c1 c8 3d 9e 54 49 3d f2 55 9e 3d 68 cf 0d 3d
       0.09802466 0.049152963 0.077312365 0.034621626
000360 93 41 73 3d 94 f4 aa 3d 89 0b a0 3d 67 d2 a0 3d
       0.05938871 0.08347431 0.078147 0.07852631
000370 53 ed 83 3d bf 69 40 3c 73 4c 26 3d 8d d7 99 3d
       0.064417504 0.011743962 0.04060025 0.07511816
000380 41 36 ab 3d c2 ad 8c bd 6f 60 76 bd 60 e1 7e bd
       0.083599575 -0.06869079 -0.06015056 -0.062226653
000390 5d 04 39 bd f3 17 6a bd 70 db 4e bd f1 54 71 bd
       -0.045170177 -0.057151746 -0.05050224 -0.058918897
0003a0 f8 da 5f bd 80 29 a8 bd 11 96 93 3d 18 9d e7 3c
       -0.054652184 -0.082110405 0.07206357 0.02827315
0003b0 ac 1e f1 3c 82 7c bf 3c ab f6 b1 3b c0 9f 8c 3d
       0.02943357 0.0233748 0.0054310164 0.068664074
0003c0 47 a6 c6 3c 07 a6 a5 3d 60 64 10 3c 62 92 a0 bc
       0.02424921 0.08088308 0.008812994 -0.01960105
0003d0 c3 ea 3b bd 73 8e 5a bd 85 5f d0 39 47 5e 60 bd
       -0.045878183 -0.053358506 0.0003974402 -0.05477741
0003e0 8d 0c de bc fc 50 9d bb a1 9b 05 bd 51 6f 8d bd
       -0.027105594 -0.004800914 -0.032619122 -0.069059975
0003f0 18 27 6a 3d 6a bb 90 3d 45 8f 20 3d 54 bf 59 3d
       0.05716619 0.070669964 0.039199132 0.05316098

weight f4 [64, 64, 3, 3]
000000 ea 4d 3b 3d 94 b9 c5 3d d2 6c 71 3d f7 2a 96 3d
       0.0457286 0.09654537 0.05894167 0.07332414
000010 cb c3 af 3d 0e 20 b3 3d d2 ec 67 3d 33 20 d9 3d
       0.085822664 0.08746348 0.056622334 0.10601845
000020 8c a3 e8 3d 5c b9 59 3d 90 0d bf 3d 7f 6e ae 3d
       0.11359319 0.053155288 0.09328759 0.08517169
000030 58 c0 af 3d 3e 84 05 3d c5 49 b3 3c 1b 56 87 3d
       0.085816085 0.03259682 0.021885762 0.0660822
000040 57 ec 14 3d f0 8a 7d 3d ce e6 d2 bd 2e ec 36 bd
       0.036358204 0.06190008 -0.10297929 -0.044658832
000050 9a 78 df bd d3 c7 b9 bd 0e f3 f3 bd 5f 90 3f bd
       -0.10911675 -0.090713166 -0.119115934 -0.046768542
000060 96 b0 43 bd ec 60 92 bd 70 0e 8d bd 03 42 e3 3c
       -0.047775827 -0.07147393 -0.06887519 0.027741438
000070 87 6f 0a 3d af 4d 99 3c 18 8d 09 bc 4d ba a1 3b
       0.033797767 0.0187138 -0.008395456 0.004935539
000080 c4 4b 7a 3c b8 ce e4 3c 7e a9 d5 3c b9 8e 67 bc
       0.015276853 0.027930602 0.026081797 -0.014133149
000090 1c 41 93 bd a7 d7 74 bd 6e fd 29 bd 00 a3 41 bd
       -0.07190153 -0.059775975 -0.041501455 -0.04727459
0000a0 58 b6 c9 bd b8 d0 c4 bd ff 02 28 bd 03 85 ca bd
       -0.098492324 -0.096101224 -0.041018482 -0.09888651
0000b0 f6 46 9d bd 6a 69 a5 bb 75 54 df bc 10 90 b2 ba
       -0.0767955 -0.0050479667 -0.027261952 -0.0013623256
0000c0 56 b1 5b ba e8 0c 28 3d 5d 0f 4b 3c 6f 23 ee bc
       -0.0008380612 0.041027933 0.0123938 -0.02906963
0000d0 c4 dd 59 3c 6c 04 e6 3c e2 3a 76 3d e7 72 2b 3d
       0.013297502 0.02807828 0.06011475 0.041857626
0000e0 eb 9c 9c 3d f3 0d 96 3d b4 9f b4 3d 31 4e c6 3c
       0.07647117 0.07326879 0.088195235 0.024207206
0000f0 08 3c b4 3d f7 a4 a8 3d 17 52 25 3d b2 2c b9 3c
       0.088005126 0.082345895 0.04036149 0.02260432
000100 8f cf 37 bc 67 c0 7f bc e4 e1 4c bc ad fb 5a 3d
       -0.011218919 -0.015609837 -0.012505028 0.053462673
000110 f5 33 81 3d 79 ae f0 3c 34 24 cc 3b 31 b1 8a 3c
       0.06308738 0.02938007 0.0062299017 0.016930195
000120 23 3d c5 3c a7 06 b5 3d 8d 22 6d 3d e4 9e 9a 3c
       0.024077004 0.088391595 0.05789428 0.018874593
000130 a3 2a dd 3c 25 9d ba 3d f6 26 4b 3d 00 b4 6c 3d
       0.02699787 0.09112004 0.049597703 0.05778885
000140 98 cb 8c 3d c4 f6 dc bb 88 16 2e bd cd 53 b4 3c
       0.0687477 -0.006743284 -0.042501956 0.022012616
000150 5e ee 58 3c 01 5a 1d 3d 5d 2a 5c bb 75 17 0c 3d
       0.013240425 0.038415913 -0.0033594586 0.034202058
000160 9f ff 27 bc e8 63 24 bd 40 fb 83 bd 72 b0 8b bd
       -0.010253816 -0.04013434 -0.064444065 -0.06820764
000170 db 74 df bd 31 95 89 bd d9 34 7e bd 99 94 96 bd
       -0.1091096 -0.06717909 -0.06206212 -0.073525615
000180 fe 13 08 be a1 54 06 be a2 c8 de bd b6 0e ae 3d
       -0.13288876 -0.13118221 -0.108781114 0.084989
000190 bb 68 cc 3c b3 c6 5e 3d 34 d7 cf 3d 5e 72 c8 3d
       0.024952283 0.054388713 0.101484686 0.09787439
0001a0 98 40 fe 3c fd fb 98 3c d4 98 b2 3d 56 13 1c 3d
       0.03103666 0.018674845 0.08720556 0.038104378
0001b0 43 77 06 3d 97 43 8e 3d d4 3a a1 3d ab 79 a1 3d
       0.03282858 0.069464855 0.07872549 0.078845344
0001c0 cc 20 fb 3c 40 6e af 3c ac 93 e0 3c f2 83 31 3d
       0.030655287 0.021414876 0.027414165 0.043338723
0001d0 87 b0 9c 3d 1f 2a 8e bd 9b d4 ab bd f4 24 14 bd
       0.076508574 -0.06941628 -0.08390161 -0.036168054
0001e0 52 66 7d bd ab 68 b0 bd e3 c0 28 bd bb 43 5b bd
       -0.06186516 -0.08613714 -0.041199576 -0.05353139
0001f0 88 cf 74 bd af 5c d3 bc c2 ae ef 3b 5e 0e c3 3b
       -0.05976823 -0.02580103 0.007314534 0.0059526404
000200 cb cd ce bc e1 0a d2 3b 13 9b ce 3c 43 84 39 3c
       -0.025244614 0.0064099883 0.02522043 0.011323038
000210 47 a9 10 3d 60 17 c2 3c 35 bc 35 ba 57 33 93 b9
       0.035317685 0.023692787 -0.0006932647 -0.00028076276
000220 8d 2b ec bc 32 d1 cd bc e1 48 74 bc 90 38 ca bc
       -0.02882936 -0.025124166 -0.014909954 -0.024685174
000230 27 b6 89 bd 82 f5 02 bd f4 59 63 bd 08 3b 4f bd
       -0.06724196 -0.031972416 -0.055505708 -0.050593406
000240 00 f4 83 3b ea 4f 0f 3c 40 c3 17 bd 5e 4a 9e ba
       0.00402689 0.00874708 -0.03705144 -0.0012076607
000250 77 37 11 bd bf a9 39 bd 19 69 df bc a8 3e 13 bc
       -0.035453286 -0.045327898 -0.027271794 -0.008987106
000260 02 8e b5 bb a6 ed 70 3d 42 3d e7 3d 1d 11 c3 3d
       -0.0055406103 0.05882039 0.11290981 0.095247485
000270 60 ba d7 3d b0 88 e2 3d f1 69 ce 3d 15 5b 7e 3d
       0.10533595 0.11061227 0.100788005 0.06209858
000280 9f 09 82 3d b7 68 71 3d 1f bf 19 bd e5 26 8f bc
       0.06349491 0.058937754 -0.037535783 -0.017474601
000290 81 65 76 bd 65 16 0b bd bf d8 71 bd 4b 8e c2 bb
       -0.060155395 -0.033956904 -0.059044596 -0.005937373
0002a0 5e a2 7e 3c db ff b7 bc f2 3d 3a bd 27 c8 69 3c
       0.015541641 -0.022460869 -0.045469232 0.014268911
0002b0 06 c7 05 3c e9 c0 3d 3c b2 d9 10 3d c0 a6 7c 3c
       0.008165127 0.011581638 0.03536386 0.015420616
0002c0 b7 62 bf 3c 14 d2 82 3d 8b de 7b 3b d7 d7 74 3d
       0.0233625 0.063877255 0.0038432206 0.059776153
0002d0 77 9b d7 bd 9d f4 9f bd 17 e0 af bd a0 77 7c bd
       -0.105276994 -0.07810328 -0.085876636 -0.06163752
0002e0 ea 53 f0 bd e8 fc 88 bd 6a 2e cb bd 78 6d 44 bd
       -0.11734755 -0.06688863 -0.09920962 -0.04795596
0002f0 8f 19 ce bd eb 79 88 3d 8e 92 38 3d 7d 1c 6b 3d
       -0.10063469 0.06663879 0.04506164 0.057400215
000300 49 0d cb 3d 3c 16 9e 3d 19 37 63 3d 5c b5 72 3d
       0.09914643 0.077190846 0.055472467 0.05925499
000310 bd fe 99 3d e0 fa 8b 3d 83 26 65 bd f2 9e 98 bd
       0.075192906 0.0683496 -0.05594493 -0.074521914
000320 3c 57 c2 bd 51 90 bf bd ca 11 a2 bd d2 3d 25 bd
       -0.09489295 -0.09353698 -0.07913549 -0.04034216
000330 97 f6 86 bd 77 54 a9 bd ce 23 e7 bd 7e 08 dc bd
       -0.06590002 -0.082680635 -0.11286126 -0.10743807
000340 50 09 ca bd 68 57 7e bd a0 94 e6 bd f3 db da bd
       -0.098650575 -0.062095076 -0.11258817 -0.10686483
000350 e7 49 42 bd 42 2a 6f bd de 79 59 bd e7 6c 2c bd
       -0.04743376 -0.05838991 -0.053094737 -0.042096045
000360 a5 c3 c2 bd 94 3e 49 bd a3 eb c4 bd c5 53 a7 bd
       -0.095099725 -0.049131945 -0.09615257 -0.08170275
000370 ff c1 b5 bd 23 27 09 bd bf bb 80 bd de 71 cd bc
       -0.088748924 -0.03348459 -0.0628581 -0.02507871
000380 a2 87 88 bd 59 a2 0f 3d 10 4d 4a bc 5a 2d 0c 3c
       -0.06666495 0.035066936 -0.012347475 0.0085557345
000390 be 17 61 3c 3f 9c 5f 3d 13 a4 70 bc fd 05 ae 3a
       0.013738571 0.054592367 -0.014687556 0.0013276931
0003a0 79 f3 63 3d 5e 58 c6 3b cb 4d c8 3d 75 12 bb 3d
       0.055652115 0.0060530147 0.09780463 0.0913438
0003b0 f1 08 79 3d e3 8b 8c 3d 09 68 21 3d 18 46 8c 3d
       0.060799543 0.06862619 0.039405856 0.06849307
0003c0 56 38 89 3d e6 30 7f 3d 08 6f 03 3d a1 d6 81 3d
       0.06700198 0.062302493 0.03208831 0.06339765
0003d0 93 2d 9b 3d 9e a6 84 3d f3 82 63 3d 57 cc a4 3d
       0.07577052 0.06477092 0.055544805 0.08046787
0003e0 ea e9 ab 3d 3e 7a ca 3d 0d ed ad 3d 9f 06 88 3d
       0.08394225 0.09886597 0.084924795 0.06641888
0003f0 3c be 53 3c 19 7e d5 3b 17 db 18 bc 50 46 83 bc
       0.012923773 0.006515276 -0.009329579 -0.016024739

weight f4 [64, 64, 3, 3]
000000 30 e7 63 bd b7 ad a5 bc 77 61 93 bd 2b d7 f9 bc
       -0.0556404 -0.020224435 -0.07196324 -0.030498108
000010 e1 57 3f bd a9 83 12 bd 57 03 aa bd 55 ad 86 bc
       -0.046714667 -0.035770092 -0.08301418 -0.016440073
000020 08 9a 51 bc 0d 08 58 bd 0b cb 12 bd 6c 51 4b bd
       -0.012793072 -0.052742053 -0.035838168 -0.049638197
000030 ff 50 a8 bd ca ba 89 bd 56 66 3e bd 93 ef 55 bd
       -0.08218574 -0.0672508 -0.046484314 -0.05223043
000040 10 4c 3e bd ed 96 7b bd 0d 4b 11 bd 20 6b f9 bb
       -0.046459258 -0.06142323 -0.035471965 -0.0076116472
000050 12 83 8e bd 73 e4 63 bd 31 72 a0 bd 37 31 12 bd
       -0.069585934 -0.055637788 -0.0783428 -0.035691466
000060 d2 91 89 bd 4f 7c af bd 06 f9 a9 bc e2 df a8 bd
       -0.06717266 -0.08568632 -0.020748626 -0.08245827
000070 ed 42 74 bc 21 d2 86 bd a4 4f b2 bd d0 02 9a bd
       -0.0149085345 -0.06583048 -0.087065965 -0.07520068
000080 5d fd 0a bd 20 d7 a0 bd 8c 34 aa bd c8 4d 03 bd
       -0.033933032 -0.07853532 -0.08310804 -0.0320566
000090 d9 23 bd bd cc ce fe bc 85 b1 a2 bd f7 38 91 bd
       -0.09235353 -0.031104468 -0.079440154 -0.07090943
0000a0 2f ea c2 bd 4e 6b 07 bd f0 1f 95 bd 64 f2 6a bd
       -0.09517323 -0.033061318 -0.07281482 -0.057360068
0000b0 af 67 ca bd 59 05 7e bd 8a 66 54 bc aa 76 ae bd
       -0.09883057 -0.06201682 -0.0129639 -0.08518727
0000c0 2e b9 a8 bc 0a d7 71 bd f1 22 7d bc 7f 4d 95 bd
       -0.020596113 -0.059042968 -0.015450225 -0.07290172
0000d0 d9 7e 9b bd ef 8a b8 bc 30 65 1e 3d 36 14 99 3d
       -0.07592554 -0.022527186 0.03867072 0.07474558
0000e0 e0 90 7f 3d f9 80 33 3d ec d3 7c 3d a7 86 37 3d
       0.062394023 0.04382417 0.061725542 0.04480615
0000f0 61 07 a3 3d d2 33 1a 3d 0a 71 08 3d 52 28 21 bd
       0.07960392 0.037647076 0.033310927 -0.039345093
000100 44 38 4a bd 83 75 41 bd f0 f2 e2 bc c5 a2 f0 bc
       -0.049370065 -0.04723121 -0.027703732 -0.02937449
000110 fb 6a 5d bd bf 7d 6a bd d9 91 d8 bb 86 a2 3c bd
       -0.054057103 -0.057248827 -0.0066091833 -0.046053432
000120 dd c6 85 3d 63 14 16 3d a6 fd 95 3d 7e f5 26 3d
       0.06532071 0.036640536 0.0732377 0.040761463
000130 73 d1 aa 3d 88 42 f1 3c 65 a0 e0 3d bb 88 0d 3d
       0.083407305 0.02945067 0.10968093 0.034554224
000140 86 59 3f 3d fc 82 39 bd a5 4b 95 bd 08 32 11 bd
       0.046716236 -0.045290932 -0.07289819 -0.035448104
000150 c6 0f 46 bd 6e 1d b5 bd 01 05 1d bd 6c c1 16 bd
       -0.048354886 -0.08843504 -0.03833485 -0.036805555
000160 46 42 3b bd e6 f4 1b bd 0d f5 27 3c f7 65 c2 3c
       -0.0457175 -0.03807535 0.010251296 0.023730261
000170 7e 3e 88 3c ee d5 b1 bb 26 a2 cc b9 eb 61 2b 3d
       0.016631361 -0.0054271137 -0.00039030722 0.04184143
000180 2d 66 8e 3d 8e 21 5d 3d 55 49 34 3d 5d 49 d2 bd
       0.06953082 0.05398708 0.044015247 -0.10267899
000190 ca ad be bd 88 f9 c4 bd 67 c5 1e bd 4c 23 7c bd
       -0.093104914 -0.09617907 -0.038762476 -0.0615571
0001a0 cb 22 16 bd b4 94 77 bd 01 70 b7 bd c2 2c b7 bd
       -0.036654275 -0.06044455 -0.0895691 -0.08944084
0001b0 15 d4 8a bd 89 c6 b2 bd df 68 d5 bd 66 d5 3d bd
       -0.06778733 -0.08729274 -0.10420393 -0.04634609
0001c0 d3 f5 bd bd ce be c7 bd c5 ac a0 bd dc 63 6a bd
       -0.09275403 -0.0975319 -0.07845453 -0.05722414
0001d0 79 44 26 bd 0f e9 f9 bc 1e c2 8e bd bc de bc bd
       -0.040592644 -0.030506639 -0.06970619 -0.09222171
0001e0 91 a7 89 bd e0 dc ad bc 56 04 e8 bc 28 41 aa bd
       -0.06721414 -0.021223485 -0.02832238 -0.08313209
0001f0 4a 1f c0 bc 7a 3f 85 bd 39 33 9d bd a4 2c 53 bb
       -0.02345242 -0.06506248 -0.076757856 -0.0032222653
000200 4b eb 6f bd 00 95 8e bb 85 cc 9a bd 63 dc 1d bb
       -0.058574002 -0.0043512583 -0.0755854 -0.002408766
000210 05 89 71 3b 9a a6 90 3b 93 ab 84 bd 1e 89 00 bd
       0.0036855352 0.0044143917 -0.06478038 -0.031380765
000220 d6 10 83 bd c7 13 b6 bc 98 24 a9 bd 24 21 50 bd
       -0.063996956 -0.022226227 -0.08258933 -0.050812855
000230 12 d0 cd bc 29 3a 2d bc 78 be 97 bd a0 62 c3 bc
       -0.02512363 -0.0105729485 -0.07409376 -0.023850739
000240 73 aa b0 3c 68 1a 58 ba 0d c3 d2 3c 80 99 69 3d
       0.021565652 -0.0008243681 0.025727773 0.057031155
000250 da e6 aa 3b 69 55 91 3c dc f2 97 3d f0 7b 1c 3c
       0.005215508 0.017740922 0.074193686 0.009551033
000260 b2 f8 9f 3d 6c 58 57 3b bf 89 e8 bb d8 42 36 bd
       0.07811107 0.00328591 -0.0070964987 -0.04449734
000270 4a 7e 2a bd 49 72 68 bd a3 11 94 bc 94 7b 52 bd
       -0.041624345 -0.056749616 -0.018074816 -0.051387385
000280 74 31 4b bb bf 2b 82 bb c9 f6 53 3d 17 f3 6a bc
       -0.0031004818 -0.0039725 0.051749025 -0.014340184
000290 be 3f 47 bc 83 6d 04 3d e5 21 df 3c 35 cb 42 3d
       -0.012161193 0.032331 0.027237842 0.047557075
0002a0 1c d4 16 3d 9a a2 00 3d 19 39 41 bb 0e 7b b2 bd
       0.036823377 0.03140507 -0.0029483496 -0.08714877
0002b0 f6 df 8c bd bb 55 b6 bc 56 40 be bd 01 3c 77 bd
       -0.06878655 -0.022257676 -0.09289615 -0.06035996
0002c0 bf f8 70 bd ad da db bc 90 d1 3c bd 36 bc 2d bd
       -0.058830973 -0.026837671 -0.046098292 -0.04241582
0002d0 bb fc d2 bd 71 12 64 bd 77 94 69 bd 21 be 0e bd
       -0.10302111 -0.05568165 -0.057026353 -0.03484929
0002e0 d4 8b 03 bd f5 e4 d8 bd 59 ba 61 bd ea f6 cb bd
       -0.032115772 -0.10590545 -0.055109356 -0.099592045
0002f0 a1 dc 78 bd a5 7b 8c bd 3a c4 29 bd af fe 83 bd
       -0.060757283 -0.06859521 -0.0414469 -0.064450614
000300 5d bc ed bc c4 df 53 bd a4 94 44 ba 27 46 c3 b9
       -0.029020483 -0.05172707 -0.0007498956 -0.00037245566
000310 cf 8d 08 bd e3 de 14 bc dd 54 73 bb 27 34 8e 3c
       -0.033338364 -0.009086343 -0.003712944 0.017358853
000320 90 50 9c 3d 0b 26 93 3d ce 0e 6c 3d 26 e4 1a 3d
       0.076325536 0.071849905 0.057631306 0.037815236
000330 6d 4a 55 3d 43 68 7d 3b ae ce af bb 3f e6 af 3d
       0.05207293 0.003866688 -0.0053652143 0.08588838
000340 da e8 1b 3d 46 ca 4e 3d 7e ac 0d 3d 96 6d 9d 3d
       0.03806386 0.05048587 0.03458833 0.076869175
000350 ce be bf 3c 26 88 9d 3d 62 fa 0e 3d 70 cd 3c 3d
       0.023406412 0.07691984 0.034906752 0.046094358
000360 a4 4d 90 3d 6a 7d f2 3c e0 c6 92 3d 30 a2 99 3b
       0.07046059 0.029600818 0.07166839 0.0046885237
000370 b4 1c 20 3d 61 3e df 3c cf b8 ad 3c 6d 6d a0 3d
       0.039089873 0.027251424 0.021206288 0.07833371
000380 a1 c6 96 3d ff 5e 9b bc 50 88 fc bc 9c 00 af bd
       0.07362104 -0.018966196 -0.030826718 -0.08545038
000390 be 69 c5 bd ca cd f0 bc ec d1 8c bd d3 cb d6 bd
       -0.09639309 -0.029395003 -0.06875977 -0.10488095
0003a0 6b 00 91 bd a2 f4 ca bc 24 95 9d 3d 45 1b 34 3d
       -0.07080158 -0.024774853 0.07694462 0.04397132
0003b0 72 66 ce 3d 3e 20 6b 3d 66 0a 5d 3d 96 4f 32 3d
       0.10078134 0.057403795 0.053964995 0.04353293
0003c0 84 15 bf 3d 4f 8c 97 3d dc 31 e3 3d c0 93 44 3d
       0.09330276 0.073998086 0.11093494 0.047992468
0003d0 29 dc 86 3d b8 3a 93 3d 18 14 c7 3d 50 75 6f 3d
       0.06584961 0.07188934 0.097206295 0.058461487
0003e0 63 73 dc 3d 67 e7 5a 3d 53 b7 87 3d d9 be b0 3d
       0.10764196 0.05344334 0.06626763 0.08630151
0003f0 78 4d cd 3d b4 0e a4 3d 20 43 03 3d 60 7c 8d 3d
       0.100245416 0.08010617 0.032046437 0.06908488

weight f4 [64, 64, 3, 3]
000000 30 a5 98 bc 68 9e 12 bd 74 bc 55 bd 61 f1 12 3c
       -0.018633455 -0.0357956 -0.052181676 0.008968682
000010 3f ed a0 bc f0 a3 de bc e8 89 0b 3c 2a e3 77 bd
       -0.019644378 -0.02717778 0.008516766 -0.060519375
000020 15 10 2f bd b1 29 31 3d 46 3b 9a 3c 2b 3b a7 bc
       -0.042739946 0.04325265 0.018827092 -0.020413956
000030 d7 9b 05 bd 2a 21 43 bc 65 9e 07 bd 2e 81 5a 3c
       -0.032619324 -0.011909762 -0.03311004 0.013336463
000040 a9 a5 4f 3c f2 18 d1 bc 95 39 33 3d 62 21 f5 3c
       0.012673774 -0.02552459 0.043756086 0.029923145
000050 57 ef 3c bc 76 f1 2d 3d a1 4b d4 3b 8e 4d 82 3c
       -0.011531672 0.042466603 0.006478742 0.015906122
000060 ed 99 8c 3b 06 53 98 bb a5 ee 9b bc bc 36 90 3d
       0.0042908103 -0.004648569 -0.019034693 0.0704169
000070 b5 66 d2 3d bc c4 cc 3d 01 18 5c 3d e5 7a 99 3d
       0.10273496 0.099984616 0.05373383 0.074941434
000080 53 0d 3d 3d 8c bf 84 3d f7 8a e8 3d 28 cf 80 3d
       0.046155285 0.06481847 0.113546304 0.06289512
000090 23 64 c0 bd 71 73 c3 bd 0b c8 43 bd bb ba 66 bd
       -0.093940996 -0.09543503 -0.047798198 -0.056330424
0000a0 aa 33 ca bd a1 49 a9 bd 69 87 7d bd 29 fc e7 bd
       -0.098731354 -0.08265997 -0.061896715 -0.113273926
0000b0 56 4e a2 bd fd 0f 9a bd 75 37 56 bd 10 af b4 bd
       -0.07925098 -0.07522581 -0.05229898 -0.08822453
0000c0 bd 00 e0 bd 07 75 b9 bd f0 02 69 bd ab 3d b4 bd
       -0.10937641 -0.09055524 -0.056887567 -0.08800825
0000d0 0f 0b 9d bd 25 a2 62 bd 8c 29 8e 3d ff b3 b8 3d
       -0.07668125 -0.055330414 0.06941518 0.090187065
0000e0 26 b6 b0 3d 70 72 d1 3d f1 fc bd 3d ee 5c d1 3d
       0.08628492 0.10226905 0.0927676 0.10222803
0000f0 8e b8 50 3d 2c 00 f1 3d c4 e1 91 3d dd 71 b9 3d
       0.050957255 0.11767611 0.071231395 0.09054921
000100 9b 4e ad 3d 75 00 97 3d 7e 20 e9 3d a3 d5 3b 3d
       0.084622584 0.07373134 0.113831505 0.045858037
000110 4c be 9f 3d b9 ed 5d 3d 79 ad 02 3e 23 ea f4 3d
       0.07799968 0.054181788 0.12761487 0.119587205
000120 aa 63 04 be 29 7e bd bd 5f d5 94 bd 26 23 c2 bd
       -0.12928644 -0.09252579 -0.0726726 -0.0947936
000130 fd bd 98 bd 54 15 8a bd df cd 94 bd e8 0e c4 bd
       -0.074581124 -0.06742349 -0.07265829 -0.09573156
000140 ca 10 fd bd f4 61 b0 bc 31 61 f4 bc 64 9e ea bc
       -0.12356718 -0.021531083 -0.0298315 -0.02863998
000150 e9 6e 53 bc b0 55 84 3c 25 06 37 3d b3 bb 6f bc
       -0.012904861 0.01615414 0.044683594 -0.014632153
000160 83 39 84 bc 6d e4 0a 3d 19 45 f6 3d 4b 48 f9 3d
       -0.016140705 0.03390925 0.12024898 0.12171992
000170 f4 89 ca 3d 9e 38 7c 3d 37 12 ed 3d 42 bd 00 3e
       0.09889594 0.06157743 0.1157574 0.12572196
000180 b3 d8 d3 3d fe 5d cf 3d ab 73 0d 3e 30 9a ff bd
       0.103440665 0.101253495 0.13813655 -0.12480581
000190 43 7e e7 bd c4 d3 d5 bd 4b 96 d7 bd eb 53 e1 bd
       -0.113033794 -0.10440782 -0.10526713 -0.11002334
0001a0 69 88 be bd d2 54 87 bd 30 4d e1 bd 7f 00 9c bd
       -0.09303362 -0.06607975 -0.110010505 -0.07617282
0001b0 c1 fb 13 bd 48 1c c6 bc 9e 2a 0c bc 1d c2 40 bd
       -0.036128763 -0.024183407 -0.008555083 -0.04706012
0001c0 c0 a6 9f 3c 3f 2b 19 bd 78 91 9a bc d7 4c c4 bc
       0.019488692 -0.03739476 -0.018868193 -0.023962421
0001d0 6a 36 10 bd 7d 4d c3 bd 06 78 02 be fa 19 e3 bd
       -0.035208143 -0.09536264 -0.12741098 -0.11088939
0001e0 73 e1 e6 bd a5 9c a1 bd 14 08 0e be b8 42 a7 bd
       -0.1127347 -0.07891206 -0.13870269 -0.081670225
0001f0 c9 a0 c5 bd 86 56 0b be 06 60 83 3c 44 e1 26 3b
       -0.09649808 -0.13607225 0.016036998 0.0025463859
000200 e0 22 02 3b ad 62 8f bb 78 4c 5d 3d 55 4b 80 3c
       0.0019857213 -0.0043757767 0.054028004 0.015660921
000210 d5 df 03 3d e5 db 1a 3b 59 7f a0 3c 8c c0 da 3d
       0.032195885 0.0023629603 0.019591974 0.10681257
000220 39 b8 a0 3d d7 3d a2 3d a8 52 ce 3d 7c be 45 3d
       0.07847638 0.07921951 0.10074359 0.048277363
000230 67 58 b9 3d 20 82 df 3d 39 10 c7 3d 2a d3 0b 3e
       0.090500645 0.10913491 0.09719891 0.13654771
000240 d8 f4 ed bd 5c f3 01 be 0b f7 b7 bd cf c2 00 be
       -0.11618966 -0.1269049 -0.089826666 -0.12574314
000250 d9 41 6a bd 72 ec 7b bd f8 3c 02 be b4 8a f3 bd
       -0.057191703 -0.06150479 -0.1271857 -0.1189169
000260 12 eb e9 bd b1 98 4b 3d a9 75 86 3c 23 43 0f 3d
       -0.11421789 0.049706165 0.016413527 0.034976136
000270 9c 04 bd 3d 8e d5 9b 3d 5f 26 a4 3c 70 16 a7 3d
       0.09229395 0.07609092 0.020037828 0.081585765
000280 dd 53 14 3d 78 da a9 3d 33 1a 01 be c8 67 8d bd
       0.03621279 0.08293623 -0.1260765 -0.0690456
000290 5c f9 74 bd 66 07 7f bd eb d5 f0 bd 7a e0 db bd
       -0.05980812 -0.062262915 -0.117595516 -0.10736175
0002a0 99 8b 9d bd 5c 1f ed bd 20 d6 a3 bd b7 71 75 3d
       -0.07692642 -0.11578247 -0.079998255 0.0599229
0002b0 34 2c d2 3d 85 38 59 3d 32 08 f6 3d 8e 89 fb 3d
       0.10262337 0.053032417 0.12013282 0.12282096
0002c0 67 52 62 3d 01 94 a9 3d bb e6 e4 3d 80 0a 64 3d
       0.055254366 0.08280183 0.11176821 0.055674076
0002d0 20 97 af bd 58 67 6e bd 08 f6 02 be 61 8b f1 bd
       -0.08573747 -0.058204025 -0.12789166 -0.117941625
0002e0 4a c0 c5 bd 62 4f a9 bd 42 8f d6 bd a0 0a ed bd
       -0.09655817 -0.08267094 -0.10476543 -0.11574292
0002f0 56 9d fb bd 74 b5 a8 bd 0a 08 46 bd 3b bf ff bd
       -0.12285869 -0.082377344 -0.04834751 -0.12487646
000300 55 41 fd bd 75 22 f4 bd 0e f3 ff bd 1a f1 71 bd
       -0.12365977 -0.11920635 -0.12497531 -0.059067823
000310 5d 1d c1 bd 41 75 ab bd c0 ea 85 3d 22 97 63 3d
       -0.09429429 -0.08371974 0.06538916 0.055564053
000320 39 97 39 3d 5d c6 9e 3d ce 3d 61 3d 4e 5e cd 3d
       0.045310233 0.077526785 0.054990582 0.10027753
000330 17 a9 51 3d 1e 7c 4d 3d a0 ca 84 3d 12 7c 1e bd
       0.051186647 0.050167195 0.0648396 -0.03869254
000340 03 c3 a2 bc 10 65 d2 3c 96 b9 b0 bc 4b bc 14 3d
       -0.01986838 0.025682956 -0.02157287 0.036312383
000350 39 45 a3 3c c7 97 b0 bc c3 cd 4f 3c 08 b1 46 3d
       0.019930469 -0.021556748 0.012683335 0.048508674
000360 75 ce 56 bc 09 d3 47 bc a8 2b d5 bc 2e 82 98 3c
       -0.013110747 -0.012196311 -0.026021793 0.018616762
000370 12 44 52 bc bc 9d 1f bc 71 6e 27 bc 71 f9 dd 3c
       -0.012833612 -0.009742197 -0.010219202 0.027096482
000380 75 33 a6 bc 70 0d be 3d bc 3b f3 3d e2 e1 5a 3d
       -0.020288208 0.09279907 0.11876628 0.053438075
000390 f2 f3 e5 3d 9e 6d 91 3d bb 94 b1 3d 65 f0 b5 3d
       0.112281695 0.07100986 0.08670946 0.08883742
0003a0 97 d8 f0 3d f7 e3 a5 3d 57 f9 ed 3d 9a b5 ea 3d
       0.11760061 0.081001215 0.116198234 0.11460419
0003b0 39 3c a7 3d 57 7b f8 3d 0d bf 62 3d a5 1a 00 3e
       0.081657834 0.121329 0.05535798 0.12510164
0003c0 dc ad ae 3d 3d 47 ea 3d 45 95 c3 3d 65 04 3d bd
       0.08529255 0.11439369 0.09549955 -0.04614677
0003d0 f0 dd bd bd 6c 3f 35 bd e3 da 4f bd 4c c3 50 bd
       -0.09270847 -0.044249937 -0.050745856 -0.0509675
0003e0 b4 30 ba bd 3c 00 c1 bd f1 e7 4a bd 60 fc d4 bd
       -0.09091321 -0.09423873 -0.049537603 -0.10399699
0003f0 f6 9a e3 3d 55 5d b8 3d c1 c4 ee 3d 2d 77 a9 3d
       0.11113541 0.09002177 0.116586216 0.08274684

weight_orig f4 [1, 64, 3, 3]
000000 de cb e5 3c 8c 91 2c bd b0 ef b3 bc cf d1 ec bc
       0.028051313 -0.04213099 -0.021964878 -0.028908638
000010 98 c4 56 3c a1 8f 5d bc 59 d8 35 bc 5e 83 11 3c
       0.013108395 -0.013523013 -0.011098945 0.008881418
000020 67 43 20 bd 22 56 d1 3d 36 33 99 3d 92 08 b5 3d
       -0.03912678 0.10221507 0.07480471 0.08839525
000030 98 4f a9 3d f8 eb c4 3d aa 2e 1d 3d 37 d4 31 3d
       0.082671344 0.0961532 0.03837458 0.043415274
000040 39 b4 c3 3d 9d 68 35 3d ae 3c ac 3c 50 34 1b 3b
       0.09555859 0.04428922 0.021025028 0.0023682304
000050 52 55 cf 3c 34 ff 0b 3d 91 81 de 3c 24 6e ee ba
       0.025309239 0.034178928 0.027161391 -0.0018190783
000060 d5 6a 4f 3c f6 61 d7 bc dc fe 6e bb a2 64 95 3c
       0.012659748 -0.026291829 -0.0036467826 0.018236462
000070 aa eb 96 3c 0b 99 2b 3d 66 a4 92 bc b9 a5 5e 3d
       0.01842292 0.041894 -0.017900657 0.054357264
000080 12 94 4d bc fe 8d 88 3b 3d b6 15 3d 37 ab b3 3c
       -0.01254751 0.0041673174 0.03655075 0.021932228
000090 7c ba 3e bb f5 1e 32 3d a0 a3 dd bb b2 f0 61 3c
       -0.0029102853 0.043486554 -0.0067638904 0.013790296
0000a0 cd 56 0f 3d 7c 0e 9f ba d2 68 95 3c 34 48 94 bc
       0.03499489 -0.0012135054 0.018238459 -0.018100835
0000b0 8e 95 09 bc 42 04 5b 3d a4 d2 23 bd 82 62 7a 3d
       -0.008397473 0.053470857 -0.039995804 0.0611291
0000c0 41 f7 05 3c 6b e2 0a 3c 87 1e 88 3d 90 65 8b 3b
       0.008176626 0.008476834 0.06646448 0.0042540506
0000d0 15 ec 6e 3d 54 28 80 3c a4 bf 63 bd 10 39 00 bd
       0.058330614 0.01564423 -0.055602685 -0.03130442
0000e0 4a d5 06 3c 39 e5 d1 3a 63 fe 87 bd 88 30 bf bb
       0.008229563 0.0016013748 -0.06640317 -0.005834643
0000f0 10 17 85 3c 9f 4f 63 3c 26 fe 79 3b a5 2f 1a 3d
       0.016246349 0.013873964 0.003814587 0.037643094
000100 70 d5 04 bb 0f 54 81 3d cf 9a 63 3d 2f 0d 42 bb
       -0.002026882 0.06314861 0.05556756 -0.0029609909
000110 ba ec c4 3c c3 b6 04 3d 6b ab fd 3c 57 3b e0 bb
       0.024038661 0.032400858 0.030965528 -0.0068430114
000120 d2 8a 48 bc 6b 4e 8b ba c4 29 8c bc de 52 32 bc
       -0.012240129 -0.0010628229 -0.01710976 -0.010884015
000130 91 b1 8e bc d5 2c 23 bd 09 8e 35 bc 1f 52 06 bd
       -0.017418655 -0.039837677 -0.011081227 -0.03279316
000140 d5 7f 4c 3b d8 b2 30 3d 7e 1e f0 bc bf 84 be 3c
       0.0031204124 0.04313931 -0.029311415 0.023256658
000150 10 af 68 bc 76 77 01 3c 60 48 91 ba 7e 83 2c 3c
       -0.014201894 0.007902017 -0.0011084192 0.010529397
000160 60 f8 da bc 22 b1 53 3d 04 df 9e bd a6 14 ea 3c
       -0.026729763 0.0516826 -0.077573806 0.028574299
000170 22 9c 24 bd ad 23 77 bd 89 b9 a5 bd cf dc 87 bd
       -0.040187962 -0.060336757 -0.08092029 -0.06633913
000180 19 35 91 bd 4d a7 3b bd b5 df db bd 89 dd 28 bd
       -0.07090206 -0.045813847 -0.10736028 -0.041226897
000190 d6 01 05 bd 7a d6 f2 bc 91 c3 e0 bc 5d cc 19 bd
       -0.032472454 -0.029643286 -0.027437003 -0.03754841
0001a0 0f c5 00 bc e1 65 27 3d 27 18 0d bb 96 ff 65 bd
       -0.007859482 0.040868644 -0.0021529288 -0.05615195
0001b0 85 82 b8 bc 07 fc 10 bd 24 40 c3 bc a8 54 ac 3b
       -0.022523174 -0.035396602 -0.023834296 0.0052591152
0001c0 f8 da 0a 3c 7e 85 18 bc 26 1a 43 bc 9a 49 1e b8
       0.008475058 -0.009309171 -0.01190809 -3.7738682e-05
0001d0 04 8e 0a bc 1b a8 25 3d 85 ab 11 3d 6a 63 d0 bc
       -0.008456711 0.04044352 0.035563964 -0.02543803
0001e0 12 4b f6 3c 89 95 b4 bc 2e 2c 2c 3a 80 37 9c bb
       0.030065093 -0.02204396 0.00065678626 -0.0047673583
0001f0 0b a7 97 bc 61 47 27 ba 30 0a 69 3c fa 57 45 bb
       -0.01851227 -0.0006381181 0.01422362 -0.0030112253
000200 05 06 11 3d 25 f8 82 3d a9 fa 0d 3d c1 f3 28 3a
       0.03540613 0.06394986 0.034662876 0.00064450136
000210 8e 38 31 3d 23 26 1f 3c bb ef 19 3d 2c 32 22 bd
       0.043266825 0.009713682 0.03758214 -0.03959863
000220 06 3e 11 bd a5 1b 6a bc 24 14 b1 3b e6 a0 e8 bc
       -0.03545954 -0.0142888175 0.0054040123 -0.028397035
000230 61 90 87 bc 4b 01 27 3b 32 fa 27 bd 4f d2 a5 3c
       -0.016548337 0.0025482948 -0.04101009 0.020241885
000240 75 10 29 bc 71 a5 24 bc 3d 6f ff ba 93 74 87 3c
       -0.010318865 -0.01004921 -0.0019488108 0.01653508
000250 7a 2f 39 bc de 5d 96 3c 96 54 57 3c 4c f6 61 3d
       -0.011302823 0.018355306 0.013142725 0.055166528
000260 a8 22 1d 3d 88 b3 d8 bc cc 24 a5 bc d0 21 5c bb
       0.03836313 -0.026452795 -0.020159148 -0.003358949
000270 c5 81 bc 3c 4a 07 30 bc 33 7f 41 bc 53 74 8f bc
       0.023011098 -0.010743925 -0.011810112 -0.017511522
000280 34 4b 37 bd 8e 03 ff bc bc 4f 5c 3c 10 cf 6d bd
       -0.044749454 -0.031129625 0.0134467445 -0.0580588
000290 5c 81 4b bd 36 b7 18 3c 86 5f 2f bd 22 0f ad 3c
       -0.049683914 0.009321025 -0.042815708 0.02112538
0002a0 73 b2 0b bc 3f 31 73 bd 8a d6 01 3c 2a 56 e3 3b
       -0.008526432 -0.059373137 0.007924685 0.006937762
0002b0 fb 34 00 bc 49 fc 35 bc 7d 9b 82 bb fc 62 9d 3c
       -0.0078251315 -0.011107513 -0.003985821 0.019212238
0002c0 c4 7a 44 3d 36 8f d6 bc ad b2 c8 3c 00 8b 18 3a
       0.04796864 -0.026191335 0.024499262 0.00058190525
0002d0 f5 6a c4 3d e0 bc 0c 3d c6 65 a0 3d 11 3f 9f 3d
       0.09590713 0.034359813 0.07831912 0.07775701
0002e0 89 f8 99 3d 14 38 d6 3d d6 a2 6a 3d 9d 85 00 3d
       0.075181074 0.10459915 0.0572842 0.031377424
0002f0 2d d9 5e 3d 8e da e5 bc ee ee 37 3c 55 ac 21 bd
       0.054406334 -0.028058317 0.011226399 -0.03947099
000300 38 b7 34 3c a5 fb 43 bd 69 5c 57 ba 8c 53 27 bd
       0.011030011 -0.04784741 -0.00082153693 -0.04085116
000310 a8 23 23 bd b1 2a 84 3a 48 93 22 bd aa dc 15 3b
       -0.039828926 0.0010083524 -0.03969124 0.0022867122
000320 54 8f 11 3d 62 7d c8 3c ab c7 f0 3a a3 db a1 3b
       0.03553708 0.02447385 0.0018370053 0.004939513
000330 2e ad 90 bc 7d e7 97 bc ae e8 ce bc e6 46 69 3d
       -0.017660704 -0.018543 -0.025257435 0.05695238
000340 00 f7 2a 3c 7d f3 0c bc a1 9b ca 3b 70 b2 8e b9
       0.010434866 -0.008602974 0.006183103 -0.00027217297
000350 07 d9 0e 3d 40 ee 72 3c 58 b3 2f bc 96 d1 3d bb
       0.034874942 0.014827311 -0.010723911 -0.0028964034
000360 94 f1 ef bc e5 83 12 3c 6e 30 c8 bc 82 3e 11 3b
       -0.029289998 0.008942579 -0.024437156 0.0022162502
000370 d8 23 d9 3a f4 1d 2c bd a8 64 b1 bc 91 70 6d 3c
       0.0016566468 -0.042020753 -0.021654442 0.01449217
000380 e4 f0 c9 bb fa 0c 3a 3d e5 fd 2e 3d 08 af a7 bc
       -0.0061627496 0.04542253 0.0427226 -0.020469204
000390 23 ed 89 3b f5 2b fa 3c 7b ea 16 3d b5 3a c3 bb
       0.004209177 0.030538538 0.03684471 -0.005957926
0003a0 8a b4 bf bc 86 3f 3c 3c 10 8e b8 bc ec 8d ce 3c
       -0.023401517 0.011489755 -0.022528678 0.025214158
0003b0 9e 88 f4 bc 0d f1 b4 3c ba 0a 08 bb 45 74 d0 3c
       -0.0298503 0.022087598 -0.0020758347 0.025446067
0003c0 f1 d7 8c bc 3e 55 ee bc d8 60 0e bd 18 ca 97 3b
       -0.017192813 -0.029093381 -0.034760326 0.0046322457
0003d0 a7 4a c6 bc 3b ab 4c bd ae b3 ef bc 5c ac 4a bd
       -0.024205519 -0.049967986 -0.029260483 -0.04948078
0003e0 98 2d ea bc ea 49 64 bc cc 2c f7 bc f2 eb 32 bd
       -0.028586194 -0.013933638 -0.030172728 -0.043682046
0003f0 18 b2 bf bc e9 10 c4 3c 20 3c 5c bc 25 42 40 3d
       -0.023400351 0.023933845 -0.013442069 0.04693808

weight_mask f4 [1, 64, 3, 3]
000000 00 00 80 3f 00 00 80 3f 00 00 00 00 00 00 80 3f
       1.0 1.0 0.0 1.0
000010 00 00 80 3f 00 00 80 3f 00 00 80 3f 00 00 80 3f
       1.0 1.0 1.0 1.0
000020 00 00 80 3f 00 00 80 3f 00 00 80 3f 00 00 80 3f
       1.0 1.0 1.0 1.0
000030 00 00 80 3f 00 00 80 3f 00 00 80 3f 00 00 80 3f
       1.0 1.0 1.0 1.0
000040 00 00 80 3f 00 00 80 3f 00 00 80 3f 00 00 00 00
       1.0 1.0 1.0 0.0
000050 00 00 80 3f 00 00 80 3f 00 00 80 3f 00 00 80 3f
       1.0 1.0 1.0 1.0
000060 00 00 80 3f 00 00 80 3f 00 00 80 3f 00 00 80 3f
       1.0 1.0 1.0 1.0
000070 00 00 00 00 00 00 80 3f 00 00 80 3f 00 00 80 3f
       0.0 1.0 1.0 1.0
000080 00 00 80 3f 00 00 80 3f 00 00 00 00 00 00 80 3f
       1.0 1.0 0.0 1.0
000090 00 00 80 3f 00 00 80 3f 00 00 00 00 00 00 80 3f
       1.0 1.0 0.0 1.0
0000a0 00 00 80 3f 00 00 80 3f 00 00 80 3f 00 00 80 3f
       1.0 1.0 1.0 1.0
0000b0 00 00 80 3f 00 00 80 3f 00 00 00 00 00 00 80 3f
       1.0 1.0 0.0 1.0
0000c0 00 00 80 3f 00 00 80 3f 00 00 80 3f 00 00 80 3f
       1.0 1.0 1.0 1.0
0000d0 00 00 80 3f 00 00 80 3f 00 00 80 3f 00 00 80 3f
       1.0 1.0 1.0 1.0
0000e0 00 00 80 3f 00 00 80 3f 00 00 80 3f 00 00 00 00
       1.0 1.0 1.0 0.0
0000f0 00 00 80 3f 00 00 80 3f 00 00 80 3f 00 00 80 3f
       1.0 1.0 1.0 1.0
000100 00 00 00 00 00 00 80 3f 00 00 80 3f 00 00 80 3f
       0.0 1.0 1.0 1.0
000110 00 00 80 3f 00 00 80 3f 00 00 80 3f 00 00 80 3f
       1.0 1.0 1.0 1.0
000120 00 00 80 3f 00 00 80 3f 00 00 80 3f 00 00 80 3f
       1.0 1.0 1.0 1.0
000130 00 00 80 3f 00 00 80 3f 00 00 80 3f 00 00 80 3f
       1.0 1.0 1.0 1.0
000140 00 00 80 3f 00 00 80 3f 00 00 80 3f 00 00 80 3f
       1.0 1.0 1.0 1.0
000150 00 00 80 3f 00 00 80 3f 00 00 00 00 00 00 80 3f
       1.0 1.0 0.0 1.0
000160 00 00 80 3f 00 00 80 3f 00 00 80 3f 00 00 00 00
       1.0 1.0 1.0 0.0
000170 00 00 80 3f 00 00 80 3f 00 00 80 3f 00 00 80 3f
       1.0 1.0 1.0 1.0
000180 00 00 80 3f 00 00 80 3f 00 00 80 3f 00 00 80 3f
       1.0 1.0 1.0 1.0
000190 00 00 80 3f 00 00 80 3f 00 00 80 3f 00 00 80 3f
       1.0 1.0 1.0 1.0
0001a0 00 00 80 3f 00 00 00 00 00 00 80 3f 00 00 80 3f
       1.0 0.0 1.0 1.0
0001b0 00 00 80 3f 00 00 80 3f 00 00 80 3f 00 00 00 00
       1.0 1.0 1.0 0.0
0001c0 00 00 80 3f 00 00 80 3f 00 00 80 3f 00 00 80 3f
       1.0 1.0 1.0 1.0
0001d0 00 00 80 3f 00 00 80 3f 00 00 00 00 00 00 80 3f
       1.0 1.0 0.0 1.0
0001e0 00 00 80 3f 00 00 80 3f 00 00 80 3f 00 00 00 00
       1.0 1.0 1.0 0.0
0001f0 00 00 00 00 00 00 80 3f 00 00 80 3f 00 00 80 3f
       0.0 1.0 1.0 1.0
000200 00 00 80 3f 00 00 80 3f 00 00 80 3f 00 00 80 3f
       1.0 1.0 1.0 1.0
000210 00 00 80 3f 00 00 80 3f 00 00 80 3f 00 00 80 3f
       1.0 1.0 1.0 1.0
000220 00 00 80 3f 00 00 80 3f 00 00 80 3f 00 00 80 3f
       1.0 1.0 1.0 1.0
000230 00 00 80 3f 00 00 80 3f 00 00 00 00 00 00 80 3f
       1.0 1.0 0.0 1.0
000240 00 00 80 3f 00 00 80 3f 00 00 80 3f 00 00 80 3f
       1.0 1.0 1.0 1.0
000250 00 00 80 3f 00 00 80 3f 00 00 80 3f 00 00 80 3f
       1.0 1.0 1.0 1.0
000260 00 00 80 3f 00 00 00 00 00 00 80 3f 00 00 00 00
       1.0 0.0 1.0 0.0
000270 00 00 80 3f 00 00 80 3f 00 00 80 3f 00 00 80 3f
       1.0 1.0 1.0 1.0
000280 00 00 80 3f 00 00 80 3f 00 00 00 00 00 00 80 3f
       1.0 1.0 0.0 1.0
000290 00 00 80 3f 00 00 80 3f 00 00 80 3f 00 00 00 00
       1.0 1.0 1.0 0.0
0002a0 00 00 80 3f 00 00 80 3f 00 00 80 3f 00 00 80 3f
       1.0 1.0 1.0 1.0
0002b0 00 00 80 3f 00 00 80 3f 00 00 80 3f 00 00 80 3f
       1.0 1.0 1.0 1.0
0002c0 00 00 80 3f 00 00 00 00 00 00 80 3f 00 00 00 00
       1.0 0.0 1.0 0.0
0002d0 00 00 80 3f 00 00 80 3f 00 00 80 3f 00 00 80 3f
       1.0 1.0 1.0 1.0
0002e0 00 00 80 3f 00 00 80 3f 00 00 80 3f 00 00 00 00
       1.0 1.0 1.0 0.0
0002f0 00 00 80 3f 00 00 00 00 00 00 80 3f 00 00 80 3f
       1.0 0.0 1.0 1.0
000300 00 00 80 3f 00 00 80 3f 00 00 80 3f 00 00 80 3f
       1.0 1.0 1.0 1.0
000310 00 00 00 00 00 00 80 3f 00 00 00 00 00 00 80 3f
       0.0 1.0 0.0 1.0
000320 00 00 80 3f 00 00 80 3f 00 00 80 3f 00 00 80 3f
       1.0 1.0 1.0 1.0
000330 00 00 80 3f 00 00 80 3f 00 00 80 3f 00 00 80 3f
       1.0 1.0 1.0 1.0
000340 00 00 80 3f 00 00 80 3f 00 00 80 3f 00 00 80 3f
       1.0 1.0 1.0 1.0
000350 00 00 80 3f 00 00 80 3f 00 00 80 3f 00 00 80 3f
       1.0 1.0 1.0 1.0
000360 00 00 80 3f 00 00 80 3f 00 00 80 3f 00 00 80 3f
       1.0 1.0 1.0 1.0
000370 00 00 80 3f 00 00 80 3f 00 00 80 3f 00 00 80 3f
       1.0 1.0 1.0 1.0
000380 00 00 80 3f 00 00 80 3f 00 00 80 3f 00 00 00 00
       1.0 1.0 1.0 0.0
000390 00 00 80 3f 00 00 80 3f 00 00 80 3f 00 00 80 3f
       1.0 1.0 1.0 1.0
0003a0 00 00 80 3f 00 00 80 3f 00 00 80 3f 00 00 80 3f
       1.0 1.0 1.0 1.0
0003b0 00 00 80 3f 00 00 80 3f 00 00 80 3f 00 00 80 3f
       1.0 1.0 1.0 1.0
0003c0 00 00 80 3f 00 00 80 3f 00 00 80 3f 00 00 80 3f
       1.0 1.0 1.0 1.0
0003d0 00 00 80 3f 00 00 80 3f 00 00 00 00 00 00 80 3f
       1.0 1.0 0.0 1.0
0003e0 00 00 80 3f 00 00 80 3f 00 00 80 3f 00 00 80 3f
       1.0 1.0 1.0 1.0
0003f0 00 00 80 3f 00 00 80 3f 00 00 80 3f 00 00 80 3f
       1.0 1.0 1.0 1.0
