weights/Act_Sigmoid_SRCNN_model_path.pth (torch, 85183 bytes, 6 tensors)

weight f4 [64, 1, 9, 9]
000000 07 d9 46 3e 1a a7 27 3e 36 eb 86 3d 66 3b 44 3e
       0.19418727 0.16372338 0.06587832 0.19163284
000010 38 d6 8f 3e 61 0a 09 3e 8e fc e9 3d 29 83 23 3e
       0.28093123 0.13382865 0.11425124 0.15968002
000020 31 85 9d 3d 5f 00 58 3e 0e 40 11 3e 47 69 8d 3e
       0.0769142 0.21093892 0.14184591 0.27619383
000030 d2 76 06 3e 3c e2 8f 3e 6b 5a 29 3e 3f 1d 43 3e
       0.13131264 0.2810229 0.16538398 0.19054125
000040 a9 f5 d9 3d d7 9a fb 3d c8 e2 b9 3d 42 cd a2 3d
       0.10642559 0.12285393 0.09076458 0.07949306
000050 f7 dc 58 3e 4c 3d 2c 3e 7c 52 5a 3e d9 b4 00 3e
       0.21178041 0.16820258 0.21320528 0.12568988
000060 9a 46 3f 3e 24 c1 5b 3e 0d 1a 64 3e ab 75 80 3e
       0.18679276 0.21460396 0.22275563 0.25089774
000070 57 c2 3d 3e c6 a3 46 3e 28 56 06 3e 14 37 ed 3d
       0.18531166 0.19398412 0.13118804 0.11582771
000080 bb 69 9d 3d cc d9 23 3e bb f5 83 3e ee 83 69 3e
       0.07686182 0.16001052 0.25773415 0.22804233
000090 99 d9 2b 3e c4 57 32 3e bf 71 95 3e 87 06 7b 3e
       0.16782226 0.17416292 0.29188344 0.24514209
0000a0 98 a2 8a 3e 6b 49 e3 3d 24 ed e2 3d 2d 28 c1 3d
       0.27077174 0.11097988 0.11080387 0.09431491
0000b0 4a ff 95 3d ee da 6f 3e 99 ef 42 3e 68 97 41 3e
       0.07324083 0.23423359 0.19036712 0.18905413
0000c0 cc 6a 37 3e 9d 5b 48 3e e7 95 32 3e 32 ac 0a 3e
       0.17911834 0.19566198 0.17439996 0.1354225
0000d0 c5 5a 57 3e 17 74 76 3e a1 97 b6 3d ab 36 87 3e
       0.2103072 0.24067722 0.0891564 0.26408896
0000e0 5d ac 74 3e 0b 9f 22 3e 00 ab 8f 3e 1c 62 a3 3d
       0.23893876 0.15880983 0.2806015 0.07977697
0000f0 29 9d a9 3d 2e 51 a9 3d 62 b0 2c 3e 1b 11 13 3e
       0.08281929 0.08267437 0.1686416 0.14361994
000100 57 e6 85 3d b7 29 1a 3e 0c ce 12 3e 9e 8c 86 3e
       0.065380745 0.15054975 0.14336413 0.26279157
000110 0f d8 48 3e e6 24 b6 3d cb b3 42 3e ce 36 86 3d
       0.1961367 0.088937566 0.19013898 0.06553422
000120 b3 f5 59 3e 15 ff 20 3e 8c c8 19 3e 5b 0a d5 3d
       0.21285133 0.15722306 0.15017909 0.10402366
000130 e2 35 9e 3d fc 52 8c 3e 25 a1 6c 3e 72 74 82 3e
       0.07725121 0.27407062 0.23108347 0.25479466
000140 7f 19 30 3e 93 b8 9b bc 70 ee 2c 3e 78 0f 2f 3d
       0.17197226 -0.01900891 0.16887832 0.04273936
000150 3f 94 81 bd 3f 9e 8e 3c 1f 23 11 3c 4f 02 e4 3d
       -0.06327104 0.017409442 0.008858471 0.11133253
000160 9b 56 f4 3d 69 a8 df 3d c4 15 02 3d b7 60 89 bb
       0.11930581 0.109207936 0.03175904 -0.0041924375
000170 db 22 18 bd ef 26 93 3d 36 a3 da bd 5f 85 bf 3d
       -0.037142616 0.0718516 -0.10675661 0.093516104
000180 ab 35 40 bc f3 e3 16 3e d1 1a c8 3d e2 82 92 3d
       -0.011731545 0.14735393 0.0977074 0.0715387
000190 73 2e 91 bb 44 0c f8 bc 2c 60 59 3e de 6b 3b bd
       -0.004430586 -0.030279286 0.21228093 -0.045757167
0001a0 ea 18 3b 3e 4c 5f f7 39 bb 87 1d bd 9b 27 f3 3c
       0.18271223 0.00047182513 -0.03845952 0.029681971
0001b0 43 85 4c bd 69 33 e3 3d ef 76 a9 3d 66 e3 1e bd
       -0.049931776 0.1109379 0.08274638 -0.038791083
0001c0 6c 7b 43 bf f1 c8 d9 3c 0d 16 30 3d 10 e2 f8 bc
       -0.763602 0.026585074 0.04298978 -0.030381233
0001d0 d5 de e6 3d 4e 40 63 3d d4 e1 cf bd 32 fa 0b be
       0.112729706 0.055481248 -0.10150495 -0.1366966
0001e0 58 80 4c bf 83 dc ec bf e9 8a 38 bf 24 c4 18 be
       -0.7988334 -1.8504795 -0.7208696 -0.14918572
0001f0 20 99 db 3d 69 54 4f 3b 22 6b 3c 3d bd 1a 4b bd
       0.10722566 0.0031636006 0.046000607 -0.049586046
000200 12 97 5f 3e a1 19 66 3b 13 e0 0e bf cc 65 74 3d
       0.21834973 0.003511049 -0.5581066 0.059667394
000210 8d 79 61 3e 3a a6 b7 3d 31 7b 7f bd fd 5b a3 bd
       0.22019024 0.08967252 -0.062373344 -0.0797653
000220 d5 c6 0f be 83 24 52 3d b4 d6 af 3d 16 a7 9e bd
       -0.14040692 0.05130435 0.08585873 -0.07746713
000230 f5 04 b2 3d d1 61 17 be 54 ac 5e bd 85 7e 00 3d
       0.08692352 -0.14783408 -0.054363564 0.03137066
000240 a6 2f d0 3b 84 94 0c 3d 55 4e 48 bd d6 95 51 3d
       0.0063533364 0.034321323 -0.04890283 0.051168285
000250 13 ef 64 bd 5a 13 4b 3a e8 6c 4d bc 36 87 5c 3d
       -0.05589206 0.0007746719 -0.012538172 0.053839885
000260 09 4b d0 3d 54 b9 ec bd 84 3e 3c 3d dd 49 10 bd
       0.10170562 -0.11558786 0.045958057 -0.03522669
000270 1e 0f 81 bd 4c c6 03 3b 8b a6 df 3c 4b 35 fd 3c
       -0.063017115 0.0020107208 0.027301094 0.030909201
000280 2b 10 ad 3c 73 69 b6 bd fd bb 4f 3d 6b 6a 3e 3d
       0.021125874 -0.089068316 0.05071639 0.046488207
000290 d9 f8 b1 3c e1 78 97 3d 9c ac 34 3e f1 0a 5e 3d
       0.021725105 0.07396103 0.1764397 0.054209653
0002a0 39 70 b8 3d 29 93 08 3e 90 e4 3f 3e b7 bb cb bc
       0.0900578 0.13337387 0.18739533 -0.024869783
0002b0 e2 24 4f 3e 2f 29 dc 3c c9 61 d5 3d a1 51 82 3e
       0.20228913 0.026875107 0.10419042 0.25452903
0002c0 eb 91 23 3e ef b0 03 3e 91 71 4d 3e a1 c4 2d 3e
       0.15973632 0.12860464 0.20062853 0.16969539
0002d0 aa de 13 3e ed 99 55 3e 5f 97 51 3e 2e 1f 8d 3d
       0.14440408 0.208595 0.204679 0.06890713
0002e0 eb 95 8b 3d 40 44 f0 3d 35 3c 81 3e c4 a9 33 3e
       0.06815704 0.11731768 0.25241247 0.17545229
0002f0 37 f9 d4 3b 8f 76 5c 3d ac ac 66 3e e8 a7 30 3e
       0.0064994353 0.053824004 0.22526807 0.17251551
000300 38 24 5b 3d 52 3f 71 3e 8c 58 1d 3e 5f a2 58 3d
       0.053501338 0.23559311 0.15365809 0.052889224
000310 e4 17 cd 3d ef bb 29 3e 74 02 33 3d 66 ab d7 3d
       0.100143224 0.16575597 0.04370351 0.105307385
000320 57 43 50 3d 16 fc 94 3e 85 a1 93 3e 22 84 8b 3e
       0.05084547 0.29098576 0.28834167 0.27249247
000330 25 4e fa 3d 7b 6d 6b 3e 6b cd 73 3e 03 4b 59 3e
       0.12221936 0.22990982 0.2380883 0.21220021
000340 48 46 9b 3d d4 97 6c 3d 27 6f 92 3d c7 ad 48 3e
       0.075817645 0.057761982 0.07150107 0.19597541
000350 86 38 5b 3e e0 9b 5d 3e 5e df 57 3e 98 e6 79 3e
       0.2140828 0.21641493 0.21081302 0.24404371
000360 fd 72 67 bc 77 1e 24 3e d4 2c b2 3d 53 6f 4b 3e
       -0.014126536 0.16027246 0.086999565 0.19866686
000370 d5 3f d2 3d 5e ef 6f 3e fe 0c 20 3e df cf 6b 3e
       0.10266081 0.23431155 0.15629956 0.23028515
000380 ef 1d ed 3d 06 51 30 3e f8 d7 99 ba d5 d5 08 3e
       0.11577975 0.17218408 -0.0011737337 0.1336282
000390 99 32 6a 3e 05 d0 a0 3d 1d ab 97 3d 54 c2 92 3d
       0.22870864 0.078521766 0.07405684 0.071659714
0003a0 01 3f fb bb 5f 9b 4c 3d fc 44 02 3e ee 17 78 3d
       -0.0076674228 0.04995286 0.12721628 0.060569696
0003b0 9d 42 ae 3d aa 44 0a 3e bc 8f 23 3e bb 22 8a 3d
       0.08508799 0.13502756 0.15972799 0.067449056
0003c0 de 92 95 3d 11 6e 23 3e 4c dc 4e 3e c0 6e 94 3d
       0.07303403 0.15959956 0.20201224 0.072476864
0003d0 bf a7 41 3e ad 39 61 3d 3b 93 0b 3e 1e 31 28 3d
       0.18911646 0.054986645 0.13630383 0.041062467
0003e0 76 e0 46 3d fc 67 56 3e cc 26 01 3e 80 a1 7a 3e
       0.048553906 0.20938104 0.12612456 0.2447567
0003f0 db 84 0d 3e 7f 9d 27 3d 2f ff 80 3e 5c 8d 67 3e
       0.13820212 0.040921684 0.2519469 0.22612518

bias f4 [64]
000000 bc fe 51 3e 7d 9d 4a 3f 11 6f 7e 3e 8f c1 a5 3e
       0.2050733 0.7914656 0.24847056 0.32374236
000010 87 87 3f 3f c3 05 84 3e fa f3 cd 3e c2 38 b3 be
       0.74816173 0.25785646 0.40225202 -0.3500424
000020 65 d9 29 3f 12 d6 bf 3e ab 61 78 3e 43 b1 9f 3e
       0.6634734 0.3746801 0.24256007 0.31189927
000030 a0 34 2f 3f dd 9a 98 3e 0a 40 97 3e d3 e5 ac 3e
       0.68439674 0.2980565 0.29541045 0.33769092
000040 67 f2 5c 3e a9 e4 ae bc f6 ee 9a 3e e4 10 a4 3e
       0.21576844 -0.021349268 0.30260438 0.32044137
000050 3f 3c 21 3f ec df 00 3e fe 07 67 3e 80 52 f6 3e
       0.62982553 0.1258542 0.22561643 0.48109818
000060 29 bc 4c 3e b0 5a d9 3e b4 93 8a bc fd 6b 9c 3e
       0.19993652 0.42452002 -0.016916133 0.3055114
000070 3a bf c2 bc 97 ee 07 be 44 16 8c 3e d5 bc d0 3e
       -0.023772825 -0.13274609 0.27360737 0.40769067
000080 c4 35 1a 3f c8 bb 88 3e 6f cb b1 3e 7c 16 9b 3e
       0.6023829 0.26705766 0.3472552 0.30290592
000090 71 2b e2 3e 13 7f 9c 3e 13 81 25 3e 87 0f b5 3e
       0.44173768 0.305657 0.16162519 0.3536341
0000a0 d5 69 40 be e4 0c 0e 3f 85 02 94 3e ad a3 8c 3e
       -0.18790372 0.5548842 0.28908172 0.27468625
0000b0 00 24 79 3e ca 8e 7f 3e ac 62 e7 3e c4 6f ab 3e
       0.24330139 0.24956813 0.45192468 0.33483708
0000c0 c9 b0 0f 3f b7 dd 41 3f dc f8 66 3e 8f 29 9f 3e
       0.5612913 0.75728935 0.2255587 0.31086394
0000d0 6e 14 7e 3e 2d b6 4f 3f cb b8 59 3f 81 bd 79 3e
       0.24812481 0.81137353 0.85047597 0.24388696
0000e0 80 31 96 3e 85 83 d9 3e c4 7e e4 3c 46 0f 28 3e
       0.2933464 0.42483154 0.027892478 0.16412076
0000f0 94 1b b8 3e 39 ba 8b 3e 99 ab cf 3d 12 8c 27 3e
       0.3595854 0.27290514 0.101401515 0.16362026

weight f4 [32, 64, 1, 1]
000000 26 6d aa bd 4b 6c 0b be b0 24 6d be cb d9 17 be
       -0.083216 -0.13615529 -0.23158526 -0.14829175
000010 99 6b 46 bd df 76 64 be f5 31 06 be 4a d4 b8 bc
       -0.048442457 -0.2231097 -0.13104995 -0.022562165
000020 fe 36 f8 bd df 1e fc bd de eb 51 be bc 2a 82 be
       -0.12119864 -0.12310576 -0.20500132 -0.2542323
000030 46 ff 31 be 5e 77 cd bd 46 e5 dc bc 18 1e 70 bd
       -0.17382535 -0.10032533 -0.026964795 -0.05862245
000040 1b 05 84 be ae 5f 00 bd 48 03 a8 bd 29 38 a4 3b
       -0.25785145 -0.031341247 -0.08203751 0.0050115776
000050 38 da 00 be 8f 17 d2 bd ac 06 4d be 3c 46 c4 bd
       -0.12583244 -0.102584 -0.20022076 -0.09583709
000060 e5 8f 0d bd ae 16 21 bd c0 0f d1 bd a6 9e 8e bd
       -0.034561057 -0.03932827 -0.10208082 -0.069638535
000070 cf 10 2e bc fd 44 6d be 62 15 16 be 1a f1 2a be
       -0.010624125 -0.23170848 -0.14656594 -0.16693535
000080 37 a5 09 be 25 a7 30 be 0f ce 78 be 06 17 cd bc
       -0.1344193 -0.1725126 -0.24297355 -0.025035392
000090 85 71 ea bd 5e e0 6b bd f6 0d 30 be be 85 a0 bc
       -0.114474334 -0.05758702 -0.17192826 -0.019595023
0000a0 08 99 17 be 6b 2c 47 be 69 1a 68 be 34 8b 34 be
       -0.1480447 -0.19450538 -0.22666325 -0.17631227
0000b0 85 c2 89 be 19 ac 0a be 40 80 e0 bd 52 03 26 be
       -0.2690622 -0.13542213 -0.10961962 -0.16212204
0000c0 91 72 fd bc d8 f9 f5 bd 3b 21 58 be ca c2 7e be
       -0.030938419 -0.120105445 -0.21106426 -0.24878994
0000d0 2c 92 7c be 42 10 eb bc aa a8 72 bc eb a7 74 bd
       -0.24665135 -0.028694276 -0.01481072 -0.05973045
0000e0 a3 35 08 be b2 95 c6 bc 5a d8 3e be 3d 81 83 be
       -0.13301711 -0.024241302 -0.18637219 -0.25684538
0000f0 7c 02 ea bd 4a aa 24 be a1 3a ae bc 0e 0c f4 bd
       -0.11426255 -0.16080585 -0.02126819 -0.11916362
000100 3d 35 8b bc 93 fb 5d be cb be 3b be 2c f4 60 be
       -0.01699316 -0.21677999 -0.183345 -0.21968144
000110 eb 45 28 be 05 ec 50 be cf c5 b3 b9 95 33 31 3c
       -0.16432922 -0.20402534 -0.0003428892 0.010815521
000120 1b 9c 81 be 1b ad 50 be 19 95 a8 bd 77 d2 06 be
       -0.25314412 -0.20378534 -0.08231563 -0.13166223
000130 00 bc da bd 06 45 e6 bd 89 3e 17 be 4b b3 0b be
       -0.106803894 -0.11243634 -0.14769949 -0.13642614
000140 cb 03 12 be 89 e3 60 be c2 cc d0 bd a7 1d 37 be
       -0.1425926 -0.21961798 -0.101953045 -0.17882405
000150 fa 9d 92 bd 03 89 43 be a3 96 b0 bc a4 d8 a0 bd
       -0.07159038 -0.19095235 -0.021556204 -0.07853821
000160 84 85 48 be 52 c8 80 bd 64 a7 4e be c1 59 b2 bd
       -0.19582182 -0.06288208 -0.20181042 -0.087085254
000170 c5 6e 9d bd e6 ec 23 be 0e e3 e0 bd 89 f1 ff bd
       -0.07687143 -0.16008338 -0.10980807 -0.12497241
000180 6c f9 34 be 3b 06 1b bc 37 02 1a be 28 52 78 be
       -0.17673272 -0.009461935 -0.15039907 -0.2425009
000190 db 47 e5 bd e1 35 0a be 49 e8 e9 bd 39 6d ce b9
       -0.11195346 -0.13497116 -0.11421258 -0.0003937276
0001a0 72 bf e9 bd 93 e8 d9 bd 4a 50 f5 bd 4b a9 18 be
       -0.114134684 -0.10640063 -0.119782045 -0.1490833
0001b0 4e 5c 5b bd c5 b8 ab bd 1e 79 9f bc 4d f3 16 be
       -0.053554825 -0.08384851 -0.019466933 -0.1474125
0001c0 dd 60 75 be df d4 07 be 0d 7e c2 bd 9f cb 6f be
       -0.23962732 -0.13264798 -0.094966985 -0.23417519
0001d0 ff b6 87 be 0e 56 25 bd b3 36 55 be ca eb 9e bd
       -0.26506802 -0.04036527 -0.20821647 -0.07759817
0001e0 64 11 36 be d3 0e 12 be ac a5 e4 3b a5 d6 15 be
       -0.17780071 -0.14263467 0.0069777574 -0.14632662
0001f0 8f d6 50 be 9d 65 a1 bd 5f 53 37 be 6e 7c a9 bd
       -0.20394348 -0.07880709 -0.17902897 -0.08275686
000200 72 be 1d be 14 56 02 be 97 47 d5 bd d8 71 2e be
       -0.1540468 -0.12728149 -0.10414045 -0.17035615
000210 79 22 ad bd 51 14 4e be 14 0b d8 bc 8d a6 47 3c
       -0.08453841 -0.20124938 -0.02637247 0.012185705
000220 97 da 52 be 09 aa 3c be ca 9c 78 bd 90 d9 34 bd
       -0.20591198 -0.18424238 -0.0606964 -0.044152796
000230 95 eb 6e bd 56 b2 92 bd f8 1d e6 bc 0f de 0d be
       -0.058330137 -0.07162921 -0.028090462 -0.1385424
000240 95 d8 41 be 92 dd 05 be 7a aa 40 be 0c e4 08 bd
       -0.18930276 -0.13072804 -0.18815032 -0.033420607
000250 05 5f 37 be 2d 6a 04 be 5c d3 84 bd c1 f1 f7 bb
       -0.17907341 -0.12931128 -0.06485626 -0.007566661
000260 41 b9 91 bd 0c 3f 5f be 83 d4 0e be 08 58 bd 3a
       -0.071154125 -0.21801394 -0.13948254 0.0014445791
000270 ec df b6 bd 2a bb b8 3b ac 60 42 be dd ca 41 be
       -0.089294285 0.005637546 -0.1898219 -0.18925042
000280 12 60 1e bd a5 cd a8 3b a7 94 35 be 71 13 18 be
       -0.03866584 0.005151468 -0.17732488 -0.14851166
000290 6b 7d d3 bd 85 0e 37 be 06 9f 54 be 25 25 ce bd
       -0.10326656 -0.17876633 -0.20763788 -0.100656785
0002a0 2d 7e 1e be cc 52 8e bc 96 0a 5f be 14 48 47 be
       -0.1547782 -0.017373465 -0.21781382 -0.1946109
0002b0 ee 60 5a bd 5a a7 1f be ad ed 6b be 8e 04 69 be
       -0.053315096 -0.15591183 -0.23039885 -0.22755644
0002c0 be 24 f2 bd 88 f8 6e be 6b 43 24 be 10 d7 5c be
       -0.11823414 -0.23336995 -0.16041343 -0.21566415
0002d0 dd 76 24 be 2d 34 85 be 18 b4 b2 bd cf 95 76 be
       -0.16060968 -0.2601637 -0.087257564 -0.24080585
0002e0 6d d1 79 be 3b 2c 8c bd ef e2 1f bd 7c fb 34 be
       -0.24396296 -0.06844374 -0.03903478 -0.17674059
0002f0 88 15 09 bd e8 0b 6a be 18 bb ba bc 66 af cc bd
       -0.0334678 -0.22856104 -0.022794291 -0.09994392
000300 f6 ae 04 be 95 f5 af bd a3 26 cd bd d5 cb 06 be
       -0.12957367 -0.08591763 -0.10017135 -0.13163693
000310 cd 03 a1 bd f9 23 e0 bd 9c fa c7 bd c3 eb 3d be
       -0.07862053 -0.10944361 -0.09764597 -0.18546967
000320 ce 01 28 bc 82 89 eb bd 04 a1 5a bd 8f f2 84 bd
       -0.0102543365 -0.11500837 -0.053376213 -0.06491577
000330 10 5a b2 bd 75 06 80 be 97 7e bf bd f6 ca 04 be
       -0.08708584 -0.25004926 -0.09350317 -0.12968048
000340 99 fb 9b bd 7a 66 02 be 4b 30 7f be ed 76 05 bd
       -0.07616348 -0.12734404 -0.24920766 -0.03258412
000350 db 52 47 be 31 6a 4d be 93 81 2f be 8d bc 60 be
       -0.194652 -0.2006004 -0.17139272 -0.21946926
000360 f5 63 56 be 47 4c 1d bb 5f a2 44 be 4b 5c 08 be
       -0.20936568 -0.0024001764 -0.19202565 -0.13316457
000370 cb cc 9d 3b 78 1e 22 bd b6 f7 f2 bd df 55 65 bd
       0.004815673 -0.03957984 -0.11863653 -0.055990096
000380 5e 24 64 be 0b 38 3b be dc 09 c9 bd e5 bc 69 be
       -0.22279498 -0.18283097 -0.09816334 -0.22825964
000390 92 2b 3b be 53 12 f2 bd de 08 79 bd 70 26 4c be
       -0.1827834 -0.11819901 -0.060799472 -0.19936538
0003a0 77 8b bf bd c5 d6 25 be 47 ae dd bd bc 3f a9 bd
       -0.09352773 -0.1619521 -0.108242564 -0.082641095
0003b0 8e 09 3a be 7c b8 1c be fb 5f 4b be e2 fd 1e be
       -0.18167707 -0.1530475 -0.19860832 -0.15526536
0003c0 fa f5 fc bd 87 cd b2 bd b2 e6 72 be c0 8e 4e bd
       -0.12351604 -0.087306075 -0.23720816 -0.050429106
0003d0 c2 b1 fc bd 5d e7 4d be 4a 68 ad bc 30 bc a9 bd
       -0.12338592 -0.2010779 -0.021167893 -0.08287847
0003e0 aa a8 5f be 5d 40 06 be 00 21 38 be 90 89 35 bd
       -0.21841684 -0.1311049 -0.17981339 -0.044320643
0003f0 45 4a 81 be 4d c2 9c bd ce 16 13 be 85 34 ee bd
       -0.25251976 -0.076542474 -0.14364168 -0.11631111

bias f4 [32]
000000 ab 8c 07 be af fa 7f bd 5d c9 f4 bd 2a ef 1c bd
       -0.13237254 -0.06249493 -0.119524695 -0.038314022
000010 1e 69 56 bd 07 76 0c be 32 d1 b4 bd c3 98 8e bd
       -0.05234634 -0.13716899 -0.08828963 -0.06962731
000020 e4 6d b2 bb 17 12 b8 bd 7f 0b a1 bd 3a 9c 5f be
       -0.005445229 -0.08987825 -0.07863521 -0.2183694
000030 ff 25 f3 bd 6d 09 54 bd ba e7 cf bd ed 01 70 bd
       -0.118724816 -0.0517668 -0.1015162 -0.058595587
000040 ff d8 61 be d0 87 90 bd 1a ed 2b 3d e7 30 52 be
       -0.22055434 -0.07057154 0.041974165 -0.20526467
000050 ee e1 48 be a1 79 f6 bd 18 aa f3 bd e3 e7 2b be
       -0.19617435 -0.120349176 -0.11897677 -0.16787677
000060 38 7c 07 bd df d4 67 be 9c fa 66 be 80 81 1d 38
       -0.03307745 -0.22639798 -0.22556537 3.7552323e-05
000070 cb ae 84 bd 8b 08 2b be 74 83 56 be 8e 94 41 be
       -0.064786516 -0.16702478 -0.20948583 -0.18904325

weight f4 [16, 32, 5, 5]
000000 f6 b4 9e 3c 9c 4e 9f 3c 44 ba 43 bc 47 30 b4 bc
       0.019373398 0.019446664 -0.011946265 -0.021995677
000010 84 c0 0a 3d 95 d4 c4 3b de 8f 8b 3c a4 5d 3f 3c
       0.033875003 0.006006787 0.017036375 0.0116800405
000020 60 e1 f8 3c 39 bc e0 bb 70 9b b2 bc 8e 62 f2 bc
       0.030380905 -0.0068583754 -0.021802634 -0.02958801
000030 09 71 c2 3c d1 be 0c 3d 9d 0c c6 3c d6 63 b7 3b
       0.02373554 0.034361664 0.024175936 0.005596618
000040 ea fd 4c 3a 69 f6 db bb 2a ee 15 3d 83 17 ab bc
       0.00078198186 -0.006712724 0.036604084 -0.020885235
000050 a8 42 e6 bc 3d b2 f9 3c de 69 4a 3a c9 5f 9d 3c
       -0.028107956 0.030480498 0.0007721464 0.019210713
000060 54 ea 54 bc 11 21 71 3c 63 62 88 bb 50 73 5c bc
       -0.012995321 0.014717356 -0.0041621192 -0.013455227
000070 78 5b 12 3d 41 55 33 bc 88 3a d1 3c 65 54 88 bc
       0.035731763 -0.010945619 0.025540605 -0.016641805
000080 2a d5 95 bc 7f c0 69 3c 3f cb 2c 3b 9f ca 0d 3d
       -0.018290121 0.014267086 0.0026366261 0.034617063
000090 3a de 1f 3d 1c 0c 53 3c 3d 12 51 3d c0 85 69 3b
       0.03903029 0.012881305 0.051042784 0.00356327
0000a0 98 49 92 bc c3 29 a8 3c f9 e3 54 3d a7 73 55 3b
       -0.017857358 0.020527726 0.051975224 0.0032570155
0000b0 1d 77 26 3d 6d 03 10 3d ff 35 c8 ba 7d c5 2b bc
       0.04064094 0.035159517 -0.0015274881 -0.010484097
0000c0 f7 2e 1a 3d 10 3b fc 3c 10 d8 3c 3c 5e 70 b1 bc
       0.037642445 0.030789882 0.011526123 -0.021660026
0000d0 32 92 32 bc 87 ed fa bb a7 70 bf bc 07 f1 15 3d
       -0.0108991135 -0.00765771 -0.023369147 0.036606815
0000e0 5c 61 79 bc 2e 9d 18 3d 3a 4a 0c 3d 06 a3 1a 3d
       -0.015220966 0.037259273 0.034250475 0.037753128
0000f0 22 ef f1 3c 8f 1d fb 3c 82 01 0a 3d 24 e6 68 bc
       0.029532973 0.030653743 0.033692844 -0.014215026
000100 23 61 d2 bb ba 69 24 3c 6f 17 f4 bb 91 6c 9f bc
       -0.006420271 0.010034973 -0.0074490826 -0.019460948
000110 53 1f cc 39 82 ff e3 bb 5d 3f 20 3d b9 9c c8 3c
       0.0003893325 -0.006957949 0.039122928 0.024488794
000120 ef b3 d0 3c 21 09 ce 3c 9f 6c f9 3c 56 ea a3 3a
       0.025476424 0.025150837 0.030447302 0.0012505751
000130 a2 38 3b bc 9c 42 0e 3d d5 ef b6 3c 81 08 1b 3d
       -0.0114270765 0.034731492 0.022331158 0.037849907
000140 8f e3 82 3c e3 1f 4b 3b a6 0f b0 3c 4d 88 24 3d
       0.015977649 0.0030994348 0.021491837 0.04016905
000150 6d 77 de bb c4 b9 59 bc 5e ff 8d 3c 9d d3 07 bc
       -0.006789139 -0.013288919 0.017333683 -0.008290199
000160 0b 77 86 3c 7c 0c 94 bc 57 4b 13 3b 6d 00 a7 3c
       0.016414186 -0.01807236 0.0022475326 0.020385945
000170 1b b3 d2 3b 3e b6 05 3a 68 b1 37 3c 7c b9 51 bc
       0.0064300424 0.00051007036 0.011211731 -0.012800571
000180 20 7f ed 3c 12 19 05 bc dd b3 4a 3c 37 d0 c7 3b
       0.028991282 -0.008123653 0.012371984 0.006097819
000190 a3 61 14 bd df 77 12 3c cd 5c 94 3b 02 a9 e7 3c
       -0.036225926 0.008939712 0.0045276643 0.028278831
0001a0 06 51 d3 bc 45 0b 6c bc 33 4c e1 bc 26 5c 92 bc
       -0.02579547 -0.014406984 -0.027502155 -0.017866205
0001b0 90 a0 1a bd 3f 3c c8 3c 56 9e ff 3c 28 73 62 bc
       -0.03775078 0.02444279 0.03120343 -0.013821401
0001c0 03 9b f7 bc 0c 3a 11 3d 32 c5 af bc 26 12 b2 3c
       -0.030225283 0.03545575 -0.021456335 0.02173717
0001d0 93 3a d3 bc 09 79 ad 3b a2 ab ec bb 72 9a 6a 38
       -0.025784766 0.0052939695 -0.0072226087 5.5933786e-05
0001e0 49 97 0b 3c a1 cc 90 bc 19 d5 83 bb 10 30 0f 3d
       0.008519956 -0.0176757 -0.004023206 0.034957945
0001f0 04 e8 06 bd 16 49 d5 bc ed e2 ff bc 11 5c d0 bb
       -0.03293611 -0.026035827 -0.031236136 -0.0063586314
000200 45 b6 e1 3c a5 21 3b 3c d8 6d b9 bc 32 1f d9 3b
       0.027552733 0.011421596 -0.022635385 0.006626033
000210 d8 30 0d bd 2a 0d 99 3c 60 8d 6c bc 76 c5 85 bc
       -0.03447041 0.018683035 -0.014438003 -0.016329508
000220 9d 29 54 bb bd bd c3 bc c2 f6 3a 3c 76 42 d4 3c
       -0.0032373436 -0.023894185 0.011411371 0.025910597
000230 88 eb ee bb 53 7c be bb f6 46 1b 3d 1f cf 10 3c
       -0.007291261 -0.0058131604 0.03790947 0.008838444
000240 f9 3c 9c 3c 1b f0 11 bc 9c e6 9c bb 2f d3 d5 3c
       0.019072043 -0.008907343 -0.004788233 0.026101677
000250 c4 2e 90 bc b6 79 e6 3c 8a 1e d1 bc 30 20 90 3c
       -0.017600425 0.028134208 -0.025527257 0.017593473
000260 e4 50 e9 3c 01 0a 94 bb 6a 33 89 3a 30 a9 c8 3c
       0.028480954 -0.004517794 0.0010467593 0.024494737
000270 a6 e4 73 3b 76 cb 0b 3c 75 e9 90 bc f1 0f 82 3c
       0.0037215143 0.008532396 -0.017689446 0.015876742
000280 23 ce ba 3c 86 94 09 bd e6 c6 06 bd b8 d0 8f bb
       0.022803372 -0.03358891 -0.032904528 -0.004388895
000290 f1 28 9a bc b8 c2 ee bc ea 62 25 bd 45 df 85 3c
       -0.01881835 -0.029145584 -0.040377535 0.016341815
0002a0 15 66 9b bc b7 6e f6 3c 64 69 15 bd 0d 57 bd b7
       -0.018969575 0.03008209 -0.03647746 -2.2571092e-05
0002b0 f7 84 ad 3a 1e 1e 8d 3c cc 01 dd 3c 39 82 e9 3c
       0.0013238479 0.017226275 0.026978396 0.028504478
0002c0 88 a3 b5 3c 25 55 4d bc 6c c4 c0 3c 4f f2 21 bc
       0.022172704 -0.012532507 0.023531161 -0.009884431
0002d0 eb e5 8b 3c 12 f1 37 3c 36 59 a3 bc d4 9d dd bc
       0.017077407 0.011226909 -0.01994 -0.027052797
0002e0 f7 9d 0a 3d 32 49 b8 3c 46 e5 83 bc e3 da 4d bc
       0.033842053 0.02249584 -0.016100537 -0.012564394
0002f0 bb 91 64 bc a6 59 67 3c 70 72 a9 3a 0f ac 30 bb
       -0.0139507605 0.014120495 0.0012927782 -0.0026958024
000300 e5 e5 f6 bb d4 14 ba 3c 67 67 33 3d 22 24 b8 bc
       -0.00753473 0.02271501 0.043799784 -0.022478167
000310 dd ec 5c bc 45 d4 34 3d 52 a0 2d 3d c6 20 75 3c
       -0.013484207 0.04414775 0.04238922 0.014961427
000320 1d 11 90 bb 43 c4 f6 bc bd cb ed 3c 52 0b bf 3c
       -0.0043965713 -0.030122882 0.029027814 0.023320828
000330 a9 40 14 bc 0c 45 f1 3b f9 bd 85 3b 98 ad a4 bb
       -0.009048619 0.0073629674 0.0040814844 -0.005025577
000340 0f 6c da bc d2 c4 67 b9 12 2a 83 bb cc dc 60 bb
       -0.026662854 -0.00022103198 -0.004002818 -0.0034311293
000350 2e 82 1e 3c 58 82 ad bc d3 be ef bc 40 d8 08 3a
       0.009674592 -0.021180317 -0.029265797 0.0005220212
000360 34 c8 da ba 83 ed d8 ba ff f2 cd 39 36 7e a7 3c
       -0.0016691745 -0.0016550276 0.00039281693 0.020445924
000370 13 11 a1 3c 8b c1 d7 3c 26 e4 1a bc 60 ec b2 bc
       0.019661462 0.026337406 -0.009453809 -0.021841228
000380 e1 4e 96 3c a0 27 71 3b 10 7c 6a ba dc d6 10 bc
       0.01834816 0.00367973 -0.00089448784 -0.008840289
000390 85 fa 02 bd 68 d9 0a 3d 07 f4 2e bc 9d eb f7 3c
       -0.031977195 0.03389874 -0.010678298 0.030263716
0003a0 01 2c e4 3c 69 d0 0a bd 31 e4 fd bb db b5 81 3c
       0.027853014 -0.03389016 -0.00774815 0.015833786
0003b0 3f 6d d9 3c f6 b7 24 3c 1c 6f b3 3b 4d 25 18 bc
       0.02654135 0.010053625 0.0054758918 -0.009286237
0003c0 cf 8d d5 bc 0f 06 07 bd c0 9f cf 3c b2 77 d8 ba
       -0.026068596 -0.032964762 0.02534473 -0.0016515164
0003d0 3b 2b b4 bb 22 91 f3 bb f7 4e 90 bc 0b 2d bd 3c
       -0.0054983175 -0.0074330727 -0.017615778 0.023092767
0003e0 4c b0 05 bb 71 3c a6 3c e1 33 e9 3b 7c 92 72 3a
       -0.002039927 0.020292493 0.00711678 0.0009253395
0003f0 b7 50 9f bc df cd a5 3c c4 f5 12 3d fb d2 02 3d
       -0.019447668 0.020239769 0.03587891 0.031939488

bias f4 [16]
000000 d1 3b 19 bb 2d ae d7 bb b1 7c cb bb 08 25 22 39
       -0.00233816 -0.0065820427 -0.0062099327 0.00015463319
000010 69 13 be bb f4 3e 0e bc 1e 72 33 bc f5 67 02 bb
       -0.0058006537 -0.008682001 -0.010952501 -0.001989839
000020 dd b3 6f bb d0 c0 4e bc 2a ec 10 bc ab 36 70 bb
       -0.0036575713 -0.012619212 -0.008845368 -0.0036653678
000030 44 28 79 ba 07 1d ab bb 4a 7d c3 bb 96 03 80 39
       -0.0009504596 -0.005221966 -0.0059658634 0.00024416734
