weights/Act_LeakyReLu_SUB_model_path.pth (torch, 251873 bytes, 8 tensors)

weight f4 [64, 1, 5, 5]
000000 be eb d2 be e8 78 ce be 80 1a a0 be 53 df 0a bf
       -0.41195482 -0.4032662 -0.31270218 -0.54247016
000010 38 04 e5 be 14 9a 19 bf 84 a4 cf bd c8 aa 5d be
       -0.4472978 -0.6000073 -0.10138801 -0.21647179
000020 59 85 34 bf 15 f1 c7 be 57 5c 0d bf 99 a5 67 be
       -0.7051597 -0.39051118 -0.55219024 -0.22621764
000030 ab 94 d9 be 26 11 9a be fd a8 d3 be aa 3e ed be
       -0.42496237 -0.30091208 -0.41339865 -0.4633687
000040 0d 02 39 bf 7b 7c a8 be f8 af c4 be 6e 31 28 bf
       -0.72268754 -0.3290747 -0.38415504 -0.65700424
000050 0a 0c 40 bf 61 60 da be 27 e7 ce be a7 c0 2e be
       -0.7501837 -0.42651656 -0.4041073 -0.17065679
000060 3a 0c bb be 08 85 ca 3e f2 2e af 3d b6 2b 83 3e
       -0.36532766 0.3955462 0.08553876 0.25619286
000070 3d 67 79 3e b7 fe e1 3e 15 55 5b 3c 9e 36 33 3e
       0.24355789 0.44139645 0.013386984 0.17501304
000080 1c 3d 29 be ea e1 da 3d 4e 3b 55 be 80 75 a6 3e
       -0.16527218 0.10687621 -0.20823404 0.3251152
000090 a0 67 93 3e f5 de f0 3e 76 34 06 be c5 0d 53 3e
       0.28789997 0.47045103 -0.1310595 0.20610721
0000a0 b9 78 28 be 14 ce 88 bd bc 4b 48 3e 35 6a 0e 3e
       -0.16452302 -0.06679931 0.1956014 0.13907702
0000b0 ce e7 ac bc cd 48 1e bd a1 b2 ea bc c8 58 b0 bd
       -0.021106627 -0.038643647 -0.02864963 -0.08610684
0000c0 36 b7 6c 3e 95 02 a1 3e 7e 75 12 3e 46 98 8b bd
       0.23116764 0.31447282 0.14302632 -0.06816153
0000d0 f5 3e d7 3c a9 42 93 3d 7c ff 26 3e dc 33 e3 bd
       0.026275137 0.07190449 0.16308397 -0.11093876
0000e0 96 15 86 bd a2 82 62 3e 20 79 72 3d d8 60 0c be
       -0.06547086 0.22120145 0.059197545 -0.13708818
0000f0 04 7a 4a 3c da fb 2e 3e 77 88 34 be 2f e8 34 bd
       0.012358192 0.17088261 -0.17630182 -0.04416674
000100 35 b5 12 be 40 a7 87 3d aa e0 47 be 6d 94 d0 bd
       -0.14326937 0.06623697 -0.19519296 -0.1018456
000110 32 bc f7 3d 2b f6 8c be 35 21 7f 3d 46 ef 83 3d
       0.12096442 -0.2753156 0.062287528 0.06442122
000120 67 fd 1a 3e 2d e6 57 bd d3 6b 62 be 1e 41 19 3c
       0.15135728 -0.052709747 -0.22111444 0.009353904
000130 43 30 83 bd 56 9b 42 be f0 26 99 bd 80 a0 08 be
       -0.064056896 -0.19004568 -0.0747813 -0.13342476
000140 17 d5 32 bd dc 6e 3a be cb cf f4 bb f9 90 ea 3d
       -0.04366025 -0.18206352 -0.00747106 0.114534326
000150 71 ce a7 bd 31 36 0f be 68 dd 1a bf eb ba 94 3d
       -0.081936724 -0.13985516 -0.6049409 0.07262214
000160 2e 97 6b bc df 7a 0a be e1 dc 61 3e ce 15 52 bd
       -0.014379306 -0.13523434 0.22056915 -0.051290326
000170 2b d6 08 bf 26 9c de 3d b8 10 af 3d af 71 93 bd
       -0.53451794 0.10869627 0.08548111 -0.07199418
000180 00 3c 62 be 1d ed 89 be 8a 3f 76 be a4 5d 8d bb
       -0.220932 -0.26938716 -0.24047676 -0.0043141413
000190 eb 58 0e 3e bc 3e cf 3e 0d 61 78 be 65 75 38 be
       0.13901107 0.4047755 -0.24255772 -0.18013532
0001a0 b9 d8 04 3e dc 62 6d 3d ca 06 e2 3e 06 99 be 3e
       0.12973298 0.057955608 0.44145805 0.37226123
0001b0 25 75 44 be 82 a4 ad 3d 5a fb 91 3c a1 bd 66 be
       -0.19185312 0.08478643 0.01782005 -0.22533275
0001c0 45 b4 1e 3e 2c 59 8d 3e 24 1c bd bc 84 5d 94 be
       0.15498455 0.27607095 -0.023084708 -0.28977597
0001d0 da 83 59 3d a1 a5 ba 3d 3d 4b c5 bd 2d 7b 29 3e
       0.05310426 0.091136225 -0.09633491 0.16550894
0001e0 55 9f 0e bc 93 79 c1 3d c0 59 51 3d e5 bb 50 3e
       -0.00870498 0.094470166 0.051110983 0.20384176
0001f0 ad 19 a8 be d5 bf 0d bf 75 cd d3 be 5b 5e 1f be
       -0.3283209 -0.5537084 -0.4136769 -0.15563338
000200 3a 43 8a be cc 92 b8 be 54 9c 0d bf e9 4b 21 be
       -0.27004415 -0.36049497 -0.5531666 -0.15751614
000210 60 6e da be 1f 5f 27 be 5a 1c ef be 9e cf f7 be
       -0.42662334 -0.1634488 -0.46701318 -0.48400587
000220 ae e5 03 bf 8e d1 00 bf 9e f0 03 bf 2a d3 0e bf
       -0.5152234 -0.50319755 -0.5153903 -0.5579096
000230 42 b0 ad be 8e ee df be 26 fe 3b bf f9 d6 68 be
       -0.33923537 -0.4373669 -0.73434675 -0.22738256
000240 28 28 12 bf ea be 15 be a4 d2 f6 be eb 8a 57 be
       -0.57092524 -0.14623609 -0.4820758 -0.21049087
000250 22 46 00 bf 6f ce f2 be 8b 37 3c 3e 47 41 02 3e
       -0.50107014 -0.4742312 0.18380563 0.12720214
000260 1f 87 78 bd e2 90 45 be 48 a0 8a 3d 3d 91 38 bd
       -0.060675737 -0.1929355 0.067688525 -0.045060385
000270 c2 ba 45 bc 8e 95 96 be de 26 93 bd f2 43 22 3d
       -0.012068452 -0.29410976 -0.07185148 0.03961558
000280 3d 0e 7b 3e 4b bf 2b 3e fb 51 d4 bc e5 2c fb 3e
       0.2451715 0.16772191 -0.025917998 0.4905769
000290 b0 ba 6d 3e fd 68 04 bc 08 f8 b0 bd 94 34 1a ba
       0.23215747 -0.008081672 -0.08641058 -0.00058824685
0002a0 80 c4 77 be d0 c9 32 3e 06 34 19 be 46 ab 29 3d
       -0.24196053 0.17459798 -0.14961252 0.041423105
0002b0 b1 1a 13 3e 89 59 01 be 09 78 29 3e 8f 33 17 bf
       0.1436565 -0.12631811 0.16549696 -0.5906305
0002c0 83 4e a0 be 32 5e 32 bf ce f4 50 be 0d 65 34 bf
       -0.313099 -0.6967498 -0.20405886 -0.7046669
0002d0 04 ea ce be c6 98 a4 be 7d 0f 35 be a7 86 00 bf
       -0.40412915 -0.32147807 -0.1768169 -0.50205463
0002e0 0c 28 4b bf 24 87 61 be 0b e0 8f be 85 8b 03 bf
       -0.7935798 -0.22024208 -0.2810062 -0.51384765
0002f0 d7 4c d6 be aa 7a e5 be 36 2c 6e bd 3a 2f bd be
       -0.418555 -0.44820148 -0.05814763 -0.36950094
000300 79 e9 c1 be 7f c6 d2 be 75 65 b3 be 51 73 2f be
       -0.37873438 -0.41167066 -0.35038343 -0.17133833
000310 5a a0 c6 be 2a cc ae be 05 9b 82 be 1f f7 ec be
       -0.38794214 -0.3414014 -0.25508896 -0.46282288
000320 ec 9f 57 be 6d 16 72 3e 6e 21 d9 3c ae a5 4d 3e
       -0.21057099 0.23641367 0.026505198 0.20082733
000330 ee 60 61 be 46 7e 9e bd f4 0c 38 3e 5e f0 df bd
       -0.22009632 -0.077389285 0.17973691 -0.10934518
000340 98 f3 86 3b d4 a1 57 3d c9 02 e3 be fa 79 05 be
       0.004118394 0.052644566 -0.44338062 -0.13034812
000350 f3 7a 83 be 83 aa 7b 3e 93 83 8b bd 25 77 82 bd
       -0.2567974 0.24576764 -0.06812205 -0.06370381
000360 2f 8b 03 3a e7 40 ae 3e 10 90 31 bd 8f 4d e9 3d
       0.00050179934 0.34033892 -0.04335028 0.11391746
000370 f8 05 44 be 8e 9a 2c be 7b c4 09 3d bd d3 54 3d
       -0.19142902 -0.16855833 0.033634644 0.05195974
000380 71 ef 9a 3c 8c b1 7c be 46 0b 93 be 12 d0 ca bd
       0.018913003 -0.24677104 -0.28719538 -0.099029675
000390 7e 21 76 be 5e 19 db bd 61 d5 86 3e a9 48 8b be
       -0.24036214 -0.10698198 0.2633467 -0.27203873
0003a0 79 ff 83 bc de c4 bb 3d 20 91 d9 be ca 6e 3d 3e
       -0.01611303 0.09168409 -0.42493534 0.18499294
0003b0 96 ba d1 bc 0e d0 86 be 2c 19 f2 bd a8 d9 9c be
       -0.025601666 -0.26330608 -0.118212074 -0.3063481
0003c0 87 ad 1e be 9a d7 43 bd d8 8f 91 be 0b 20 39 be
       -0.15495883 -0.047813036 -0.28430057 -0.1807863
0003d0 dc 08 4a 3e 7c 84 50 be a2 d1 db 3d 28 fa ce 3d
       0.19729942 -0.20363039 0.10733344 0.10106307
0003e0 0e 6a 7d 3e 72 00 87 bd 02 12 b3 be 61 87 80 bd
       0.24747488 -0.06591882 -0.34974676 -0.062758215
0003f0 14 eb 0b be 7d f1 8f bc d4 32 eb 3c 04 5d a4 be
       -0.13663894 -0.017571205 0.02871076 -0.32102215

bias f4 [64]
000000 cc ed d8 be 22 70 9f 3e aa 99 80 3d 96 83 bb bd
       -0.42368925 0.31140238 0.06279309 -0.091559574
000010 ff cc df 3b ca 39 d1 be a6 6a c8 bd 31 44 12 bf
       0.0068298574 -0.40864402 -0.097859666 -0.571353
000020 9c 19 99 be 26 8d 4a be 89 cf 0f 3c 20 14 44 be
       -0.2990235 -0.19780406 0.008777508 -0.19148302
000030 56 82 6e be 61 f9 64 be e1 4b 16 3e 95 89 90 bd
       -0.23291907 -0.22360756 0.14677383 -0.07057492
000040 78 08 df be 39 9a 00 bf ab be 17 be c8 26 6d bd
       -0.4356115 -0.50235325 -0.14818828 -0.057898313
000050 e4 6d 03 be 7e 67 8a be 46 6b 1b 3e ab 72 97 bd
       -0.12834889 -0.27032083 0.1517764 -0.07394918
000060 d2 0e a2 be 4c 0b 93 3e 54 76 b8 3d e9 76 63 be
       -0.31651932 0.28719556 0.09006944 -0.2221333
000070 da 31 fe be 32 b3 c8 be 24 be 9d 3e 81 9b c0 bc
       -0.4964741 -0.39199215 0.30809128 -0.02351165
000080 07 9e be be cc 6f 62 3e 9d b7 58 be fc fc 3f be
       -0.3722994 0.2211296 -0.21163793 -0.1874885
000090 44 8f bc bd ba 4d a4 be c3 ab e6 3d 88 ed cb 3d
       -0.09207013 -0.3209055 0.1126323 0.09957415
0000a0 8c b8 ea bd 6c b3 1b bd 33 7e c3 bc db 12 88 be
       -0.11460981 -0.038012907 -0.023863887 -0.26576886
0000b0 a7 9c 9e be 11 32 c1 bd e3 4e 9f 3c f4 07 9c be
       -0.3097889 -0.094333775 0.019446796 -0.30474818
0000c0 c7 a4 f3 be 79 15 12 bf 42 8d c0 be 11 09 1f be
       -0.47586653 -0.57064015 -0.3760777 -0.15530802
0000d0 77 f6 f4 be 3f b9 00 be ea ae 75 be b4 19 34 be
       -0.47844288 -0.12570666 -0.23992506 -0.1758793
0000e0 ff 7f 46 3c 83 8a a1 be bf 0f 05 bf 20 59 70 38
       0.012115478 -0.3155099 -0.5197715 5.7303463e-05
0000f0 5b 53 81 be d0 58 0d bf 9c 46 49 be 00 18 bb be
       -0.25258908 -0.5521364 -0.19655842 -0.36541748

weight f4 [64, 64, 3, 3]
000000 24 d9 bc be df 82 ba be 81 68 cd be 9a ca cd be
       -0.36884415 -0.36427972 -0.40118793 -0.40193635
000010 a2 4f ea be ce 14 f1 be c0 b5 eb be 63 5b c5 be
       -0.4576388 -0.47086185 -0.46037102 -0.38546285
000020 32 ab c6 be 0f bc cb 3e e4 b6 ef 3e f6 cb 01 3f
       -0.38802487 0.39791915 0.46819222 0.50701845
000030 88 7d eb 3e 58 32 fa 3e 88 e7 df 3e 59 76 e0 3e
       0.4599421 0.48866534 0.43731332 0.43840292
000040 9f 03 cd 3e 21 c0 d3 3e b8 be 5f be d3 33 1a be
       0.40041825 0.4135752 -0.21850097 -0.15058832
000050 08 8f 63 be 2a e3 8d be d1 37 4f be 29 96 71 be
       -0.22222531 -0.27712375 -0.20236136 -0.23592438
000060 9e 80 63 bd 25 17 56 be fb b1 20 be b3 9f db 3e
       -0.05554258 -0.20907266 -0.15692894 0.42895278
000070 8d f1 07 3f fc 59 03 3f 7a 44 a4 3e 27 8a bf 3e
       0.5310295 0.5130918 0.32083493 0.3741009
000080 a7 53 e1 3e 72 ef d6 3e b5 c7 fc 3e 76 6c 00 3f
       0.44009134 0.41979557 0.49371114 0.501655
000090 bb 0d b8 bd 34 71 14 be a6 c6 f4 3b 60 53 bf 3d
       -0.08986994 -0.14496309 0.00746997 0.093420744
0000a0 5d 6c 09 3e 72 72 45 be 46 ef 66 bd 2d 3c 17 be
       0.13420244 -0.19281939 -0.056380533 -0.14769049
0000b0 20 7f 65 bd 94 08 ba be 71 c4 f4 be 2e 94 cf be
       -0.05602944 -0.3633467 -0.47806123 -0.4054274
0000c0 22 e6 e1 be 5d dc c9 be ff ed fc be 6f 85 eb be
       -0.4412089 -0.39425936 -0.49400327 -0.4600024
0000d0 43 bc e4 be 32 c1 fb be cb bc 88 be 59 61 64 be
       -0.44674882 -0.49170834 -0.26706538 -0.2230276
0000e0 7e 98 9f be 83 89 9a be 6d 0f 8c be 8f a8 ca be
       -0.3117103 -0.30183038 -0.2735552 -0.39581725
0000f0 2c cd 85 be 10 f4 92 be fe 82 8c be 89 30 c4 be
       -0.26133096 -0.2870183 -0.2744369 -0.3831828
000100 40 80 da be 72 de c7 be 70 58 03 bf 9a 84 e3 be
       -0.42675972 -0.390369 -0.5130682 -0.44437104
000110 e5 35 cb be c6 83 e5 be 37 57 d3 be 0d db bb be
       -0.39689556 -0.44827098 -0.41277477 -0.3669056
000120 47 ca 97 3c e6 17 02 3d f5 0d 33 3d c2 4f 43 bd
       0.01852907 0.031761073 0.043714482 -0.047683485
000130 dd e0 ee bd 3c 48 7b bd 2a 60 07 3d 8c 26 95 3d
       -0.11663983 -0.061348185 0.033050694 0.07282743
000140 26 bc c2 3c fd d0 0d bf 4f 1f f8 be 15 60 0f bf
       0.023771357 -0.55397016 -0.48461387 -0.56005985
000150 1d c1 1b bf 0d 9c 0e bf c4 d2 fc be 32 13 1d bf
       -0.6084154 -0.55706865 -0.4937955 -0.61357415
000160 56 5c 13 bf b9 25 ef be f3 b3 f9 be 1f 7c 02 bf
       -0.5756277 -0.46708468 -0.48770103 -0.50970644
000170 9a cd e3 be 2b 1c 04 bf b7 d0 fe be b2 dd e9 be
       -0.444928 -0.5160548 -0.49768612 -0.45676953
000180 62 22 08 bf 52 86 ef be b9 1b 07 bf 06 aa f4 be
       -0.53177464 -0.46782166 -0.52776676 -0.47785968
000190 ec 34 1d bf bb c5 18 bf 12 dc 00 bf 70 a7 0d bf
       -0.6140888 -0.5967671 -0.503358 -0.55333614
0001a0 2a 62 0a bf 20 cb e7 be ca 80 03 bf 62 73 e9 be
       -0.54056036 -0.4527216 -0.5136839 -0.45595843
0001b0 2a 87 a5 be ee 01 02 bf 9a 64 e9 be 9c f9 0b bf
       -0.32329684 -0.50784194 -0.45584565 -0.5467775
0001c0 5b 05 00 bf 10 17 e6 be d5 f7 f2 be da f4 0d bf
       -0.5000817 -0.4493947 -0.47454706 -0.5545174
0001d0 3e 33 e5 be 1c a9 8a 3e 59 e4 8b 3e 6b 8f 24 3e
       -0.44765657 0.27082145 0.27322653 0.16070335
0001e0 2a ca 8b 3d ff 00 70 bd cf eb c7 3d 6a d1 05 3e
       0.06825669 -0.0585947 0.09761774 0.13068166
0001f0 7b 80 d4 3d 54 98 2c 3d 8f 67 0f 3f c0 30 6c 3e
       0.10376068 0.04213746 0.5601739 0.23065472
000200 86 43 c2 3e 69 90 47 3f e0 9f 99 3e 32 c2 bf 3e
       0.3794214 0.7795473 0.30004787 0.37452847
000210 fb ea 62 3f 21 41 6f 3f e6 8f 27 3f 3a 05 03 bf
       0.886398 0.93458754 0.65453947 -0.5117985
000220 2c de df be e1 8f f8 be 73 27 02 bf 59 25 03 bf
       -0.4372419 -0.4854727 -0.50841445 -0.51228863
000230 57 d7 fa be 0a 4f f2 be 2f 2d f3 be 91 e3 e5 be
       -0.48992416 -0.47325927 -0.4749541 -0.44900182
000240 c8 bc c2 be 04 42 99 be b9 fe 9d be 9f 70 3f be
       -0.38034654 -0.29933178 -0.308584 -0.18695305
000250 1e 1b e4 be 7c 15 9d be 26 c3 70 be bc 47 8d be
       -0.4455194 -0.30680454 -0.23511943 -0.2759379
000260 fb 0d ef be e7 de 82 be e5 9f 88 be 4d fc f9 be
       -0.46690354 -0.25560686 -0.2668449 -0.48825303
000270 dc ff dc be 3c b8 c8 be 1a 87 f9 be d2 ac e6 be
       -0.43163955 -0.3920306 -0.48735887 -0.45053726
000280 c8 74 d3 be a3 7c fe be 5d e1 97 be 2e 50 48 be
       -0.41300035 -0.49704465 -0.29664126 -0.19561836
000290 4b 9f 8e bc ee 49 e7 bd cf 1b a3 bd 50 4b 8c bd
       -0.017409941 -0.11293398 -0.079642884 -0.06850302
0002a0 29 56 33 bd 4d ac ab bd 41 de 6a bc 3f cb cb bb
       -0.04378334 -0.08382473 -0.014335216 -0.006219297
0002b0 3b dc ab bd 2d cb 50 bc 11 5d 9c 3b 53 41 8c 3c
       -0.08391615 -0.012743753 0.0047718366 0.017120993
0002c0 60 3f aa 3b 9d 78 26 bd 7c db 16 bc bb 9a b1 3c
       0.005195543 -0.04064237 -0.009207603 0.021680227
0002d0 6b 30 0d bf ed cc 0a bf fb 77 1c bf 6b 9e 2b bf
       -0.55152005 -0.5421894 -0.61120576 -0.670386
0002e0 48 ed 0b bf 95 67 12 bf 05 f6 18 bf db 32 04 bf
       -0.5465894 -0.57189304 -0.59750396 -0.516401
0002f0 a7 1b fc be 9b 5b 10 bf 03 1b 21 bf f8 69 2f bf
       -0.49239847 -0.5638978 -0.6293184 -0.6852107
000300 bd 92 b6 be 09 9d 2f bf 1e 91 09 bf 2b a7 d8 be
       -0.35658827 -0.6859899 -0.53737056 -0.4231504
000310 1e 27 1c bf 4b 71 27 bf fd 65 e8 3d 6c 31 de 3c
       -0.6099719 -0.65407246 0.11347578 0.027123176
000320 11 db 24 3e 00 45 d3 bd 9a 2a 08 3e 92 2d 05 3b
       0.16099192 -0.10315895 0.13297501 0.0020321351
000330 fd ea 92 3a 17 bd 1d 3d 80 cf 5c bd 74 53 34 bf
       0.0011208948 0.03851041 -0.053908825 -0.7043984
000340 3e 37 1e bf 7c 6c 14 bf bf 9c 1f bf b4 72 0f bf
       -0.6180304 -0.57978034 -0.6234855 -0.560344
000350 fe 33 3b bf 9d be 1e bf e4 b2 0c bf c0 08 0c bf
       -0.7312621 -0.620096 -0.54960465 -0.5470085
000360 78 ad f4 be e0 cc 01 bf ad 22 fb be d0 d5 da be
       -0.47788596 -0.5070324 -0.49049893 -0.4274125
000370 65 a4 0c bf 5a 40 05 bf 12 b6 03 bf 7a a4 0a bf
       -0.54938346 -0.5205132 -0.5144969 -0.5415722
000380 ad 37 02 bf 47 00 fa 3e 92 96 07 3f 11 53 ea 3e
       -0.50866205 0.48828337 0.5296413 0.457665
000390 d6 a6 c2 3e 23 07 c6 3e 8b 0b f0 3e eb 8b d2 3e
       0.3801791 0.3867732 0.46883807 0.41122374
0003a0 7c 0d ce 3e e8 ab bc 3e 1a f6 88 be df c4 9c be
       0.40244663 0.36849904 -0.2675026 -0.3061895
0003b0 83 d9 81 be 30 94 b4 be 97 f2 72 be a6 8e 4c be
       -0.2536126 -0.35269308 -0.23725353 -0.19976291
0003c0 cb 4d ab be 09 68 bb be 78 03 85 be af 41 12 bf
       -0.3345779 -0.3660281 -0.2597921 -0.57131475
0003d0 df 27 fd be 4c 29 0c bf df c4 06 bf 60 98 f7 be
       -0.49444482 -0.54750514 -0.5264415 -0.4835844
0003e0 0f c0 f4 be 15 25 0a bf fc c0 1a bf ff 3d fc be
       -0.4780278 -0.5396283 -0.6045072 -0.4926605
0003f0 21 d8 6f be 0d f5 b1 be 90 47 6d be ac 41 83 be
       -0.2342229 -0.3475727 -0.2317183 -0.2563604

bias f4 [64]
000000 4b 65 0b 3f 1d 9f 2b 3e d8 43 23 3f 06 2d 41 be
       0.54451436 0.16759916 0.63775396 -0.18864831
000010 c6 37 3f bf b7 d6 18 3f f8 ac 7f be 08 5c 3f 3c
       -0.7469448 0.5970263 -0.24968326 0.011679657
000020 6f 8c 61 bf 9e 61 4b 3d 6a c9 21 3d 6f ea da be
       -0.8810491 0.049653642 0.039498724 -0.42756984
000030 8d c5 e5 bd 71 4e 3b bf de ab 35 bf 66 af 0c be
       -0.112193204 -0.7316657 -0.70965374 -0.13738784
000040 d5 bf b3 be 8e 2a 8b bd 25 aa e4 be 5c 98 8f bd
       -0.35107294 -0.06795226 -0.4466106 -0.07011482
000050 8a 2d 74 be c6 cb 9b be 0e 73 c8 be fd 45 15 be
       -0.23845497 -0.30428904 -0.3915028 -0.1457748
000060 bf 29 76 be da b6 01 bf 30 d5 81 be db 1d 5b be
       -0.24039362 -0.50669634 -0.25357962 -0.21398108
000070 f3 d5 a2 be 85 e7 45 bd 97 e5 71 be 96 f6 d7 be
       -0.31803855 -0.048316497 -0.23622738 -0.42180318
000080 9d 43 0d be b4 74 4f bf ec 30 00 be 07 1e 55 be
       -0.13795324 -0.8103745 -0.12518662 -0.20812236
000090 0a b6 18 be dd f0 ae bc 34 e7 b8 bd a1 c4 02 be
       -0.14913192 -0.021355087 -0.090284735 -0.1277032
0000a0 87 9e a9 3e f4 45 38 be 10 83 39 be 66 35 93 be
       0.3312876 -0.17995435 -0.18116403 -0.28751677
0000b0 4a 60 45 be b6 30 36 bf bb fc 2e bf 20 73 16 3e
       -0.19275013 -0.71168077 -0.68354386 0.14692354
0000c0 c1 d8 01 bf 23 27 17 bf df b0 95 3e 0b 93 17 bf
       -0.50721365 -0.5904409 0.29236504 -0.59208745
0000d0 96 33 a2 be fd 08 71 be f5 2c 9a be c7 0e db 3e
       -0.31679982 -0.23538585 -0.30112424 0.42784712
0000e0 e0 e9 d0 be 7c 65 13 3f c1 bf 6a be 3a 98 74 3d
       -0.40803432 0.5757673 -0.22924711 0.059715487
0000f0 b2 41 ee 3e 97 8e 3d bf b1 f0 a0 bd 54 db 1d bd
       0.46534497 -0.740457 -0.07858408 -0.038539246

weight f4 [32, 64, 3, 3]
000000 93 19 da be 07 5e cd be 90 5d 0f bf 93 7a d0 be
       -0.42597637 -0.401108 -0.5600214 -0.40718517
000010 89 fb 08 bf 2c 85 0e bf 8f ba 08 bf bf aa 14 bf
       -0.5350881 -0.55671954 -0.53409666 -0.5807304
000020 53 30 01 bf 1b ac 8c 3e e9 1d 4f 3e ed d3 a6 3e
       -0.5046436 0.27475056 0.20226254 0.32583562
000030 be d5 60 3e c6 0a 5a 3e 0b de a1 3e 45 53 3f 3e
       0.21956536 0.21293172 0.31614718 0.18684109
000040 b5 cf 8b 3e 35 3a a9 3e 25 a0 a8 be b1 13 b4 be
       0.27306905 0.3305222 -0.3293468 -0.35171273
000050 0c c5 c3 be 5f ad a3 be 6e 51 aa be e9 31 8f be
       -0.38236272 -0.3196821 -0.3326525 -0.27967766
000060 8c c6 e4 be 59 34 8b be 9c 37 e7 be 30 44 68 be
       -0.4468273 -0.27188376 -0.45159614 -0.22682261
000070 c4 2a 7d be d8 08 03 be e9 24 5f be 77 e9 86 be
       -0.24723345 -0.12796342 -0.21791424 -0.26349995
000080 b2 a8 0f be bb e7 55 be 6d 2f 26 be d8 3d 58 be
       -0.14029196 -0.2088918 -0.16229029 -0.21117342
000090 1d 56 08 3f 4c c8 ba 3e c6 a3 f9 3e a1 89 d9 3e
       0.532564 0.3648094 0.48757762 0.42487815
0000a0 09 a4 f0 3e ef b0 d3 3e 3c 96 0d 3f 33 e7 f4 3e
       0.4700015 0.41345927 0.55307364 0.4783264
0000b0 8e 23 17 3f b9 eb f8 be 5a d6 fb be e3 70 f6 be
       0.5903863 -0.48617342 -0.49186975 -0.48133
0000c0 58 6d 0a bf e3 b4 fc be e4 fd d9 be ae aa 13 bf
       -0.54073095 -0.49356756 -0.42576516 -0.5768231
0000d0 c9 5b eb be 92 a2 fc be 6f 81 03 be 17 4e e5 bd
       -0.45968464 -0.4934278 -0.12842344 -0.11196535
0000e0 22 29 b1 bd d5 6e ad bd 50 9a 17 be bb 70 0f be
       -0.086504236 -0.08468405 -0.1480496 -0.14007847
0000f0 e3 9a 27 be b8 0e a2 bd 71 d4 23 bd 20 08 76 be
       -0.16367678 -0.07912964 -0.03999752 -0.24026537
000100 b4 93 37 be a9 a2 c2 bd e9 62 2e be 63 0a 39 be
       -0.17927438 -0.09503681 -0.17029919 -0.18070368
000110 01 ad 5f be db 8a 24 be 90 8e 49 be b1 a2 58 be
       -0.2184334 -0.16068594 -0.1968329 -0.21155812
000120 f6 a0 9f 3e 0e ec d2 3e c0 1e 7a 3e 4c 50 da 3e
       0.3117749 0.4119572 0.24425793 0.42639387
000130 69 f8 c8 3e f2 b7 5f 3e ed ad bb 3e 8f 36 c8 3e
       0.39252022 0.21847513 0.36656132 0.39104125
000140 8e b9 cd 3e 00 ee 5e be c4 d6 88 be 3c af 88 be
       0.4018063 -0.21770477 -0.26726353 -0.26696193
000150 6f 14 72 be dc 66 9b be 0d 27 ab be 56 e8 83 be
       -0.23640607 -0.30351913 -0.3342823 -0.25763196
000160 6d c8 78 be 54 7f 87 be 4b f6 39 be 82 a3 92 be
       -0.24295206 -0.2646433 -0.1816036 -0.28640372
000170 ed 2a 64 be 42 3b 5c be 8e 98 73 be ae 19 d3 bd
       -0.22282 -0.2150698 -0.23788664 -0.103076324
000180 ae f1 3c be a1 48 23 be fb 86 ed bd 9d 74 9f 3e
       -0.18451568 -0.15945674 -0.11598011 0.31143656
000190 23 5e ba 3e be 01 69 3e 33 73 17 3e 67 f3 9d 3e
       0.36399946 0.22754571 0.14790039 0.30849764
0001a0 97 64 7d 3e d0 9d 47 3e 84 f8 97 3e d5 eb 65 3e
       0.24745403 0.19493794 0.2968179 0.22453244
0001b0 ca 53 44 be 70 ff 82 be 44 c5 0b be f2 d1 32 be
       -0.19172588 -0.25585508 -0.1364947 -0.174629
0001c0 69 3f 41 be b9 0a 25 be e5 64 7e be 19 40 6d be
       -0.18871845 -0.16117372 -0.24843176 -0.23168983
0001d0 73 75 87 be 9e 70 ce 3e bd 3d c7 3e af 9e dd 3e
       -0.26456794 0.40320295 0.3891429 0.43285128
0001e0 1b 2b d9 3e e4 9d be 3e 2f f8 de 3e f5 1a c8 3e
       0.424157 0.37229836 0.43548724 0.39083067
0001f0 6a ed ec 3e bb b8 10 3f 04 41 07 3f 3d 72 08 3f
       0.46274883 0.56531876 0.5283358 0.53299314
000200 1a 2e f8 3e 2b 9d f2 3e 8d 9e 05 3f a9 af 0c 3f
       0.48472673 0.47385535 0.52195054 0.54955536
000210 d6 38 f3 3e 17 5f 18 3f 47 ce 12 3f 07 b8 44 be
       0.475043 0.59520096 0.57346004 -0.19210826
000220 71 a5 58 be 41 37 48 be 67 37 6d be be 75 ed bd
       -0.21156861 -0.19552328 -0.23165666 -0.11594723
000230 5d 9d 69 be d8 a4 6c be 6f e9 58 be 95 c7 98 be
       -0.22813936 -0.23109758 -0.21182798 -0.2983977
000240 ed a0 6e be 5d e2 9f be 1b b6 1f be 8e f0 5a be
       -0.23303576 -0.3122739 -0.15596811 -0.21380827
000250 28 6b 55 be 0f db 0a be dd 38 f2 bd 0d 3c e6 bd
       -0.20841658 -0.13560127 -0.11827252 -0.112419225
000260 b6 b0 70 be 89 11 79 be c1 04 47 be b1 f2 2d be
       -0.2350491 -0.24323095 -0.19435407 -0.1698711
000270 63 45 1e be b2 d0 5b be 87 f0 5a be 0a 4d 83 be
       -0.15456156 -0.2146633 -0.21380816 -0.25644714
000280 10 3d 14 be cd 25 b5 be dd aa 06 3e 68 8e e3 3d
       -0.14476418 -0.35380402 0.13151117 0.11111146
000290 53 5c f0 3d 5d 10 40 3e dd d9 56 3e be 7e 67 3e
       0.117363594 0.18756242 0.20981546 0.22606942
0002a0 c2 98 1d 3e 5c 6b 3b 3e de e1 01 bd e6 39 41 be
       0.15390304 0.18302673 -0.031709544 -0.18869743
0002b0 e3 6e 8d be 76 f2 47 be 87 29 59 be 48 9e 7b be
       -0.27623662 -0.19526085 -0.21207248 -0.24572098
0002c0 23 5a 95 be 3e b7 20 be f9 f7 86 be 30 fb 0d be
       -0.2917033 -0.15694901 -0.26361063 -0.13865352
0002d0 4d 6a df 3d fd 54 4b 3c 61 f9 57 3e e1 7f 08 3e
       0.10908947 0.0124103995 0.21091224 0.13330032
0002e0 ef 16 c1 3d 10 a9 30 3e 73 a4 b5 3d e8 9c 4a 3e
       0.09428202 0.17251992 0.08869257 0.19786417
0002f0 b0 b7 7f 3d 0b bd e5 bd 0b 41 65 be 13 db 2b be
       0.062431037 -0.11217698 -0.22388093 -0.16782789
000300 7a 69 14 be 4c f1 7f be 3d 57 26 be 4b 81 57 be
       -0.14493361 -0.24994391 -0.16244216 -0.21045415
000310 45 ca d9 bd 2e 1c 39 be 29 38 89 3e 8a ce 70 3e
       -0.10634283 -0.18077156 0.2680066 0.23516288
000320 5a 2d 77 3e 42 a0 56 3e 55 7c ce 3d ca 63 34 3e
       0.24138394 0.20959571 0.10082308 0.17616192
000330 9c 2c 2e 3e c1 55 ef 3d 01 5e fc 3d ee 5d 48 be
       0.17009205 0.11686278 0.12322617 -0.19567081
000340 c9 6b 38 be fe a0 17 be 91 39 75 be 52 6f 2f be
       -0.18009867 -0.14807507 -0.23947741 -0.17132309
000350 0a 83 67 be 69 5f 73 be 58 ec 31 be 2e 1a 1f be
       -0.22608581 -0.23766865 -0.17375314 -0.1553733
000360 9f b2 b1 3e 9b bc f0 3e af dc e0 3e 7c ff bc 3e
       0.3470659 0.47018895 0.43918368 0.3691367
000370 59 68 e2 3e af a1 ec 3e 43 d8 fa 3e fd 69 9a 3e
       0.44220236 0.46217105 0.4899312 0.30158988
000380 44 cb e5 3e a9 47 55 3e a6 a3 21 3e c8 ba 31 3e
       0.44881642 0.20828117 0.15785083 0.17356408
000390 02 3b 3d 3e f1 b3 4f 3e 7d 86 85 3e 6d 91 2e 3e
       0.18479541 0.20283486 0.2607917 0.17047663
0003a0 f4 6a 94 3e fc 33 5c 3e bb ce de bd 05 d5 89 bd
       0.2898785 0.21504205 -0.108792745 -0.067300834
0003b0 4e fd 04 bd 52 c9 c3 bd 0c 37 01 be cc 2b 4f bd
       -0.032468133 -0.09559883 -0.12618655 -0.050578877
0003c0 5f 7e 4d bc 1b 9f 5f 3c c4 a9 1a be a6 9c 3b 3e
       -0.012542336 0.013648774 -0.15103823 0.18321475
0003d0 7e 29 e1 3d 2e 65 8a 3d 7a 16 63 3b 88 88 a5 3d
       0.10994242 0.0675758 0.0034650848 0.08082682
0003e0 6c c9 7e 3e 2b 69 25 3e b0 fd 1d 3e 94 28 11 3e
       0.24881524 0.161534 0.15428805 0.14175636
0003f0 8a fe 8e 3e b9 c1 c3 3e a0 e7 d0 3e 34 74 fb 3e
       0.27928573 0.38233736 0.40801716 0.49112093

bias f4 [32]
000000 97 85 14 bf 78 d1 45 3d 7b b5 49 be 52 e2 32 bf
       -0.5801634 0.048295468 -0.19698136 -0.6987659
000010 a4 dd 2f bf a4 8c 33 bf 3a c9 18 bf 60 00 28 bf
       -0.6869757 -0.70136476 -0.5968205 -0.6562557
000020 b7 87 bf be d5 44 32 bf 01 cf 41 bf 46 41 1b bf
       -0.3740823 -0.6963628 -0.7570649 -0.60646474
000030 1a ab 30 bf bc e6 2e bf a8 5a 7c be ee 73 74 be
       -0.6901108 -0.6832082 -0.24643958 -0.23872349
000040 30 48 21 bf ed 2d 9c be 0e 4e e4 bd 98 d7 23 bf
       -0.63000774 -0.3050379 -0.111477 -0.64000845
000050 62 b2 19 bf 03 f4 44 be 33 76 c7 be 8d 3d 6b be
       -0.60037816 -0.19233708 -0.38957366 -0.22972699
000060 4e ed 1a be 9b 66 e1 bd 1c 96 a1 be 2c 7e 2f bf
       -0.15129587 -0.110058986 -0.31559837 -0.685519
000070 fe 81 45 be 1b ea 21 bf 19 4d 2b bf 1b 2e 36 be
       -0.1928787 -0.6324784 -0.66914517 -0.17791025

weight f4 [16, 32, 3, 3]
000000 67 6b 07 3e e7 c7 0f 3e 07 0d c6 3d d0 07 4f 3d
       0.13224564 0.140411 0.096704535 0.05054456
000010 f8 79 59 3e 67 b3 24 3e a0 44 1b 3e 0d 0b 57 3e
       0.21237934 0.16084062 0.15162897 0.2100031
000020 bd 88 46 3e f9 aa f7 3d 1a 58 1c 3e f4 b4 00 3e
       0.19388099 0.12093157 0.15267983 0.12569028
000030 52 1b 1a 3e f9 52 f7 3d 49 d6 d2 3d cc 96 0d 3e
       0.15049484 0.12076373 0.10294778 0.13827056
000040 b2 b8 a7 3d 13 bb c5 3d 9b 05 1d be 28 5b 1d be
       0.08189525 0.09654822 -0.1533417 -0.15366805
000050 ca 46 5c bd cb 80 e6 bd b7 3a 29 be 52 aa eb bd
       -0.053778447 -0.11255034 -0.16526304 -0.115070954
000060 80 f2 b5 3c 4b dd 79 bc 8a e3 11 be 91 f1 9c 3d
       0.02221036 -0.015250514 -0.14246956 0.07663263
000070 7c f2 cd 3d 0f 98 af 3d 45 6d 33 3e 79 94 03 3e
       0.10056016 0.08573925 0.17522152 0.12849607
000080 33 8f 16 3a 77 bd 2c 3e e2 35 bb 3c 80 a6 0a 3e
       0.0005743384 0.1686915 0.022852842 0.13540077
000090 79 94 86 3e 10 de 6b 3e cd 76 69 3e 31 5a 0b 3e
       0.2628515 0.23033929 0.22799225 0.13608624
0000a0 0e e9 8e 3e 9d 64 72 3e 40 81 43 3e bd 0b 6a 3e
       0.27912182 0.23671193 0.19092274 0.2285604
0000b0 e8 a1 d4 3d 47 cf dd 3d 12 db 32 3d 7c 46 a7 3d
       0.10382444 0.10830551 0.043665953 0.08167741
0000c0 71 c3 0f 3e 62 fe 2a 3d 66 33 35 3d 01 b1 f4 3c
       0.14039399 0.041746505 0.04423847 0.029869558
0000d0 22 b1 f9 3c 60 98 12 3e 5b b7 94 3d 59 6c 97 3d
       0.030479971 0.14315939 0.07261535 0.073937126
0000e0 e3 5f d0 3d 7c 35 e0 3d e6 8e b1 3d d8 bc 17 3e
       0.10174539 0.10947701 0.08669834 0.14818132
0000f0 7e c9 33 3d e6 f9 60 3e a8 a7 bd 3d c7 28 f4 3d
       0.04389333 0.21970329 0.092604935 0.1192184
000100 51 c5 53 3e fe 39 28 3d 3a 66 05 3e 04 0b 12 3e
       0.20680739 0.04107093 0.13027278 0.14262015
000110 26 8f 81 3e 75 8b f3 3d 22 6e 2f 3d bb cd 11 3e
       0.25304526 0.11891834 0.04282964 0.14238636
000120 dc 8b af bb 19 4b f6 3b 5a 22 22 bd df a6 a5 bc
       -0.0053572487 0.0075162766 -0.03958354 -0.020221172
000130 4c c2 60 bd 22 4a 08 bd 6c 77 62 bd d4 3b 8a bd
       -0.054872796 -0.033273824 -0.05528967 -0.067496926
000140 c1 14 b9 bb 22 90 6f 3e 1f 20 3f 3e 06 82 08 3e
       -0.005648226 0.23394826 0.18664597 0.1333085
000150 5a 5b 19 3e af 6d 5c 3e 9b 7b 09 3e 72 c9 37 3e
       0.14976254 0.21526216 0.13426058 0.17947939
000160 37 ae ec 3d 94 39 40 3e b2 94 1c 3e 98 97 3d 3e
       0.11556666 0.18771964 0.15291098 0.1851486
000170 1a fd 34 3e e6 22 48 3c 77 8e b7 3d a1 5e 00 3e
       0.17674676 0.012215352 0.0896272 0.12536098
000180 58 c8 58 3e ca cd 38 3d 38 1c da 3d df 2a d7 be
       0.21170175 0.04511813 0.106499135 -0.42024896
000190 b1 8b d9 be 13 8b 04 bf a6 61 e6 be 4b 5b fa be
       -0.4248939 -0.5177471 -0.44996375 -0.48897776
0001a0 db cb a3 be 16 53 b5 be 73 98 96 be 29 6f b0 be
       -0.31991467 -0.35414952 -0.29413185 -0.34459808
0001b0 d0 f6 12 3d 0a c1 19 3e cb ad ad 3d 7b 16 c3 3d
       0.03587991 0.15015045 0.08480414 0.09525772
0001c0 e7 68 70 3e 17 1a 55 3e d2 69 ad 3d 61 96 06 3e
       0.23477517 0.20810734 0.08467449 0.13143303
0001d0 eb 4e 3e 3d 03 b9 a2 3d da 31 d0 3d dc 16 e7 3c
       0.04646198 0.079454444 0.101657584 0.028209142
0001e0 cd f0 bd 3d 6e 27 b5 3d 4d c6 22 3e 1c 0b 18 3e
       0.09274445 0.08845411 0.15895958 0.14847988
0001f0 1f 3d 4a 3e b9 ac 5c 3d 33 a1 90 bc 4b 0d 20 3d
       0.19749878 0.05387566 -0.01765499 0.039075177
000200 6d c7 97 3d dc 39 c5 bb c9 37 54 3e 17 91 47 3d
       0.07411084 -0.0060188603 0.20724405 0.048722353
000210 0a 0d 02 3e 8a e1 57 3c d0 58 be 3c c2 bc dc 3d
       0.12700287 0.013176331 0.023235708 0.1077819
000220 fa fc 57 3d 2c 72 24 3e b6 58 78 3b 9b 5d 85 bd
       0.05273149 0.16059178 0.0037894673 -0.065119945
000230 f5 e6 e4 bc b8 1e 5c 3c eb 9b 5d 3d a1 0a 34 3d
       -0.02794216 0.013435058 0.054103773 0.04395545
000240 ac 79 60 3e 81 aa 09 3e 25 6a 1e 3e ac 8b 53 3d
       0.21921414 0.13443948 0.15470178 0.051646873
000250 59 5e 52 bd fb 2f 43 3e 3c 31 bf 3d 69 50 94 3d
       -0.05135951 0.19061272 0.093355626 0.072418995
000260 ed 8c 3e 3e 17 11 07 3e a8 e2 53 bd 97 05 bf 3c
       0.18608446 0.13190113 -0.051729828 0.023318095
000270 2f cc 14 3e 75 5c b9 bb 6a f3 e0 3d a5 fc 10 bd
       0.14531015 -0.0056567737 0.109839275 -0.03539719
000280 e8 5f cf bc b3 83 af bc 6e 15 87 be 5d fb b2 be
       -0.025314286 -0.021425104 -0.26383537 -0.349574
000290 14 ec 97 be 76 1b a9 be b9 ca 8d be 3b 17 af be
       -0.296723 -0.33028764 -0.27693728 -0.3419741
0002a0 54 9e be be 78 2c 7e be eb 9d 8f be 30 3a 76 3e
       -0.3723017 -0.24821651 -0.2805017 0.24045634
0002b0 ee 25 11 3e 6c 68 cf 3d 3b f2 ad 3d bf c1 6b 3e
       0.14174625 0.10127339 0.084934674 0.23023127
0002c0 c1 49 87 3e c0 27 5d 3e 83 65 ba 3e be d2 2a 3e
       0.26423457 0.21597195 0.36405572 0.16681954
0002d0 a0 30 f1 3d 0c 3c d4 3d e0 96 f3 3d 78 2d a4 3d
       0.117768526 0.103630155 0.118940115 0.08016485
0002e0 05 e6 ad 3d 29 7b 94 3e 5b e7 d6 3d 24 df 58 3e
       0.08491138 0.29000214 0.10493346 0.21178871
0002f0 d6 a1 12 3e 95 3c a4 be ad 71 cb be 76 21 e3 be
       0.14319548 -0.3207747 -0.39735165 -0.44361466
000300 3f b7 d2 be f7 df 98 be 00 99 00 bf dc ec c3 be
       -0.4115543 -0.29858372 -0.5023346 -0.38266647
000310 80 93 f6 be 95 9c e4 be 40 c7 d8 be b5 9c a7 be
       -0.4815941 -0.44650713 -0.42339516 -0.32736745
000320 8b 6e 95 be 97 59 dc be f2 7f b8 be 6c c2 e1 be
       -0.291859 -0.43037102 -0.36035115 -0.44093645
000330 5f 44 83 be 87 59 b6 be 3d eb ac be d6 94 9d be
       -0.256381 -0.3561518 -0.33773223 -0.30777615
000340 e8 46 d5 be 5e d9 77 be 21 27 51 be 42 64 90 be
       -0.4165566 -0.24204013 -0.20425083 -0.2820149
000350 a3 7e 71 be 04 0d e7 be 8b a1 a8 be 88 06 97 be
       -0.23583464 -0.45127118 -0.32935748 -0.2949717
000360 dc 2d 84 be 30 6e 9e be b4 f5 ac be 3f 6a 8b be
       -0.25816238 -0.3094344 -0.33781207 -0.27229497
000370 aa 73 89 be aa 02 8c be eb 15 93 be ad 11 81 be
       -0.26846057 -0.27345783 -0.2872766 -0.25208798
000380 dd bf ba be 5b 53 ac be e8 8d 93 be 8d f6 02 bf
       -0.36474505 -0.33657345 -0.28819203 -0.51157457
000390 35 a8 30 be cc 60 27 bd 1b fe 04 bf af 61 ff be
       -0.17251666 -0.040863797 -0.51950234 -0.49879214
0003a0 11 87 f6 be b0 f2 ea be aa d6 c1 be 56 a6 e4 be
       -0.48149922 -0.4588828 -0.37859088 -0.44658154
0003b0 c2 f4 d5 be 82 53 b7 be 70 06 9e be 50 ff a3 be
       -0.41788298 -0.358059 -0.30864286 -0.32030725
0003c0 a2 01 99 be 64 9f 9f be f4 39 b6 be ba f5 96 3d
       -0.29884058 -0.31176293 -0.3559109 0.07371087
0003d0 d3 be 3e 3e eb 0f 69 3e 8c f6 26 3e 15 4c 26 3e
       0.18627481 0.22759978 0.16304988 0.1623996
0003e0 d1 38 5b 3e 3c 64 3d 3e c1 8c 08 3e 7d 6e 10 3e
       0.21408392 0.18495268 0.13334943 0.14104648
0003f0 f8 c0 a8 3d 22 9d 10 3e 37 88 91 3d 16 12 0b 3e
       0.08239931 0.14122441 0.07106059 0.13581118

bias f4 [16]
000000 6e de b3 3e 57 f0 9a 3e 4a 64 21 bd 82 0f 93 3d
       0.35130638 0.3026149 -0.039402284 0.07180692
000010 3f 9b 1b bd d8 18 63 3d e8 b2 81 3e 38 6f 30 3e
       -0.03798985 0.055443615 0.25331807 0.17229927
000020 c4 21 0b 3e 1f dd ea 3d 08 61 72 3e f1 e5 d9 3d
       0.135871 0.11467957 0.23669827 0.10639561
000030 33 53 be 3d 42 60 d9 3d 07 d1 e0 3e 35 50 8f 3d
       0.09293213 0.10614063 0.43909475 0.0699772
