weights/Act_LeakyReLu_SRCNN_model_path.pth (torch, 85223 bytes, 6 tensors)

weight f4 [64, 1, 9, 9]
-0.07130652 0.017452426 -0.07886473 -0.065832645 -0.034210905 -0.040433045 -0.093661666 -0.088976555
-0.023290278 0.04009934 -0.109195724 -0.1356597 0.006601951 -0.09820639 -0.13617611 -0.015982732
-0.07824559 -0.091973804 -0.13332112 -0.14060895 0.13395965 -0.10376835 -0.03471984 0.14158317
-0.2596284 -0.10535867 -0.051168695 -0.047482997 0.06332729 -0.2486408 -0.28113982 0.17996913
-0.10052596 -0.15262583 0.04742832 -0.14145136 -0.077529594 -0.2044445 -0.15128778 0.37115777
0.8685592 -0.15314275 0.13831449 -0.19249843 -0.042820293 -0.081095204 0.013712241 0.025776768
-0.49056277 0.1974226 -0.08177191 -0.016638294 -0.094343305 -0.003541064 -0.060951613 -0.10009441
0.2149557 -0.15996508 -0.25006968 -0.02940153 -0.10154536 -0.02314281 -0.12333461 0.01056372
-0.09626839 -0.15025541 0.033012733 -0.019575087 -0.11042349 -0.13038018 -0.083961524 -0.031086637
-0.03170785 -0.023660786 -0.07613683 -0.06643738 -0.11030211 -0.03915031 -0.060556058 -0.053488947
-0.07960971 -0.30339965 -0.16506793 -0.12690398 -0.20529403 -0.26446554 -0.23689067 -0.16358626
-0.22663714 -0.32459617 -0.13055523 -0.3246567 -0.24233429 -0.18914746 -0.26262674 -0.18510029
-0.23687565 -0.19497994 -0.25966123 -0.16916631 -0.26478484 -0.2861873 -0.21855435 -0.16708428
-0.3118275 -0.32868052 -0.14665042 -0.33570987 -0.14722611 -0.27543175 -0.30110747 -0.2155963
-0.25664505 -0.26974037 -0.25712544 -0.26567426 -0.3440699 -0.28936288 -0.18250033 -0.35506678
-0.21616487 -0.25061512 -0.16585083 -0.2289783 -0.25399318 -0.2686853 -0.27113646 -0.31032413
-0.27324763 -0.23607779 -0.2250435 -0.26247126 -0.17594443 -0.26647446 -0.18354781 -0.25126782
-0.20701936 -0.34079233 -0.22457992 -0.29436964 -0.26724127 -0.27881834 -0.24108426 -0.309112
-0.31534705 -0.34430468 -0.35523245 -0.28298953 -0.20359986 -0.2881874 -0.30702043 -0.19381376
-0.32839575 -0.19756117 -0.313588 -0.18833792 -0.26756942 -0.17096454 -0.2020812 -0.24176326
-0.2692261 -0.16235843 -0.14252691 -0.30531842 -0.11091446 -0.27527624 -0.31749043 -0.17161022
-0.26821542 -0.14546277 -0.16983162 -0.29098383 -0.2586209 -0.1427534 -0.2430654 -0.17415363
-0.19432838 -0.31789413 -0.26249197 -0.25063056 -0.28833914 -0.25847045 -0.23152143 -0.12574382
-0.19669226 -0.29345062 -0.33838835 -0.22246525 -0.13384372 -0.24784471 -0.20415816 -0.23062576
-0.32961896 -0.13056594 -0.27665922 -0.27063155 -0.15195642 -0.15215603 -0.16997737 -0.1581785
-0.23322168 -0.21351227 -0.1268058 -0.22977799 -0.34316766 -0.23359741 -0.22796789 -0.20243192
-0.14116149 -0.14255485 -0.18451093 -0.29862937 -0.17999187 -0.13301998 -0.30519715 -0.18722229
-0.21987392 -0.3205166 -0.32361504 -0.30733213 -0.2946244 -0.2500651 -0.16594897 -0.15660653
-0.13065246 -0.17082846 -0.28021517 -0.25828478 -0.2212732 -0.15125473 -0.19521236 -0.32485023
-0.3284853 -0.15197164 -0.28244168 -0.15662754 -0.29263797 -0.26625207 -0.29343662 -0.32367113
-0.30758968 -0.21429667 -0.1485835 -0.38196492 -0.4200751 -0.30787084 -0.24727398 -0.34319362
-0.42881072 -0.40220386 -0.42072758 -0.2272798 -0.39812508 -0.27348793 -0.24478602 -0.43224493
00000000: 2709 92bd 64f8 8e3c d583 a1bd 44d3 86bd
00000010: bc20 0cbd 1f9d 25bd b0d1 bfbd 5739 b6bd
00000020: 41cb bebc 353f 243d 02a2 dfbd 60ea 0abe
00000030: 2e55 d83b 6f20 c9bd c071 0bbe 38ee 82bc
00000040: 393f a0bd c35c bcbd 5585 08be cbfb 0fbe
00000050: b82c 093e 8084 d4bd 6436 0ebd 2efb 103e
00000060: 03ee 84be 49c6 d7bd 4496 51bd 887d 42bd
00000070: bdb1 813d b29b 7ebe 8ff1 8fbe d449 383e
00000080: 8ee0 cdbd f249 1cbe 3344 423d a0d8 10be
00000090: d6c7 9ebd e659 51be 2feb 1abe 6408 be3e
000000a0: e559 5e3f 74d1 1cbe 50a2 0d3e 4f1e 45be
000000b0: 5564 2fbd 3e15 a6bd 4fa9 603c cd29 d33c
000000c0: 0b2b fbbe 2629 4a3e 0878 a7bd 084d 88bc
000000d0: 1037 c1bd 3211 68bb 66a8 79bd 4cfe ccbd
000000e0: 591d 5c3e e3cd 23be 2209 80be 7adb f0bc
000000f0: 04f7 cfbd fe95 bdbc db96 fcbd 7413 2d3c
00000100: 5d28 c5bd 8edc 19be 5c38 073d ef5b a0bc
00000110: b625 e2bd 6282 05be 05f4 abbd 67a9 febc
00000120: 17e0 01bd 44d4 c1bc a0ed 9bbd 5210 88bd
00000130: 13e6 e1bd 135c 20bd a109 78bd 3a17 5bbd
00000140: 6a0a a3bd 3357 9bbe 9107 29be 1ef3 01be
00000150: 9938 52be 0768 87be 7893 72be 2883 27be
00000160: 9113 68be 7831 a6be 45b0 05be 6739 a6be
00000170: 7b26 78be dfaf 41be 0377 86be ee8a 3dbe
00000180: 888f 72be d2a8 47be 51f2 84be ef39 2dbe
00000190: e191 87be 2487 92be b6cc 5fbe 2418 2bbe
000001a0: dba7 9fbe d048 a8be 872b 16be 2ae2 abbe
000001b0: 71c2 16be 6405 8dbe c22a 9abe 47c5 5cbe
000001c0: fb66 83be 691b 8abe f2a5 83be 7506 88be
000001d0: ee29 b0be 5f27 94be 5ee1 3abe 50cb b5be
000001e0: 535a 5dbe a050 80be cdd4 29be 4a79 6abe
000001f0: 650b 82be 1f91 89be 66d2 8abe cee2 9ebe
00000200: 1de7 8bbe 60be 71be ce71 66be a262 86be
00000210: c72a 34be 576f 88be f5f3 3bbe 2da6 80be
00000220: e2fc 53be 557c aebe 47f8 65be 9eb7 96be
00000230: d9d3 88be 47c1 8ebe cbde 76be ee43 9ebe
00000240: 2b75 a1be b448 b0be 07e1 b5be 01e4 90be
00000250: 7b7c 50be 4d8d 93be c831 9dbe 1d77 46be
00000260: 7d23 a8be 7a4d 4abe 9b8e a0be a8db 40be
00000270: dcfe 88be 5411 2fbe 60ee 4ebe ca90 77be
00000280: 01d8 89be 4a41 26be 93f2 11be b252 9cbe
00000290: 1f27 e3bd 02f1 8cbe 1b8e a2be 97ba 2fbe
000002a0: 8853 89be 31f4 14be 57e8 2dbe d5fb 94be
000002b0: f569 84be f32d 12be 23e6 78be 5455 32be
000002c0: 05fe 46be 05c3 a2be 5965 86be a652 80be
000002d0: 30a1 93be 3d56 84be f413 6dbe fdc2 00be
000002e0: b269 49be 293f 96be 3d41 adbe eecd 63be
000002f0: 540e 09be 01cb 7dbe d60e 51be 2929 6cbe
00000300: d1c3 a8be 14b3 05be 47a6 8dbe 3890 8abe
00000310: 779a 1bbe cace 1bbe 8c0e 2ebe 8bf9 21be
00000320: aad1 6ebe f6a2 5abe 61d9 01be ec4a 6bbe
00000330: acb3 afbe 2934 6fbe 6a70 69be 504a 4fbe
00000340: a38c 10be e6f9 11be 6ff0 3cbe f3e5 98be
00000350: ca4f 38be 6436 08be cd42 9cbe 33b7 3fbe
00000360: a126 61be c01a a4be dfb0 a5be a35a 9dbe
00000370: 02d9 96be 8808 80be 87ee 29be 765d 20be
00000380: c2c9 05be a8ed 2ebe 5d78 8fbe e73d 84be
00000390: 7195 62be 85e2 1abe c0e5 47be c552 a6be
000003a0: 3a2f a8be 749e 1bbe 329c 90be f862 20be
000003b0: a5d4 95be 3152 88be 533d 96be 39b8 a5be
000003c0: 657c 9dbe 9670 5bbe 4626 18be e890 c3be
000003d0: 1514 d7be 3fa1 9dbe 6435 7dbe 13b7 afbe
000003e0: 148d dbbe aaed cdbe 9b69 d7be 09bc 68be
000003f0: 0dd7 cbbe 9c06 8cbe 30a9 7abe 354f ddbe

bias f4 [64]
-0.027827628 -0.2532872 -0.060209483 -0.43658915 -0.15876952 -0.23069008 -0.08921194 -0.15128787
-0.17172794 -0.14647925 -0.07860607 0.07051493 -0.6752812 -0.18984044 -0.15403654 0.15027216
-0.038910136 -0.09729435 -0.3583902 -0.6098661 -0.5143378 -0.058701467 -0.19529563 -0.13759758
-0.1825049 -0.32055888 -0.26167417 -0.18964355 -0.1388435 -0.16844104 -0.09198577 -0.4171077
-0.32269147 -0.17608085 -0.162512 -0.34485707 -0.28438812 -0.20116015 -0.36508217 -0.042115055
-0.30075347 -0.11697125 -0.16887914 -0.38097152 -0.16407523 -0.18672748 -0.33152354 -0.09919158
-0.10456214 -0.40301982 -0.089668 -0.03064692 -0.15649992 -0.059709445 -0.11140744 -0.25208387
-0.14055093 -0.2215182 -0.24916701 -0.47559825 -0.11558323 -0.09930287 -0.008355543 -0.07890077
00000000: c4f6 e3bc dcae 81be 389e 76bd 9d88 dfbe
00000010: 7a94 22be 053a 6cbe c0b4 b6bd 35eb 1abe
00000020: 73d9 2fbe a8fe 15be 38fc a0bd 226a 903d
00000030: 3bdf 2cbf 8865 42be c1bb 1dbe f2e0 193e
00000040: 3c60 1fbd 4342 c7bd ec7e b7be 2f20 1cbf
00000050: a4ab 03bf f370 70bd 94fb 47be 61e6 0cbe
00000060: 91e2 3abe 4b20 a4be 28fa 85be eb31 42be
00000070: fe2c 0ebe cf7b 2cbe 0963 bcbd 248f d5be
00000080: d137 a5be 8a4e 34be 8c69 26be 1b91 b0be
00000090: 529b 91be edfc 4dbe 0dec babe d680 2cbd
000000a0: 5cfc 99be 9f8e efbd a7ee 2cbe b30e c3be
000000b0: 5603 28be 7d35 3fbe 74bd a9be f524 cbbd
000000c0: ad24 d6bd 9d58 cebe dba3 b7bd 400f fbbc
000000d0: 8441 20be e491 74bd 9529 e4bd 2311 81be
000000e0: 95ec 0fbe abd5 62be a325 7fbe 9d81 f3be
000000f0: e7b6 ecbd 4e5f cbbd b0e5 08bc ba96 a1bd

weight f4 [32, 64, 1, 1]
-0.2091115 -0.2606592 0.36249065 -0.5607373 0.07750911 -0.24931897 0.16400984 -0.12995297
0.37214804 0.17174023 -0.19826409 0.15640065 -0.08110708 -0.3621987 0.4930263 0.0027635116
0.27771336 -0.32504573 -0.18223669 -0.54866636 -0.116147675 0.2974921 -0.325521 0.3221923
-0.44890898 -0.49021238 0.4598154 -0.006802615 -0.17857216 -0.04140056 0.39044392 -0.0030588328
-0.3503302 0.6277052 0.41085646 0.09257329 0.335278 0.58793855 -0.4568608 0.25131252
0.1601632 0.19713472 0.2765888 -0.022123873 0.61280966 0.18322708 0.3896854 0.29702857
-0.2810786 -0.4684034 0.3334617 -0.2877476 0.03578912 0.022752952 -0.23780353 0.06362367
0.12850887 0.18867818 0.4382324 -0.032690812 -0.12092121 -0.18722554 -0.24888264 -0.11567438
0.16735543 0.07856666 0.23856328 -0.3141918 0.24448137 -0.038924016 0.4145675 0.31388092
0.17870316 0.33949196 -0.06279631 0.4957886 0.18948705 0.11212909 0.22597371 0.34396374
0.19752596 -0.11067603 -0.09361742 -0.2711909 0.43463728 0.34070227 -0.19253874 0.24977344
-0.027086549 -0.29699025 0.5402444 0.48717755 0.0764882 0.27686635 0.44026777 0.51102257
-0.40583882 0.43554175 0.1769092 0.13234845 0.44571853 0.34269512 -0.0806689 0.20198968
0.41877356 0.2825075 0.25068885 0.22582449 0.5076787 0.29078487 0.19409406 0.3127224
0.18003556 -0.36774182 0.33428413 0.032125 0.23647138 0.24107184 0.16908205 0.25524592
0.5695378 0.50919354 0.40069655 0.2502633 0.17309664 -0.004469393 -0.0128395045 0.2637295
-0.33928522 -0.42561266 0.2390817 -0.64281875 -0.18959504 -0.4507791 0.16599052 -0.29585806
0.20960164 0.18042307 -0.48800805 -0.08918091 -0.18966527 -0.3228486 0.40205535 -0.32517603
0.20246278 -0.28236142 -0.2869575 -0.6565122 -0.086459294 0.17644566 -0.4414906 0.29868928
-0.3868851 -0.57512915 0.4366269 -0.095930435 -0.37544894 0.04931083 0.504921 -0.13390192
-0.6334823 0.5536417 0.3444746 -0.2501266 0.34793732 0.5017715 -0.56300026 0.3534265
0.096478544 0.27391216 0.29179153 -0.1576922 0.5747813 0.14665447 0.26533633 0.10615348
-0.29695982 -0.5981492 0.3003735 -0.41674307 -0.26669127 -0.27880645 -0.20182677 -0.071501285
0.135803 0.08794665 0.39840448 -0.108745195 -0.25279978 -0.3051414 -0.40994155 -0.11632224
-0.61273944 -0.48432887 0.044501852 -0.009095457 -0.25687325 -0.45469972 0.40721756 -0.44527254
0.117743045 -0.1378745 -0.37238643 -0.17638792 -0.3454454 -0.3608116 0.2271233 0.03959893
0.19098388 -0.2184503 0.21688974 -0.097781636 0.0115455985 0.18850675 -0.054988123 -0.027032632
-0.33622023 0.17297035 0.20843922 -0.091923565 -0.35994843 0.081662826 0.10467522 -0.026092982
-0.050838344 0.19852634 0.17565233 -0.046208084 -0.15718022 0.2658052 -0.17290145 0.2160681
0.3731847 0.044263247 0.03576451 0.14615482 0.05959162 0.08950831 -0.04508435 -0.14045247
-0.11938455 -0.09631941 0.11381705 -0.36600122 -0.5664748 -0.005311919 -0.26553148 -0.46863467
0.31889197 0.3116922 0.22121221 -0.03228803 -0.38248646 -0.3933174 -0.46767452 -0.09766631
00000000: 5321 56be 1f75 85be 6098 b93e 7b8c 0fbf
00000010: 19bd 9e3d 794d 7fbe 32f2 273e 6412 05be
00000020: 308a be3e acdc 2f3e be05 4bbe 7e27 203e
00000030: 781b a6bd 1c72 b9be f16d fc3e 081c 353b
00000040: 7230 8e3e 656c a6be 419c 3abe 6675 0cbf
00000050: d5de edbd e250 983e b0aa a6be 64f6 a43e
00000060: 66d7 e5be 1efd fabe ed6c eb3e 78e8 debb
00000070: 9fdb 36be a293 29bd 44e8 c73e b376 48bb
00000080: 7b5e b3be 4ab1 203f c75b d23e 1197 bd3d
00000090: 8fa9 ab3e 2483 163f a9e9 e9be 09ac 803e
000000a0: d201 243e afdd 493e 0c9d 8d3e 203d b5bc
000000b0: 18e1 1c3f e19f 3b3e d884 c73e 2114 983e
000000c0: 89e9 8fbe 92d2 efbe 7ebb aa3e a753 93be
000000d0: 9d97 123d 6664 ba3c c582 73be 204d 823d
000000e0: d497 033e da34 413e ff5f e03e cde6 05bd
000000f0: 8aa5 f7bd 0db8 3fbe 17db 7ebe b0e6 ecbd
00000100: 395f 2b3e 8fe7 a03d ef49 743e bfdd a0be
00000110: 5359 7a3e ca6e 1fbd 3142 d43e 00b5 a03e
00000120: f6fd 363e e4d1 ad3e 5a9b 80bd 01d8 fd3e
00000130: e508 423e f0a3 e53d a765 673e 041c b03e
00000140: 3f44 4a3e 1daa e2bd 7dba bfbd 89d9 8abe
00000150: c788 de3e 8770 ae3e e028 45be 9cc4 7f3e
00000160: 9ce4 ddbc 1b0f 98be 754d 0a3f 566f f93e
00000170: d8a5 9c3d 6dc1 8d3e c76a e13e 60d2 023f
00000180: 1bca cfbe 54ff de3e af27 353e 5a86 073e
00000190: 3835 e43e bc75 af3e bc35 a5bd 62d6 4e3e
000001a0: 7d69 d63e d3a4 903e 4a5a 803e 893e 673e
000001b0: 3bf7 013f c1e1 943e 98c0 463e 271d a03e
000001c0: 3e5b 383e a848 bcbe 4a27 ab3e 8195 033d
000001d0: 8e25 723e 89db 763e d823 2d3e 98af 823e
000001e0: 3bcd 113f 825a 023f 1928 cd3e 8322 803e
000001f0: 3f40 313e fc73 92bb c95c 52bc 8e07 873e
00000200: cbb6 adbe e7e9 d9be d5d1 743e c58f 24bf
00000210: 3425 42be 85cc e6be 6bf9 293e b57a 97be
00000220: d0a1 563e d3c0 383e 31dc f9be 7ba4 b6bd
00000230: 9d37 42be 694c a5be 33da cd3e 797d a6be
00000240: 6752 4f3e ad91 90be 18ec 92be 2f11 28bf
00000250: 9211 b1bd 2cae 343e 0e0b e2be cded 983e
00000260: ce15 c6be aa3b 13bf 908d df3e 2d77 c4bd
00000270: d83a c0be 27fa 493d 8142 013f 961d 09be
00000280: e52b 22bf 76bb 0d3f fa5e b03e 9810 80be
00000290: d724 b23e 1974 003f c920 10bf 51f4 b43e
000002a0: 8b96 c53d 373e 8c3e b365 953e 107a 21be
000002b0: de24 133f 972c 163e 2ada 873e ff66 d93d
000002c0: 1e0b 98be 4e20 19bf 8eca 993e 595f d5be
000002d0: c28b 88be b8bf 8ebe adab 4ebe 446f 92bd
000002e0: f10f 0b3e 601d b43d acfb cb3e cdb5 debd
000002f0: f96e 81be 7e3b 9cbe dce3 d1be 5b3a eebd
00000300: 7edc 1cbf f4f9 f7be 9347 363d 1d05 15bc
00000310: e484 83be 67ce e8be d27e d03e c3fa e3be
00000320: 4423 f13d f92e 0dbe 6fa9 bebe 099f 34be
00000330: 38de b0be 4cbc b8be 0393 683e 7d32 223d
00000340: 4791 433e 6fb1 5fbe 5818 5e3e bd41 c8bd
00000350: c029 3d3c ea07 413e 3a3b 61bd 8a73 ddbc
00000360: 0f25 acbe 241f 313e 1771 553e 6c42 bcbd
00000370: 294b b8be d73e a73d f65f d63d f3c0 d5bc
00000380: de3b 50bd 7d4a 4b3e 34de 333e b044 3dbd
00000390: daf3 20be 9f17 883e 140d 31be f540 5d3e
000003a0: 1112 bf3e 614d 353d cf7d 123d 9ca9 153e
000003b0: 5816 743d 2250 b73d 5eaa 38bd c6d2 0fbe
000003c0: e37f f4bd 1c43 c5bd ea18 e93d 8364 bbbe
000003d0: 7e04 11bf 9b0f aebb bef3 87be e2f0 efbe
000003e0: cf45 a33e 1f96 9f3e 7485 623e 7440 04bd
000003f0: 44d5 c3be e660 c9be 0973 efbe 4605 c8bd

bias f4 [32]
0.28548297 -0.062096633 0.36340424 0.33685347 -0.31453794 -0.0070142704 -0.4187164 0.13584445
-0.5167125 -0.57279205 -0.28900155 -0.54009104 -0.20783874 -0.39446938 0.16329446 -0.30109954
-0.036538057 -0.28264084 0.20513982 0.01825599 -0.28745702 -0.22800006 -0.44700038 -0.14709142
-0.6655959 0.21977198 -0.5115986 -0.5584578 -0.22614963 -0.40513042 -0.57443523 -0.06339086
00000000: d32a 923e 0a59 7ebd 1f10 ba3e 0f78 ac3e
00000010: 1e0b a1be f7d7 e5bb ff61 d6be cf1a 0b3e
00000020: 4547 04bf 80a2 12bf 03f8 93be 6843 0abf
00000030: aed3 54be e4f7 c9be aa36 273e b829 9abe
00000040: eea8 15bd 4db6 90be 2c10 523e 968d 953c
00000050: 912d 93be d978 69be 3cdd e4be 229f 16be
00000060: 7e64 2abf e80b 613e 20f8 02bf 17f7 0ebf
00000070: c593 67be 416d cfbe 300e 13bf 11d3 81bd

weight f4 [16, 32, 5, 5]
-0.3115095 -0.357855 -0.3795265 -0.3475754 -0.31462377 -0.34597623 -0.4154027 -0.43135
-0.35598704 -0.36270034 -0.41147888 -0.4076396 -0.47036543 -0.41288447 -0.35248035 -0.3230327
-0.36385345 -0.3979208 -0.37447262 -0.36652827 -0.336176 -0.3376164 -0.32758245 -0.32669848
-0.31715468 -0.021586275 0.004344286 -0.00052421377 0.008015358 0.0039145923 -0.053713173 -0.048876546
-0.09542659 0.037722133 -0.015621167 -0.018040126 -0.046034794 -0.13662678 -0.02458499 0.058920212
0.017460698 -0.036950383 -0.0037818344 0.020917125 0.024590991 0.028998924 0.030225474 0.028181132
0.02963566 0.033729084 -0.2954868 -0.34212628 -0.3446793 -0.33924446 -0.3099118 -0.39183262
-0.3862832 -0.42291877 -0.36121488 -0.30923438 -0.34173608 -0.4028401 -0.46708274 -0.39293265
-0.3410029 -0.31664076 -0.38578355 -0.34524944 -0.3035924 -0.34051368 -0.29376653 -0.31121653
-0.34243172 -0.3466076 -0.31141084 0.027093707 0.018170094 0.058992326 0.058483727 0.04734485
0.06626468 0.046565972 -0.010583757 0.022121217 0.016669283 0.023821237 0.019880893 0.024303624
0.033476423 0.05499064 0.08776106 0.0549098 0.04563101 0.027800975 0.020343706 0.0688118
0.045868475 0.07280412 0.04725612 0.029894078 -0.17207818 -0.21664448 -0.1705145 -0.18994579
-0.22144738 -0.23416162 -0.20737727 -0.29867744 -0.1707944 -0.18358125 -0.22782378 -0.27412787
-0.30325368 -0.2571503 -0.16532329 -0.1887524 -0.20399256 -0.20734665 -0.18777254 -0.21320005
-0.19831988 -0.20239115 -0.1992418 -0.19010057 -0.14832458 0.10660048 0.117400765 0.089378916
0.101943485 0.13349605 0.12420872 0.18449073 0.20067407 0.09063121 0.12537298 0.1340112
0.16907132 0.19174041 0.093429655 0.12852904 0.10915418 0.17363827 0.13124213 0.09860844
0.121295385 0.14721003 0.13729903 0.1368743 0.12874004 0.17982322 -0.19472672 -0.17998758
-0.25041294 -0.20170574 -0.17834069 -0.18461125 -0.1802531 -0.17369397 -0.1948378 -0.2010668
-0.20330304 -0.1971128 -0.09934993 -0.15849248 -0.20313378 -0.25979754 -0.153453 -0.20088896
-0.2116227 -0.21163714 -0.21082817 -0.2134913 -0.20981854 -0.21455458 -0.19321924 0.10791374
0.127177 0.14719334 0.08370326 0.0730907 0.09729706 0.05974582 0.032724712 0.12750708
0.1416986 0.10265436 0.06558708 0.029488226 0.10884841 0.103265725 0.14659362 0.06518617
0.08128307 0.11282146 0.09961055 0.103819914 0.11787598 0.14323369 0.068187624 0.14089885
-0.1761777 -0.12999736 -0.20025888 -0.17909087 -0.1645849 -0.15565479 -0.08972029 -0.09718573
-0.15002283 -0.18744168 -0.16729058 -0.118191175 -0.08182482 -0.15623935 -0.17822759 -0.19641708
-0.12714276 -0.17194828 -0.19796175 -0.1895214 -0.22121294 -0.17524818 -0.15705244 -0.19030441
-0.22051996 -0.09453479 -0.0832546 -0.10087565 -0.09288068 -0.09587277 -0.041759573 -0.0023709552
-0.047080625 -0.036197778 -0.09676118 -0.050477818 -0.027740628 -0.0362799 -0.09584561 -0.15000696
-0.11423246 -0.02539316 -0.080747485 -0.111954264 -0.04952873 -0.14738846 -0.107504405 -0.12475679
-0.081076704 -0.06907824 -0.19879389 -0.15917882 -0.17879403 -0.22453457 -0.22303568 -0.17462415
00000000: 2c7e 9fbe c538 b7be 4c51 c2be 67f5 b1be
00000010: 5e16 a1be cc23 b1be aaaf d4be e8d9 dcbe
00000020: ef43 b6be dcb3 b9be 5cad d2be 23b6 d0be
00000030: bdd3 f0be 9865 d3be 4e78 b4be 8b64 a5be
00000040: 004b babe 46bc cbbe e0ba bfbe 98a9 bbbe
00000050: 431f acbe 0fdc acbe e3b8 a7be 0645 a7be
00000060: 1962 a2be b3d5 b0bc 835a 8e3b 646b 09ba
00000070: d952 033c fb45 803b 5802 5cbd c632 48bd
00000080: 046f c3bd 8682 1a3d ecef 7fbc e3c8 93bc
00000090: fb8e 3cbd e4e7 0bbe 7666 c9bc 5256 713d
000000a0: bd09 8f3c 4959 17bd a7d8 77bb 645a ab3c
000000b0: 0c73 c93c 278f ed3c 6a9b f73c 1edc e63c
000000c0: 7cc6 f23c 8227 0a3d 0c4a 97be 2d2b afbe
000000d0: ce79 b0be 73b1 adbe c2ac 9ebe 499e c8be
000000e0: e9c6 c5be cf88 d8be 28f1 b8be f853 9ebe
000000f0: 08f8 aebe 0f41 cebe 7825 efbe 782e c9be
00000100: ef97 aebe bd1e a2be 6c85 c5be 89c4 b0be
00000110: 7770 9bbe cf57 aebe 9168 96be c657 9fbe
00000120: 3653 afbe 8d76 b1be 3e71 9fbe 9ff3 dd3c
00000130: 73d9 943c f0a1 713d a28c 6f3d acec 413d
00000140: c7b5 873d f6bb 3e3d 7f67 2dbc 8e37 b53c
00000150: 058e 883c c124 c33c 41dd a23c 6518 c73c
00000160: 931e 093d de3d 613d 12bc b33d 19e9 603d
00000170: 95e7 3a3d dfbe e33c d8a7 a63c 33ed 8c3d
00000180: 95e0 3b3d 541a 953d a28f 413d 6de4 f43c
00000190: 4335 30be 0dd8 5dbe 5a9b 2ebe 2681 42be
000001a0: 1ac3 62be 10c8 6fbe b55a 54be 40ec 98be
000001b0: bae4 2ebe b9fc 3bbe a34a 69be 7d5a 8cbe
000001c0: 1144 9bbe 34a9 83be 824a 29be 4f48 41be
000001d0: 6de3 50be ae52 54be 7247 40be 1d51 5abe
000001e0: 5e14 4bbe a03f 4fbe 0b06 4cbe b9a9 42be
000001f0: 66e2 17be 5a51 da3d d06f f03d 4b0c b73d
00000200: bfc7 d03d 30b3 083e 2461 fe3d 23eb 3c3e
00000210: 817d 4d3e db9c b93d c661 003e 3b3a 093e
00000220: 0821 2d3e 9957 443e 0c58 bf3d 1e9d 033e
00000230: 3a8c df3d 3bce 313e 5664 063e 39f3 c93d
00000240: b769 f83d 3abe 163e 1e98 0c3e c728 0c3e
00000250: 6ed4 033e 9423 383e 7166 47be aa4e 38be
00000260: 2036 80be f38b 4ebe f19e 36be bb0a 3dbe
00000270: 4594 38be d5dc 31be 8f83 47be 75e4 4dbe
00000280: ac2e 50be f0d7 49be fa77 cbbd da4b 22be
00000290: 4d02 50be 2f04 85be c922 1dbe d6b5 4dbe
000002a0: 9fb3 58be 68b7 58be 57e3 57be 779d 5abe
000002b0: acda 56be 32b4 5bbe 44db 45be e101 dd3d
000002c0: b03a 023e dab9 163e 9d6c ab3d 94b0 953d
000002d0: ae43 c73d 08b8 743d 590a 063d 3791 023e
000002e0: 7019 113e 733c d23d 8552 863d 4b91 f13c
000002f0: eaeb de3d fb7c d33d a31c 163e 5480 853d
00000300: bd77 a63d f00e e73d 9e00 cc3d 899f d43d
00000310: f668 f13d daab 123e f4a5 8b3d ca47 103e
00000320: ed67 34be 071e 05be aa10 4dbe 9963 37be
00000330: f288 28be f863 1fbe 45bf b7bd 5009 c7bd
00000340: 969f 19be b6f0 3fbe 394e 2bbe 370e f2bd
00000350: c593 a7bd 35fd 1fbe 4b81 36be 8f21 49be
00000360: b631 02be 3613 30be 7cb6 4abe e611 42be
00000370: a585 62be 4274 33be 5bd2 20be 29df 42be
00000380: fccf 61be 759b c1bd 6381 aabd e597 cebd
00000390: 3a38 bebd f158 c4bd 160c 2bbd 0762 1bbb
000003a0: 9dd7 40bd 1f44 14bd ba2a c6bd d4c1 4ebd
000003b0: 5040 e3bc 3c9a 14bd b44a c4bd 6d9b 19be
000003c0: b5f2 e9bd 5105 d0bc f05e a5bd 4748 e5bd
000003d0: a3de 4abd 00ed 16be 452b dcbd 7d80 ffbd
000003e0: 8b0b a6bd e478 8dbd a090 4bbe c6ff 22be
000003f0: c815 37be 64ec 65be 7763 64be acd0 32be

bias f4 [16]
0.058781732 0.09150533 0.08223531 0.13647404 0.0946852 0.08135846 0.07324495 0.084859915
0.079322025 0.074638955 0.051862102 0.11754289 0.10562289 0.09127786 0.079962246 0.1130982
00000000: 1dc5 703d 2567 bb3d fc6a a83d dabf 0b3e
00000010: 50ea c13d 449f a63d 7301 963d 09cb ad3d
00000020: 9673 a23d 4fdc 983d 5b6d 543d 54ba f03d
00000030: d050 d83d e3ef ba3d 3fc3 a33d 07a0 e73d
