weights/Act_ELU_SRCNN_model_path.pth (torch, 85151 bytes, 6 tensors)

weight f4 [64, 1, 9, 9]
0	0x3e9bcd29	0.30429962
1	0x3e90d224	0.28285325
2	0x3ee7a1f6	0.45240754
3	0x3e94c163	0.29053792
4	0x3ed853e5	0.42251506
5	0x3ed3636e	0.41286796
6	0x3eddb9a1	0.43305686
7	0x3ebfc3cf	0.37454078
8	0x3eac5037	0.3365495
9	0x3ecc9d17	0.399636
10	0x3edca047	0.43091032
11	0x3eddd48f	0.43326232
12	0x3ea769cd	0.32697907
13	0x3f03a8c3	0.51429385
14	0x3edb5471	0.4283786
15	0x3e9282e5	0.2861549
16	0x3ea7945c	0.32730377
17	0x3ea18e36	0.3155381
18	0x3ed48b30	0.41512442
19	0x3eced70f	0.40398452
20	0x3ea0a392	0.31374794
21	0x3e99a63f	0.30009648
22	0x3f150362	0.58208287
23	0x3ebd790b	0.3700641
24	0x3ef47761	0.4774733
25	0x3ec9eed6	0.3944003
26	0x3e9af0ae	0.3026175
27	0x3e98752d	0.29776898
28	0x3eb9d146	0.36292475
29	0x3eb49665	0.35270992
30	0x3eb91fd9	0.3615711
31	0x3f088498	0.5332732
32	0x3ec1af59	0.37829092
33	0x3edf9f99	0.4367645
34	0x3f0121e4	0.5044234
35	0x3e9eebf5	0.31039396
36	0x3ed4836d	0.4150652
37	0x3f04c492	0.5186244
38	0x3ef1c423	0.47219953
39	0x3ed34c23	0.41269025
40	0x3eeb2316	0.45925206
41	0x3eeecac3	0.4663907
42	0x3f00ec0e	0.5036019
43	0x3edeca0b	0.43513522
44	0x3efc34a6	0.49258918
45	0x3ee49889	0.44647625
46	0x3ef8f715	0.4862601
47	0x3f01ab8b	0.5065238
48	0x3ee4c771	0.44683412
49	0x3f1a55db	0.60287255
50	0x3f0d6748	0.5523572
51	0x3ef445db	0.47709545
52	0x3ef23f55	0.47313944
53	0x3e955eab	0.29173788
54	0x3ebebc74	0.37253153
55	0x3ee11572	0.43961674
56	0x3ea6c97b	0.32575592
57	0x3ee40e6b	0.4454225
58	0x3eed3f42	0.46337324
59	0x3f06d269	0.5266481
60	0x3ec16d7c	0.37778842
61	0x3eb88dd9	0.3604572
62	0x3e9f4803	0.31109628
63	0x3edd37df	0.4320669
64	0x3ed8ba6c	0.4232973
65	0x3ef20271	0.47267488
66	0x3ef66eb7	0.48131344
67	0x3ef47750	0.47747278
68	0x3efe2765	0.4963943
69	0x3eaaf383	0.3338891
70	0x3ed314bd	0.4122676
71	0x3e9ac428	0.3022778
72	0x3ecc4cf1	0.39902452
73	0x3ea17322	0.31533152
74	0x3ed080a5	0.40723148
75	0x3ecbd533	0.39811096
76	0x3ee92c85	0.45541778
77	0x3eb4afcf	0.3529038
78	0x3eb53e4a	0.35399085
79	0x3ec7b6dd	0.390067
80	0x3e924485	0.285679
81	0xbe3c287b	-0.18374817
82	0xbe95db3f	-0.29268834
83	0xbe9895ea	-0.29801875
84	0xbe753c73	-0.23948841
85	0xbe28a900	-0.16470718
86	0xbeacac21	-0.33725074
87	0xbe80a3d1	-0.25124982
88	0xbe64aae9	-0.22330822
89	0xbec223d8	-0.37917972
90	0xbe3a22c4	-0.18177325
91	0xbe974ec4	-0.2955228
92	0xbe2ab362	-0.16669992
93	0xbe253f41	-0.1613741
94	0xbe52bca1	-0.20579769
95	0xbeaaa959	-0.33332327
96	0xbe7a07ab	-0.24416988
97	0xbea5fed1	-0.32420972
98	0xbeb5c40c	-0.35501134
99	0xbe739d66	-0.23790511
100	0xbeab9cc8	-0.33518052
101	0xbe92d417	-0.28677437
102	0xbe4158eb	-0.18881576
103	0xbe2f8986	-0.17142305
104	0xbe1734ca	-0.14766231
105	0xbea3a6c8	-0.31963181
106	0xbe0fe3b6	-0.14051709
107	0xbea204ae	-0.31644195
108	0xbea25dd3	-0.31712207
109	0xbe4aca6e	-0.19803783
110	0xbe9876d4	-0.2977816
111	0xbe9c3154	-0.30506384
112	0xbeae5459	-0.34048727
113	0xbe1a970d	-0.15096684
114	0xbe940c97	-0.28915855
115	0xbe9fe00a	-0.31225616
116	0xbe3184c9	-0.1733581
117	0xbeaaa67b	-0.3333014
118	0xbe676938	-0.22598732
119	0xbeab0217	-0.33400032
120	0xbdf3259b	-0.11872407
121	0xbe3bb9b2	-0.18332556
122	0xbec0336f	-0.3753924
123	0xbe56c1f5	-0.20972426
124	0xbe228950	-0.15872693
125	0xbe718781	-0.23586847
126	0xbeb87ce2	-0.36032778
127	0xbe6f0534	-0.23341829
128	0xbe7a8473	-0.24464588
129	0xbe924a7a	-0.28572446
130	0xbe0c4bc4	-0.13700777
131	0xbe7be603	-0.24599461
132	0xbe9ac442	-0.30227858
133	0xbe9e4bb3	-0.3091713
134	0xbea46bc5	-0.32113472
135	0xbe5d7ce7	-0.21629678
136	0xbe4c0837	-0.19925009
137	0xbe9db1f0	-0.30799818
138	0xbe658759	-0.22414912
139	0xbe619a3d	-0.22031493
140	0xbeb15a2c	-0.34639108
141	0xbe41eb6b	-0.18937461
142	0xbea8cf44	-0.3297063
143	0xbe8b7f60	-0.27245617
144	0xbeb0495d	-0.34430972
145	0xbe6bd0cf	-0.23028873
146	0xbeb332dc	-0.3499974
147	0xbe8d3076	-0.27576035
148	0xbe969c3a	-0.29416066
149	0xbe999ab3	-0.3000084
150	0xbe80ca9c	-0.2515458
151	0xbe9d9a49	-0.30781773
152	0xbe72f4d8	-0.23726213
153	0xbe9435e3	-0.28947362
154	0xbec3218b	-0.3811153
155	0xbe75fd2e	-0.24022362
156	0xbe46c9b6	-0.19412884
157	0xbe81a3b8	-0.2532022
158	0xbe996447	-0.29959318
159	0xbe767ebb	-0.24071781
160	0xbeb2c5ff	-0.34916684
161	0xbea3e3ed	-0.3200983
162	0xbed69e34	-0.41917574
163	0xbe6ec736	-0.2331818
164	0xbe59c59f	-0.21266793
165	0xbeba005e	-0.36328405
166	0xbeb3dc5e	-0.35129064
167	0xbe51eb6e	-0.20499966
168	0xbec41d1b	-0.38303456
169	0xbe47a5eb	-0.19496886
170	0xbe9a983b	-0.30194268
171	0xbe85a624	-0.26103318
172	0xbeccd996	-0.40009755
173	0xbe700f73	-0.23443393
174	0xbea3ab9b	-0.31966862
175	0xbebd98ea	-0.37030727
176	0xbe97b61d	-0.2963113
177	0xbec5afd9	-0.38610724
178	0xbeb1aa45	-0.34700218
179	0xbeace9b1	-0.33772042
180	0xbeaaf3b0	-0.33389044
181	0xbeb277d1	-0.34857038
182	0xbe146576	-0.1449183
183	0xbed1f5e3	-0.4100791
184	0xbe64ff51	-0.2236302
185	0xbe7b8f3b	-0.24566357
186	0xbea1861e	-0.31547636
187	0xbe63c6c8	-0.22243798
188	0xbe52a631	-0.2057121
189	0xbea381d4	-0.31934988
190	0xbe7a6a9c	-0.24454731
191	0xbee0f8ba	-0.43939763
192	0xbe05ff59	-0.13085689
193	0xbe014223	-0.12622885
194	0xbeaf6b95	-0.34261766
195	0xbea09b97	-0.31368706
196	0xbe4171af	-0.18891023
197	0xbe991c00	-0.29904175
198	0xbe6c24e4	-0.23060948
199	0xbe88e199	-0.26734617
200	0xbe226bc1	-0.15861417
201	0xbe9c7980	-0.30561447
202	0xbdcef7a8	-0.101058304
203	0xbeb84d2d	-0.3599638
204	0xbeb3cb66	-0.35116118
205	0xbe9c5f35	-0.30541387
206	0xbe9141ba	-0.28370458
207	0xbe403d2a	-0.18773332
208	0xbebaecd7	-0.3650882
209	0xbeb31362	-0.34975725
210	0xbe17cdf9	-0.14824666
211	0xbeda12f1	-0.42592576
212	0xbeb4e468	-0.3533051
213	0xbe71773b	-0.23580639
214	0xbe4c91b0	-0.1997745
215	0xbe4fb85f	-0.20285176
216	0xbec5395e	-0.3852033
217	0xbe3843a7	-0.17994557
218	0xbec1fa14	-0.37886107
219	0xbe492efb	-0.19646828
220	0xbe855fc1	-0.26049617
221	0xbeca3b79	-0.394985
222	0xbdee5cd7	-0.116388015
223	0xbee30dae	-0.44346374
224	0xbe2a635d	-0.16639467
225	0xbec19cac	-0.37814844
226	0xbe6eb8b3	-0.23312645
227	0xbec6af3f	-0.38805577
228	0xbe703d80	-0.2346096
229	0xbe708af9	-0.23490514
230	0xbebeea0f	-0.37287948
231	0xbecbb347	-0.39785215
232	0xbe9bd023	-0.30432233
233	0xbea9c73a	-0.3315981
234	0xbeace35d	-0.33767214
235	0xbeaff30d	-0.3436512
236	0xbea54464	-0.3227874
237	0xbeb122f5	-0.34596983
238	0xbe5c4f98	-0.21514738
239	0xbe7d131c	-0.24714321
240	0xbe9ac4ff	-0.3022842
241	0xbea620ed	-0.32446995
242	0xbeb7335f	-0.3578138
243	0xbeaa8ed5	-0.33312097
244	0xbea5b9fa	-0.3236845
245	0xbe57932c	-0.21052235
246	0xbea6dae7	-0.32588884
247	0xbdeddd80	-0.116145134
248	0xbe576023	-0.21032767
249	0xbebcd24b	-0.3687919
250	0xbe67f069	-0.22650303
251	0xbe846068	-0.25854802
252	0xbeae603d	-0.340578
253	0xbeb4c322	-0.35305125
254	0xbe469ca4	-0.19395691
255	0xbea8cee0	-0.32970333

bias f4 [64]
0	0x3e30ebcc	0.1727745
1	0xbeb097b3	-0.34490737
2	0xbee0aa77	-0.43880054
3	0xbee0584f	-0.43817374
4	0xbf21fa3d	-0.6327246
5	0xbde28316	-0.11060159
6	0xbe6c4c7d	-0.23076053
7	0xbe749744	-0.23885828
8	0xbe55583b	-0.20834439
9	0xbe54be35	-0.20775683
10	0xbd93fb12	-0.07225622
11	0xbda3d863	-0.08000257
12	0xbe92e425	-0.28689685
13	0xbe550978	-0.20804393
14	0xbeaafc06	-0.33395404
15	0xbe375c4d	-0.17906304
16	0xbef9f180	-0.48817062
17	0xbe9704ea	-0.29495937
18	0xbe2789cf	-0.16361164
19	0xbef67224	-0.48133957
20	0xbeab11ae	-0.33411926
21	0xbe7df2d7	-0.24799667
22	0xbe85837b	-0.26076874
23	0xbebe35e4	-0.3715049
24	0xbe29734f	-0.16547893
25	0xbe27d76c	-0.1639077
26	0xbeb3aa5f	-0.3509092
27	0xbeb5f6ea	-0.35539943
28	0xbe488935	-0.1958359
29	0xbea60913	-0.32428798
30	0xbe3b28c8	-0.18277276
31	0xbea19448	-0.31558442
32	0x3e5ddb02	0.21665576
33	0xbe272c4b	-0.1632549
34	0xbb3ad9d1	-0.0028511176
35	0xbea0fbb2	-0.31442028
36	0x3eea1cdf	0.45725152
37	0xbe51147f	-0.20417975
38	0xbe9e3b16	-0.30904454
39	0xbebdff37	-0.37108776
40	0xbec211a0	-0.37904072
41	0x3eb5cb3e	0.35506624
42	0xbecd92e9	-0.40151146
43	0xbebc6743	-0.36797532
44	0x3ed6cae1	0.4195166
45	0xbe818614	-0.25297606
46	0xbecb77fc	-0.39739978
47	0xbe1f2b27	-0.15543805
48	0xbdc4bdf2	-0.09606542
49	0xbeb1f96d	-0.3476061
50	0xbe663586	-0.22481355
51	0xbe97fecf	-0.2968659
52	0x3ea986b4	0.33110583
53	0xbe89b3d3	-0.26895007
54	0xbe3e3b55	-0.18577321
55	0xbe2b0f2f	-0.16705011
56	0xbe1bf8b0	-0.15231586
57	0x3e396eb0	0.1810863
58	0xbeab8228	-0.3349774
59	0xbd9e517e	-0.07730387
60	0xbe96fd91	-0.2949033
61	0xbed6a27d	-0.41920844
62	0xbe86e2af	-0.2634482
63	0xbe88867b	-0.266651

weight f4 [32, 64, 1, 1]
0	0xbf057a2d	-0.5213955
1	0x3edc75f6	0.43058747
2	0x3ee6b40f	0.4505925
3	0x3eba5e13	0.36399898
4	0x3e8f210b	0.27954897
5	0xbe378fca	-0.17925945
6	0xbc41ddca	-0.011832664
7	0x3eb7b60f	0.35881087
8	0x3aa9ff5c	0.001296978
9	0x3ed04e2e	0.40684646
10	0xbeb38e58	-0.35069537
11	0xbca1507f	-0.019691704
12	0x3f0e3364	0.55547166
13	0xbe3d980d	-0.18515034
14	0x3e9b4895	0.30328813
15	0xbe0e9386	-0.13923463
16	0x3ef3f4a7	0.47647592
17	0x3e9c373d	0.30510893
18	0x3e51f4ed	0.20503588
19	0x3f07ffb1	0.5312453
20	0xbd498d09	-0.049206767
21	0x3f0a9fa0	0.5414982
22	0x3eb6c348	0.35695863
23	0x3ee2e66b	0.4431642
24	0xbe7b4a2f	-0.24540018
25	0x3f093cf2	0.5360862
26	0xbc9640c6	-0.018341433
27	0x3edff254	0.4373957
28	0x3c224be0	0.009905785
29	0x3edc0077	0.42969105
30	0xbe26b64a	-0.16280475
31	0xbca9efd3	-0.02074424
32	0xbf102d9e	-0.56319606
33	0xbe30b585	-0.17256744
34	0x3efa5ecf	0.48900458
35	0xbe59a9a0	-0.21256113
36	0xbed911bf	-0.42396352
37	0xbdb938a1	-0.09044004
38	0x3e708239	0.23487176
39	0x3ec2b8d8	0.3803165
40	0xbdba611f	-0.09100556
41	0xbf02abd3	-0.5104343
42	0x3f050ed7	0.5197577
43	0x3ed76131	0.4206634
44	0xbf1be0a0	-0.60889626
45	0x3ede6793	0.43438396
46	0x3ed3cf73	0.4136921
47	0x3e9c1927	0.3048794
48	0xbe7fe59a	-0.2498993
49	0x3edf733c	0.43642604
50	0xbdf5f81b	-0.12010213
51	0xbd5897fb	-0.052879315
52	0xbf0b9d80	-0.545372
53	0x3f290d35	0.6603578
54	0xbe1394fe	-0.14412305
55	0xbe78cacb	-0.2429611
56	0xbe20c823	-0.15701346
57	0xbf10a941	-0.5650826
58	0x3ebd4ae1	0.3697119
59	0xbefb9c68	-0.49142766
60	0x3f1d832f	0.61528295
61	0x3effadca	0.49937278
62	0x3ee567ae	0.44805664
63	0x3daf9bca	0.08574636
64	0xbeee8104	-0.46582806
65	0x3dfcd83b	0.1234593
66	0x3ed53890	0.41644716
67	0x3d439c03	0.047756206
68	0x3f11d29a	0.5696198
69	0xbb0f3c1c	-0.0021855896
70	0xbd4ee91b	-0.050515275
71	0x3ea38679	0.31938532
72	0x3b85c1a1	0.0040819203
73	0x3ec0a83d	0.37628356
74	0xbe08a4be	-0.13344094
75	0xbd25565b	-0.040365558
76	0xbe0bbaef	-0.13645528
77	0xbd9c29be	-0.07625149
78	0x3e6c1cd3	0.2305787
79	0xbc0ca3cf	-0.008583977
80	0x3edfa3cb	0.43679652
81	0xbe0908a7	-0.13382207
82	0xbd76fc7c	-0.06029938
83	0xbd9d1115	-0.07669274
84	0xbd1eec48	-0.038799554
85	0x3dcc705a	0.09982367
86	0x3de31308	0.11087614
87	0x3eb1ed0b	0.34751162
88	0xbe088556	-0.13332114
89	0xbc98cb84	-0.018651731
90	0xbdb514cf	-0.088418595
91	0x3eccda99	0.40010527
92	0xbe4e929e	-0.20173118
93	0x3e83188d	0.25604668
94	0xbe5b73e0	-0.21430922
95	0xbe29a2e1	-0.1656604
96	0xbe847cc8	-0.2587645
97	0xbe30a470	-0.17250228
98	0xbde0252f	-0.10944592
99	0xbe704188	-0.23462498
100	0xbeb7090b	-0.35749087
101	0xbe0fc196	-0.14038691
102	0x3c059ecc	0.008155536
103	0x3e795018	0.2434696
104	0xbd933909	-0.07188613
105	0xbe82b16e	-0.25525993
106	0x3ea0e60d	0.31425515
107	0x3eabf68a	0.33586532
108	0xbec70a11	-0.38874868
109	0x3e88bf5b	0.26708493
110	0x3e223e88	0.15844166
111	0x3c681350	0.014164761
112	0xbe0bd677	-0.1365603
113	0x3e370197	0.178717
114	0xbe1222ce	-0.1427109
115	0xbddbbe25	-0.107296266
116	0xbe635c4e	-0.2220318
117	0xbd8ec2f7	-0.0697078
118	0xbe67b712	-0.2262843
119	0xbe345412	-0.17610195
120	0xbdb903bd	-0.09033916
121	0xbdd10758	-0.10206479
122	0x3eb1f84e	0.34759754
123	0xbdb6af68	-0.08920175
124	0x3eb4c594	0.3530699
125	0x3eb9f920	0.3632288
126	0xbb9c7e12	-0.004775771
127	0xbdccac73	-0.099938296
128	0xbeb9077d	-0.36138526
129	0x3ec13fca	0.3774398
130	0x3e8932d5	0.26796594
131	0x3e99b56d	0.3002123
132	0x3e89d77e	0.2692222
133	0x3e90ce35	0.28282323
134	0xbd89b6ae	-0.067242965
135	0x3f0f3845	0.55945235
136	0xbe3dba75	-0.18528159
137	0x3e9698df	0.29413506
138	0xbe508138	-0.20361793
139	0x3e3d580d	0.1849062
140	0xbdec745f	-0.115456335
141	0xbe15cd1c	-0.14629024
142	0x3ede94b7	0.43472835
143	0xbe56ef16	-0.20989642
144	0x3ed6b784	0.41936886
145	0x3e561c31	0.20909192
146	0x3e4afdb8	0.19823349
147	0x3e5eb387	0.21748172
148	0x3e8b2a35	0.2718064
149	0x3ec5598e	0.38544887
150	0x3ecd41a0	0.4008913
151	0x3e3bcb11	0.18339182
152	0xbd8565c7	-0.06513553
153	0x3ea1f71d	0.31633845
154	0x3e1189f2	0.14212778
155	0x3e368d70	0.17827392
156	0x3e27794a	0.16354862
157	0x3f237803	0.63855
158	0x3e30ccdc	0.17265648
159	0x3ec840b6	0.3911187
160	0xbe8db148	-0.27674317
161	0xbe95e6f4	-0.29277766
162	0x3de9100b	0.11380013
163	0xbec7d6e1	-0.39031127
164	0xbef10078	-0.4707067
165	0x3da6946c	0.08133778
166	0x3ed9c8a8	0.425359
167	0x3ec66769	0.3875077
168	0xbdc9ee39	-0.098598905
169	0xbef81e9f	-0.48460862
170	0x3eecd648	0.46257234
171	0x3e938e8f	0.288197
172	0xbf023f13	-0.50877494
173	0x3e937f73	0.28808174
174	0x3f0730dc	0.5280893
175	0x3e862a2b	0.26204047
176	0x3e718b25	0.23588236
177	0x3f10e78f	0.5660333
178	0xbe60bfb6	-0.21948132
179	0xbe0dcb80	-0.1384716
180	0xbf0051df	-0.50124925
181	0xbd7fd318	-0.062457174
182	0x3dab8d76	0.08376591
183	0x3e23463f	0.15944766
184	0x3dd8b134	0.10580674
185	0xbea2bb9a	-0.31783754
186	0x3eaa2a02	0.33235174
187	0xbe7487a0	-0.23879862
188	0x3ececeef	0.40392253
189	0x3f01fa07	0.50772136
190	0x3e984ff6	0.29748505
191	0x3e5489ed	0.2075574
192	0xbe894cbb	-0.26816353
193	0x3e45fd50	0.19334912
194	0x3ec53925	0.3852016
195	0x3e0f1a73	0.13974933
196	0x3e98368f	0.29729125
197	0xbe131a19	-0.14365424
198	0xbeac92d6	-0.33705777
199	0x3e93ef74	0.28893626
200	0xbdf894b6	-0.12137739
201	0x3e85ebe0	0.2615652
202	0xbeae1559	-0.34000662
203	0x3e374ef8	0.17901218
204	0xbe6705c3	-0.22560792
205	0xbe28325d	-0.16425462
206	0x3e907fd8	0.28222537
207	0xbe1794d3	-0.14802866
208	0x3e88ccce	0.26718754
209	0x3e2411be	0.16022393
210	0x3e135bfa	0.14390555
211	0xbe61486a	-0.2200028
212	0xbdc45749	-0.09586961
213	0x3e2a9e15	0.16661866
214	0x3e7c66e4	0.24648625
215	0x3e0a00a1	0.13476802
216	0xbe7e9aa6	-0.24863681
217	0xbe422ffe	-0.1896362
218	0x3e26c983	0.16287808
219	0x3e9b5def	0.30345103
220	0x3ea0c7a1	0.31402305
221	0x3e6aa598	0.22914732
222	0xbe49a6ef	-0.19692586
223	0xbe84c13d	-0.2592868
224	0xbe4483c4	-0.1919089
225	0xbeaf68b7	-0.3425958
226	0xbeb01a31	-0.34394982
227	0xbe9f6397	-0.3113067
228	0xbed15b69	-0.40890053
229	0xbe191e9d	-0.14953084
230	0x3e689972	0.22714785
231	0x3dfd280c	0.12361154
232	0xbe6facb0	-0.23405719
233	0xbe584edb	-0.21123831
234	0x3e898ead	0.26866665
235	0x3e7d7ddd	0.24755044
236	0xbeb555ed	-0.3541712
237	0x3e8b6ec6	0.2723295
238	0x3e915095	0.28381792
239	0xbe6bf647	-0.23043166
240	0xbe8c6399	-0.27419737
241	0x3df43838	0.119247854
242	0xbe2a838e	-0.16651747
243	0xbe621993	-0.22080068
244	0xbe8f6f48	-0.28014588
245	0xbeb6508f	-0.35608336
246	0xbeb72cd3	-0.35776386
247	0xbe807145	-0.25086418
248	0xbe6719fa	-0.22568503
249	0x3df12129	0.11773903
250	0x3ee4d8f6	0.44696778
251	0x3ecdd1e8	0.40199208
252	0x3e79cb95	0.24394067
253	0x3e996eb4	0.29967272
254	0xbea7c18d	-0.32764855
255	0xbe37529e	-0.1790261

bias f4 [32]
0	0xbeac68be	-0.33673662
1	0xbef8e6b7	-0.4861352
2	0xbeb50ad7	-0.35359833
3	0xbec4b521	-0.3841944
4	0xbe849f02	-0.25902563
5	0x3d7812ef	0.06056493
6	0xbe859e6e	-0.26097435
7	0xbeea8579	-0.45804957
8	0xbea243b1	-0.3169227
9	0xbec1d970	-0.37861204
10	0xbedd6b2f	-0.43245837
11	0xbe8c01f9	-0.27345255
12	0xbe85b301	-0.26113132
13	0xbee61da1	-0.4494448
14	0xbe5fa8b5	-0.218417
15	0xbe83622b	-0.25660834
16	0xbede37ef	-0.4340205
17	0xbeb670d4	-0.35632956
18	0xbee0167c	-0.43767154
19	0xbeb90b2b	-0.36141333
20	0xbe9f542b	-0.31118903
21	0xbefc6951	-0.492991
22	0xbecbddd6	-0.39817685
23	0xbe5fd2df	-0.21857785
24	0xbec73c29	-0.38913086
25	0xbeaf8e8e	-0.34288448
26	0xbdd968a3	-0.10615661
27	0xbe9c8b68	-0.3057511
28	0xbec17a39	-0.3778856
29	0xbeda6e84	-0.42662442
30	0xbee4ee36	-0.4471299
31	0xbeb8cc05	-0.36093155

weight f4 [16, 32, 5, 5]
0	0x3ea72017	0.3264167
1	0x3eb4caf9	0.35311106
2	0x3ec54b1c	0.38533866
3	0x3eb19e37	0.3469102
4	0x3ea487bc	0.32134807
5	0x3ea52a00	0.32258606
6	0x3ea235de	0.31681722
7	0x3ea4550c	0.32096136
8	0x3ea08ab6	0.31355828
9	0x3ea19ebe	0.31566423
10	0x3eaacb45	0.33358207
11	0x3ea707ca	0.3262313
12	0x3e949325	0.29018512
13	0x3e8e42f6	0.27785462
14	0x3ea373af	0.31924197
15	0x3eb985c8	0.3623488
16	0x3eb95c18	0.36203074
17	0x3ecaa82c	0.3958143
18	0x3ebade15	0.3649756
19	0x3ea8d913	0.32978114
20	0x3e9c1890	0.3048749
21	0x3e939a0c	0.28828466
22	0x3eafb3b3	0.34316787
23	0x3ead5b23	0.33858594
24	0x3e94a461	0.2903166
25	0xbe0e24df	-0.13881253
26	0xbe75bbd8	-0.23997438
27	0xbe6be692	-0.23037174
28	0xbe6d65a7	-0.23183309
29	0xbe2cec51	-0.16887023
30	0xbe80fe54	-0.25194037
31	0xbe9165b7	-0.28397915
32	0xbe2ca8ed	-0.16861315
33	0xbe234f18	-0.1594814
34	0xbe74ccb2	-0.2390621
35	0xbe35f018	-0.1776737
36	0xbe2ba892	-0.16763523
37	0xbdfa8cea	-0.122339085
38	0xbe386bb7	-0.1800984
39	0xbe5d4b61	-0.21610786
40	0xbe21ffe9	-0.15820278
41	0xbe386e45	-0.18010814
42	0xbe3e719e	-0.18598029
43	0xbe063507	-0.13106166
44	0xbe5033c6	-0.2033225
45	0xbe343c4d	-0.17601128
46	0xbe429497	-0.19001995
47	0xbe33c590	-0.17555833
48	0xbe41e71e	-0.1893582
49	0xbe7376e3	-0.2377582
50	0x3ec786e8	0.38970113
51	0x3ed608a3	0.41803464
52	0x3ea56424	0.32302964
53	0x3ece3e82	0.40282065
54	0x3ee05fbe	0.43823045
55	0x3ee07d3a	0.4384554
56	0x3eca93db	0.3956593
57	0x3edde593	0.43339214
58	0x3ed55e24	0.41673386
59	0x3ed2ad75	0.41147962
60	0x3eb7ab1b	0.3587273
61	0x3ec5a93f	0.38605687
62	0x3ee07142	0.4383641
63	0x3ebc9de7	0.3683922
64	0x3ed4b4a0	0.41544056
65	0x3eec0e55	0.46104684
66	0x3ec82817	0.39093086
67	0x3ebdae56	0.3704707
68	0x3e9401a6	0.28907508
69	0x3ed3a154	0.4133402
70	0x3ec57a82	0.3857003
71	0x3ea6d66c	0.32585466
72	0x3ec0db30	0.37667227
73	0x3ec2d09a	0.38049775
74	0x3ed1a4ee	0.40946144
75	0xbe726e36	-0.23674855
76	0xbe4b9799	-0.19882049
77	0xbe5dd12c	-0.21661824
78	0xbe627d09	-0.2211801
79	0xbe535627	-0.20638333
80	0xbe488ae8	-0.19584239
81	0xbe745c86	-0.2386342
82	0xbe80cb30	-0.2515502
83	0xbe40965e	-0.1880736
84	0xbe4b5325	-0.19855936
85	0xbe5dc462	-0.21656945
86	0xbe50f767	-0.20406877
87	0xbe5ca290	-0.21546388
88	0xbe80e160	-0.25171947
89	0xbe7e7e73	-0.24852924
90	0xbe6d4f19	-0.23174705
91	0xbe84eddd	-0.25962725
92	0xbe87840d	-0.26467934
93	0xbe661dc7	-0.22472297
94	0xbe7c7feb	-0.24658172
95	0xbe561187	-0.20905124
96	0xbe085e9e	-0.13317344
97	0xbe4dfcd6	-0.2011598
98	0xbe550631	-0.20803143
99	0xbe69ec81	-0.22844125
100	0x3efebd88	0.49753976
101	0x3ed86f83	0.42272577
102	0x3ef23903	0.4730912
103	0x3eec3c64	0.46139824
104	0x3ed9a3b1	0.425077
105	0x3ee85737	0.4537904
106	0x3ee9dc7a	0.45676023
107	0x3ee9d520	0.45670414
108	0x3ed887ae	0.42291015
109	0x3ed657da	0.418639
110	0x3ee330ac	0.4437307
111	0x3ed4bfb3	0.41552505
112	0x3ef49a3b	0.47773919
113	0x3edd071f	0.43169495
114	0x3ef45a70	0.47725248
115	0x3eebffad	0.46093503
116	0x3ee6a80e	0.4505009
117	0x3f03d171	0.5149146
118	0x3ed61de2	0.41819674
119	0x3ef835e7	0.48478624
120	0x3ed47750	0.41497278
121	0x3ede9c55	0.43478647
122	0x3ef9e512	0.4880758
123	0x3ee77661	0.45207503
124	0x3ee64df2	0.44981343
125	0xbe459194	-0.19293815
126	0xbe512980	-0.20425987
127	0xbe6cb9bd	-0.23117729
128	0xbe60a22f	-0.21936868
129	0xbe450930	-0.19241786
130	0xbe27282b	-0.16323917
131	0xbe555633	-0.20833664
132	0xbe7b43d4	-0.24537593
133	0xbe53ef9d	-0.20696874
134	0xbe554451	-0.20826842
135	0xbe7279b0	-0.23679233
136	0xbe6e0e14	-0.23247558
137	0xbea33b15	-0.31881014
138	0xbe87eea2	-0.2654925
139	0xbe6e8504	-0.23292929
140	0xbe474d2f	-0.19463037
141	0xbe7a8ad1	-0.24467017
142	0xbe99491b	-0.29938588
143	0xbe6cb597	-0.23116146
144	0xbe34b320	-0.17646456
145	0xbe414217	-0.18872868
146	0xbe36b0d0	-0.17840886
147	0xbe50c9f4	-0.20389539
148	0xbe351385	-0.17683227
149	0xbe49f264	-0.19721371
150	0x3eea5e39	0.4577501
151	0x3ee53d4f	0.44773337
152	0x3ed5ce88	0.41759133
153	0x3ef68099	0.48144987
154	0x3eeaf219	0.4588783
155	0x3ee09a5d	0.4386777
156	0x3ed15416	0.40884465
157	0x3ed0407d	0.406742
158	0x3ee3318c	0.4437374
159	0x3ed250ce	0.41077274
160	0x3ee063bf	0.438261
161	0x3ed0a19b	0.40748295
162	0x3ec832d1	0.3910127
163	0x3ef1467d	0.4712409
164	0x3edbcc25	0.42929187
165	0x3eecadcf	0.46226355
166	0x3edbf174	0.42957652
167	0x3edd6513	0.43241176
168	0x3eeba0a8	0.46021008
169	0x3eee597c	0.46552646
170	0x3eebec9e	0.46078962
171	0x3ee71c9c	0.45139015
172	0x3ee4102e	0.44543594
173	0x3ee52a52	0.4475885
174	0x3ed6e59c	0.41972053
175	0xbd24699c	-0.04013978
176	0xbe26ab9b	-0.162764
177	0xbd46a5d1	-0.04849798
178	0xbd75e735	-0.06003495
179	0xbdca2cfd	-0.09871862
180	0xbdfba263	-0.12286832
181	0xbded548c	-0.11588392
182	0xbdea9771	-0.114546664
183	0xbd9d6930	-0.076860785
184	0xbe05d174	-0.13068181
185	0xbd2131b9	-0.03935406
186	0x3d83274b	0.06403979
187	0x3ccb10b9	0.024788247
188	0xbd535a9c	-0.051600084
189	0xbda02c02	-0.07820894
190	0xbda5aee8	-0.08090001
191	0xbdebef46	-0.11520247
192	0x3cd705ee	0.026247945
193	0xbde509bc	-0.11183497
194	0xbdc43e6d	-0.09582219
195	0xbdff00f6	-0.12451355
196	0xbdd3be10	-0.10338986
197	0xbca6c69b	-0.020358374
198	0xbdf12c98	-0.11776084
199	0xbdb0b470	-0.08628166
200	0xbe7d8151	-0.24756362
201	0xbe1ba422	-0.1519933
202	0xbe6ee49c	-0.23329395
203	0xbe408ab2	-0.18802908
204	0xbe4a1b8e	-0.19737074
205	0xbe634498	-0.22194135
206	0xbe36c5b8	-0.17848861
207	0xbe687d27	-0.22703992
208	0xbe3c5ad8	-0.18394029
209	0xbe5ccddd	-0.21562906
210	0xbe75c9d8	-0.24002779
211	0xbe8090fd	-0.25110617
212	0xbebdb864	-0.3705474
213	0xbe3bcff4	-0.18341047
214	0xbe5563e6	-0.2083889
215	0xbe495d07	-0.19664393
216	0xbe55531a	-0.20832482
217	0xbe6c964f	-0.23104213
218	0xbe5f012a	-0.21777788
219	0xbe111592	-0.14168385
220	0xbe4e607b	-0.20153992
221	0xbe3b71d7	-0.18305145
222	0xbda8557a	-0.08219428
223	0xbe69e5f6	-0.2284163
224	0xbe62561e	-0.22103164
225	0xbe4c6512	-0.1996043
226	0xbe042bea	-0.12907377
227	0xbe2ba02e	-0.16760322
228	0xbe29150c	-0.16511935
229	0xbdfc69da	-0.12324877
230	0xbe47afc2	-0.1950064
231	0xbe0275a6	-0.12740192
232	0xbe6002f4	-0.21876127
233	0xbe177ad8	-0.14792955
234	0xbe1a14ab	-0.15046947
235	0xbe18d27f	-0.14924048
236	0xbe486d13	-0.19572859
237	0xbe4e8084	-0.20166212
238	0xbe210882	-0.15725902
239	0xbe30b001	-0.1725464
240	0xbe1fb62b	-0.15596835
241	0xbdf16629	-0.11787064
242	0xbe4313f5	-0.19050582
243	0xbe26766f	-0.16256116
244	0xbe048d2a	-0.12944475
245	0xbe1f28c9	-0.15542902
246	0xbdea15e0	-0.114299536
247	0xbe2a1527	-0.16609631
248	0xbe0dd8ea	-0.13852277
249	0xbe19c56c	-0.15016717
250	0xbe64cb2f	-0.22343133
251	0xbe6568d2	-0.22403267
252	0xbe598223	-0.2124105
253	0xbe589a7a	-0.21152678
254	0xbe6c6eb5	-0.23089106
255	0xbe5777e6	-0.21041831

bias f4 [16]
0	0xbdf77b15	-0.12084023
1	0xbdedab02	-0.11604883
2	0xbe0db201	-0.13837434
3	0xbdd7a911	-0.10530294
4	0xbdfdcc6d	-0.12392507
5	0xbdec3f92	-0.115355626
6	0xbdf83fcc	-0.12121543
7	0xbddafd5b	-0.10692855
8	0xbdfb0f17	-0.122587375
9	0xbdc028a1	-0.09382749
10	0xbe005d04	-0.12535483
11	0xbde320b0	-0.11090219
12	0xbde06145	-0.10956053
13	0xbe12cd1a	-0.14336053
14	0xbde1d0c0	-0.11026144
15	0xbe02fbd6	-0.1279138
