weights/Act_ELU_SUB_model_path.pth (torch, 251813 bytes, 8 tensors)

weight f4 [64, 1, 5, 5]
000000 14 9b 8f bd 07 bb 7a be 26 92 70 bd 1f 40 c4 3e
       -0.07012001 -0.24485408 -0.058733128 0.3833017
000010 9c c7 ff 3d 71 4a ab be 4f 50 a1 3d 55 48 32 bd
       0.12489244 -0.33455232 0.07876646 -0.043526012
000020 4f 6a 06 3d d7 ea 63 3c a0 a6 a5 3c 04 cb 45 be
       0.032816228 0.013910971 0.020221055 -0.19315726
000030 1d 46 27 3e 2d f1 2e 3e ca 41 a6 3d 52 fc 77 be
       0.1633534 0.17084189 0.08118017 -0.24217346
000040 f5 3a 91 be 36 26 79 3d 3f 12 70 be fd 78 a6 be
       -0.28365293 0.060827456 -0.2344446 -0.32514182
000050 75 34 88 bd 78 16 34 be fc e3 09 be 7b a2 19 be
       -0.066506304 -0.17586696 -0.13465875 -0.15003388
000060 f5 a7 ff bd c1 71 95 be 23 f2 94 bd 07 e4 4f be
       -0.12483207 -0.2918835 -0.072727464 -0.2030183
000070 8d ce 04 be cc 9c 80 3e 3b 11 06 3e 7f b2 fe bc
       -0.12969418 0.25119627 0.1309251 -0.031090973
000080 0a 21 48 be cc 4f a2 bd da cd 0f 3e 8b a6 84 ba
       -0.19543853 -0.07925376 0.1404337 -0.0010120434
000090 76 cc 9a 3c dd 9d 86 3d a1 e9 87 bd c3 08 80 be
       0.018896323 0.06573079 -0.06636358 -0.25006685
0000a0 63 b7 2b be ec dd 17 3e a2 b5 f0 3b 1d 99 bb bd
       -0.16769175 0.1483075 0.007345871 -0.091600634
0000b0 9e 3e 90 be 6b b7 ee bc 4f 18 1d 3e 4d c8 11 be
       -0.28172773 -0.029140195 0.15341304 -0.14236565
0000c0 85 12 a2 3e d2 ce 24 3e 22 4c 15 3e 12 71 46 3d
       0.31654754 0.1609452 0.14579824 0.048447676
0000d0 30 29 42 be c0 fb a9 3d 50 3f 42 bd 9d 69 5e bc
       -0.18961024 0.082999706 -0.04742366 -0.013574985
0000e0 16 af 8b 3d d9 da 25 bd 86 09 c1 3c ec f1 b3 be
       0.06820504 -0.040491913 0.023564111 -0.3514551
0000f0 25 95 d0 be ac da 57 be b7 f7 fb bc a4 a3 c4 3e
       -0.40738788 -0.2107951 -0.030757768 0.38406098
000100 07 b0 6f be 58 6a f0 be 8c fc 65 3e ce 4b 69 be
       -0.23406993 -0.46956134 0.2245962 -0.22782823
000110 7e ce 81 3e e6 86 fa bd ea d1 df bd 68 87 b0 3d
       0.25352854 -0.12232761 -0.1092871 0.08619577
000120 f3 be fd bc ad 90 fb bd 1c bd de bd eb 98 04 be
       -0.03097484 -0.12283454 -0.108759135 -0.12948959
000130 13 82 93 bd f9 cd be be a7 4a 0c 3e d8 af 77 be
       -0.07202544 -0.3726652 0.13700353 -0.24188173
000140 61 fe 00 3d 8f f8 31 3d 48 83 2f 3e c5 4b 95 3d
       0.031492595 0.043449935 0.17139924 0.072898425
000150 2f 31 dd 3d 34 80 60 3b 3a 59 c5 3d 27 e0 91 3d
       0.10800397 0.0034256103 0.09636159 0.07122832
000160 4c 89 e4 3c 9c 57 63 be 7d 77 0f 3d bf fc 53 be
       0.0278975 -0.22201389 0.035026062 -0.20701884
000170 8f 16 2f 3e 4a cc 38 3e 76 1d 10 bd 1c d2 92 be
       0.17098449 0.1804668 -0.035184346 -0.28675926
000180 e9 64 8c be ca 8f 72 be a8 6c 93 3d 18 e0 00 be
       -0.27420738 -0.23687664 0.07198459 -0.12585485
000190 c4 e5 0a be 60 84 a0 3d 65 80 3b be bb 56 50 3e
       -0.13564211 0.078377485 -0.18310697 0.20345585
0001a0 4b f8 8f be c4 aa 65 be 01 c1 e1 3d a3 7f b1 3c
       -0.2811912 -0.22428423 0.11023141 0.021667307
0001b0 0d f4 85 be 74 fc 49 be e9 e3 09 3e 58 ab de bd
       -0.26162758 -0.1972521 0.13465847 -0.10872525
0001c0 cf d8 7d be a1 54 f9 be 74 df fb 3d 80 d3 87 ba
       -0.24789737 -0.4869738 0.1229848 -0.0010362715
0001d0 1e dc 2c 3c c9 94 df bd cb 79 ac bd be 05 48 bd
       0.010550527 -0.109170504 -0.08421668 -0.0488336
0001e0 bd 12 1c 3e fd 7d 92 bd 20 76 3a bd 50 dc 6d 3e
       0.15241523 -0.071529366 -0.04552281 0.23228574
0001f0 22 37 6b 3e 95 06 47 bd f4 93 4b 3e 47 22 d5 bd
       0.2297025 -0.04859026 0.19880658 -0.104069285
000200 28 88 8f 3e 61 05 7e be 45 3b d1 bc 34 5f 32 be
       0.28033566 -0.2480674 -0.025540957 -0.1741913
000210 73 b3 f3 be 76 8a dd 3c d7 92 b8 3e 21 8c d1 3d
       -0.47597846 0.027043562 0.3604953 0.102318056
000220 ea d2 87 be d6 c2 a3 3d 1b af a5 3e e9 33 66 be
       -0.26528102 0.079961464 0.32360157 -0.2248074
000230 33 ee 2f bd f1 5b 24 3d 25 14 f5 bd 50 c0 2c 3e
       -0.042951774 0.040126745 -0.11966733 0.16870236
000240 7f c8 fd 3c 15 25 9c bd 10 58 bd be 9f 00 72 ba
       0.030979393 -0.0762426 -0.3698125 -0.000923166
000250 6c f2 98 3d 28 0a 30 3d ce 27 0b 3e 13 23 17 bd
       0.07468113 0.042978436 0.13589403 -0.036898684
000260 c2 6e a1 bd 3a 98 22 bd 4d 3b 89 bd 8b 5f ae bd
       -0.078824535 -0.039695956 -0.06700764 -0.08514317
000270 8c 06 23 3d ac bd c8 bd be 2a cd be 3e 66 a1 bc
       0.039801165 -0.09801802 -0.40071672 -0.019702073
000280 b6 89 12 be 22 5b e0 bd 6e 0b e5 3d 19 97 a5 bc
       -0.14310345 -0.10954882 0.11183821 -0.02021365
000290 6a 46 14 3f 73 6a 39 be 89 8d 09 be 8c 9e 33 3e
       0.57919943 -0.18107013 -0.13432898 0.1754095
0002a0 fd 69 17 3e 8d 83 ca bd 5d df 0a 3e 28 15 9d 3d
       0.14786525 -0.098883726 0.13561769 0.07670051
0002b0 28 e6 3e 3d 82 e6 6b be ab 50 9c bd ea 2a 45 bd
       0.046606213 -0.2303715 -0.07632574 -0.04813663
0002c0 2b e4 a0 bd 48 a0 68 be 71 67 55 bd b2 2b 45 bd
       -0.078560196 -0.22717392 -0.052100603 -0.048137374
0002d0 e4 3a 8e 3d 47 49 2e bc ee a3 64 be 7e 99 27 be
       0.06944826 -0.010637588 -0.22328159 -0.16367146
0002e0 7e 73 7e bd 4d f2 84 3d 9c 43 18 be f7 fe fa 3d
       -0.06212186 0.06491528 -0.14869541 0.12255662
0002f0 14 1b aa be a5 49 3f 3d 78 e9 14 be 47 34 d8 be
       -0.33223784 0.046701092 -0.14542186 -0.42227384
000300 74 81 18 be 67 45 8c be 2f a9 c4 3e f2 bb 36 3e
       -0.14893132 -0.273967 0.38410327 0.17845133
000310 23 e3 65 3b 24 3a 27 be 5f dc 77 bc 21 f3 26 be
       0.003507801 -0.16330773 -0.015128224 -0.16303684
000320 64 1c 75 be 99 c6 a6 bd 2a 98 95 be 2a c5 c0 be
       -0.23936611 -0.08143348 -0.29217654 -0.37650424
000330 14 89 aa bc a4 a1 4a be a5 3b 91 be 33 38 88 be
       -0.020817317 -0.19788224 -0.28365818 -0.26605377
000340 96 d3 83 bd d0 ca c6 be db df 84 3d e5 3b 34 3d
       -0.06436841 -0.3882661 0.064880095 0.044002432
000350 4b 9c dc be 54 2c 96 3d 8a b5 1c 3e b5 c0 02 be
       -0.43087992 0.07332674 0.15303627 -0.12768824
000360 10 12 81 3d 90 e0 1f 3d 77 7c b4 bd 5f 7e 0c bd
       0.06302273 0.03903252 -0.08812802 -0.034300204
000370 34 eb b4 bd 6a 7c 74 3d be 1f c3 3c 99 0c ad 3d
       -0.08833924 0.059688963 0.023818847 0.084496684
000380 88 3f 1f be 0e 74 98 bd a4 88 05 3e cb c6 af bd
       -0.15551579 -0.07444011 0.13040406 -0.085828386
000390 d2 2f dd 3d 65 2f 80 bd 25 4c c5 be 57 80 b0 be
       0.108001366 -0.0625904 -0.38534656 -0.34472916
0003a0 47 17 89 bd 68 6e a6 be 1f 03 94 3d 57 3d 27 be
       -0.06693893 -0.32506108 0.07227158 -0.16331993
0003b0 60 9c 51 3e 05 c4 c2 3e 27 29 13 3e fe 77 0c be
       0.20469809 0.38040176 0.14371167 -0.13717648
0003c0 9a f3 8e 3e 12 89 a8 bd 8b 0a 69 3d a4 a2 66 3b
       0.27920228 -0.08229269 0.05689482 0.0035192156
0003d0 57 a4 ab 3e 74 19 ca 3d d1 b2 a1 3d f8 19 7f 3e
       0.3352382 0.09868136 0.07895435 0.2491225
0003e0 55 35 35 bd 0f 5e fd 3d 1f 35 87 3e cc 4a d1 bd
       -0.044240315 0.12371456 0.26407716 -0.102193445
0003f0 95 42 f5 bd 38 b0 0e be e0 85 7e 3e 00 22 90 bd
       -0.1197559 -0.1393441 0.24855757 -0.07037735

bias f4 [64]
000000 4a 2e 30 be 0d d4 71 be 97 e3 8b bd ac 32 7c 3c
       -0.17205158 -0.23616047 -0.06830519 0.0153929405
000010 e4 8e 9b b8 a7 ad 18 3d cc 75 5b bd b6 ae 09 be
       -7.4175914e-05 0.037274983 -0.053579137 -0.13445553
000020 23 42 b3 bd f3 d7 41 3d e6 17 e8 bc c9 94 63 3e
       -0.08752849 0.047325086 -0.028331708 0.22224726
000030 6e 7b 48 be 0f 52 b9 bd 61 27 37 3e c5 9e 9b bb
       -0.19578335 -0.090488546 0.17886116 -0.0047491514
000040 92 68 5b 3d c2 dc 04 be 1e 6d 2a 3c 27 da a5 3d
       0.053566523 -0.12974837 0.010401992 0.0809825
000050 b5 86 99 be 97 cc 9c 3c 43 51 19 3e e0 df ae bd
       -0.29985586 0.019140525 0.14972405 -0.085387945
000060 16 72 7f be 2b f4 72 be 14 e0 a0 3e fc 96 c7 be
       -0.24945864 -0.23725955 0.31420958 -0.3898238
000070 4c 29 20 be ac 02 01 be 2e 39 4b bd 87 aa b1 bd
       -0.15640754 -0.12598675 -0.049615078 -0.08675104
000080 e9 b6 7c bd 85 0d d2 bd 8c a0 9d 3b 7a aa 86 be
       -0.061697874 -0.10256485 0.0048103984 -0.26301938
000090 8b ad de 3d 4a 0a 5b be 18 9d 73 be a2 dd 99 bd
       0.108729444 -0.21390644 -0.23790395 -0.07512976
0000a0 a9 0e 33 be 38 ac 03 3e 19 b1 9c bc 2f 30 18 3e
       -0.17486061 0.12858665 -0.019127415 0.1486213
0000b0 7f ef bb 3d 9c c0 9e 3d 8f 52 26 be 3a 02 57 be
       0.0917654 0.07751581 -0.16242431 -0.20996943
0000c0 48 30 4b be da 1d f2 3c c9 a6 ab bc 00 9b 3f be
       -0.19842637 0.02955525 -0.020953553 -0.18711472
0000d0 d6 ea 08 be 50 1c ed 3d ec f7 e8 bd 95 67 84 3c
       -0.13370833 0.11577666 -0.11375412 0.016162673
0000e0 99 eb 12 bd 70 cd 8b bd 69 66 07 3e 3b 46 55 be
       -0.035869215 -0.068262935 0.1322266 -0.20827572
0000f0 85 24 9a 3d 04 8f 39 3e 4d 5a b5 bc 90 f7 ba 3d
       0.07526497 0.18120962 -0.022137785 0.0912925

weight f4 [64, 64, 3, 3]
000000 73 3c e4 bc c9 f7 8e bd 03 f5 2c bd 95 37 0e bd
       -0.027860856 -0.06980855 -0.04222585 -0.034720976
000010 f1 7c 35 bd f1 a2 d3 bd e0 e8 7e bd 38 62 37 bd
       -0.044308607 -0.10333813 -0.062233806 -0.044771403
000020 65 8c a8 bc 72 c3 52 bd cb 5b 27 bd 87 ed ce bd
       -0.020574758 -0.051455922 -0.040859025 -0.101038985
000030 d7 cb c6 bc 73 dd 1f be ec 5b 0c bd 82 6e 2e be
       -0.02426712 -0.1561182 -0.03426735 -0.17034343
000040 6f fa 04 be ec cd 80 bd 9f 80 12 bd 8f 1a 30 bd
       -0.12986158 -0.062892765 -0.035767194 -0.04299408
000050 2b 8c 0b 3c 09 70 85 bd 0c 2a dc bc 46 76 86 3d
       0.008517305 -0.0651551 -0.026875518 0.065655276
000060 13 f3 bc bd 7d 88 99 3b 70 80 d9 3d 4f 0f e2 3d
       -0.0922605 0.00468546 0.10620201 0.11038076
000070 54 be 32 3e 33 15 49 3e 0f d7 22 3e 84 66 4d 3e
       0.17455417 0.19636993 0.15902351 0.20058638
000080 e6 01 47 3e 50 2f 37 3e 02 93 50 3e b2 60 19 3e
       0.19434318 0.17889142 0.20368579 0.14978293
000090 37 e0 fa 3b 57 53 9d bd cc a7 2c bd f9 17 43 bd
       0.007656123 -0.076819114 -0.04215221 -0.047630284
0000a0 1e bc 6e bd e3 bc 28 bc 82 6b ff bb e6 15 16 3d
       -0.05828487 -0.01029894 -0.0077947984 0.036641978
0000b0 04 94 5f 3d 2b 28 44 3e bb 2c 2a 3e 6c 8c 36 3e
       0.054584518 0.19155948 0.16618626 0.17827004
0000c0 91 23 cf 3d dc c0 96 3d 5d 3c 66 3e 10 1f 04 3e
       0.10114206 0.07361004 0.22483964 0.12902474
0000d0 5b 1d 58 3e 87 71 40 3e c6 39 a1 3d a6 36 b3 3d
       0.21104948 0.18793307 0.078723475 0.08750658
0000e0 83 35 0b 3e 6d df 9b 3d a6 62 08 3e a7 19 1f 3e
       0.13594632 0.076109745 0.13318881 0.1553713
0000f0 f0 9b 42 3e f8 00 2f 3e b9 3e 26 3e 8c 8e e2 3c
       0.19004798 0.17090213 0.16234864 0.027655862
000100 f6 2e d2 bc 65 0e 29 3d 74 0a 51 3d 60 6d ff 39
       -0.025657158 0.041273493 0.05103536 0.0004871888
000110 d6 5d 69 3d 02 48 51 bd be 27 dc bd 9a 90 85 bd
       0.056974255 -0.051094063 -0.10749768 -0.06521721
000120 06 eb 05 be 2c 59 69 be 51 c5 31 be ca 80 27 be
       -0.13077936 -0.22787923 -0.17360426 -0.16357723
000130 ea a1 d8 bd 0f 0a 4a be 5b 8b 21 be 26 e0 00 be
       -0.10577758 -0.197304 -0.15775816 -0.12585506
000140 df 20 1b be c3 81 47 bd 40 41 f9 bb cb 38 72 3d
       -0.15149258 -0.048707735 -0.0076066554 0.059136193
000150 92 58 f1 bd bc 4c be ba f3 5d ff bd 50 25 d4 3c
       -0.117844716 -0.0014518718 -0.12469091 0.025896698
000160 57 2e 4b 3d c0 5c b7 bd 8f 1a b6 bd 3c e7 c3 bd
       0.04960474 -0.089532375 -0.088917844 -0.09565589
000170 12 75 e8 bd 6f 79 1c 3d 30 d8 93 3b 47 c1 a6 bd
       -0.113504544 0.038201746 0.0045118555 -0.081423335
000180 b8 d8 36 bc a5 55 ae 3c ad 19 f0 3c 90 d3 c7 3c
       -0.011160068 0.021281073 0.029309118 0.024392873
000190 24 d2 08 3e 40 1f a6 bd fb 11 fa bc b3 c8 04 3e
       0.13361412 -0.08111429 -0.030526152 0.12967186
0001a0 a8 b6 ab 3c 78 4e a9 3b a5 56 04 3d 56 61 78 3c
       0.02096112 0.005166825 0.032309193 0.015159925
0001b0 15 6b ca bd f9 1b 84 bd 71 0d 83 bd d0 fe 94 bc
       -0.098837055 -0.06450648 -0.06399048 -0.01818791
0001c0 3c 49 91 bd 84 fd 15 be b8 90 1d be d6 67 28 3d
       -0.070940465 -0.1464749 -0.15387237 0.04111465
0001d0 89 87 b6 bd 4f 52 42 bd 6d ce 04 3c 45 d0 4c bb
       -0.0891257 -0.047441777 0.008105856 -0.0031252068
0001e0 37 1f 28 3c f1 24 d5 bc 94 55 c9 bd 11 8a af bd
       0.010261348 -0.026018592 -0.09830776 -0.08571256
0001f0 9b b5 c8 bc 2f ec 9b bd d3 2b 61 be 0d 2f 92 bd
       -0.024500659 -0.07613408 -0.21989374 -0.071378805
000200 84 75 42 be d2 2e 7f be 57 85 80 be ed c4 3e be
       -0.18990141 -0.24920204 -0.2510173 -0.18629809
000210 b4 9c 0b be 1a 52 23 be 10 c3 e5 bd ef 72 5a be
       -0.13633996 -0.15949288 -0.11218846 -0.21332906
000220 5b 1a 68 be ce ef 35 be 1a 9b 21 be 50 ff 2d be
       -0.22666304 -0.1776726 -0.15781823 -0.16991925
000230 f7 98 32 be ca e5 0e bd 81 ab 09 be 17 30 7e be
       -0.17441164 -0.034887113 -0.1344433 -0.24823032
000240 67 2e 0c 3e 87 65 9f 3d 5d 6d 3c 3d b1 54 b0 3d
       0.13689576 0.07783037 0.046002734 0.086099036
000250 28 8a 59 3d fc 3e bf 3d 6b d4 30 3e 23 c1 6d 3d
       0.05311027 0.09338185 0.17268531 0.058045518
000260 ff cd d7 3d e6 71 23 bd 88 77 2e be 2c e3 85 bd
       0.105373375 -0.039903544 -0.17037785 -0.0653747
000270 8c f1 98 bb 64 d7 c1 bd e1 d6 d9 bd 2e 1a e9 bd
       -0.0046674665 -0.094649106 -0.10636688 -0.113819465
000280 60 78 07 bd fc a4 e3 bd 50 45 35 3e 54 b9 f5 3c
       -0.033073783 -0.11115453 0.17702222 0.029995598
000290 5d 7e 49 3e 9d 72 36 3e 85 ba 2a 3e 61 67 32 3e
       0.1967711 0.17817159 0.16672714 0.17422248
0002a0 4b 77 39 3e 84 ae 74 3e 01 a6 0e 3e 7b c5 e8 3d
       0.18111913 0.23894697 0.13930513 0.113657914
0002b0 87 24 8f 3e 7c 71 80 3e b0 02 a1 3e d7 10 9a 3e
       0.27957556 0.25086582 0.31447363 0.30090973
0002c0 0b a0 ab 3e ac 20 83 3e f5 24 6a 3e 1e 2a 88 3e
       0.3352054 0.25610864 0.2286566 0.26594633
0002d0 05 7f 0c be cb 50 50 be 99 b8 c6 bd c7 b3 4f be
       -0.13720329 -0.2034332 -0.09703178 -0.20283423
0002e0 42 71 53 be c2 22 3a be b8 94 ee bc 18 51 6c be
       -0.20648673 -0.18177322 -0.029123649 -0.2307781
0002f0 75 fa 79 be 33 93 df 3d 7a ba f5 3a 41 b4 54 3e
       -0.24411948 0.10916748 0.0018747591 0.20771886
000300 d4 d6 0c 3e f0 41 91 3d cd 41 28 3e c9 7d 0b 3e
       0.13753825 0.07092655 0.16431351 0.13622202
000310 d3 ad ac 3d 55 1f cd 3c a8 9e f7 3d bd 0c 30 3e
       0.08431592 0.025039354 0.12090808 0.1719236
000320 4d ff 2b 3e c2 e7 20 3e b0 68 1c 3e 7f 0f 3c 3e
       0.16796608 0.15713409 0.1527431 0.18365286
000330 ff 08 f3 3d 12 d4 2d 3e 50 67 ea 3d 80 c4 86 3c
       0.1186695 0.1697543 0.114454865 0.01645112
000340 5e 86 c9 3d 56 55 c7 3d 76 88 42 3e a1 5b 99 3d
       0.09840082 0.097330734 0.18997368 0.0748818
000350 18 b1 15 3b 29 88 07 3e 36 5d ec 3d 1a 59 0a 3e
       0.0022841152 0.13235535 0.11541216 0.13510552
000360 44 e0 b1 bd 89 98 cc bd af e8 ef bc 43 a6 48 bd
       -0.086853534 -0.09990031 -0.029285757 -0.048986685
000370 87 36 4b bd 40 f3 ac bc 55 60 7c 3c eb 17 b8 bd
       -0.04961255 -0.021112084 0.015403827 -0.08988937
000380 6b d5 2f be 95 cf be 3c d6 f7 f0 bd 15 ed 09 be
       -0.17171256 0.023292342 -0.11766021 -0.13469346
000390 27 7a 04 bd 27 62 84 bd 83 22 63 be 23 47 f3 bd
       -0.032343056 -0.064640336 -0.22181134 -0.118788026
0003a0 0b 42 fb bc 7f 31 f6 bd a3 a7 83 3e 80 d9 30 3e
       -0.03067114 -0.120211594 0.25713834 0.1727047
0003b0 4f 5b 4f 3e 1c 6d 0d 3e 39 e0 57 3e 57 79 64 3d
       0.20249675 0.13811153 0.21081628 0.05577978
0003c0 65 5d 21 3e 8c b6 40 3e 26 99 57 3e 8f a9 7d bd
       0.15758283 0.18819636 0.21054515 -0.06192928
0003d0 57 b1 50 be 7b 49 0f be 1e 6f 10 be c5 68 37 be
       -0.2038015 -0.13992874 -0.14104888 -0.1791106
0003e0 55 b7 5e be 2d 6a 51 be 51 57 52 be ff 53 10 be
       -0.21749623 -0.20450659 -0.20541121 -0.14094542
0003f0 85 68 14 be d7 f4 24 bd 23 e2 53 bd 51 a9 27 bd
       -0.14492996 -0.04027256 -0.051729333 -0.040932957

bias f4 [64]
000000 47 c1 cc 3d a3 c6 fe 3c 62 fb ac bd f6 dc 5a bd
       0.09997802 0.031100577 -0.08446385 -0.05343338
000010 a6 4c d6 bc 06 45 14 bd 97 f7 49 3e 7b 14 87 bd
       -0.026159596 -0.03619864 0.19723354 -0.06595703
000020 df e0 94 bc 22 4d b1 bd 16 49 36 bd a2 2d 87 bd
       -0.018173633 -0.0865729 -0.044503294 -0.06600501
000030 18 46 bd bd da c2 b7 bd d3 28 81 bc 83 8d 56 3d
       -0.09241885 -0.08972712 -0.015766537 0.05238105
000040 45 a8 91 bd bb c3 49 be c6 ba 0b be c5 09 1e bd
       -0.07112173 -0.19703571 -0.13645467 -0.038583536
000050 8c 34 fb bd 55 b9 ef bd 4f 43 dc bd cc 31 cc bd
       -0.12265882 -0.11705271 -0.107550256 -0.099704355
000060 95 21 2e bd 9a b2 df 3c 8f bc 6a bd 6e aa 07 be
       -0.042512495 0.027306844 -0.05730873 -0.13248608
000070 74 b0 5d bc fc 03 14 bd 79 9a 14 bd 57 75 05 be
       -0.013530839 -0.036136612 -0.03628013 -0.13033043
000080 06 fc 2d be 41 f1 ca bd 34 51 8d 3d 9b cd c4 bd
       -0.1699067 -0.09909297 0.06900254 -0.09609529
000090 dc 78 30 3d d3 5d bd bd 70 7d 70 bd 80 44 3c bd
       0.04308401 -0.09246411 -0.058713377 -0.045963764
0000a0 f0 7a 99 bd 73 f4 44 bd 9a 9d 2a be fc 43 d5 bd
       -0.074941516 -0.048084687 -0.16661683 -0.104133576
0000b0 1c 93 df bd 45 d7 f9 3d 11 11 cc bd d2 56 0b bd
       -0.10916731 0.121992625 -0.09964193 -0.034018345
0000c0 90 e7 84 bd 6d 1d c9 3d 51 1f 92 bd a2 25 af bc
       -0.064894795 0.09820066 -0.071348794 -0.02138025
0000d0 4b 20 ed 3c 75 91 43 be 66 13 3e bd be 76 b4 3d
       0.028946063 -0.19098456 -0.04640522 0.08811711
0000e0 79 41 99 be 9e 72 a3 bd e4 90 ca bd 85 33 1b bd
       -0.29932764 -0.07980846 -0.09890917 -0.03789093
0000f0 1a f1 a5 3d 80 64 e1 bd f5 55 c5 bd 6e 30 88 3e
       0.08102627 -0.11005497 -0.09635536 0.2659945

weight f4 [32, 64, 3, 3]
000000 e5 4d 1c be f1 db 4d bd 8a 1c 81 bc d9 af 8c 3b
       -0.1526409 -0.05025858 -0.015760679 0.0042934236
000010 96 f5 0c be c9 02 09 bd 5b 2a 86 bd 1e 1b 12 bb
       -0.13765559 -0.03344992 -0.065510474 -0.0022293995
000020 3b 39 b3 bc 5f d0 fc bc a8 27 e9 bd c9 21 d0 bd
       -0.021877876 -0.030861078 -0.11384517 -0.10162694
000030 0b e8 92 3c ec 46 dd 3c e5 81 3a bc 00 c1 64 bd
       0.017932912 0.027011357 -0.011383508 -0.05584812
000040 50 07 b0 bb 4c bf 87 bd c9 64 c0 3d 9e 3d b4 3b
       -0.0053719655 -0.06628284 0.09394223 0.0055005094
000050 ef fa 1c 3d 77 71 da bb b9 07 01 3d de 49 9b bd
       0.038325246 -0.006666358 0.031501506 -0.075824484
000060 39 ba af bc 1a 20 d5 3c ec 69 ac 3d 0c 41 d8 3d
       -0.021451103 0.026016284 0.084186405 0.10559282
000070 fa 52 02 3d c1 a8 10 3d 9b 7c d5 3d 94 5d 89 3d
       0.031817414 0.035317186 0.10424157 0.06707302
000080 ad 3f 83 bb ce d2 20 3c 23 1d 03 3e 4c de 70 3c
       -0.0040053935 0.009815885 0.12804084 0.014701437
000090 56 1e 47 3a 36 d6 a4 bd 0d 7e ce bd 77 e3 cb 3c
       0.0007595768 -0.0804867 -0.10082636 0.024888737
0000a0 57 9b 9c bd 2c a9 8b bc 44 71 71 bd 72 d6 8e 3d
       -0.07646816 -0.01704844 -0.05894591 0.06974496
0000b0 56 5b 4e bd 60 e7 fe 3d 94 5c d7 bb 11 0a fe bb
       -0.050380073 0.12446475 -0.0065723155 -0.007752665
0000c0 61 2e 04 3e 16 29 8b 3d c2 5c 6b 3d ea ac d0 3d
       0.12908317 0.06794946 0.057461508 0.10189231
0000d0 20 11 f5 3d 3e 22 ba 3c dd 90 68 3d d4 fd 7b bd
       0.11966157 0.022721406 0.056778777 -0.061521366
0000e0 37 d7 15 bc e9 0e bf bd 31 7a 5b 39 4b 2c f8 3c
       -0.0091455495 -0.09329016 0.00020930987 0.030294558
0000f0 a0 56 4d bd 7a ff e5 bd c5 cd d0 bc a0 b9 92 3d
       -0.05013144 -0.11230369 -0.025488744 0.071643114
000100 ab 8a 8e 3d 70 3c cf 3d 7d 8a 8c bc ae 9b 89 bc
       0.069600426 0.101189494 -0.01715588 -0.016797867
000110 17 1f 0d 3e 6c df 09 3e 3f 1a 48 3e 86 9c 05 3e
       0.13781391 0.13464135 0.19541262 0.1304799
000120 c0 fa 47 3d f3 6e e7 bc e7 c1 a2 bd bf b5 db 3c
       0.04882312 -0.028251147 -0.0794714 0.026820062
000130 7e fd ba 3d 15 9c 2a be 9c fd ce 3c 62 14 f3 3c
       0.09130381 -0.16661103 0.025267415 0.029672805
000140 ed 73 87 3d 61 e1 62 bd 4b f2 ca bc 92 f9 a7 3d
       0.06613908 -0.05539072 -0.024773737 0.08201899
000150 df c3 a7 3d 7b 25 c0 bc 95 5b 01 bd dc 95 e2 3d
       0.08191656 -0.023455372 -0.03158148 0.1106374
000160 3e b0 8c 3d e6 d4 c5 bc a4 fe b7 3a fd 49 0d 3c
       0.06869553 -0.02414937 0.0014037681 0.008623597
000170 44 e3 0e ba 58 00 46 3d 0e f9 df 3d 36 7e c8 3c
       -0.00054507353 0.04834017 0.10936175 0.024474245
000180 0e 66 30 3e 2a aa 89 3c 55 a1 25 3e 32 64 29 3d
       0.17226431 0.016804773 0.16174825 0.04135532
000190 f9 72 6c bd 2b a0 ef 3b ba 88 76 bc d7 e5 40 bd
       -0.057726834 0.0073127947 -0.015047247 -0.047094192
0001a0 b9 36 1b bd 46 6c a9 bc ea 1c 45 3c 7a 65 94 bd
       -0.037893984 -0.020681512 0.012030819 -0.072459176
0001b0 bd 4c 4b 3d 79 18 95 3d 2a 4e 29 3d 91 50 1e bd
       0.04963373 0.072800584 0.04133431 -0.038651053
0001c0 ff b0 47 bd a7 5f a0 3d 60 74 ce 3c bc 41 a9 3d
       -0.04875278 0.07830744 0.025201976 0.08264491
0001d0 e0 8c 53 3d 42 9e 09 bd 99 cd 00 be db db e1 bc
       0.05164802 -0.033598192 -0.1257843 -0.027570656
0001e0 4f 74 f2 3a 19 11 a2 bc 58 97 62 bd e7 a7 96 bd
       0.0018497797 -0.019783543 -0.055320114 -0.073562436
0001f0 4d 5f e2 bd 70 14 d6 bd 45 43 f5 3d 3d f2 22 3d
       -0.110533334 -0.10453117 0.11975721 0.039781798
000200 45 41 5b 3d 7a 27 17 3e b8 cd 10 3a f5 bd 8d 3d
       0.053529043 0.14761153 0.00055238185 0.06920997
000210 0d 99 27 3d 85 3f 01 3e ef 70 f7 3d b8 a6 18 3c
       0.040917445 0.12621887 0.12082087 0.009317093
000220 c5 64 ee 3c 79 9e 8d 3c 77 12 12 bd 7c 2e 0f 3b
       0.029100785 0.01728748 -0.03566214 0.0021847775
000230 33 36 b4 3c 63 f9 76 bd b4 0e f5 bc 72 fc a3 bc
       0.0219985 -0.060296427 -0.029914238 -0.020017836
000240 be aa 79 bd 54 1b 83 3d eb 8a 7b 3c 91 3c c7 bc
       -0.060953848 0.06401697 0.015352945 -0.024320873
000250 98 66 6f 3d f9 45 3c bc aa 59 be 3d 3a 8f ff 3d
       0.05844745 -0.011491292 0.09294446 0.1247849
000260 ca 45 9e 3d 05 09 cc 3d 6d 24 2b 3e 69 02 11 3e
       0.07728155 0.09962658 0.16713114 0.14161076
000270 61 0f 09 3e 96 b4 e6 3d 20 d9 2b 3d f3 1d c0 3d
       0.13384773 0.11264913 0.041955113 0.09380712
000280 a7 43 f7 3d 8c 8b 5a bc 93 e8 f9 3d a0 c7 57 3e
       0.120734505 -0.013338935 0.12202563 0.21072245
000290 14 5b ed bb 61 24 27 3e a5 9d d3 3c d8 a9 83 3d
       -0.0072435234 0.16322471 0.025832007 0.064288795
0002a0 79 ea e8 3d 0a 8f 9e 3d d5 c9 b9 3d 43 b9 d9 bd
       0.11372847 0.07742126 0.090716995 -0.10631039
0002b0 02 e5 e8 bb ff 14 0a 3d fa 75 04 3c 7b ef 6d 3d
       -0.007107378 0.03371143 0.008084768 0.058089714
0002c0 e7 3d 7a 3c be 12 2b 3d 02 96 9a bd 40 3c e1 3d
       0.015273548 0.04176592 -0.07548143 0.1099782
0002d0 bd e0 9c 3d 8e bf ef 3c 3b 59 80 3a 37 be bf 3d
       0.07660053 0.029266145 0.0009792218 0.093624525
0002e0 03 d0 c8 bc f0 da 35 3d f3 33 71 bd a5 71 00 bb
       -0.02451325 0.04439825 -0.058887433 -0.0019598987
0002f0 ad e6 5b bc e5 8f 3c 3d 32 b3 a7 3d aa 0a 80 3c
       -0.013421697 0.046035666 0.08188476 0.015630085
000300 32 df b2 3c b4 6b ba 3d d2 24 81 bc 90 38 50 3e
       0.021834943 0.09102574 -0.015764628 0.20334077
000310 43 94 86 3d c9 71 dc 3a 06 ad 99 3c e4 bd 1b bb
       0.065712474 0.0016818579 0.018759262 -0.0023764307
000320 95 6a 1b 3d b8 fb 97 3d dd 5c 13 3d 0b 2c 5d 3d
       0.03794344 0.074210584 0.035977233 0.05399708
000330 f2 22 31 bc 3e c5 c6 3c 7a cf 89 3d 30 a4 0c 3d
       -0.010811554 0.024263974 0.06729026 0.03433627
000340 14 d1 41 3d f8 87 2e 3d 6c 49 15 bd 25 f9 77 3b
       0.047318533 0.04261014 -0.036446974 0.003783771
000350 f3 b6 ed bb f6 15 f8 3c 3e 7b de 3b 9d ed 28 3d
       -0.0072544753 0.03028391 0.006789594 0.04124223
000360 32 08 7b bd 85 11 22 bd e7 2c f3 3d b4 a1 05 bb
       -0.061287113 -0.03956749 0.11873799 -0.0020390572
000370 a9 3d 93 3b 30 8a 8b bd 3b 02 40 bd 73 64 c3 3c
       0.0044934344 -0.068134665 -0.046877127 0.023851609
000380 1f 14 ad bb 93 a7 38 bd 83 68 20 be 19 a0 06 3d
       -0.0052819396 -0.045081686 -0.15664868 0.032867525
000390 82 c4 3f be aa 28 24 be fd f3 00 bc 83 e2 9b 3d
       -0.18727306 -0.16031137 -0.007870671 0.07611563
0003a0 e2 1e 8d bd ed d0 ba bd 7a 04 ab 3d 31 cb b5 3d
       -0.06890656 -0.09121881 0.08350463 0.08876646
0003b0 78 dc fc 3c e7 5a bc 3d c9 ab 15 3d a7 96 c0 3d
       0.030866846 0.09197026 0.03654078 0.09403735
0003c0 89 04 72 3d cf f4 db 3b 8e 91 ea 3d b9 ae 76 3b
       0.059086356 0.006712533 0.114535436 0.0037640764
0003d0 bd dd 87 3d 82 4e da 3d 24 69 4c 3d 84 1d 62 3d
       0.0663409 0.106595054 0.049904957 0.05520393
0003e0 50 c8 4a 3d b0 1a 6a 3d 6e 41 5e 3d 32 1d d0 3d
       0.04950744 0.057154357 0.054261617 0.101618186
0003f0 cd fb 3c bc f1 88 a6 3d c8 3e 10 bd be 92 da bc
       -0.011534643 0.08131588 -0.035216123 -0.0266813

bias f4 [32]
000000 cd 27 c8 bc 75 45 d4 bd 1f 73 20 be d1 85 2d bd
       -0.024433041 -0.103648104 -0.15668915 -0.042363945
000010 79 3e f3 bd 81 0b 71 39 1a 6a 7d bd 12 2a 25 bd
       -0.1187715 0.00022987837 -0.061868764 -0.040323325
000020 c5 ad b4 bd 41 8f 7b bd 14 6d 4a ba 5a 49 85 be
       -0.088222064 -0.061415914 -0.00077219424 -0.26032525
000030 46 47 1c be ec 07 48 bd 3d b4 f6 bd 51 33 5f bd
       -0.15261564 -0.04883568 -0.120460965 -0.0544923
000040 0b 99 0d bc 05 b3 2c bd d0 c4 9c bd 55 11 81 bd
       -0.008642445 -0.042162914 -0.076547265 -0.06302134
000050 56 a6 17 be f4 5e ca bd 01 b4 94 bd e0 58 ca bd
       -0.14809546 -0.09881392 -0.072608955 -0.09880233
000060 3e 35 72 bc 5c 1e a0 bc 41 81 b7 bd 6b 15 84 bd
       -0.014783202 -0.019545726 -0.089602 -0.06449398
000070 fe 24 0a bd 5d 05 98 bc f4 5a e9 bc f6 78 c1 bd
       -0.033726685 -0.018557245 -0.028485753 -0.094468996

weight f4 [16, 32, 3, 3]
000000 b5 99 08 3c 20 cc 95 39 83 ba 06 3d 54 07 eb 3c
       0.008337428 0.0002857158 0.032892715 0.028690018
000010 c0 d1 bf 3c f5 95 65 3c c3 27 dc 3c 39 cf 87 3d
       0.023415446 0.014012803 0.026874429 0.066313215
000020 c6 cd 32 3c aa 3a 9b 3a 41 4a a6 bd 19 21 2a bd
       0.010913318 0.0011843045 -0.081196316 -0.04153547
000030 76 4f 68 3d 6e 12 ed bd 0c cc b5 bc 36 23 f9 bc
       0.056716405 -0.11575781 -0.022192024 -0.030412298
000040 34 c3 89 bd 18 81 de 3c 9a 87 72 bc 74 24 a7 3d
       -0.06726685 0.027161166 -0.014802838 0.0816125
000050 62 b4 aa bd bb e9 4c 3c 53 d1 17 3e 99 96 fd bc
       -0.083351865 0.012506898 0.14825945 -0.0309556
000060 e4 4c 8f bc 5e ea 3d 3d aa af bd bd 00 6d 08 bd
       -0.017492719 0.046366088 -0.09262021 -0.033307076
000070 6c f2 c6 bc 2d b3 a0 3d 8e 62 2e 3e 53 41 73 bd
       -0.024285518 0.07846675 0.17029783 -0.05938847
000080 5d cc 0f bd 1e d5 14 bd f5 47 fe bc 91 44 0d 3e
       -0.035107005 -0.036336057 -0.031040171 0.13795687
000090 c1 df 4e bd e3 95 a3 bc 78 2f ac bc 9c 3a f5 bd
       -0.050506357 -0.019968932 -0.021018729 -0.119740695
0000a0 3a 2f b3 bd 35 60 91 3d 2e 17 b0 bd 85 00 db bb
       -0.08749242 0.07098428 -0.08598171 -0.0066834115
0000b0 aa 81 4f bb 13 0d 5b 3c 1a 12 03 3e d2 14 41 bc
       -0.003166298 0.013369816 0.12799874 -0.011784749
0000c0 36 c9 f0 bc e8 42 a5 3d e2 3f 41 3d ce e1 8b 3d
       -0.02939282 0.08069402 0.047180064 0.06830178
0000d0 98 45 e0 3d d1 98 15 bc 28 56 9c bc aa 36 76 3c
       0.10950774 -0.009130673 -0.019084051 0.015027681
0000e0 e6 77 0f 3d 1d 29 09 3d c1 e4 81 3a 64 eb 2e 3d
       0.035026453 0.033486474 0.0009910093 0.042704955
0000f0 75 65 19 3c e3 cd 40 3d 39 68 9d 3c d6 74 fa bd
       0.009362568 0.04707135 0.019214736 -0.12229316
000100 ac a4 7e 3c 20 74 12 be a1 be 9a 3c 81 7a c8 3d
       0.0155421905 -0.1430211 0.018889727 0.09788991
000110 79 54 5c 3d aa 7a a8 3d 1e 96 4b bd f1 97 4b 3d
       0.053791497 0.08226521 -0.04970371 0.04970545
000120 7d 2e f9 3c d7 3a f9 bc 04 16 8e 3b 76 09 85 bd
       0.030417675 -0.030423565 0.0043361206 -0.06495945
000130 5c 6b 8d 3c b0 06 99 38 c2 f4 2f 3c ca 17 50 ba
       0.017263107 7.296854e-05 0.010739507 -0.0007938115
000140 f7 fd 06 3e d6 75 e4 3d 8a 3e 1e 3c f9 11 be bc
       0.13182817 0.11155288 0.009658465 -0.02320193
000150 6f 3e fc 3c 91 a3 34 3c 2b 25 4a 3d 8a ae eb 3d
       0.03079149 0.011025325 0.049351852 0.115079
000160 1e 51 18 bd 23 fa a0 3b 1d e5 83 3d c1 85 94 3d
       -0.037186734 0.004912631 0.06440184 0.07252074
000170 25 ec 07 3e 0d 50 38 3c 4f 38 9a 3d 7a 80 93 bb
       0.13273676 0.011249554 0.07530271 -0.0045013996
000180 56 da c0 3c ac d9 3b 3d 16 ca 95 3d 13 58 ca 3c
       0.02354161 0.045861885 0.073139355 0.0247002
000190 f9 4d 3a 3d 4a 6f 33 3e ab 96 1c bd 40 3a 89 3d
       0.045484517 0.17522922 -0.038229626 0.067005634
0001a0 fd 97 cf 3d 66 e3 d1 3d 28 8e 49 3d 66 a3 09 bd
       0.10136411 0.10248451 0.049207836 -0.033603095
0001b0 5d b5 f1 bd 00 7d 85 b8 94 e7 b2 bd 66 91 48 bc
       -0.118021704 -6.365217e-05 -0.08735576 -0.012241697
0001c0 3f eb 3b 3d 5d 87 d1 bd 3c dc 89 bd 81 55 4a 3d
       0.045878645 -0.102308966 -0.067314595 0.04939795
0001d0 18 ed e9 bd 81 68 4e 3d ee 2f 67 3c d4 db c5 bd
       -0.11422175 0.05039263 0.014110548 -0.096610695
0001e0 e0 9a 1b 3c c6 da d6 3c 8e f4 85 ba b4 09 29 3a
       0.009497374 0.026227366 -0.0010219978 0.0006448284
0001f0 23 31 61 bc f9 0e 0f 3d 85 a8 8d 3d 22 75 3c bd
       -0.013744625 0.03492639 0.06916908 -0.046010144
000200 12 74 43 3d 49 88 a4 bd 05 9e 1b 3d fa 09 9e bb
       0.047718115 -0.08033807 0.037992496 -0.0048229666
000210 b9 24 28 bd 3c 61 bf 3d 97 86 02 be ed 20 0f 3e
       -0.041050646 0.09344718 -0.12746654 0.13977404
000220 71 b6 cf 3c 7b 32 1d bc ac ae 57 3d 91 06 87 bc
       0.02535555 -0.009594555 0.052656814 -0.016482623
000230 a1 25 6d 3d e5 56 24 bd c2 eb 5d 3d e1 f6 1c bd
       0.057897214 -0.04012193 0.054179914 -0.03832138
000240 c4 60 1f 3e fb 30 1c bd f6 bb bd 3c 94 3f 99 3d
       0.15564257 -0.03813265 0.023160916 0.0748283
000250 94 34 2d bd ae c0 04 bc fb d5 d9 3d 79 10 94 bb
       -0.04228647 -0.008102579 0.10636517 -0.0045185653
000260 22 a8 50 3d 00 76 86 3c 0f 51 a4 3c da 9e c9 3b
       0.050941594 0.016413689 0.020058183 0.00615297
000270 4a 9f d5 3d c5 7a 21 3b db 30 be 3d dc 72 15 3e
       0.104307726 0.0024639827 0.09286662 0.14594597
000280 95 74 5c bd 30 86 33 3d 5e 21 13 bd b0 e2 48 3b
       -0.05382212 0.043829143 -0.035920493 0.0030652694
000290 ab 70 aa bd 85 ad 72 3b 11 3c 07 3d 83 d7 06 bd
       -0.08322271 0.0037029695 0.03301627 -0.03292037
0002a0 6d c4 98 bd b5 20 23 bd 54 cc 97 bd 97 93 4b bc
       -0.0745934 -0.039826114 -0.07412019 -0.012425325
0002b0 20 13 fb 3c 68 8a 9d 3d c9 0d 85 bd e6 bd b9 3d
       0.030648768 0.076924145 -0.0649677 0.090694234
0002c0 9b 12 61 bd 72 2d 81 3c 5c 2b 77 bc 78 97 67 bc
       -0.054949384 0.01576874 -0.015086021 -0.014135234
0002d0 b9 b3 d9 3c da f6 47 bd 96 b7 f4 bc 4f fb e8 bd
       0.026574956 -0.0488194 -0.029872697 -0.11376058
0002e0 a7 f0 00 be 2f 16 be bd 59 e6 50 bd fa 95 e5 ba
       -0.12591802 -0.09281575 -0.051000927 -0.001751601
0002f0 bc 32 a2 bc 9d bf 1d 3d 5f 93 2c 3e a6 b3 20 3e
       -0.019799583 0.038512815 0.16853093 0.1569353
000300 f2 99 be 3d ec 20 da 3b 15 4b 19 3d 4f 98 49 bd
       0.093067065 0.0066567566 0.03742512 -0.04921752
000310 74 38 09 bd b1 44 bd 3d 7e 87 ab bd 90 f5 f0 bd
       -0.033501104 0.092416175 -0.083754525 -0.11765587
000320 0a 90 ed 3c 77 c5 0c be 02 b4 b0 bd 44 d1 95 bd
       0.028999347 -0.13747202 -0.08628084 -0.07315305
000330 a3 08 1a bd e0 ea 0b bd f6 e9 a0 bc 52 44 01 be
       -0.037605893 -0.03415954 -0.019642811 -0.12623718
000340 26 bc 3e bd e9 d9 e5 bc 96 30 d0 bd 60 17 0d be
       -0.04656615 -0.02805801 -0.10165517 -0.13778448
000350 c6 b5 08 be 59 33 27 bb d7 0b 71 be b1 da 80 bd
       -0.13350591 -0.0025512783 -0.23539673 -0.06291712
000360 4d 7e a1 3c c0 40 d5 b8 c3 ee 57 3d 1a 1c 82 3d
       0.019713545 -0.00010168692 0.052717935 0.06353016
000370 da 7a 57 bd 63 9d 62 3d bf 62 0e 3e 41 e3 38 3d
       -0.052607395 0.055325877 0.13904856 0.0451386
000380 cc e8 1b 3d 7d 87 96 3d 45 df d3 3d 92 c1 84 3c
       0.03806381 0.07350061 0.1034532 0.016205583
000390 8a 3a 07 3d e6 ef 39 bd bc b9 cf 3d d9 1c c6 3d
       0.03301481 -0.0453948 0.10142848 0.09673471
0003a0 28 07 3e 3d 3c 98 68 3c e6 b6 b5 bc ff 2a ec 3c
       0.046393543 0.014196452 -0.02218194 0.028829096
0003b0 67 d8 0a 3b 22 ba 3b 3c 48 60 13 3d e4 fb f6 bc
       0.0021186115 0.011457952 0.035980493 -0.030149408
0003c0 47 24 a0 3d 9a 4c 4a ba 3c bc 93 3d a8 cb dc bc
       0.07819419 -0.0007717103 0.07213637 -0.02695258
0003d0 6d 87 31 be ea 0c 2b be fd 3c 77 3d 7a 75 26 bd
       -0.17336817 -0.16704145 0.060360897 -0.040639378
0003e0 c5 ec 6d bd 66 c0 56 be 8d de 42 be 82 de 12 bd
       -0.05808713 -0.20971832 -0.19030209 -0.03585673
0003f0 23 ac 69 bd 61 d0 76 bd 9b ed a3 3c 6a 63 04 3d
       -0.057048928 -0.06025732 0.02001076 0.03232137

bias f4 [16]
000000 a0 3f fb 3d e3 68 f3 3d da f0 01 3e 06 54 0c 3e
       0.12267995 0.1188524 0.12689534 0.13703927
000010 7d 9e 03 3e ad ec 8f 3d 5e e9 3e 3d 52 73 9e 3d
       0.12853427 0.07027564 0.046609275 0.07736839
000020 3a 21 11 3c aa f6 b3 3d df 6e 90 bd 3a ad f4 3c
       0.0088580195 0.08787282 -0.07052397 0.029867757
000030 bf d7 00 3e 8e 21 90 3b a5 7f 33 3e 2f 97 00 3e
       0.125823 0.0043985313 0.17529161 0.12557672
