weights/Act_Tanh_FSRCNN_model_path.pth (torch, 65851 bytes, 15 tensors)

weight f4 [64, 1, 5, 5]
000000 92 3e 97 3e f0 79 91 3e 80 e4 4c bd a0 57 6c be
       0.29539925 0.28413343 -0.050022602 -0.23080301
000010 2f 1f ec 3d a7 95 87 3e 99 94 4c 3e 66 d8 c9 bd
       0.11529385 0.26481363 0.1997856 -0.09855728
000020 39 07 c7 3d 9c 94 b1 3e 24 36 b1 bc 1b 3e 2f be
       0.097181745 0.34683692 -0.021632262 -0.17113535
000030 fe e7 de 3d c9 ea 8e 3e 52 8c 48 3e 2a d9 a3 3e
       0.10884093 0.27913502 0.19584778 0.3200162
000040 24 b0 92 3b 40 6c 8b 3e 20 bd ab 3e 10 f3 a1 be
       0.004476564 0.27231026 0.33542728 -0.31630754
000050 7a 25 21 bd e5 06 2f 3e 31 a4 b6 3e 97 71 05 3e
       -0.03934238 0.17092474 0.35672143 0.13031612
000060 84 6c 43 be 5d 2b c9 3c f4 6b 88 3e 7b 3d 28 be
       -0.19084364 0.02455681 0.26644862 -0.16429703
000070 da 27 4e 3e 45 cf 48 bd 23 40 c9 bd 7a 75 e3 bd
       0.2013239 -0.049025793 -0.09826686 -0.11106391
000080 23 9c 34 bd fb 9a 83 be 99 5d 18 3c 00 bb ab be
       -0.044094216 -0.25704178 0.009299659 -0.33541107
000090 8f d4 93 3d 91 95 ff bc 1e 6f 3a 3c 4a cc cc be
       0.07218277 -0.031199249 0.011379031 -0.3999961
0000a0 aa e6 30 3c 33 cb 65 bd 1b 5b 36 bf 25 fa 82 be
       0.010797182 -0.05610199 -0.71232766 -0.2558147
0000b0 d9 fa 8b be c0 85 7c bc a4 8b c1 3c b8 1e 7e bd
       -0.2733982 -0.015412748 0.023626156 -0.062041014
0000c0 36 85 06 be 90 7d e9 be 9c 5e cb bd 43 23 7a 3a
       -0.13136753 -0.4560361 -0.09930155 0.00095419976
0000d0 f3 4e f3 bc c9 9c 30 be 2c 18 04 bf a4 77 4d bd
       -0.029700732 -0.17247309 -0.51599383 -0.050162926
0000e0 8d bc 44 be fa 20 14 bd ab 91 e8 3c 04 b8 1c be
       -0.19212551 -0.03616426 0.028389772 -0.15304571
0000f0 31 2f be 3e f0 d9 69 be 7f 31 b9 3d 9c b6 12 be
       0.3714538 -0.22837043 0.09042644 -0.14327472
000100 cd d6 a1 be 3b 26 9c bd e3 65 32 3d 72 81 ee 3d
       -0.31609192 -0.076244794 0.043554198 0.116457835
000110 57 08 ba 3e fc d6 9a 3e c2 df ca be 83 0d e5 3d
       0.36334488 0.30242145 -0.3962384 0.11184218
000120 fd 48 81 be 7a a0 f1 3d 33 b9 76 be 13 a5 35 be
       -0.25250998 0.117981866 -0.24094085 -0.17738752
000130 0f b9 28 be af e2 d4 3d bf ef 1d 3d ce 5c 38 3d
       -0.16476844 0.10394799 0.038558718 0.04501038
000140 9d ce 34 3e b6 7a 27 be 09 90 8d 3e 7f 09 5f be
       0.17656942 -0.16355404 0.27648953 -0.21780966
000150 36 49 0a 3e d2 a9 f2 bc 24 71 f2 bd f5 13 57 3c
       0.1350449 -0.029621992 -0.11837986 0.013127317
000160 ba 44 5a 3e d5 f9 5d be fc c4 85 be af f1 42 be
       0.2131528 -0.21677335 -0.2612685 -0.19037507
000170 96 95 a8 bd 27 c3 45 3e 5b f1 45 3e 5b cb 11 3f
       -0.08231656 0.19312726 0.19330351 0.5695092
000180 93 aa 85 3d 6f 90 31 bd ea 78 59 be 8b 7a 8f bd
       0.06526675 -0.043350633 -0.21237531 -0.07005795
000190 5d f7 6a 3c 92 b0 b2 bd 83 b0 3e bd 47 dd b1 3e
       0.014341203 -0.08725084 -0.046555053 0.34739134
0001a0 dc ee 96 be 5d 8e b7 be 72 ca 35 be 7b 6c 39 3c
       -0.2947911 -0.35850802 -0.17753008 0.011317368
0001b0 da d3 4e bd 41 21 53 3c 70 43 c8 3e 4b e4 54 3e
       -0.050495006 0.012886346 0.3911395 0.20790212
0001c0 65 83 52 3e 78 d5 38 3d 9f fc 30 3e 3f d6 89 3e
       0.20557936 0.045125455 0.17283867 0.2692127
0001d0 b9 af 76 be 17 51 7b 3c 48 e8 80 3d 3c 95 87 be
       -0.2409047 0.015339158 0.06294304 -0.26481044
0001e0 46 ce b7 3e 13 b0 8a 3e 0e d0 68 3e a4 74 43 bc
       0.35899562 0.2708746 0.22735617 -0.011929665
0001f0 df 0b ea 3d 7e 19 b9 3c 46 97 20 3d 5d 95 94 be
       0.114280455 0.022595163 0.039206766 -0.29020205
000200 a2 cf 98 bd be 9e 85 be 4f 3a a5 3e 91 ab bc 3c
       -0.07461478 -0.26097673 0.32271048 0.023031028
000210 24 98 d4 be 54 6f df 3d a4 6b d4 3d e0 2f 22 be
       -0.41522324 0.10909906 0.10372093 -0.15838575
000220 c6 07 b0 bd c9 88 96 be a6 35 9f 3e 46 fc 80 3c
       -0.08595233 -0.29401234 0.31095618 0.015745293
000230 1d c8 2b be be bf b0 bd da b9 ca bd f1 20 86 bd
       -0.16775556 -0.08630322 -0.098987296 -0.06549252
000240 0c 93 36 3e 3e 35 16 3e 7e b0 8d 3e e2 26 0c bf
       0.17829531 0.14668748 0.27673715 -0.5474683
000250 62 2c 9c bc c7 07 80 be 00 37 6b be fa 24 55 3e
       -0.019064132 -0.25005934 -0.229702 0.20814887
000260 0a 57 15 bc 7f f5 0b be b0 b6 19 be 14 6b 84 bd
       -0.00911499 -0.13667868 -0.15011096 -0.06465736
000270 f9 35 95 3c ba 17 88 be 88 89 a4 be 5f 48 3e 3e
       0.018214213 -0.26580602 -0.32136178 0.18582295
000280 cf 12 f4 bd b3 f9 c0 be 56 a4 9d be 78 2b ab bd
       -0.1191765 -0.37690505 -0.3078944 -0.083579004
000290 9b 32 cb 3c 1a 10 11 bd 59 a9 82 3c 1f 28 b4 3d
       0.024804404 -0.035415746 0.015949892 0.08796715
0002a0 4c 6d a9 3d d6 8d 38 be 9e e0 95 3e 0a 1f 4d be
       0.082728 -0.18022856 0.29272932 -0.20031372
0002b0 b0 84 a9 be 36 0a 4c 3e e6 f0 cd be 78 81 77 bd
       -0.33109045 0.1992577 -0.40222853 -0.060426205
0002c0 1d 65 52 3e 46 03 b0 be ac e0 20 be bb 9b b0 be
       0.20546384 -0.34377497 -0.15710706 -0.34493813
0002d0 8b e2 9e 3d e4 b9 b0 be 3a 60 c0 be ef 50 00 3e
       0.077580534 -0.34516823 -0.37573415 0.12530874
0002e0 7b d0 ed bb 9a 66 9e be 50 4c 1d 3e 67 2c 18 be
       -0.007257519 -0.30937654 0.15361142 -0.14860688
0002f0 2c 97 7b be 08 b9 22 be 26 3d 64 3d 86 55 0c bd
       -0.24569386 -0.15890896 0.05572238 -0.03426125
000300 9e 6a 63 be 1c 79 8c be 2d f3 5c be ca 3c c5 be
       -0.2220864 -0.2743615 -0.21577139 -0.3852294
000310 34 0e 2b 3c 5e 4d 25 be 03 02 10 bd bd 3e c9 3d
       0.010440398 -0.16142794 -0.03515817 0.098264195
000320 da d0 fe 3d f8 83 61 be b4 56 a0 3d f5 58 23 3e
       0.12442179 -0.22022998 0.07829037 0.15951903
000330 c9 97 91 3c c8 e4 e0 bd 90 c8 06 3e 41 56 9f 3a
       0.017772572 -0.109811366 0.13162446 0.0012156443
000340 bd c0 04 be 8f 89 b4 bd ce 66 4e 3e ab d9 aa 3e
       -0.12964149 -0.088153 0.20156404 0.33369192
000350 5d da b8 be e4 d1 ab bd ea f4 4d 3e 3b a3 c0 3e
       -0.36104098 -0.08389643 0.20112959 0.37624535
000360 56 56 27 39 96 c7 8a 3e 7b 05 d2 bd a8 2e 13 3e
       0.00015958524 0.27105397 -0.102549516 0.14373267
000370 9e 51 1e 3e ef fa 0e 3e 48 b8 57 3e 83 2b bb 3d
       0.15460822 0.13962911 0.21066391 0.091391586
000380 f8 cd 9a be f8 66 76 be 95 62 8a 3d fd b2 9e be
       -0.30235267 -0.24062717 0.06757084 -0.30995932
000390 60 ca 48 be 78 b2 d3 3e 0d 26 d4 3b e0 29 f9 3e
       -0.1960845 0.41347098 0.0064742626 0.4866476
0003a0 76 75 31 be d3 e6 0b 3d 41 27 8c 3e 96 4e b4 3e
       -0.17329964 0.034155678 0.27373698 0.35216206
0003b0 eb b6 26 3d fb 8f b8 bc eb 54 42 3e 7e 95 80 3e
       0.040701788 -0.022529593 0.18977706 0.25114053
0003c0 a9 ef b4 3e e3 a6 e4 bd 08 c1 91 3e 2f e5 a9 3e
       0.35339096 -0.111646436 0.28467584 0.33182666
0003d0 b6 c3 5f 3e a2 3a 9e 3e d7 0e a4 3e e5 a2 21 3e
       0.21852002 0.30904108 0.32042572 0.15784796
0003e0 2b 68 b8 3e 35 50 67 3e a4 cf 97 be d0 c7 46 bc
       0.36016974 0.2258919 -0.29650605 -0.0121326
0003f0 4c 5d f7 3d be 93 b7 bd 64 f2 e2 3e 26 1d a0 bd
       0.12078342 -0.089637265 0.44325554 -0.078180596

bias f4 [64]
000000 c0 da 8c 3d 72 3d a7 bd 48 fc b2 bd 0f cc 2c 3d
       0.06877661 -0.08166017 -0.08739525 0.042186793
000010 c9 9e 32 bd 24 4f 72 3d cb 4e 9a bd 7e 0a a6 bd
       -0.04360846 0.059157506 -0.0753456 -0.0810747
000020 f8 d2 45 3d e4 e7 c3 3d 65 1b c7 3d 1d 91 e2 bc
       0.0482969 0.09565714 0.09722022 -0.027657086
000030 71 fe fb 3c 46 8f a0 3d 4c f7 90 3d 6b 03 fc 3c
       0.030760976 0.07839827 0.07078418 0.030763349
000040 4e 1b 82 bd 0a f2 94 3d 16 91 9d bd 43 ef 47 bd
       -0.06352864 0.07272728 -0.076936886 -0.048812162
000050 74 fa c0 bd 43 06 6b 3d a3 d7 47 3d 19 ff 80 3d
       -0.0942277 0.05737902 0.04878963 0.06298656
000060 25 cf 8b 3d 1e fa 97 bd fa 49 43 bd d4 e6 a6 3d
       0.06826619 -0.07420753 -0.04767797 0.08149496
000070 8b d2 9c bd 25 1e 50 bd 52 52 bb bd 10 75 88 bd
       -0.076573454 -0.050809998 -0.09146561 -0.06662953
000080 7c 3e 97 3d 90 3c af bd 66 1c b3 bd e6 2a 51 3a
       0.07384965 -0.08556473 -0.08745651 0.00079791097
000090 3a 11 c4 3d f4 2a a1 bd d9 db 73 3d 2e 3a ac 3d
       0.09573598 -0.07869521 0.059535835 0.084095344
0000a0 02 7a a1 bd 7f 6e 45 3c d2 62 fc 3c 22 8c b9 bd
       -0.07884599 0.01205027 0.03080884 -0.09059931
0000b0 5b b8 80 bd a1 d9 32 3d 4e 4a aa 3d b0 61 a1 bd
       -0.06285163 0.04366458 0.08314954 -0.078799605
0000c0 e9 2e c9 bc 21 88 16 3d ba 23 76 3d 35 b6 b2 3d
       -0.024558501 0.036750916 0.060092665 0.087261595
0000d0 9c b8 6c bc e3 96 bd 3d 4e 89 94 3d 58 91 9f 3d
       -0.014448311 0.09257295 0.07252751 0.07791394
0000e0 49 63 90 3d 39 29 a0 bd 9d 04 a8 bd fd 22 a0 bd
       0.07050187 -0.078203626 -0.08204005 -0.078191735
0000f0 75 b9 3c 3d b2 f2 8b bd 19 99 9d bd 80 de 88 3d
       0.046075303 -0.068334 -0.07695217 0.066830635

weight f4 [12, 64, 1, 1]
000000 b1 bb 56 be ad 50 fd 3d fb ae 34 3e f0 83 17 3d
       -0.20970036 0.12368903 0.17644875 0.03699106
000010 dd 1f 3b bd ee 02 c6 3e 2f 95 96 bd d5 3a 06 bc
       -0.045684684 0.3867411 -0.07352673 -0.008192738
000020 f1 36 3a bd bd 21 a8 3e 4c 3d eb bd ce 68 13 3d
       -0.045462552 0.3283824 -0.11486301 0.03598862
000030 e9 ed ae 3e 53 c0 8c bd 8a 34 6a 3e 88 2c e8 3d
       0.34165886 -0.068726204 0.22871605 0.11336619
000040 86 06 da 3e 20 f4 85 3e e3 50 02 3e 5b e3 ae 3e
       0.42583102 0.26162815 0.12726168 0.34157833
000050 80 20 ac 3e 9c d1 09 3d 52 d0 b8 3e 78 0e 90 be
       0.33618546 0.033647165 0.36096436 -0.2813604
000060 9a 1d 93 3e b0 39 03 3e 61 e6 c4 bb 1d 3e 28 bd
       0.28733522 0.12814975 -0.0060089086 -0.04107486
000070 fd 1d 12 3e cf 4b b1 3e 43 e7 53 bb 3c 56 35 3d
       0.14269252 0.3462815 -0.0032333888 0.044271693
000080 e1 63 87 bd d4 61 aa 3d 08 ef ba be 58 a2 42 3d
       -0.06610847 0.083194405 -0.3651049 0.047518104
000090 98 f6 7e 3d d8 9f ad 3e 59 ac c2 3b fe f5 b8 bc
       0.06224689 0.33911014 0.0059409556 -0.022578236
0000a0 17 d8 6f bc 65 70 d7 3c ef 70 42 3e 42 04 97 be
       -0.014638922 0.026298711 0.18988393 -0.29495436
0000b0 e6 7d 25 be c4 d5 41 be c4 5a 88 be e4 8a ea 3e
       -0.16161308 -0.18929201 -0.2663175 0.4580909
0000c0 8b 19 40 be e6 df 91 3d f4 92 9b 3b 9a be c5 3d
       -0.18759744 0.07122783 0.004747743 0.09655495
0000d0 c7 b0 53 be 4f 20 11 3e 71 f5 97 bd 98 93 28 be
       -0.20672904 0.14172481 -0.07419861 -0.16462553
0000e0 d7 97 88 bd c9 2d f2 3d 77 f7 93 3d 5c 98 99 bd
       -0.06669586 0.11825139 0.072249345 -0.07499763
0000f0 f0 66 b0 be fa fe 46 bd 98 f6 2b 3e 13 71 f6 bd
       -0.34453535 -0.04858301 0.16793287 -0.12033286
000100 b4 a9 f5 be 87 c6 00 3d d0 75 7d 3e c0 bc aa 3e
       -0.47981036 0.03143933 0.24751973 0.3334713
000110 2e 24 39 be 4a 1c ad 3e b0 d3 e4 3e 8f c5 52 be
       -0.18080208 0.33810645 0.44692755 -0.20583175
000120 f9 69 18 3d b8 51 26 bd 41 37 bf be 31 9e b1 bc
       0.03721044 -0.040605277 -0.37346843 -0.021681877
000130 9c 7d 3a bd f4 23 4e be 6e 5d 1d bd f7 0c 87 be
       -0.045529947 -0.20130903 -0.03841918 -0.2637708
000140 23 a0 7a be 48 e3 13 be 8b 5b 27 3d d1 a9 ce 3d
       -0.2447515 -0.1444217 0.040858787 0.10090984
000150 fe f6 a7 3e 3a 58 06 3e 24 bf 77 be 5e 25 d8 be
       0.32805628 0.13119593 -0.24194008 -0.4221601
000160 92 78 8c bd c7 49 a5 3d 3a 88 91 3e 6c 69 53 be
       -0.068589345 0.080707125 0.28424245 -0.20645684
000170 64 ff 9c be 10 bc cb bd cc fc eb 3e c9 8d 5c 3d
       -0.30663598 -0.099479795 0.46091306 0.053846154
000180 00 a1 fa bd 66 3a b3 bd 05 87 22 3e 89 70 0a 3d
       -0.122377396 -0.08751373 0.15871818 0.03379873
000190 c9 12 88 3d 23 4d 17 be 13 7f cb bd 8b 42 5c be
       0.06644208 -0.14775519 -0.09936347 -0.21509759
0001a0 84 ec 1a be be 87 25 bd 79 e7 d1 3d b4 ef db bd
       -0.15129286 -0.040412657 0.10249228 -0.10739079
0001b0 9b 4c ad 3d 2e 17 3f bd f4 d8 32 be 0e 81 9f be
       0.08461877 -0.046652965 -0.17465574 -0.31153148
0001c0 a9 ef 8a bd f8 30 a3 3e 9e 3d 9c 3e b8 92 16 be
       -0.06783993 0.31873298 0.3051576 -0.14704406
0001d0 60 a0 9e be 2e 0b e5 3b 2b d6 21 be ea dd 0d 3d
       -0.3098173 0.006989858 -0.15804355 0.034635462
0001e0 95 d3 c2 bc 65 54 b0 3e de d1 5b be d0 8e 97 3e
       -0.02378253 0.34439388 -0.21466777 0.29601145
0001f0 50 30 18 be 0d c2 c1 bc 07 d9 4a 3e f8 76 15 bd
       -0.1486218 -0.023652101 0.19809352 -0.03649041
000200 da 7f 95 3e 25 39 9f 3d b9 42 8f 3d 3d 38 f3 3d
       0.29199106 0.07774571 0.06995148 0.11875961
000210 70 e3 c7 bd 97 53 01 3e d0 54 fb 3b 1d 1f 23 3e
       -0.09760177 0.12629543 0.0076700225 0.15929838
000220 40 09 c3 3e 58 f9 e9 3d 53 48 13 bc 46 8a d2 3e
       0.38092995 0.11424512 -0.008989411 0.4112112
000230 73 01 56 3b 12 de b6 be 58 ad ca 3e 53 06 c6 bd
       0.0032654672 -0.357163 0.39585376 -0.09669175
000240 34 60 41 be 33 aa 8b 3d 44 2c 4f 3e b5 b7 bd bd
       -0.18884355 0.06819572 0.2023173 -0.09263555
000250 9c d6 a3 3e 7e 0a 1e be c0 ce 4f 3e 52 33 79 3d
       0.3199967 -0.1543369 0.20293713 0.06083996
000260 bc 6a 9b bd 7e 4d f5 bc a5 8d 99 3e 95 54 34 be
       -0.07588717 -0.029944178 0.2999088 -0.1761039
000270 96 3b f3 3d c3 86 3b be e6 aa 3f 3e 89 a2 72 3e
       0.118765995 -0.18313126 0.18717536 0.23694815
000280 28 45 bc 3e ff ac 17 be 2f bc 6d 3e e5 26 6a be
       0.36771512 -0.14812087 0.23216318 -0.228664
000290 ad b8 9c be 36 f2 ee 3e 5c 0b 49 bd fe 0b 9c 3d
       -0.30609646 0.46669167 -0.0490831 0.07619475
0002a0 86 c2 31 be b5 d8 01 be e3 0b e0 3c 60 b2 93 3e
       -0.17359361 -0.12680323 0.027349418 0.28847027
0002b0 5e 02 35 be 9b 03 8d be c7 b5 96 bb ea ce 42 3c
       -0.17676684 -0.27541813 -0.0045993063 0.0118901525
0002c0 5f c3 f1 bd d9 21 c4 bd b9 30 0b bf e3 30 09 bc
       -0.11804842 -0.095767684 -0.5437122 -0.008373472
0002d0 b3 1b bd be 5b 7f c8 bc 65 7c 96 3d b1 cb 82 be
       -0.36935195 -0.02447479 0.07347945 -0.2554603
0002e0 bd 0d a0 3c 75 dd 28 bc 22 fb 47 3e b4 e1 ea 3e
       0.0195378 -0.010306706 0.19529393 0.45875323
0002f0 07 4d 1e bd d6 a7 29 3d b4 2a d2 bd 2b 46 ae 3e
       -0.038647678 0.041419826 -0.10262051 0.3403791
000300 72 dc 92 3d 9d cd e6 bd 01 2e 95 3e 58 c9 33 bc
       0.07170953 -0.11269686 0.2913666 -0.010973297
000310 22 db 02 3e 04 f6 8f be c1 a8 f4 bd aa e6 96 be
       0.12778905 -0.28117383 -0.1194625 -0.29472858
000320 cb 8e 00 bf 0a 90 5e 3e 3c da 16 be 2d f2 c1 be
       -0.50217885 0.21734634 -0.14731687 -0.37880078
000330 01 4d 63 3e d4 dc be bd de 5a cc bd d2 17 29 be
       0.22197343 -0.09319463 -0.09978269 -0.16512993
000340 83 b5 29 3e d4 26 2e 3f 39 ae 0e be 28 72 48 3e
       0.16573147 0.68027997 -0.13933648 0.19574797
000350 60 8d 43 be bb 42 ab 3d 15 0c d7 be cd 72 bd 3e
       -0.19096899 0.08362337 -0.42001405 0.3700165
000360 cc ce 97 3e 89 ff 16 be ce 2f 04 be a2 98 ed 3d
       0.2964996 -0.14745916 -0.12908861 0.11601378
000370 aa 4c 7e be 0b 81 0a 3f 25 14 57 be 85 98 90 3e
       -0.24833933 0.54103154 -0.21003778 0.28241363
000380 66 64 5b bd 98 fb 6a bd fc e7 10 3e 7c 79 0c 3e
       -0.053562544 -0.057368845 0.14150995 0.13718218
000390 b2 3c ef 3c 3f 92 a1 3d c1 9d 43 bd ba 3c d7 3d
       0.029203746 0.07889222 -0.047757868 0.105096295
0003a0 a8 b3 23 3e 02 27 05 3e 0e eb 30 bc d5 1d 14 bd
       0.15986502 0.13003162 -0.010798229 -0.036161263
0003b0 5f ff c7 bd 64 56 72 be ec ae f0 bc b7 55 d4 bd
       -0.09765505 -0.23665768 -0.029380284 -0.10367911
0003c0 d7 8a d4 3e ee e6 c0 bc f8 cf 0c 3e 75 ca a9 3e
       0.41512176 -0.023547616 0.13751209 0.33162275
0003d0 5f c1 68 3e 0e f4 b4 3e 0b 4c a4 3d 5a c2 09 be
       0.22730015 0.3534245 0.080223165 -0.13453045
0003e0 9f 58 64 be ce d4 97 be 41 a8 ae 3b 82 f7 8a be
       -0.22299431 -0.29654545 0.005330116 -0.27141958
0003f0 ef a3 4e bc 17 1a 08 bd af 17 15 be 14 7a c5 bd
       -0.012612327 -0.033228006 -0.14559816 -0.09642425

bias f4 [12]
000000 d1 24 a4 3d 9d 87 a8 bd 11 2c 6c bd 3a bc 38 3d
       0.08014835 -0.08228991 -0.057659212 0.04510138
000010 2e 62 0f bd d6 80 ae 3d f0 ce cd 3d 89 86 a3 bd
       -0.03500574 0.08520667 0.10049236 -0.07984645
000020 0f 6e 40 bd 47 f6 8a 3d 43 a2 82 bd bc c2 30 bd
       -0.04697996 0.06785255 -0.06378605 -0.043154463

weight f4 [12, 12, 3, 3]
000000 a1 cc 9e be fe 7a 42 bc 97 07 ff 3c b1 fd 23 3f
       -0.31015494 -0.011870144 0.031131549 0.6405898
000010 a1 6b 86 3c 01 7e a8 bd 3a 2c 09 be 63 bd 43 be
       0.016408743 -0.08227158 -0.13395777 -0.19115214
000020 d4 e7 1d 3d f6 00 a1 3e b3 47 05 be ae ff 3f be
       0.038551167 0.31446046 -0.13015632 -0.18749878
000030 60 a3 21 3e 40 72 7f bd 15 e8 a2 3e 3d e6 3c bd
       0.15784979 -0.062364817 0.3181769 -0.04611801
000040 11 3c 42 3e 1b 4d cc 3d 28 7d f2 bd 9e 59 03 bf
       0.18968226 0.09975644 -0.11840278 -0.5130862
000050 1b cd 71 be ac 0b 65 3e bf a4 06 bf 62 d5 c5 3d
       -0.23613398 0.22367734 -0.5259513 0.0965984
000060 23 3d a2 3e d1 5c 5b 3d 9e f0 51 3e dc 25 65 3e
       0.3168727 0.053555313 0.20501944 0.22377723
000070 c9 03 be 3d b7 05 a3 3e e4 61 06 3e 4b dc 25 be
       0.09278066 0.31840298 0.1312328 -0.16197316
000080 c9 c1 0d be a6 20 3b bd cd 14 66 3e d6 33 85 be
       -0.13843454 -0.045685433 0.22468872 -0.2601611
000090 49 88 89 be fb c3 c7 3c f4 2f bc bc 53 14 74 3e
       -0.2686179 0.024385443 -0.022972085 0.23835878
0000a0 2a 12 0e bd fd f8 ed bd bf 31 b2 3c d7 77 d3 3d
       -0.03468529 -0.11619756 0.021752236 0.10325592
0000b0 f6 f3 de bc ec 94 ac bd 33 73 d4 bd 71 07 fb 3d
       -0.027215939 -0.08426842 -0.10373535 0.12257279
0000c0 e8 51 05 be c2 d0 3a be 12 2a 94 be 89 d5 4b 3e
       -0.13019526 -0.18243697 -0.28938347 0.19905676
0000d0 cc db dd bd 6b 53 16 be 0e 73 cf bd bf d3 89 be
       -0.108329386 -0.14680259 -0.10129367 -0.26919362
0000e0 8c 67 16 3e 4b 9d 18 3e 2a 5c e5 bd 8f c5 4e bd
       0.14687937 0.14903753 -0.111992195 -0.050481375
0000f0 5c 00 ab be 3e f9 58 be 66 f5 af bd 75 7b bd 3e
       -0.33398712 -0.21188828 -0.08591728 0.37008253
000100 ec e6 9b 3e 63 2d a5 3c 3b 42 f0 3a 7c 45 e0 3d
       0.30449617 0.020163244 0.0018330285 0.10950753
000110 2f ba 36 be e0 06 48 3d 48 7c 96 3e c6 6a 10 be
       -0.17844461 0.04883468 0.29391694 -0.14103231
000120 0f e3 af 3e 64 72 45 bd e4 d0 6d be 65 9f 99 3e
       0.3435292 -0.048204795 -0.23224217 0.3000442
000130 f3 af 72 be 4c b2 a7 be 56 b1 5c 3e 20 85 79 be
       -0.23699932 -0.32753217 0.21552023 -0.2436719
000140 20 ce 5d be 86 3d 2c 3e 89 b3 0c 3c d6 41 88 3d
       -0.21660662 0.16820344 0.008587726 0.06653182
000150 97 6c b4 3d 80 c5 b1 bd df f1 33 be c8 78 96 bd
       0.08809774 -0.08680248 -0.17572735 -0.07347256
000160 f9 8f 56 be 7d 60 23 3d 49 7e 4f 3d 0d cd e8 3d
       -0.20953359 0.03988694 0.050657544 0.11367235
000170 8c 27 ad bd 3c 5a 98 3e 53 4d 80 3e 8a bf ab 3d
       -0.084548086 0.29756343 0.25058994 0.083861426
000180 2c 0a 6b 3d d7 9c d1 3e 63 71 0e be 1f 9d 80 3e
       0.057382748 0.40939972 -0.13910441 0.25119874
000190 98 4c bc 3d d3 83 70 3e 93 3d 65 3e 4f d3 da be
       0.091942966 0.23487787 0.2238677 -0.4273934
0001a0 00 d0 8d 3e cc b9 0c be f3 8c 91 3e 05 5d c0 be
       0.27697754 -0.13742751 0.28427848 -0.37570968
0001b0 80 66 5c 3d fd 80 86 bd 60 d7 17 3e 35 51 89 3e
       0.05380869 -0.06567571 0.14828253 0.2681977
0001c0 fe e1 3a be 1d c8 c3 3d 70 09 a2 3a e8 2a 98 bd
       -0.18250272 0.09559653 0.0012362432 -0.07430059
0001d0 b3 2e b5 3e bc d6 36 3e 20 d4 95 3d 5d 28 75 be
       0.3538719 0.17855352 0.0731585 -0.23941179
0001e0 62 03 f4 be aa f1 00 be 94 26 61 bd c3 96 44 bd
       -0.4765883 -0.12592188 -0.05496843 -0.04799534
0001f0 66 63 35 bf 08 1b 83 bc 48 d3 8e be 92 e6 9a 3d
       -0.70854795 -0.0160041 -0.2789557 0.07563509
000200 6d 9a ec 3c 9b f9 60 bd 33 2c 84 bc 64 a6 41 be
       0.02888223 -0.054925542 -0.016134357 -0.18911129
000210 82 94 32 3d 6e fd 86 3e e7 db db be c7 d6 b0 3e
       0.04359866 0.26365227 -0.4294121 0.34538862
000220 5e 05 43 3e cc 15 81 bd 91 20 65 bd 42 f6 3a bd
       0.19045016 -0.063029855 -0.05593926 -0.045645006
000230 31 37 f2 3e 66 52 25 3e f8 29 93 bd 9b 65 b0 3d
       0.47307733 0.16144714 -0.07185739 0.0861313
000240 02 0d 1f be 0d 4d ba bd 8d 86 f3 bd df c1 8c 3e
       -0.15532306 -0.090967275 -0.11890898 0.27491662
000250 d2 7e fd 3e ad da 95 bd 74 cb 51 be 7f c3 3b 39
       0.4951082 -0.073171 -0.20487767 0.00017906538
000260 8e d1 0a 3e 5e d5 3b bd ec 26 61 3e 36 a6 b0 be
       0.13556501 -0.04585778 0.21987504 -0.3450181
000270 92 0a ea bd 67 fb 8c be 8e b3 84 3d b1 cc e2 bd
       -0.114277974 -0.27535555 0.0647956 -0.11074198
000280 43 dc b2 3e b3 24 a9 3e 7e 74 01 bc 8d e8 bc 3e
       0.3493367 0.33035812 -0.007901309 0.36896172
000290 3a 92 15 3f ea 76 2c be 6c 59 99 be 76 b7 7b bc
       0.5842625 -0.16842237 -0.29951036 -0.015363565
0002a0 fc 66 81 be c4 ae df bd a3 c0 ca bc 08 fe 56 3e
       -0.25273883 -0.10922006 -0.02475006 0.20995343
0002b0 84 c5 7f bd 2d 33 dc 3c 2b 37 15 3e 75 d2 72 3e
       -0.062444225 0.026879871 0.14571826 0.23713095
0002c0 ac 14 7f bd 73 fa 08 3e 5f 25 f6 bd 99 50 09 3e
       -0.062275574 0.13376789 -0.12018847 0.13409652
0002d0 d4 0f 42 bd 62 f3 b4 be e8 93 6a bd 9d 9f a1 bd
       -0.047378376 -0.35341936 -0.05726996 -0.07891772
0002e0 19 9f 80 3c e5 2f 25 bf 05 0e 40 bd d4 65 c1 be
       0.015700864 -0.64526206 -0.04688837 -0.37773
0002f0 90 f8 ab bd 66 d2 a0 3e bc 47 ed 3d c8 ee 26 bd
       -0.08397019 0.3141052 0.11585948 -0.040755063
000300 a4 bb d2 bc f7 82 07 be 60 87 66 be 3c 45 c2 bc
       -0.02572424 -0.13233553 -0.22512579 -0.023714654
000310 0e 25 24 bd e7 9b b8 bd 77 4e 09 3f 44 7c f3 bd
       -0.0400744 -0.09014111 0.5363535 -0.11888936
000320 91 af 40 be 36 ca 69 3d 94 bf 87 3c 76 47 9d 3e
       -0.18816973 0.05707761 0.016570844 0.30718583
000330 58 9e 85 bd fe ab b9 3d d0 f9 e7 bd 52 7d 0c 3d
       -0.06524342 0.09066008 -0.11326945 0.034299202
000340 c2 17 8a 3e 37 48 8f bc c8 7f ca be 52 be 23 3f
       0.2697125 -0.01749049 -0.39550614 0.6396228
000350 c8 ff 9b be b2 b0 12 bd 71 76 f0 bd 9c ab 98 be
       -0.30468583 -0.03581304 -0.11741341 -0.29818428
000360 b7 1c 06 3e 53 a6 76 3e 32 2c 9b 3c a8 86 f7 bc
       0.13096891 0.24086885 0.018941972 -0.030215576
000370 ed f1 ac bc af b7 0b be dd 75 f9 bd f4 dd b4 38
       -0.021111453 -0.13644288 -0.12180684 8.624411e-05
000380 2d aa 0d 3e bb a5 ac be 0c df 33 bd d9 28 00 be
       0.13834448 -0.33720192 -0.043913886 -0.12515582
000390 63 af d6 bd cf e9 81 be 3a 51 69 bd 47 62 1e be
       -0.10482671 -0.25373694 -0.05696223 -0.15467177
0003a0 22 da 1a be 25 56 b2 3d fc c6 c5 bd 2a 36 85 be
       -0.15122274 0.08707837 -0.09657094 -0.26017886
0003b0 86 c3 97 3b 44 ce 62 3e 1b 2a 91 be aa ef a4 bd
       0.0046314625 0.22148997 -0.28352436 -0.08053525
0003c0 bb e9 d7 3e 69 9f 1b be 9f 1d 4a be 4e 95 51 be
       0.4217051 -0.15197529 -0.19737862 -0.20467111
0003d0 e8 a8 c3 3e 0c c4 4b be 32 c6 ad be 0b 2a 99 be
       0.38214803 -0.19899005 -0.33940274 -0.2991489
0003e0 82 39 40 3d 3e 0d a4 3d 68 0d 92 bd 3f e3 07 3e
       0.046929844 0.08010338 -0.07131463 0.13270281
0003f0 70 8e 32 be 32 d1 eb 3c e1 93 b3 3d 29 6a e9 3d
       -0.17437148 0.028786276 0.0876844 0.113972016

bias f4 [12]
000000 b2 a7 3e 3d a9 01 79 3d a2 73 7e 3d 4a d7 65 3d
       0.046546645 0.0607926 0.062121995 0.05611352
000010 95 83 85 3d b5 66 69 bd 47 a0 7d bd 81 1a 9f 3d
       0.06519238 -0.056982715 -0.06192043 0.07768727
000020 e3 71 3f bd 0b fb 75 bd 56 15 91 bd 67 a2 d6 3c
       -0.04673947 -0.060053866 -0.07084148 0.026200486

weight f4 [12, 12, 3, 3]
000000 7a 7b 1f 3e dc da 37 3e 3e b9 1a bd 6d 76 52 3d
       0.15574446 0.17954582 -0.037774317 0.05138247
000010 a9 ce 3e 3d ed 79 85 3e 89 37 71 3e 88 cb 0c be
       0.046583805 0.26069584 0.23556341 -0.13749516
000020 5d ef 14 bd 37 ea 52 be 02 77 8b be 0a b3 1d be
       -0.036361087 -0.20597158 -0.27239233 -0.15400329
000030 da db c2 be 77 a4 66 3e b1 4c ab 3e d6 9a d6 be
       -0.38058358 0.22523676 0.33456948 -0.41915005
000040 82 d7 7e bd 68 a2 57 3c c4 15 d3 bd 81 05 a1 bd
       -0.062217243 0.013161279 -0.10306886 -0.07862378
000050 f5 1c eb 3d e4 d8 47 bd e5 c4 b2 bc 07 a8 0b be
       0.114801325 -0.048790827 -0.021822402 -0.13638316
000060 4d 32 ae be 09 a3 87 be d8 c2 89 be 2e fd 35 3e
       -0.3402275 -0.26491573 -0.26906466 0.17772362
000070 0e 5e 2f 3e e5 96 23 3d a0 11 08 3d 45 ce 6a be
       0.17125723 0.039938826 0.033219934 -0.22930248
000080 57 fe 69 3e 2e 50 8d 3e 72 83 7c 3e 39 33 ec 3b
       0.22850929 0.27600235 0.24659517 0.0072082547
000090 65 e9 e3 3b 4c 09 65 3d c1 a4 95 be e0 56 33 3e
       0.006955313 0.05591707 -0.2922726 0.17513609
0000a0 23 a4 66 3e 89 79 0a 3e a0 1f 57 bd 05 35 73 be
       0.2252355 0.13522924 -0.052520394 -0.23750694
0000b0 c8 11 1b bd 3a 46 d9 3e 47 9e 3c 3e b0 d8 c7 bd
       -0.037858754 0.4243639 0.18419753 -0.09758127
0000c0 8e 01 04 be b5 08 6d be 78 94 26 bd a1 75 cb 3d
       -0.12891218 -0.23147853 -0.040668935 0.09934545
0000d0 c9 dc fb 3c ef 08 02 3b 9a de 88 3d fe 2b 12 3e
       0.030744927 0.001984175 0.06683083 0.14274594
0000e0 50 c3 8a bd 32 e5 b0 3d 94 d4 d1 3e 54 62 32 be
       -0.06775534 0.086374655 0.40982497 -0.17420322
0000f0 6b 16 21 be c0 19 c0 3d c0 5a 26 3e 0e fb 00 be
       -0.15731208 0.093799114 0.16245556 -0.1259577
000100 a1 06 07 be 3e 56 6f be f7 37 45 3e c4 7e d6 bc
       -0.13186122 -0.23372743 0.1925963 -0.026183493
000110 84 10 ba bd 80 1d af 3e ca 1c e4 bd 84 e2 35 be
       -0.09085181 0.34202194 -0.111383036 -0.1776219
000120 ad 95 23 3e 1d 11 5e 3c 75 d0 7c bd ab a0 aa bc
       0.15975066 0.013553885 -0.061722238 -0.020828566
000130 c0 9d b3 3e 60 0c 92 be 88 9d d4 bd 03 b7 c2 3e
       0.3508129 -0.28525066 -0.10381609 0.38030252
000140 06 09 28 3e 46 a1 9b 3d 28 eb ab bd a7 3d 53 3e
       0.16409692 0.0759912 -0.08394462 0.20628987
000150 f5 f5 15 3e 94 52 1a 3e 50 70 34 3e ce 79 87 bc
       0.14644606 0.15070564 0.17620969 -0.016537573
000160 18 f6 4d 3d b7 1f 04 3f 6b 58 41 3e a8 a1 44 3e
       0.05028352 0.51610893 0.18881385 0.19202292
000170 52 90 c8 3e 6d e3 bf 3e 5a 5d 97 be 25 14 c4 3e
       0.39172608 0.374782 -0.2956341 0.3829662
000180 d2 d7 26 3e ff 32 3c bb 9c 60 ac bc d5 7c 4f 3e
       0.16293266 -0.002871692 -0.02104216 0.20262463
000190 5c 89 8f 3d bf c4 06 bf 41 76 9b bd a2 b7 56 3e
       0.07008621 -0.5264396 -0.075909145 0.20968488
0001a0 70 0b 97 bd df 1b ed bd f2 db a7 be 31 d1 2b 3d
       -0.073752284 -0.115775816 -0.32784992 0.041947547
0001b0 cc d8 2a 3e 55 5e 63 3e 49 59 57 3e 78 f7 df 3e
       0.16684264 0.22203954 0.21030153 0.4374349
0001c0 a7 1a 47 3e ac b9 67 3e 02 3e 22 be a8 dd 79 3e
       0.19443761 0.22629422 -0.15843967 0.24400961
0001d0 bf 60 af be 9d 57 ca 3e 71 55 c1 3d ce 08 a2 bd
       -0.342535 0.3951997 0.09440125 -0.079118356
0001e0 75 8a b3 3e e2 bc 35 be e5 b5 ac be d1 7f 4a be
       0.35066572 -0.17747834 -0.33732525 -0.1977532
0001f0 5f c0 a0 3e b2 6e b8 3e f5 0b a8 3d eb 96 1e be
       0.31396767 0.36021954 0.082054056 -0.15487258
000200 a3 8f d5 bd 68 0e a0 be a7 33 81 be 59 77 92 bd
       -0.10427787 -0.3126099 -0.2523472 -0.0715167
000210 17 08 9e be a6 e0 81 3d 36 52 90 be 5a 8c 88 bb
       -0.30865547 0.063416764 -0.28187722 -0.004167122
000220 78 86 01 be 07 56 4a be 66 7c 78 bd 0e f5 20 3d
       -0.12648952 -0.1975938 -0.06066551 0.039296202
000230 3d 1f bf 3e 16 e7 79 bd cb d0 c6 3d 32 7e b2 3e
       0.3732852 -0.061011396 0.09707793 0.34861904
000240 e5 3d be bd 5d 76 ed be 74 c8 e5 bc d2 78 8f bd
       -0.09289149 -0.46379367 -0.028049685 -0.070054665
000250 92 6b 41 3e c2 23 66 bc e7 50 51 3e 6c 2f fc 3d
       0.18888691 -0.014046611 0.20441018 0.123137325
000260 a9 81 cb 3d f6 32 82 be 61 ef 4e bd b8 6f fd 3e
       0.0993684 -0.25429505 -0.05052126 0.49499297
000270 3c 0b 85 be c2 ca 0f be 68 b9 cd 3e 5c f4 b8 3e
       -0.25985134 -0.1404219 0.40180516 0.3612393
000280 24 b4 e9 3e d8 76 c1 3e f6 65 b6 3e c5 77 eb 3d
       0.4564525 0.37785983 0.35624665 0.114974536
000290 90 4f 23 3f 00 dd 24 be b5 3c 26 3d 80 9c 65 3e
       0.6379328 -0.1609993 0.04058524 0.22422981
0002a0 35 58 4d 3e 37 34 9b 3e a5 91 19 3d 1e 1f 8a be
       0.2005318 0.30313274 0.037492413 -0.26976866
0002b0 32 8c 36 3d bd 62 5a be df e3 24 3e f5 eb 92 bd
       0.044567294 -0.21326728 0.16102551 -0.071739115
0002c0 a2 37 23 be 1e 36 6d be 50 e3 67 be 7f 03 c1 3d
       -0.15939191 -0.23165175 -0.22645307 0.09424495
0002d0 60 b1 75 bd 7f eb 85 bd f6 15 03 3f 20 3b 8b 3e
       -0.05998361 -0.06539058 0.51205385 0.27193546
0002e0 58 96 b8 3d cb 50 41 3e 43 22 0f bc 2d 19 bb 3c
       0.09013051 0.18878476 -0.008736196 0.022839153
0002f0 e4 1f 3c 3e 77 b8 80 3e 58 c4 4c bd f6 19 d4 3d
       0.1837154 0.25140736 -0.049991935 0.10356514
000300 9a dd a6 be 95 2a 1d 3e 3d 33 7f 3d 0d ac 26 3e
       -0.32590944 0.15348275 0.062304724 0.1627657
000310 e2 51 8d 3e bf fc 42 3e bf a1 09 3e cc b1 88 3e
       0.27601534 0.19041727 0.13440607 0.26698148
000320 4f 4b eb 3d f4 b3 d2 3d 1f eb 9a 3c eb a8 50 3e
       0.11488973 0.102882296 0.018910943 0.20376937
000330 dc 57 06 3e a0 78 27 3f e2 9c 7d 3a 8a bc 1e 3e
       0.13119453 0.65418434 0.00096745614 0.1550161
000340 41 a5 7f 3e b6 fa 77 3d 06 bd 8a 3d 91 b1 04 be
       0.24965383 0.06054183 0.067743346 -0.12958361
000350 8c d2 59 be c4 31 17 be 30 cb cc 3d 89 81 0a be
       -0.21271724 -0.14765078 0.099996924 -0.13525976
000360 42 0b 28 3c 39 6e 4a 3c 13 35 4c 3e ec da 43 be
       0.01025659 0.012355381 0.19942121 -0.19126481
000370 0f d7 ab 3c b7 79 92 be 79 30 ae be dd a4 d7 3e
       0.020976571 -0.28608486 -0.34021357 0.42117968
000380 11 2b 90 3c bc 8d d9 3e df 14 d7 3e f6 d9 33 3e
       0.01759866 0.42490947 0.4200811 0.17563614
000390 14 b0 dd 3e 57 96 a7 bd 85 68 b0 be 00 10 1f 3b
       0.432984 -0.08182972 -0.34454742 0.0024271011
0003a0 89 5b 98 3e 91 af 7d 3e 7f b4 22 3e 71 da 82 bd
       0.29757336 0.24774005 0.15889166 -0.06389321
0003b0 db 5c a8 3c 63 88 8b 3e b0 56 0f bd f1 b0 15 3e
       0.02055209 0.27252492 -0.03499478 0.14618279
0003c0 33 e1 c7 3c b0 dd 16 bd 4d eb cb 3e 6e 47 b3 bd
       0.024399376 -0.03683251 0.39827958 -0.087538585
0003d0 41 86 ba bd 1d 7a 1b 3e a1 fa 4b 3e c6 24 f8 3d
       -0.09107638 0.15183301 0.19919826 0.12116389
0003e0 e9 fe e4 bd 6b bb 22 3e b5 99 8a bd 62 ff 3b be
       -0.11181433 0.15891807 -0.067675985 -0.1835914
0003f0 9b 29 98 bd e0 36 57 be 16 26 13 3e 01 6c 34 be
       -0.074298106 -0.21017027 0.14369997 -0.17619325

bias f4 [12]
000000 0d 0a 90 bd f8 59 a4 bd 8c 72 2f bd 8f cd 58 bc
       -0.07033167 -0.08024973 -0.04283385 -0.013232603
000010 41 7f 66 3d 8f f7 40 bd 0b 27 a6 3d b3 02 99 bd
       0.056273703 -0.04711109 0.081129156 -0.07471218
000020 98 90 33 bd cc 56 23 bd 6b c7 8e 3d a8 8a 5e bd
       -0.043839067 -0.039877698 0.0697163 -0.05433145

weight f4 [12, 12, 3, 3]
000000 bb f8 ee bd f5 c5 36 3e 09 3b fc 3d 4b 5e 84 3d
       -0.11668535 0.17848952 0.123159476 0.064632975
000010 c1 e8 64 3e 38 32 67 3c eb 0c 9b 3e 59 bc 00 3e
       0.22354414 0.014111094 0.30283293 0.12571849
000020 e0 a5 0b 3e 16 a1 98 3e 41 9d 8c 3d 16 fc 34 3e
       0.13637495 0.298104 0.06865931 0.17674288
000030 f2 69 1e 3e 70 50 53 3e e9 20 15 bd 24 6e 4f 3e
       0.15470102 0.20636153 -0.03640834 0.20256859
000040 1a 2b 33 bd 8d dd 4d be 90 6f 18 be 20 69 6a bd
       -0.043742277 -0.20104046 -0.14886308 -0.05722916
000050 a9 9e aa be ab 4d 3b be 7f 6c 69 be 97 8e 80 3e
       -0.33324173 -0.18291347 -0.22795294 0.25108787
000060 49 01 64 3b f3 c1 5e be d3 14 02 bf 9d a0 9c 3e
       0.0034790805 -0.21753673 -0.50813025 0.30591288
000070 27 ac 80 3e 27 b8 0c 3f 78 eb 62 3e fc 7b 1d 3e
       0.25131342 0.54968494 0.22160137 0.15379328
000080 9b 07 21 bd 0c d3 fc be 34 12 e7 3e b9 a1 85 be
       -0.039313894 -0.49379766 0.45131075 -0.26099947
000090 38 0c c9 be a1 95 d7 be f4 12 61 3d a8 15 0c 3e
       -0.39267135 -0.42106345 0.054949716 0.13680136
0000a0 b2 a0 26 3e dc ad bf 3d 08 d6 6e 3e a4 5c df be
       0.16272238 0.09359333 0.23323834 -0.43625367
0000b0 b7 ac ac be 62 6c 66 be 98 30 68 bd ec b1 86 3e
       -0.3372552 -0.22502282 -0.056686968 0.2630762
0000c0 d1 6d 38 3d fe be a0 3d fb 44 fe 3e c6 8e 87 3d
       0.045026604 0.07848929 0.49662003 0.06619029
0000d0 e0 46 16 3e bb 99 0a bd ef 4a 19 3d b4 7b 23 be
       0.14675474 -0.033838015 0.037424978 -0.15965158
0000e0 d8 5a 62 be 9b fc 3f be 6e e8 69 3d 67 6f 04 bd
       -0.22104967 -0.18748705 0.057106428 -0.032332804
0000f0 c9 b2 b6 bd 40 ab 18 be eb 69 2b be d8 e1 7a 3e
       -0.08920819 -0.14909077 -0.16739623 0.24500215
000100 03 35 83 3e a3 73 85 3e a0 9a c6 bc a4 ec a7 bd
       0.25626382 0.26064786 -0.024243653 -0.081994325
000110 9d 0c a9 3e 0c f6 3a bc bc d0 74 3d 03 c9 0a be
       0.33017436 -0.011411201 0.059769377 -0.13553242
000120 4e b7 d0 be 3f e1 de bd 43 5d 9d be b9 32 46 3e
       -0.4076485 -0.10882806 -0.30735216 0.19355287
000130 cd e8 a1 bd 6a 44 f9 be cd 68 26 3d b4 5b e0 3d
       -0.07905731 -0.48685008 0.04062729 0.10954991
000140 02 49 4a 3e c5 30 b4 3e ff f4 47 3c 28 b1 4a 3e
       0.19754413 0.35193458 0.012204408 0.19794142
000150 cb 90 95 be 52 27 05 3e 09 a2 03 3d ef 34 57 be
       -0.2921203 0.13003281 0.03213695 -0.21016286
000160 3e 25 ce 3d f7 80 94 bd 9f 8a 22 be 78 ba 58 be
       0.10065697 -0.072511606 -0.15873192 -0.21164882
000170 9e 5c d4 bd ba d9 0a be 1b 06 2b be 39 50 85 bd
       -0.10369228 -0.13559619 -0.16701548 -0.06509442
000180 db 1b 03 bd 1b d9 8c be a1 31 b5 bc 61 26 8a 3e
       -0.032008987 -0.27509388 -0.022118391 0.26982406
000190 85 b8 0e be 0e 9d 90 be 20 22 34 3e d9 c3 2a bd
       -0.13937576 -0.28244823 0.17591143 -0.04169068
0001a0 1d c6 2c 3e 4e 83 db bd 27 fd 9b 3e 71 00 00 bd
       0.16872449 -0.10718404 0.30466577 -0.03125042
0001b0 7e d0 c9 bd 39 fd d6 be 3b 29 01 3e 09 fc 3d be
       -0.0985422 -0.4199007 0.12613384 -0.18553175
0001c0 26 d6 ca be de 4a b5 3e 09 ec 31 be b7 16 c7 bd
       -0.39616507 0.35408682 -0.17375197 -0.097211294
0001d0 cc ee 15 bc e0 8e d3 be 0a 8e 0f 3e 77 11 c4 3d
       -0.009151172 -0.41319942 0.14019027 0.09573644
0001e0 78 af 3e 3d ce f7 25 3e 78 cf 91 bd 3d a0 bd bc
       0.04655406 0.16207811 -0.0711965 -0.023147697
0001f0 e5 99 1b 3e 07 8d db bd 19 f2 81 be b0 0c 68 be
       0.15195425 -0.10720258 -0.25380018 -0.2266109
000200 b0 6b 0d bd bf f1 38 3e bb 4a 9c 3e da 18 6d 3d
       -0.034526527 0.18060969 0.30525765 0.05788503
000210 d6 a2 68 3d 61 83 dc 3d 18 87 46 3e 01 0b 68 be
       0.056795917 0.10767246 0.19387472 -0.22660448
000220 4f 27 2e be 0f ce 03 3e 46 04 9b be 2e c1 12 be
       -0.17007183 0.12871574 -0.30276698 -0.14331505
000230 fe 0b 3a 3e 86 50 d1 bd d6 30 37 be 3e ee 98 bd
       0.18168637 -0.10220437 -0.17889723 -0.07467316
000240 d9 ff 77 3d e6 5e b5 3d 08 6a c5 3d e8 81 4d be
       0.06054673 0.08855991 0.096393645 -0.20069087
000250 e9 82 9e bd a4 30 d8 3e 93 61 93 bc 82 d4 e2 3c
       -0.07739813 0.4222461 -0.017990863 0.027689222
000260 69 cf d3 3e 5c d6 fe bd 47 15 4c 3e 8c db 39 3b
       0.4136918 -0.124432296 0.19929992 0.002835962
000270 86 d2 6e bd 28 77 20 be 85 65 d4 3d e3 1f ae 3e
       -0.05830624 -0.15670455 0.10370926 0.34008703
000280 aa 40 1a bd 18 d2 d7 be d6 bd 82 bd 11 58 00 3e
       -0.037659325 -0.42152476 -0.063838646 0.12533595
000290 a6 93 b6 3e 79 e3 d1 bd c2 73 6b 3e 14 60 07 3e
       0.35659522 -0.10248465 0.22993377 0.13220245
0002a0 3a 4b a8 bc 33 a1 b4 bc a6 0a 17 be 68 23 26 bf
       -0.020543683 -0.022049522 -0.14750156 -0.64897776
0002b0 33 9a 88 be 5c 24 77 be 3b 10 01 bc 85 ed e9 3d
       -0.26680145 -0.24134964 -0.007877405 0.114222564
0002c0 e2 97 56 3c 2b 38 80 be 02 27 56 be 8a 68 12 3d
       0.013097735 -0.25042853 -0.20913318 0.035744227
0002d0 01 37 6f 3e d5 38 56 3e bb 46 20 3c f4 d1 a4 bd
       0.23360826 0.20920117 0.009782488 -0.08047858
0002e0 13 dc f4 3d fa 7a 80 be 8f ab ad 3d 24 b6 ca be
       0.11956038 -0.25093824 0.08479988 -0.39592087
0002f0 bd aa 16 bd 43 82 2e bd 0a 1a 5c 3d a9 a6 c4 3e
       -0.036783922 -0.042604696 0.05373577 0.38408402
000300 53 68 28 be 39 54 17 3e 41 a8 e6 3d d3 92 f9 bc
       -0.16446047 0.14778222 0.11262561 -0.030465519
000310 2f 35 d2 3c 03 71 d4 be d8 be 76 bd 50 ca 19 bd
       0.025660126 -0.4149247 -0.060240597 -0.037546456
000320 1d 47 de 3c 52 d2 dd 3b a4 78 86 3d be 24 70 3e
       0.027133519 0.006769457 0.06565979 0.23451516
000330 d5 ea f2 bb c3 6e 79 bd 36 16 13 3f e2 b2 25 bd
       -0.007413248 -0.060896646 0.57455766 -0.0404538
000340 3a 29 b1 be 2a bc a5 be d5 1d c6 3c a7 b2 aa 3a
       -0.34601766 -0.3237012 0.024184147 0.0013023213
000350 18 1d 22 3d db d3 28 bf af f9 2f bd 35 90 32 3e
       0.039578527 -0.65948266 -0.042962726 0.17437823
000360 78 13 ca 3d 60 07 15 3e 2a 95 ff 3d a7 bb a8 bd
       0.098669946 0.14553595 0.12479623 -0.08238917
000370 9a 6e 18 bf 61 61 d4 be d2 6c bc 3c 7b 85 dd 3e
       -0.59543765 -0.41480544 0.023001108 0.432659
000380 e8 6e e3 bd e6 e6 52 3e 21 25 02 bf 9f 46 72 3c
       -0.11105138 0.20595893 -0.50837904 0.014787345
000390 2b 13 82 be 1c 2a c6 bd 60 1b 4b 3e 3e 66 bc be
       -0.2540525 -0.096760005 0.19834661 -0.36796755
0003a0 b6 6f ad bd ac 55 a7 be 50 61 bc bd af f3 ed be
       -0.08468573 -0.3268255 -0.091982484 -0.46474978
0003b0 43 d1 eb bd 85 cd 2c bc 5c 43 97 bd 0b 52 9d 3c
       -0.11514523 -0.010547047 -0.07385895 0.01920416
0003c0 cf 86 01 3c 93 3a ae be ee ba 81 be df 18 1c 3e
       0.007905676 -0.34029064 -0.2533793 0.15243863
0003d0 7b 9a ac be e9 a9 82 be 0a b8 8f be ef 86 11 3e
       -0.3371161 -0.25520256 -0.28070098 0.1421163
0003e0 75 18 21 3e cc f7 8f bc 69 4c 36 3c a0 1b 20 be
       0.15731986 -0.017574213 0.011126616 -0.15635538
0003f0 f3 de 0e be d0 f0 2a 3d 27 f2 1f 3e 37 52 06 3e
       -0.13952236 0.041733563 0.15619718 0.131173

bias f4 [12]
000000 47 1a 28 bd 71 74 90 3b c5 87 82 3d 15 48 26 bd
       -0.041040685 0.004408412 0.06373552 -0.040596087
000010 f5 1b 5d bd 77 05 ce 3d 00 87 55 3b 1c 75 67 3d
       -0.05398174 0.10059636 0.0032581687 0.05650817
000020 aa bc 50 bd 71 e8 0a bd eb c1 bb bd 43 dd 82 bd
       -0.050961174 -0.03391308 -0.09167846 -0.063898586

weight f4 [12, 12, 3, 3]
000000 28 41 bc 3e c5 69 77 3e e8 b5 52 bd 03 8a 4d 3e
       0.3676846 0.24161442 -0.05144301 0.20072179
000010 87 03 ce 3d fd b7 7c bd 08 2a a7 3d 45 15 04 bd
       0.100592665 -0.061698902 0.08162314 -0.032246847
000020 b4 32 b3 3e fb d5 af 3e f9 ac 34 be 8d e9 28 be
       0.3499962 0.34342942 -0.17644109 -0.16495343
000030 9a 8d 07 bb 79 85 e0 3d 7e 33 1f be 06 36 12 be
       -0.0020683766 0.10962958 -0.15546986 -0.14278421
000040 79 d7 d6 bd d4 aa f7 3d cf 78 80 3d 73 c2 b7 3e
       -0.10490317 0.1209313 0.062730424 0.3589054
000050 9d 3a 6d bd 35 d8 f0 3d 4c bd 9a bd 21 7c 55 be
       -0.057917226 0.11759988 -0.07555637 -0.20848133
000060 f4 40 47 be 69 87 21 3e c3 ee c0 be 3d 6b 87 3c
       -0.19458371 0.15774311 -0.3768216 0.016530627
000070 6d 5c 84 3e 81 ca e5 3e ff 1a 63 be 26 4d 56 3e
       0.25851765 0.4488106 -0.22178267 0.20927867
000080 af 0a 14 3d 32 91 40 3e 0f d5 cf 3d c5 89 38 3e
       0.036143 0.18805388 0.101480596 0.18021305
000090 d2 50 14 bd 0b 7f f0 be 02 bd bf bc 69 ed d8 be
       -0.03620989 -0.46971926 -0.023405556 -0.4236863
0000a0 ec 27 87 3e ff e6 b3 be a8 aa c4 be bf b4 ec be
       0.26397645 -0.35137174 -0.3841145 -0.46231648
0000b0 62 82 1f be f4 b0 85 be ca f4 bc be cb 87 0a bf
       -0.15577081 -0.26111567 -0.3690551 -0.54113454
0000c0 cb dc 95 bd a5 68 a4 be 8d ce 0a be a0 56 d6 bd
       -0.073175035 -0.32111087 -0.13555355 -0.10465741
0000d0 16 85 58 3e d5 eb ab be 10 d0 51 bc dd e0 26 3d
       0.21144518 -0.33578363 -0.012805954 0.04074179
0000e0 66 b9 f7 bc a1 79 41 3e 35 8b 7a be 28 ec d9 3e
       -0.030239772 0.18894054 -0.24467166 0.42562985
0000f0 60 a9 9b 3d 97 e4 29 be 30 31 2a be 7c 37 8e bd
       0.07600665 -0.16591106 -0.16620326 -0.069441766
000100 93 79 2e be 78 9d 37 bd f6 96 c8 be 5d 75 0a be
       -0.17038564 -0.04482791 -0.39177674 -0.13521333
000110 60 ed 47 3d 58 77 82 bd b6 e3 d6 3d 30 36 84 3e
       0.048810363 -0.06370419 0.10492651 0.25822592
000120 a1 e2 15 be bc 3c f6 bd c0 88 ae be b6 9e fa bc
       -0.14637233 -0.12023303 -0.34088707 -0.030593257
000130 71 e1 18 bf d2 6e 75 3d b8 5d b8 bd 11 e0 b9 be
       -0.59718996 0.05992014 -0.090022504 -0.36303762
000140 f9 68 a4 bd 73 81 ad be 37 45 76 be dd 8a 70 3e
       -0.080278344 -0.33887824 -0.24049841 0.23490472
000150 8c f1 d4 bd 0e 32 5c be 3b b2 9f 3c 50 9c ad be
       -0.10397634 -0.2150347 0.019494167 -0.3390832
000160 36 f8 e9 be b4 d2 ac be 7b 5d 01 bd dd 6f c0 3e
       -0.45697182 -0.33754504 -0.03158329 0.37585345
000170 0e 0a b1 bc 54 9a 84 3d ed 94 17 3f 93 96 67 bd
       -0.02161124 0.06474748 0.5921162 -0.056540083
000180 11 a7 1c be 2b fd 49 3e d9 69 a4 be f0 69 97 bd
       -0.15298106 0.19725482 -0.32112005 -0.07393253
000190 3e a9 2e 3e 66 6c 39 bd 56 09 67 be e2 2c 41 be
       0.17056748 -0.045269392 -0.22562155 -0.18864778
0001a0 d0 7d 82 3d bd 25 2d 3e 03 f1 60 be 5c 06 b5 be
       0.06371653 0.16908927 -0.21966939 -0.35356414
0001b0 6e 4b 26 3d 48 a1 82 be 8c d5 f8 3d bd a8 6a 3e
       0.04059928 -0.25513673 0.12150106 0.22915931
0001c0 bf ee d7 be b8 31 d5 3d 4c d9 ae 3d e4 36 35 be
       -0.42174336 0.10409874 0.0853754 -0.1769672
0001d0 a7 7c 59 be f2 fb 20 3d 82 f7 f1 3c a3 55 12 bc
       -0.21238957 0.039302774 0.029536966 -0.00893155
0001e0 e6 91 7a 3e d6 6c ac 3e 01 ae 2d be e3 d4 97 bd
       0.24469718 0.33676785 -0.16960908 -0.07413652
0001f0 28 02 fa 3d 16 9e 49 bd 75 6c 88 be 24 54 aa be
       0.122074425 -0.049223028 -0.26645246 -0.3326732
000200 cc e7 76 3e b3 fa 7d be 8c 93 8f be f5 af 95 be
       0.24111861 -0.24802665 -0.28042257 -0.29235807
000210 f9 23 59 bc 6a f4 19 3e 9a 8d bf 3d ac 7b c6 be
       -0.013253205 0.15034643 0.0935318 -0.3876623
000220 6a e9 61 be 14 73 34 3c d0 83 e5 bd 50 8b 4f 3e
       -0.22061697 0.011013765 -0.11206782 0.20267987
000230 91 a1 7f bd d4 5a 5e 3c 8d 7e d2 3e e4 cc 3a 3d
       -0.06240994 0.01357146 0.41112176 0.045605555
000240 9a 68 9d 3d 34 75 fa 3c 53 00 b8 3c 5e b2 54 be
       0.07685967 0.030573465 0.022461092 -0.20771167
000250 b3 3d 8e 3d 12 3d a2 bc f5 c8 9a 3d cd 5c 90 bd
       0.06945362 -0.019804511 0.07557861 -0.0704895
000260 0c aa ec 3d a0 63 ef bb 04 70 35 3e e5 58 54 be
       0.11555871 -0.0073055774 0.17718512 -0.20737036
000270 0f 61 0e be b3 f6 fb bc 82 dd 9d bc 4d ed 0e 3e
       -0.13904212 -0.030757284 -0.019270662 0.1395771
000280 c7 7d 4f be de 30 75 3e 03 74 ac bd 24 1b 65 be
       -0.20262824 0.23944423 -0.08420565 -0.22373635
000290 0d 7e d5 bd 68 f9 b4 bd ce 9b f4 3d 66 e6 f2 3c
       -0.10424433 -0.08836633 0.1194378 0.029650878
0002a0 9f 72 e7 be 02 66 7e be 37 d3 aa 3e f0 e6 9b 3c
       -0.45204636 -0.248436 0.3336427 0.019031018
0002b0 a4 93 1c be 05 92 30 be c9 f9 43 bd 47 74 cd 3d
       -0.15290695 -0.17243202 -0.047845636 0.10031944
0002c0 67 cd ce 3d 2f 75 df bd b5 44 bb be 8e e3 a1 bd
       0.10097771 -0.10911023 -0.36575857 -0.07904731
0002d0 26 dc 53 3e 5a b7 c0 3e fd 14 98 be be c2 5a 3d
       0.20689449 0.37639886 -0.29703513 0.053408377
0002e0 a2 54 d8 3b 3d eb a0 be cb c1 7d bd b3 4a 40 be
       0.006601886 -0.31429473 -0.061952394 -0.18778495
0002f0 83 16 de 3e 1f e2 0a 3e 3f 95 62 3e 5e b3 20 be
       0.4337655 0.13562821 0.22127245 -0.15693423
000300 21 51 0e be a0 b0 93 bd 5e 68 1d 3e 43 ec 8a bd
       -0.13898136 -0.07211423 0.15371844 -0.067833446
000310 64 c4 d3 bd 0e 81 a4 3e 88 d4 34 3e 35 01 e6 be
       -0.10340193 0.3212971 0.17659199 -0.44922796
000320 b6 10 fc bd 9a 70 60 bc 0e 73 87 3e 4b af d6 3b
       -0.12307875 -0.013698721 0.26454967 0.0065516583
000330 ed 6a 34 be 97 1c be 3e 79 db 8c 3a 34 e7 6e 3c
       -0.17618914 0.37131187 0.001074656 0.01458149
000340 02 6a b3 bd 84 f6 45 3d ca c1 13 3e 39 7b 87 bd
       -0.08760454 0.0483308 0.14429393 -0.066153
000350 72 ea 92 bd 7a 4f fe 3d 87 a9 aa 3d a0 82 84 be
       -0.07173623 0.12417503 0.08333116 -0.2588091
000360 a9 8b 00 be c2 5b 50 be ab 76 11 3e 90 9c 40 3e
       -0.12553276 -0.20347503 0.14205424 0.18809724
000370 fc ae ec bd 8d f4 2c be 55 6b 8c bd 6d 12 88 3e
       -0.11556813 -0.16890164 -0.068564095 0.26576558
000380 60 a3 89 3d d2 43 34 be 20 e9 dd bd ea 6f 03 bc
       0.067206144 -0.17603996 -0.10835481 -0.008022288
000390 28 b0 72 be 74 83 a2 bd b1 53 fc bc 06 72 82 be
       -0.23700011 -0.07935229 -0.030801626 -0.25477618
0003a0 3b 12 84 be a6 0f 93 3e 29 94 35 3d 42 3b bf 3d
       -0.2579516 0.28722876 0.04433075 0.093374744
0003b0 95 47 48 3e ef 4b 07 3e 0e f7 4f be ef 49 6e be
       0.19558556 0.1321256 -0.20309088 -0.23270391
0003c0 fc ee 7d 3e cf 73 3a 3d 61 77 d2 3e 70 d7 71 3d
       0.24798197 0.0455206 0.41106704 0.059043348
0003d0 0d 7c 5f 3d 59 99 3a bd 71 53 1d bd c0 06 2f 3e
       0.054561663 -0.0455564 -0.038409654 0.17092419
0003e0 2b 27 a3 bd d5 2e 02 be 6f 62 0f bd 8c ef 00 3e
       -0.07966455 -0.12713178 -0.035005983 0.1259138
0003f0 d2 d8 80 3e d5 83 ce bd a1 35 3d 3d 1d 05 1f 3e
       0.2516542 -0.10083739 0.046193723 0.15529294

bias f4 [12]
000000 63 92 72 bb 6d e8 a2 bc f7 c5 83 bd 8c a7 d0 3c
       -0.0037013523 -0.01988622 -0.06434243 0.025470518
000010 c4 51 b0 3d 78 f7 c1 3d dd dd a7 3d e5 b0 85 bd
       0.086093456 0.09471029 0.08196614 -0.065278806
000020 75 95 a4 bc 9d d7 8f bc ca 78 f4 3c 43 61 cd 3c
       -0.020090798 -0.017558867 0.029842753 0.025070792
