weights/Act_Tanh_SUB_model_path.pth (torch, 251759 bytes, 8 tensors)

weight f4 [64, 1, 5, 5]
0.20195287 -0.027444584 0.25985146 -0.16335715 0.05516935 0.08200522 0.22974691 0.45059037
0.15904967 0.31233463 -0.23867765 -0.048799805 -0.17317887 -0.12172401 -0.08751369 0.10515746
0.2505837 0.07789288 0.112600796 0.4348247 0.24500842 0.13827696 0.044335812 0.024235453
0.0730922 0.0156262 -0.33115345 0.15815128 0.13124414 0.16850075 0.06570807 0.24530427
-0.10735411 -0.26674712 -0.034987014 0.02755911 0.124286145 0.26250407 0.4394653 0.006840872
0.17414126 0.19207439 0.13767074 0.41155118 0.3295572 -0.052808583 0.278951 -0.024784852
-0.036143247 -0.10142543 -0.0009325152 -0.17854479 0.082337126 0.2794456 0.032538343 0.21357204
0.3437468 -0.049094565 0.18860766 0.05643484 -0.14030412 -0.2368047 0.1404165 -0.3084413
-0.026057463 0.060576323 -0.02708867 0.17426796 0.23829387 -0.13383882 0.3693184 -0.13749418
-0.048266444 -0.11018936 -0.0064057284 0.31534284 -0.05054131 -0.42095304 -0.0644592 0.42607957
0.07873267 -0.0030237546 0.029807838 0.039141636 -0.19285618 0.09292752 0.13494292 0.077830024
-0.28845862 -0.21044701 0.0236613 -0.019828342 0.07114481 0.056971088 0.2563912 -0.15129912
-0.03081243 0.02722977 0.15521592 0.08384079 0.2098683 0.11060373 0.004433735 0.17815362
-0.13109778 -0.008867046 -0.040731408 0.12525328 0.20567067 -0.19264656 0.096690945 -0.07467327
0.035468113 0.27406904 0.11651074 -0.0018659437 0.07599288 0.21534973 0.004252445 -0.12213569
-0.30678606 -0.071678065 -0.0030396907 -0.03722658 -0.172229 0.24765536 -0.005856752 -0.03747848
-0.194457 0.25052258 -0.10795903 -0.10099446 0.30939126 -0.292146 -0.0040279385 -0.048296276
-0.15263353 -0.086483434 -0.25897488 0.18112573 0.062268995 -0.23076507 -0.05730201 -0.03128673
-0.272397 -0.2686328 0.19101335 0.12587479 0.21914591 0.044560622 0.12463673 0.023815079
0.00084691646 -0.357781 -0.24532337 0.09157865 -0.082700044 -0.031314306 0.24720164 -0.02674777
1.018298e-06 -0.018261885 -0.32901374 0.00829678 0.16505116 0.10414158 -0.57456595 -0.1738862
-0.1277447 0.17536275 0.029382776 -0.06659448 0.24211489 -0.2070261 -0.08134483 -0.31020215
0.14515767 0.15434647 0.101023935 0.08815528 0.02514999 -0.04798924 -0.1094909 0.22265238
-0.02032603 0.14924595 -0.11915496 0.1630803 0.026303511 0.28078476 0.2027585 -0.14964874
-0.18277714 0.15407531 0.12990956 0.3446675 0.13059412 0.12041319 0.11580856 0.19144613
0.105240256 0.1936799 0.14214136 0.19299467 0.060155608 0.24840584 0.038767964 -0.075773
-0.14466152 0.100065365 0.19881767 0.10668579 -0.04459269 0.19527407 0.24870956 -0.13344868
-0.15903921 0.06298198 0.16929382 -0.0026816933 -0.07541504 -0.04929346 0.07371813 -0.15503629
0.25097853 0.24587142 -0.04987886 0.0046884743 -0.09869493 -0.062247075 -0.08273766 0.031467445
0.20745991 0.07560497 -0.11927733 -0.10119295 0.06456061 0.009390242 -0.25423914 -0.3302786
0.08828138 0.05222952 -0.10783232 0.21285777 -0.06760341 -0.143515 -0.4752105 0.06656529
-0.61998796 -0.035197068 -0.20745312 -0.2919512 -0.14892334 -0.042304073 0.0937948 0.10320928
00000000: bccc 4e3e 77d3 e0bc 400b 853e 1947 27be
00000010: 42f9 613d 5af2 a73d c642 6b3e c8b3 e63e
00000020: ebdd 223e 53ea 9f3e ea67 74be 4ee2 47bd
00000030: cd55 31be 704a f9bd 613a b3bd cb5c d73d
00000040: 824c 803e 4d86 9f3d 3f9b e63d 58a1 de3e
00000050: 7de3 7a3e 7a98 0d3e 7899 353d 6e89 c63c
00000060: 5db1 953d 8402 803c f28c a9be 69f2 213e
00000070: dd64 063e 768b 2c3e f491 863d 0b31 7b3e
00000080: 79dc dbbd 1493 88be 8b4e 0fbd a5c3 e13c
00000090: bc89 fe3d ef66 863e 9901 e13e 6529 e03b
000000a0: 1652 323e 26af 443e 8ff9 0c3e d6b6 d23e
000000b0: b9bb a83e d04d 58bd aad2 8e3e 9a09 cbbc
000000c0: f10a 14bd 23b8 cfbd 0974 74ba 72d4 36be
000000d0: 5ea0 a83d 7e13 8f3e ed46 053d a1b2 5a3e
000000e0: 95ff af3e 6217 49bd 5e22 413e 3828 673d
000000f0: e2ab 0fbe ee7c 72be 58c9 0f3e 05ec 9dbe
00000100: 7676 d5bc e11e 783d 0fe9 ddbc 4d73 323e
00000110: 4f03 743e 0b0d 09be 4d17 bd3e 46cb 0cbe
00000120: 09b3 45bd f6aa e1bd 25e7 d1bb 9e74 a13e
00000130: 6804 4fbd 2887 d7be 2f03 84bd 1a27 da3e
00000140: 983e a13d 2f2a 46bb 912f f43c fb52 203d
00000150: 177c 45be c950 be3d 7a2e 0a3e 5965 9f3d
00000160: d9b0 93be 6c7f 57be 58d5 c13c 0c6f a2bc
00000170: 5fb4 913d 845a 693d b545 833e 28ee 1abe
00000180: 596a fcbc f710 df3c ecf0 1e3e b8b4 ab3d
00000190: b7e7 563e 3584 e23d dd48 913b e76d 363e
000001a0: 7f3e 06be 1647 11bc fad5 26bd 6542 003e
000001b0: 559b 523e 2445 45be e705 c63d 4dee 98bd
000001c0: 0347 113d c752 8c3e 2f9d ee3d ae92 f4ba
000001d0: 28a2 9b3d a484 5c3e 1858 8b3b 4722 fabd
000001e0: 1013 9dbe f3cb 92bd 8c35 47bb e67a 18bd
000001f0: cd5c 30be 5e99 7d3e ffe9 bfbb 0983 19bd
00000200: bc1f 47be 7f44 803e a019 ddbd 2fd6 cebd
00000210: 8868 9e3e 2994 95be ccfc 83bb 51d2 45bd
00000220: f74b 1cbe 3a1e b1bd 5b98 84be 0679 393e
00000230: c60d 7f3d ae4d 6cbe 83b5 6abd 8426 00bd
00000240: 9f77 8bbe 3d8a 89be 0199 433e 52e5 003e
00000250: c967 603e 3385 363d 8b41 ff3d d717 c33c
00000260: 9a03 5e3a 122f b7be 0d36 7bbe 968d bb3d
00000270: a45e a9bd 6e43 00bd 6d22 7d3e 241e dbbc
00000280: 74ac 8835 f399 95bc 7d74 a8be 38ef 073c
00000290: 2c03 293e 2e48 d53d c116 13bf 390f 32be
000002a0: 82cf 02be 4b92 333e 26b4 f03c b062 88bd
000002b0: f7ec 773e a6fe 53be 1e98 a6bd d1d2 9ebe
000002c0: 36a4 143e 000d 1e3e a3e5 ce3d c18a b43d
000002d0: 5a07 ce3c 5e90 44bd c43c e0bd fcfe 633e
000002e0: c682 a6bc eed3 183e 8407 f4bd 86fe 263e
000002f0: 767a d73c 05c3 8f3e ed9f 4f3e 853d 19be
00000300: ee29 3bbe ebc5 1d3e 0307 053e 4278 b03e
00000310: 77ba 053e 319b f63d 0a2d ed3d 740a 443e
00000320: 3488 d73d 0654 463e 818d 113e 65a0 453e
00000330: ba65 763d 1a5e 7e3e 28cb 1e3d e02e 9bbd
00000340: 2622 14be 12ef cc3d dc96 4b3e 147e da3d
00000350: d3a6 36bd edf5 473e b8ad 7e3e c5a6 08be
00000360: 2ddb 22be b2fc 803d 5c5b 2d3e 59bf 2fbb
00000370: 3373 9abd f0e7 49bd 88f9 963d d5c1 1ebe
00000380: 4280 803e b8c5 7b3e c74d 4cbd c6a1 993b
00000390: 9120 cabd caf6 7ebd 5d72 a9bd 02e4 003d
000003a0: 5f70 543e c7d6 9a3d ac47 f4bd 403e cfbd
000003b0: 5a38 843d 88d9 193c a22b 82be 471a a9be
000003c0: decc b43d 9fee 553d 31d7 dcbd 63f7 593e
000003d0: a873 8abd 99f5 12be ca4e f3be 6253 883d
000003e0: 88b7 1ebf cd2a 10bd 976e 54be a17a 95be
000003f0: 5c7f 18be 0947 2dbd 7d17 c03d 635f d33d

bias f4 [64]
0.12608488 0.07263483 0.084813125 -0.05240891 -0.025100848 0.063091464 -0.05169063 0.12780862
0.026399273 0.053395797 -0.02416466 -0.17898546 0.027350772 -0.055161465 0.19579841 -0.1169589
0.15101272 0.020511454 0.094120465 0.11732301 0.09876333 0.0042018197 -0.034213156 0.06978843
0.05762408 -0.041405924 -0.14854766 -0.17133266 0.1262118 -0.22223204 -0.08512081 -0.04992604
-0.021636095 -0.08128374 -0.18264319 0.15319885 0.120272376 -0.12264671 -0.17524618 -0.02086879
-0.09247897 -0.21879771 -0.2595557 0.09100307 0.08026637 -0.14441472 -0.08994977 -0.13128091
0.06702448 0.07824049 -0.021272328 -0.09259106 0.19603606 -0.1727952 -0.060029797 0.040351145
0.1599224 -0.19806229 0.05481229 0.0005873314 0.15832411 0.13859087 -0.09192222 -0.1988255
00000000: 651c 013e 92c1 943d 81b2 ad3d baaa 56bd
00000010: 4ba0 cdbc 1936 813d 8eb9 53bd 43e0 023e
00000020: 4a43 d83c 8db5 5a3d f7f4 c5bc f747 37be
00000030: ba0e e03c fdf0 61bd 617f 483e 2688 efbd
00000040: 14a3 1a3e a307 a83c 3bc2 c03d 0c47 f03d
00000050: 6e44 ca3d 6baf 893b 1823 0cbd 3ded 8e3d
00000060: 3a07 6c3d 4299 29bd e11c 18be d471 2fbe
00000070: ab3d 013e cc90 63be d253 aebd 3f7f 4cbd
00000080: 2e3e b1bc 1778 a6bd d106 3bbe 29e0 1c3e
00000090: 5d51 f63d 332e fbbd bc73 33be 06f5 aabc
000000a0: 9d65 bdbd 820c 60be 7ce4 84be d15f ba3d
000000b0: b262 a43d 74e1 13be 9637 b8bd 816e 06be
000000c0: 2144 893d 8d3c a03d 4e43 aebc 62a0 bdbd
000000d0: adbd 483e 3af1 30be cee1 75bd 3e47 253d
000000e0: b3c2 233e d7d0 4abe da82 603d 25f7 193a
000000f0: b71f 223e c4ea 0d3e b841 bcbd e998 4bbe

weight f4 [64, 64, 3, 3]
-0.044077188 -0.03719326 -0.007907555 -0.03452036 -0.011052426 0.0062340945 0.047894716 0.010149399
0.049225345 -0.06613118 -0.03681989 -0.12660947 -0.047529396 -0.07001343 -0.074493475 -0.0114240525
0.017350381 0.024755869 -0.011731115 0.031214193 0.06971403 0.041854136 -0.05860589 0.08292318
0.12072892 -0.01176807 0.026595922 -0.048221614 -0.0709815 -0.08602365 -0.13267694 -0.03248009
-0.108752854 -0.09888443 -0.17995776 -0.16032848 0.049132384 0.054523222 0.07022944 -0.04082073
0.12609465 0.06012907 0.16988349 0.10420889 0.16843978 0.0049316194 -0.010859361 -0.07310991
-0.035639927 -0.113784075 -0.030636068 0.0042036828 -0.08639975 -0.111932166 0.1318178 -0.013703271
-0.036446217 -0.0056631244 0.00025711476 0.039164834 0.0631913 -0.030794056 0.10180213 0.06420318
-0.04862244 -0.02818185 -0.024314169 0.009156585 -0.030355606 0.016557464 0.024909928 0.020015612
-0.021397654 -0.01630771 0.06956178 -0.09252172 -0.009445835 -0.07390553 -0.12525667 -0.007520649
-0.032000117 0.043133624 -0.0598509 0.008368169 0.095481604 0.07182185 -0.032273978 0.1202584
-0.08476242 0.1311702 -0.0066141714 -0.03141261 0.10621559 0.020321783 0.12308081 0.0579287
0.08797825 0.025725355 0.12079468 0.012464177 0.03658053 -0.0076611657 0.07355734 -0.017911403
0.03454216 0.078080095 -0.046375584 0.05273934 -0.04809643 -0.019236397 -0.04547918 -0.029974774
-0.08356314 -0.18746853 -0.10354742 -0.13313568 -0.034385648 -0.0020039075 0.12081283 0.09215338
0.09325013 -0.023649892 -0.032519877 0.05289324 0.050103724 0.03751775 -0.06163092 -0.1277319
-0.07744605 -0.12910518 -0.063695826 -0.17214595 -0.044837333 -0.10834644 -0.10272936 0.03824206
0.026081128 0.051595755 0.07589663 0.06971382 0.08108268 -0.10461658 0.11796855 0.23664214
0.14780101 0.14043039 0.07278761 0.28162143 0.06350376 0.011250315 0.15986905 0.043413952
0.07635883 -0.079570904 -0.14146008 -0.11665074 -0.02056718 -0.09586015 -0.12352454 -0.12610567
-0.10917798 -0.19277312 -0.15529218 -0.02952955 -0.07437097 -0.013720464 -0.14379592 -0.11034289
-0.064179435 -0.034784332 -0.03996575 -0.18377966 -0.08872834 -0.071777605 -0.05808643 -0.16017522
-0.039687596 -0.04983932 -0.12689689 -0.114222005 -0.12399807 -0.17704245 -0.10116553 -0.09388554
-0.06754323 -0.09811007 -0.12663837 0.06016987 -0.13391809 0.20253035 0.01867301 0.08191444
0.03629475 0.09081343 0.011706033 0.12561518 0.120913245 0.06243745 0.06037491 -0.013921797
0.081137605 0.0354948 0.011168102 0.09074367 0.08476033 0.1466253 0.25707495 -0.09289639
-0.0073980754 0.05590687 -0.027893053 -0.012312959 -0.014494447 -0.09935544 -0.01432478 -0.14146453
-0.017437859 0.023115084 0.035471886 -0.0016478947 0.09025291 -0.035063215 0.13452618 0.032180402
0.0760981 0.099489115 0.021454204 0.03906182 0.13810667 0.08866702 0.039444145 0.13086988
0.06600537 0.08094152 -0.16968365 0.021304246 -0.024062965 -0.06732561 -0.08022202 -0.019675218
-0.023577018 -0.17926748 -0.053643283 -0.013400214 0.04168931 0.02955711 -0.0057411585 -0.004054432
0.054231565 0.04714637 0.04096519 0.06265372 -0.010232758 -0.09771608 -0.024503915 -0.078280464
00000000: 488a 34bd f657 18bd b18e 01bc 3965 0dbd
00000010: 3c15 35bc 6047 cc3b 402d 443d aa49 263c
00000020: 84a0 493d c96f 87bd 74d0 16bd eaa5 01be
00000030: 2fae 42bd 3463 8fbd 0990 98bd f32b 3bbc
00000040: 6322 8e3c d2cc ca3c dd33 40bc e8b4 ff3c
00000050: 3bc6 8e3d 3e6f 2b3d bb0c 70bd a1d3 a93d
00000060: b940 f73d ddce 40bc b1df d93c 0784 45bd
00000070: c05e 91bd 2b2d b0bd 77dc 07be d809 05bd
00000080: d1b9 debd ec83 cabd d946 38be 262d 24be
00000090: 0a3f 493d be53 5f3d 74d4 8f3d a333 27bd
000000a0: f51e 013e e649 763d f0f5 2d3e 786b d53d
000000b0: 7a7b 2c3e 6c99 a13b 76eb 31bc a6ba 95bd
000000c0: 2cfb 11bd a007 e9bd 7ef8 fabc 0cbf 893b
000000d0: 5af2 b0bd b13c e5bd 3ffb 063e af83 60bc
000000e0: a148 15bd bb91 b9bb 5ccd 8639 4e6b 203d
000000f0: 716a 813d d143 fcbc a37d d03d f57c 833d
00000100: 5328 47bd a0dd e6bc 822e c7bc 8005 163c
00000110: 52ac f8bc 85a3 873c e80f cc3c c8f7 a33c
00000120: 224a afbc bf97 85bc 6876 8e3d 077c bdbd
00000130: b4c2 1abc c85b 97bd 4943 00be c76f f6bb
00000140: 8e12 03bd e2ac 303d 3826 75bd a51a 093c
00000150: dc8b c33d 5617 933d b831 04bd 094a f63d
00000160: eb97 adbd 7b51 063e b1bb d8bb 82aa 00bd
00000170: 8f87 d93d de79 a63c cb11 fc3d a546 6d3d
00000180: f12d b43d fbbd d23c 3463 f73d 8c36 4c3c
00000190: 77d5 153d 840a fbbb 3ba5 963d efba 92bc
000001a0: 147c 0d3d 75e8 9f3d 53f4 3dbd 3505 583d
000001b0: c300 45bd a695 9dbc 6048 3abd a88d f5bc
000001c0: 2723 abbd c0f7 3fbe ab10 d4bd b854 08be
000001d0: f7d7 0cbd fd53 03bb b86c f73d e9ba bc3d
000001e0: edf9 be3d 6bbd c1bc 9033 05bd 95a6 583d
000001f0: 9039 4d3d 36ac 193d b470 7cbd 27cc 02be
00000200: 099c 9ebd 2634 04be f572 82bd 0747 30be
00000210: 5aa7 37bd bde4 ddbd c563 d2bd b5a3 1c3d
00000220: 17a8 d53c 1256 533d b16f 9b3d 1fc6 8e3d
00000230: ad0e a63d 3841 d6bd 7f99 f13d 5152 723e
00000240: 2659 173e fccc 0f3e ac11 953d af30 903e
00000250: 420e 823d 3e53 383c b6b4 233e d4d2 313d
00000260: 0562 9c3d 12f6 a2bd e9da 10be 95e6 eebd
00000270: 817c a8bc 5452 c4bd 6ffa fcbd d821 01be
00000280: b498 dfbd 5166 45be ea04 1fbe f4e7 f1bc
00000290: cf4f 98bd cccb 60bc 3d3f 13be 74fb e1bd
000002a0: 8270 83bd 047a 0ebd 20b3 23bd bc30 3cbe
000002b0: 34b7 b5bd 2300 93bd 09ec 6dbd f904 24be
000002c0: 768f 22bd 5124 4cbd 42f1 01be 3aed e9bd
000002d0: b3f2 fdbd 9e4a 35be e02f cfbd 1047 c0bd
000002e0: 1b54 8abd efed c8bd 7dad 01be ae74 763d
000002f0: d321 09be 1e64 4f3e 24f8 983c c2c2 a73d
00000300: cea9 143d 64fc b93d a9ca 3f3c 44a1 003e
00000310: 5da1 f73d 69be 7f3d ae4b 773d 4018 64bc
00000320: 792b a63d ff62 113d 6afa 363c d1d7 b93d
00000330: d396 ad3d f124 163e 549f 833e 7640 bebd
00000340: 8e6b f2bb 9afe 643d f97f e4bc 4bbc 49bc
00000350: 1e7a 6dbc dd7a cbbd 7bb2 6abc 14dc 10be
00000360: d7d9 8ebc d85b bd3c f84a 113d 2cfe d7ba
00000370: 85d6 b83d 729e 0fbd 3bc1 093e 99cf 033d
00000380: 52d9 9b3d f3c0 cb3d bac0 af3c 49ff 1f3d
00000390: d66b 0d3e 0e97 b53d 2f90 213d c102 063e
000003a0: d32d 873d abc4 a53d 8dc1 2dbe 3e86 ae3c
000003b0: b21f c5bc 02e2 89bd 714b a4bd ec2d a1bc
000003c0: 9724 c1bc e591 37be 0fb9 5bbd 928c 5bbc
000003d0: 69c2 2a3d c121 f23c 5420 bcbb 0adb 84bb
000003e0: eb21 5e3d 8d1c 413d 1dcb 273d 9850 803d
000003f0: 4ca7 27bc 5e1f c8bd 6fbc c8bc 8251 a0bd

bias f4 [64]
0.0006608603 -0.06759318 -0.09270192 -0.09878541 0.11588172 -0.06967566 -0.05376206 -0.12858863
0.0903633 0.04583291 -0.09309089 -0.046046 -0.0054435823 0.045966048 -0.012304895 0.064193666
-0.03228936 0.1268936 0.05084182 -0.022136053 -0.03467849 0.041205857 -0.095550746 0.062206432
-0.09499822 0.0144317215 0.11765256 -0.009335055 -0.097915724 -0.062101558 -0.090487465 -0.06910844
0.10817111 -0.097977325 -0.08281221 0.02922323 0.067454875 0.10571963 0.102041684 -0.019875696
0.082282975 0.10294944 0.011751052 0.13958813 0.11478767 0.1033263 -0.06656056 -0.09953684
-0.07575824 -0.1016161 -0.07751455 0.033964157 -0.037170466 -0.113060825 0.09608191 -0.14987533
-0.13170996 -0.040449128 0.1005964 -0.061040163 -0.015652511 0.10116464 -0.027389286 0.08880754
00000000: 963d 2d3a 4b6e 8abd 81da bdbd 0150 cabd
00000010: 6553 ed3d 1db2 8ebd 9b35 5cbd bdac 03be
00000020: 6510 b93d 4abb 3b3d 70a6 bebd bb9a 3cbd
00000030: 1460 b2bb e546 3c3d 789a 49bc f877 833d
00000040: d941 04bd 65f0 013e 833f 503d ab56 b5bc
00000050: 080b 0ebd 79c7 283d 1cb0 c3bd 2ccc 7e3d
00000060: 6d8e c2bd 0773 6c3c d3f3 f03d 0ff2 18bc
00000070: 0a88 c8bd 345e 7ebd 7e51 b9bd ba88 8dbd
00000080: d188 dd3d 56a8 c8bd 7399 a9bd 8e65 ef3c
00000090: c825 8a3d 8983 d83d 3bfb d03d 5bd2 a2bc
000000a0: fa83 a83d 28d7 d23d 7c87 403c 31f0 0e3e
000000b0: cc15 eb3d bd9c d33d e750 88bd f9d9 cbbd
000000c0: 2327 9bbd 1a1c d0bd f3bf 9ebd 001e 0b3d
000000d0: 0f40 18bd 6f8c e7bd 98c6 c43d eb78 19be
000000e0: fade 06be fcad 25bd 7c05 ce3d 4005 7abd
000000f0: b239 80bc 682f cf3d 7f5f e0bc bae0 b53d

weight f4 [32, 64, 3, 3]
0.099955596 -0.09363789 0.066977285 0.021114783 0.0685531 0.035000157 -0.0136908265 0.023480972
0.047880962 -0.010762849 0.13999222 0.06987387 0.10438252 0.11730941 0.09520019 -0.0037041993
0.03407224 0.14911272 0.04736574 -0.15858306 -0.059027247 0.025417017 0.10666023 0.05069515
-0.07972658 -0.014259586 0.09836789 0.023461042 0.05573043 0.00037063603 0.00633759 0.033287257
0.043600224 -0.068244345 -0.0220078 0.010977242 -0.08070258 -0.10135081 -0.05442579 -0.16480918
-0.14355642 -0.13867204 0.020416636 -0.13747492 -0.084226415 -0.016080854 0.2006875 0.11644576
-0.009712279 0.13382174 0.025404317 0.095142536 -0.014252942 0.11626145 0.08013057 0.017888289
0.17275211 0.055609502 -0.016169252 0.034379993 0.021198636 0.036786277 0.05355579 0.12496679
0.056162797 -0.037839297 0.080325425 0.039915964 0.11927091 0.049133547 0.13944015 0.026672319
0.015173985 0.03307023 0.020806462 0.032928966 -0.016733522 0.00031045408 -0.016835235 0.004930133
-0.07556965 -0.024488151 0.0027875216 0.037736498 0.12883236 -0.060517482 0.04183841 -0.09192566
0.022566797 -0.019060321 0.28195712 0.12452366 0.17847057 0.13568495 0.099479735 0.1335883
0.19281952 0.09476394 0.06786017 0.106714785 0.04148572 0.017147327 0.10552842 -0.0028617622
0.12742928 0.08955095 0.13473389 0.002341726 0.08490768 -0.021333758 -0.06439922 -0.040920224
-0.07031286 0.027771235 -0.0035902257 0.10474611 -0.06777741 -0.108998135 -0.060621247 -0.057330843
-0.09250417 -0.04356339 -0.19666612 -0.033706117 -0.12048192 -0.049568474 -0.037963208 -0.033430357
0.027042793 -0.01631345 -0.09284937 0.0004965304 -0.04922644 -0.048494488 -0.07380361 -0.02824591
-0.10413503 -0.14689729 -0.0789175 -0.11068215 -0.030152313 -0.16712603 0.15568379 -0.008228904
0.05950525 0.053043533 0.10355939 0.0006041774 0.055263318 0.05853804 -0.10124064 -0.011134031
-0.0035930865 -0.049459785 -0.16413252 -0.0340796 -0.1346599 -0.094497845 -0.025743758 -0.1299258
-0.11535469 -0.119074784 0.007826452 -0.05505715 -0.05073767 -0.0025821303 -0.020375555 -0.04152224
-0.011980568 0.060378436 0.009420476 -0.03390335 0.09067458 0.17278613 0.05793905 -0.0051642815
-0.10768891 0.10271337 -0.01015094 -0.05463268 -0.027614295 -0.08317439 0.002722731 -0.12402901
-0.07672793 0.009081485 0.028269101 0.0017004337 0.0428734 -0.011351446 0.018236687 0.08915797
0.039871003 0.03708225 -0.033530857 -0.01027101 -0.08528252 0.017385216 0.10562699 0.08667765
0.019625712 0.031399947 0.15028495 0.10680805 0.09565392 0.24663939 0.15985098 -0.03249598
0.036959294 0.041910607 -0.05399459 -0.038807783 -0.05650286 0.044496257 -0.004504321 -0.108512335
0.12711264 0.023464175 0.14246185 0.24374312 0.19527726 0.10060421 0.10811729 0.034378756
0.15282534 -0.052691337 0.04988276 -0.11717032 -0.03716931 -0.089567505 -0.06255965 -0.07050194
0.027350618 -0.13450706 -0.1260632 -0.1444846 -0.10982172 -0.15011284 -0.10531947 -0.056026515
-0.033078384 -0.114892304 -0.11936142 0.011227015 -0.026396578 0.023003574 -0.048268553 -0.014367975
-0.092953674 -0.07222405 0.014097358 -0.045235455 0.17723267 -0.009006419 0.23061587 0.036904555
00000000: 85b5 cc3d 39c5 bfbd 632b 893d e9f8 ac3c
00000010: 9165 8c3d 535c 0f3d 7d4f 60bc 2b5b c03c
00000020: d41e 443d a956 30bc 1f5a 0f3e 081a 8f3d
00000030: 81c6 d53d ea3f f03d 51f8 c23d 27c2 72bb
00000040: 558f 0b3d 01b1 183e 9402 423d 9963 22be
00000050: 8ec6 71bd 5937 d03c ae70 da3d b8a5 4f3d
00000060: b047 a3bd 0aa1 69bc 1b75 c93d 5f31 c03c
00000070: 9745 643d ed51 c239 8fab cf3b 3858 083d
00000080: 2696 323d b1c3 8bbd b449 b4bc e4d9 333c
00000090: 6547 a5bd 0391 cfbd 94ed 5ebd bdc3 28be
000000a0: 7400 13be 0b00 0ebe ca40 a73c 3ac6 0cbe
000000b0: e67e acbd ffbb 83bc 0681 4d3e 1d7b ee3d
000000c0: 4020 1fbc 9108 093e b71c d03c 17da c23d
000000d0: 2c85 69bc 7c1a ee3d 7f1b a43d 768a 923c
000000e0: eee5 303e cac6 633d 6175 84bc 09d2 0c3d
000000f0: c3a8 ad3c 35ad 163d 515d 5b3d 97ee ff3d
00000100: f60a 663d 61fd 1abd a881 a43d ec7e 233d
00000110: 4f44 f43d 4240 493d 66c9 0e3e e87f da3c
00000120: 4e9c 783c a674 073d 5072 aa3c 86e0 063d
00000130: bd14 89bc 71c4 a239 0cea 89bc f48c a13b
00000140: 43c4 9abd 609b c8bc daae 363b 9691 1a3d
00000150: a1ec 033e 2ee1 77bd c15e 2b3d 8543 bcbd
00000160: 01de b83c 6424 9cbc af5c 903e 4306 ff3d
00000170: fdc0 363e fff0 0a3e 08bc cb3d 5fcb 083e
00000180: 7b72 453e 9913 c23d 46fa 8a3d 488d da3d
00000190: eeec 293d 8d78 8c3c 491f d83d 678c 3bbb
000001a0: d27c 023e 7d66 b73d aef7 093e a577 193b
000001b0: 14e4 ad3d 22c4 aebc bde3 83bd f79b 27bd
000001c0: 3000 90bd 8080 e33c fe49 6bbb 2185 d63d
000001d0: e2ce 8abd 6a3a dfbd fc4d 78bd bfd3 6abd
000001e0: d472 bdbd 866f 32bd d862 49be 6d0f 0abd
000001f0: 3abf f6bd 5008 4bbd 4f7f 1bbd 45ee 08bd
00000200: d988 dd3c c9a3 85bc cf27 bebd 9729 023a
00000210: aaa1 49bd 28a2 46bd 5926 97bd f763 e7bc
00000220: bf44 d5bd 3e6c 16be 809f a1bd 53ad e2bd
00000230: fc01 f7bc 1623 2bbe 926b 1f3e 86d2 06bc
00000240: c7bb 733d 2d44 593d f216 d43d a961 1e3a
00000250: ca5b 623d 95c5 6f3d 4157 cfbd 836b 36bc
00000260: fd79 6bbb 5896 4abd 5b12 28be 0d97 0bbd
00000270: 49e4 09be 1688 c1bd 93e4 d2bc 450b 05be
00000280: 143f ecbd 7bdd f3bd 853a 003c 9b83 61bd
00000290: 4ed2 4fbd f538 29bb a3ea a6bc 3913 2abd
000002a0: 254a 44bc 614f 773d 5758 1a3c 3dde 0abd
000002b0: 98b3 b93d d9ee 303e 7f51 6d3d 2239 a9bb
000002c0: 018c dcbd 635b d23d 2150 26bc 84c6 5fbd
000002d0: 6037 e2bc 5657 aabd d96f 323b ec02 febd
000002e0: 8823 9dbd 82ca 143c 9a94 e73c 16e1 de3a
000002f0: 059c 2f3d 6afb 39bc 1b65 953c 7498 b63d
00000300: c74f 233d 8fe3 173d a757 09bd bd47 28bc
00000310: 9aa8 aebd 716b 8e3c f752 d83d 0d84 b13d
00000320: 1ac6 a03c 3b9d 003d 4ce4 193e 2ebe da3d
00000330: 34e6 c33d 098f 7c3e faaf 233e 811a 05bd
00000340: a162 173d 75aa 2b3d 6e29 5dbd e9f4 1ebd
00000350: 8b6f 67bd b541 363d fc98 93bb b73b debd
00000360: d129 023e f137 c03c 85e1 113e cc97 793e
00000370: c3f6 473e 9409 ce3d 996c dd3d bdd0 0c3d
00000380: 3f7e 1c3e dfd2 57bd dd51 4c3d fef6 efbd
00000390: d93e 18bd 2b6f b7bd 461f 80bd 5263 90bd
000003a0: 670e e03c 38bc 09be b616 01be c5f3 13be
000003b0: 36ea e0bd 2eb7 19be bcb1 d7bd 0f7c 65bd
000003c0: 337d 07bd a84c ebbd c373 f4bd 84f1 373c
000003d0: a33d d8bc fe71 bc3c 3fb5 45bd a867 6bbc
000003e0: 7f5e bebd 34ea 93bd 9bf8 663c d048 39bd
000003f0: 7b7c 353e a98f 13bc 9126 6c3e 3b29 173d

bias f4 [32]
-0.07530298 -0.05326436 -0.11203422 -0.056820862 -0.10987077 0.12066795 -0.0746644 0.09742031
0.10546611 -0.12147027 -0.0030412935 0.0408466 -0.084939934 -0.11297357 0.08285102 -0.089923985
-0.09712304 -0.07973058 0.093365 0.10113877 -0.071850024 -0.11274742 0.08367378 -0.08640025
-0.03290331 -0.14018528 -0.041687246 0.09209844 0.07442526 0.04384975 -0.066969186 -0.046572838
00000000: 7338 9abd bb2b 5abd 3272 e5bd febc 68bd
00000010: ed03 e1bd c220 f73d a6e9 98bd 4d84 c73d
00000020: 9efe d73d 68c5 f8bd 7050 47bb c44e 273d
00000030: fdf4 adbd b05e e7bd ccad a93d 112a b8bd
00000040: 72e8 c6bd c949 a3bd 2636 bf3d d821 cf3d
00000050: 1b26 93bd 1fe8 e6bd 295d ab3d 9df2 b0bd
00000060: 9fc5 06bd bb8c 0fbe 3fc0 2abd 1b9e bc3d
00000070: 456c 983d cc9b 333d 2427 89bd 29c3 3ebd

weight f4 [16, 32, 3, 3]
-0.027480789 -0.08190215 0.044651087 0.040189493 -0.053821966 -0.048837673 0.05742281 -0.06790012
-0.0478836 0.037972182 0.05150115 0.053647455 0.030961623 0.1291586 0.004126167 0.05169453
0.07046944 -0.07166207 0.06810017 0.0014797236 -0.011428912 -0.038285043 -0.0034931938 -0.018308073
-0.026041446 0.06490163 -0.02867494 -0.042334385 -0.028736783 0.02109621 -0.038164113 -0.1530245
-0.076051034 -0.033229128 -0.029090969 -0.002401319 0.0034064786 -0.054018047 0.04784921 -0.015102096
0.03696778 0.10005851 -0.09196817 -0.025488896 0.01822223 0.0147053795 -0.022416936 0.046037752
-0.066087574 -0.03478633 0.019907566 -0.024472155 -0.024818549 -0.044388905 0.045644235 0.019261615
0.0550351 0.07103236 0.12268092 0.068033464 0.017359246 -0.018318152 -0.07551624 0.025190182
0.17178412 0.04803033 0.048414193 0.006147908 -0.07635512 0.18791243 -0.046393048 0.060824856
-0.0073110466 -0.06905258 0.029749239 0.017345777 0.11458028 0.08324507 0.08061073 0.061351813
0.049812112 -0.111438096 -0.095405735 0.0024965857 0.007388859 -0.086086065 0.020956244 0.06535542
-0.020385666 0.007623649 -0.026456686 -0.091812335 -0.036952447 -0.048992526 -0.0002680231 0.032779835
-0.016583063 0.004565267 0.07966551 0.07041367 0.009984011 0.1009254 0.097725704 0.069015585
-0.019302921 -0.021496858 -0.08273928 0.01714017 -0.07768082 -0.034793913 0.045281865 0.012965053
-0.08647351 0.00436257 0.044878114 -0.012739103 -0.00039379997 0.05776063 -0.009371729 0.061785083
0.045458756 0.0154242935 0.033666193 -0.042509638 -0.026375372 0.07462812 -0.16864441 -0.17841871
-0.058444407 -0.16161999 -0.12970148 0.0032407856 -0.103343986 -0.057695262 0.021357529 0.06859277
0.059645098 0.06907435 0.05531718 -0.019610673 -0.013254391 -0.004030169 0.06733691 -0.008689621
-0.040312484 -0.040995926 -0.11969165 -0.029263264 -0.0066491445 -0.02282719 -0.01225322 -0.033028115
-0.121349536 0.071665525 0.044614356 -0.016886828 -0.020795662 0.06390642 0.08186265 0.017264143
-0.09471024 -0.10660115 -7.882621e-05 0.088014685 -0.04971519 0.018296639 -0.039960593 -0.015379329
-0.07258174 -0.08916699 -0.05259813 -0.07870563 -0.114245996 -0.01735029 0.007756613 0.015949385
-0.055471282 -0.034804672 0.024736391 -0.11148951 -0.082659826 0.10875173 0.015971206 -0.02914227
-0.09685726 -0.0655874 0.052726083 -0.04520407 -0.11866281 0.04188195 0.07071509 0.05433302
-0.044570565 0.092127495 0.10043152 0.014584028 0.05252098 0.00939783 0.0068000313 0.20104091
-0.028893763 -0.048804868 0.077010274 0.06139938 0.07050372 0.104820766 0.011667494 0.06782789
0.0008160871 0.033764575 -0.11809396 0.04045391 -0.052991472 0.09521321 0.053542737 -0.010543689
-0.061087947 -0.110100515 -0.20534788 -0.12714237 -0.11213846 -0.011300647 0.005860631 -0.12852989
-0.034820333 0.001247199 -0.07065467 -0.09776507 0.030813513 -0.07626214 -0.034741912 -0.017890334
0.040153973 0.026272811 0.1759412 0.07460394 0.013266915 -0.02268362 0.00036498276 0.008391846
0.06587 0.03422905 0.109522015 0.034333255 0.0014387124 -0.09799095 0.005735628 -0.036043767
0.0048510935 0.052906457 0.08559013 -0.07039061 0.056483757 -0.13336763 0.07610152 0.08114371
00000000: 641f e1bc 50bc a7bd 0fe4 363d bd9d 243d
00000010: 6c74 5cbd 030a 48bd 2e34 6b3d 380f 8bbd
00000020: 9821 44bd b888 1b3d dff2 523d 6fbd 5b3d
00000030: 3ba3 fd3c 2742 043e cc34 873b a5bd 533d
00000040: 4852 903d 90c3 92bd 1a78 8b3d 49f3 c13a
00000050: 5540 3bbc c7d0 1cbd 11ee 64bb d0fa 95bc
00000060: df54 d5bc 25eb 843d b5e7 eabc d266 2dbd
00000070: 6769 ebbc f6d1 ac3c f951 1cbd 74b2 1cbe
00000080: a5c0 9bbd 441b 08bd 2f50 eebc 735f 1dbb
00000090: 3a3f 5f3b 0742 5dbd 89fd 433d c86e 77bc
000000a0: 876b 173d 7aeb cc3d cf59 bcbd 17ce d0bc
000000b0: c946 953c d5ee 703c b9a3 b7bc 1592 3c3d
000000c0: ec58 87bd 1c7c 0ebd 3115 a33c d479 c8bc
000000d0: 4550 cbbc 24d1 35bd 73f5 3a3d 89ca 9d3c
000000e0: 7c6c 613d 6a79 913d 2240 fb3d 2155 8b3d
000000f0: fa34 8e3c f30f 96bc 42a8 9abd a45b ce3c
00000100: 2de8 2f3e 74bb 443d f64d 463d 6474 c93b
00000110: 1360 9cbd 1e6c 403e a306 3ebd 7c23 793d
00000120: 8191 efbb 706b 8dbd adb4 f33c bb18 8e3c
00000130: 11a9 ea3d 647c aa3d 3d17 a53d 0a4c 7b3d
00000140: c907 4c3d a839 e4bd 1564 c3bd c29d 233b
00000150: 3e1e f23b e44d b0bd 6eac ab3c 10d9 853d
00000160: d7ff a6bc cecf f93b b1bb d8bc 1b08 bcbd
00000170: 735b 17bd 63ac 48bd 7485 8cb9 2644 063d
00000180: 34d9 87bc 3c98 953b ac27 a33d 0b35 903d
00000190: fa93 233c fab1 ce3d 6a24 c83d 0b58 8d3d
000001a0: 2921 9ebc 2e1a b0bc 3673 a9bd 8b69 8c3c
000001b0: 1f17 9fbd 1084 0ebd 7a79 393d 606b 543c
000001c0: 0619 b1bd e4f3 8e3b 1dd2 373d acb7 50bc
000001d0: f076 ceb9 6996 6c3d e18b 19bc 5b12 7d3d
000001e0: f632 3a3d 2db6 7c3c 90e5 093d 961e 2ebd
000001f0: 2a11 d8bc a1d6 983d 1fb1 2cbe 65b3 36be
00000200: 6763 6fbd b67f 25be 77d0 04be 5c63 543b
00000210: 03a6 d3bd de51 6cbd fcf5 ae3c 5e7a 8c3d
00000220: 6b4e 743d da76 8d3d 4494 623d 90a6 a0bc
00000230: f228 59bc 820f 84bb efe7 893d ea5e 0ebc
00000240: b41e 25bd 58eb 27bd e520 f5bd 83b9 efbc
00000250: 11e1 d9bb 1600 bbbc bbc1 48bc 7d48 07bd
00000260: 1b86 f8bd 60c5 923d 8bbd 363d 3f56 8abc
00000270: aa5b aabc 5ee1 823d 9ba7 a73d 886d 8d3c
00000280: 71f7 c1bd b451 dabd 804f a5b8 0b41 b43d
00000290: 28a2 4bbd d5e2 953c b8ad 23bd 95f9 7bbc
000002a0: bca5 94bd 2f9d b6bd 2371 57bd 6b30 a1bd
000002b0: cef9 e9bd 3222 8ebc 302b fe3b 49a8 823c
000002c0: db35 63bd 588f 0ebd f9a3 ca3c 9d54 e4bd
000002d0: 8e49 a9bd 3ab9 de3d 0cd6 823c c5bb eebc
000002e0: 195d c6bd b052 86bd 4ef7 573d e727 39bd
000002f0: 7d05 f3bd 688c 2b3d 13d3 903d 4d8c 5e3d
00000300: a08f 36bd 57ad bc3d 0aaf cd3d d9f1 6e3c
00000310: 3d20 573d 5bf9 193c ccd2 de3b abdd 4d3e
00000320: 9db2 ecbc 9de7 47bd 90b7 9d3d eb7d 7b3d
00000330: 4164 903d 45ac d63d 0429 3f3c 59e9 8a3d
00000340: aeee 553a b94c 0a3d 3fdb f1bd 00b3 253d
00000350: 960d 59bd 25ff c23d a14f 5b3d 70bf 2cbc
00000360: 5b37 7abd 617c e1bd b746 52be 9c31 02be
00000370: d9a8 e5bd 5926 39bc 890a c03b 579d 03be
00000380: c49f 0ebd 0e79 a33a 65b3 90bd 0e39 c8bd
00000390: 9f6c fc3c 532f 9cbd 894d 0ebd c08e 92bc
000003a0: 7e78 243d 143a d73c ee29 343e f3c9 983d
000003b0: 7a5d 593c 00d3 b9bc 285b bf39 f47d 093c
000003c0: dae6 863d c333 0c3d 144d e03d 07a1 0c3d
000003d0: 2d93 bc3a 7baf c8bd eff1 bb3b a1a2 13bd
000003e0: ecf5 9e3b 71b4 583d e149 af3d f428 90bd
000003f0: 835b 673d 8691 08be 1ddb 9b3d ac2e a63d

bias f4 [16]
0.056651086 0.050620053 -0.041826505 0.052088432 0.03022097 -0.034486674 0.07647253 0.0028424752
0.027979488 -0.022629578 0.04714636 0.08450552 -0.008554196 -0.0048325807 0.012711195 0.00515546
00000000: f80a 683d f956 4f3d 4552 2bbd ae5a 553d
00000010: f891 f73c e641 0dbd a19d 9c3d d248 3a3b
00000020: 3d35 e53c aa61 b9bc 8b1c 413d 3b11 ad3d
00000030: e626 0cbc a05a 9ebb 9e42 503c 22ef a83b
