weights/No_Optim_SRCNN_model_path.pth (torch, 85159 bytes, 6 tensors)

weight f4 [64, 1, 9, 9]
0	0x3d876c6f	0.06612479
1	0xbd448344	-0.047976747
2	0x3da56c57	0.08077305
3	0x3dccd277	0.100010805
4	0x3cc0e9bc	0.023548953
5	0x3c79da28	0.015249766
6	0x3a8b4400	0.0010625124
7	0x3db17113	0.08664145
8	0x3c0fe510	0.00878264
9	0x3c4a4920	0.012346536
10	0xbdd8184e	-0.10551511
11	0xbcf21900	-0.029552937
12	0x3c10b590	0.00883235
13	0xbcebf380	-0.028802633
14	0xbd159a84	-0.03652431
15	0x3c205738	0.00978642
16	0xbdd7bb05	-0.10533718
17	0x3d056262	0.03256453
18	0x3dc55ffd	0.09637449
19	0xbd3c090a	-0.045907058
20	0x3d387102	0.045029648
21	0x3d9c0b0d	0.07619295
22	0xbd311f8e	-0.043242984
23	0xbdbc9869	-0.092087574
24	0xbb778fc0	-0.003777489
25	0xbdb52f09	-0.08846862
26	0xbda3f380	-0.08005428
27	0x3c613c80	0.0137473345
28	0x3ca72e5c	0.020407848
29	0x3d432262	0.047640212
30	0xbcbe3054	-0.023216404
31	0x3c6f6ab8	0.014612846
32	0x3d1d58c2	0.038414724
33	0xbc0dc780	-0.008653522
34	0x3d3a678e	0.045508914
35	0xba407e00	-0.0007342994
36	0xbd26eb96	-0.040752016
37	0xbdb9ec7c	-0.09078309
38	0x3d629b96	0.05532416
39	0x3d66e5ee	0.05637162
40	0x3cc58904	0.024113186
41	0x3de3748b	0.11106213
42	0x3dcd7869	0.10032732
43	0xbc3509d8	-0.01104971
44	0xbde1df5d	-0.11028931
45	0xbbe926e0	-0.00711523
46	0x3d9919e5	0.07475642
47	0x3dafc21d	0.08581946
48	0xbd2ecdb8	-0.042676657
49	0xbcbd5bb8	-0.023115024
50	0x3dd85631	0.10563315
51	0xbd0115d8	-0.031514972
52	0xbce55240	-0.027993321
53	0x3dd1c7ff	0.10243224
54	0x3d8da88b	0.06916913
55	0x3dcf8499	0.10132713
56	0xbdd84d69	-0.1056164
57	0xbd5dc4c7	-0.05414274
58	0xbdc57dec	-0.09643158
59	0x3d7ae8f2	0.06125731
60	0x3d71c03a	0.059021212
61	0xbcaf0a30	-0.021367162
62	0xbd7f2499	-0.06229076
63	0x3d765272	0.06013722
64	0xbcc6ea9c	-0.024281792
65	0xbdd17062	-0.102265134
66	0x3c8ba9e4	0.017048784
67	0xbcda7140	-0.02666533
68	0xbd449472	-0.04799313
69	0x3d45ff2a	0.048339047
70	0xbc8eff30	-0.017455667
71	0x3cdaf9bc	0.02673041
72	0xbdbd720c	-0.09250268
73	0x3c97d02c	0.018531881
74	0xbbc71c20	-0.006076351
75	0xbcec95f0	-0.02888009
76	0x3d834163	0.06408956
77	0xbdce2200	-0.10065079
78	0x3d4ee502	0.050511368
79	0x3ca7084c	0.020389698
80	0x3c99a34c	0.018754624
81	0xbdd2cc77	-0.10292905
82	0xbdab93de	-0.08377813
83	0xbdcd6c1b	-0.10030385
84	0x3ba94740	0.0051659644
85	0x3a87ed40	0.0010370389
86	0x3dd9ff7b	0.10644432
87	0xbd0c60ea	-0.034272112
88	0xbd6e058e	-0.058110766
89	0xbd8f96d2	-0.070111886
90	0x3de13937	0.10997241
91	0xbbd01790	-0.006350465
92	0xbdb80d92	-0.08986963
93	0x3d9ea39d	0.077460505
94	0x3d8e8ab3	0.069600485
95	0xbdcc265c	-0.09968254
96	0xbd3707a4	-0.04468502
97	0x3cb8092c	0.022465311
98	0xbd48482b	-0.04889695
99	0x3da84211	0.08215726
100	0xbbd5d070	-0.006525092
101	0xbdb9514e	-0.09048711
102	0xbca84ca4	-0.020544358
103	0x3c8b591c	0.017010264
104	0x3dab5b91	0.08367074
105	0xbd7d79ce	-0.06188374
106	0x3c79d558	0.015248619
107	0xbd34412a	-0.044007458
108	0xbd6506f2	-0.055914827
109	0x3d596fce	0.05308514
110	0x3da96bd5	0.082725205
111	0xbd356dee	-0.04429429
112	0xbc1f8870	-0.009737119
113	0xbda506d2	-0.080579415
114	0xbce355d4	-0.027750887
115	0xbd8706f9	-0.06593127
116	0xbd0f46a4	-0.034979478
117	0xbdafe4b4	-0.085885435
118	0xbd8a3c6a	-0.06749804
119	0xbc96f508	-0.018427387
120	0xbda3b67b	-0.0799379
121	0xbddecdb7	-0.10879081
122	0xbb956000	-0.004558563
123	0xbd833bf9	-0.06407923
124	0x3d69cce6	0.057080172
125	0xbdd38062	-0.103272215
126	0xbc1ef080	-0.009700894
127	0xbcce24dc	-0.02516406
128	0x3d1d24e2	0.038365252
129	0xbce2f6c0	-0.02770555
130	0xbd951eda	-0.07281275
131	0xbd625395	-0.05525549
132	0xbd12c3e8	-0.035831362
133	0xbc301cc8	-0.0107490495
134	0x3d629e62	0.055326827
135	0xbd54d227	-0.05195823
136	0xbdc15a5b	-0.09441062
137	0xbdb9fe2e	-0.09081684
138	0xbc9a2538	-0.018816575
139	0xbd65bda7	-0.05608907
140	0x3cf32174	0.029679038
141	0xbd26fad8	-0.040766567
142	0x3d4cfdfa	0.0500469
143	0xbdd15967	-0.1022213
144	0xbd69d480	-0.05708742
145	0xbd2d5e20	-0.042326093
146	0xbc384258	-0.011246286
147	0x3d1e75f6	0.038686715
148	0x3d11e4aa	0.03561846
149	0x3b6f4b60	0.0036513433
150	0x3dc15999	0.094409175
151	0x3d9389cd	0.07204018
152	0xbcc72b9c	-0.024312787
153	0xbde2e8ce	-0.1107956
154	0xbdab7d5b	-0.08373519
155	0xbda737a4	-0.081649095
156	0xbdc6f4ee	-0.097146854
157	0x3b789f60	0.0037936792
158	0x3d2691fe	0.040666573
159	0x3babe490	0.0052457526
160	0x3d52519a	0.051347353
161	0xbb87cbc0	-0.004144162
162	0x3cab7a64	0.020932384
163	0x3ddc8f3f	0.107695095
164	0xbdb94507	-0.09046369
165	0xbb6846e0	-0.0035442635
166	0x3d433e02	0.047666557
167	0xbd7f4440	-0.062320948
168	0xbcc76fec	-0.02434536
169	0x3c82fec4	0.015990622
170	0x3dbd509b	0.0924389
171	0xbda82109	-0.08209426
172	0xbd480840	-0.048835993
173	0x3c729aa8	0.014807381
174	0xbd4ac9eb	-0.04950897
175	0x3c81d224	0.015847273
176	0xbdb6f1d4	-0.08932844
177	0xbd9e789c	-0.07737848
178	0xbd80bc8a	-0.06285961
179	0xbd4eb179	-0.05046222
180	0xbdd76204	-0.10516742
181	0x3d81b0a1	0.063325174
182	0xbd15fe5c	-0.03661953
183	0x3bf1f550	0.00738398
184	0xbd192b76	-0.037394963
185	0x3dcc9a51	0.09990371
186	0xbc4c9c38	-0.012488417
187	0xbd82bb89	-0.06383426
188	0x3c241228	0.010014094
189	0xbde0dc8e	-0.109795675
190	0xbd6b616b	-0.057465952
191	0xbd777e3d	-0.060423125
192	0xbdd1af40	-0.102385044
193	0x3d052a42	0.032511003
194	0xbdb801b4	-0.089847
195	0xbda192fc	-0.07889363
196	0x3d61d3ee	0.055133753
197	0xbd47d5ce	-0.048787884
198	0xbddfe56b	-0.1093243
199	0x3dc361b7	0.09540122
200	0x3d906b09	0.07051665
201	0xbdd31175	-0.10306064
202	0x3c86d394	0.01645831
203	0x3dae14e3	0.085000776
204	0x3d33b4ea	0.043873705
205	0x3c4eacb8	0.012614422
206	0xbbb2b5e0	-0.00545381
207	0xbd0dea68	-0.034647375
208	0x3dba90d7	0.09109657
209	0x3d19724e	0.037462525
210	0xbd84b67c	-0.06480119
211	0xbdc11a3c	-0.09428832
212	0xbca97394	-0.020684995
213	0xbdd7c17d	-0.10534952
214	0x3a468a80	0.00075737387
215	0x3dc0f219	0.094211765
216	0x3d8fa3bf	0.07013654
217	0xbddbd6e2	-0.10734345
218	0xbd305cbc	-0.04305719
219	0xbd3f050a	-0.046635665
220	0xbd910e54	-0.07082811
221	0xbd911187	-0.07083421
222	0x3cabe674	0.020983912
223	0x3da06ecb	0.07833632
224	0x3d55aada	0.05216489
225	0xbd52e915	-0.051491816
226	0x3d1e00ce	0.038574986
227	0xbd9ec060	-0.07751536
228	0x3d75a4b2	0.05997152
229	0x3d0d2342	0.034457453
230	0xbc9f976c	-0.019481383
231	0x3a826000	0.0009946823
232	0x3d974e3d	0.0738797
233	0xbc8f73e4	-0.017511316
234	0xbd83aee0	-0.06429839
235	0x3d8cde49	0.06878335
236	0x3b4587c0	0.0030140728
237	0x3d04e3a6	0.032443665
238	0x3d030c7a	0.03199432
239	0x3db5c859	0.08876104
240	0xbd6eeda0	-0.058332086
241	0xbd94d3c0	-0.072669506
242	0xbdb93fe6	-0.09045391
243	0xbda826e7	-0.08210545
244	0xbcb1f138	-0.021721467
245	0x3dc7bddf	0.09753012
246	0x3dc6497f	0.09681987
247	0xba4e0700	-0.00078593194
248	0x3ad86800	0.0016510487
249	0x3d85c171	0.06531037
250	0x3d0d700a	0.034530677
251	0xbd2e26ae	-0.042517357
252	0x3c97e5ac	0.018542133
253	0xbd7aa1d9	-0.061189506
254	0xbdb38f0c	-0.087675184
255	0xbd26913c	-0.04066585

bias f4 [64]
0	0xbd8f05b0	-0.06983507
1	0xbbabcd00	-0.0052429438
2	0xbc0e7fb8	-0.008697443
3	0x3dca62bb	0.098821126
4	0x3d8b1317	0.067907505
5	0x3d7b9dca	0.061429776
6	0x3cac3fe4	0.02102656
7	0xbc9ea5d0	-0.019366175
8	0xbc7ec4b8	-0.015549831
9	0xbd1a1d80	-0.03762579
10	0x3db2b3f1	0.08725727
11	0x3dc7d81d	0.09758017
12	0xbde1de57	-0.11028736
13	0x3b838070	0.0040131137
14	0xbd816a14	-0.06319061
15	0x3db8f9f7	0.09032052
16	0xbd536072	-0.05160565
17	0xbb914bc0	-0.004434079
18	0xbdaf5f76	-0.085631296
19	0x3ddfa15f	0.10919451
20	0xbd847742	-0.06468059
21	0x3be0ce00	0.0068604946
22	0xbd31ed0a	-0.04343895
23	0x3d9966fb	0.07490345
24	0xbd86496a	-0.06556971
25	0x3d790c3e	0.06080269
26	0x3d7a84de	0.06116187
27	0xbd0f5744	-0.034995332
28	0x3dc470d3	0.09591832
29	0x3d1d8c62	0.038463958
30	0x3c9f6724	0.019458361
31	0x3d62d3f2	0.055377908
32	0xbd9d5f00	-0.076841354
33	0xbb6ea680	-0.003641516
34	0xbd8a9230	-0.06766164
35	0x3dd4a7f1	0.10383595
36	0xbc9a6a00	-0.018849373
37	0x3d0000b2	0.031250663
38	0x3c031b60	0.008002132
39	0x3db476cf	0.088117234
40	0x3d65b4e2	0.056080706
41	0xbd1b2f60	-0.037886977
42	0x3d84aa1b	0.064777575
43	0x3d37519e	0.04475557
44	0xbce5055c	-0.027956657
45	0x3db06263	0.08612516
46	0xbd735952	-0.059411354
47	0xbd7e0564	-0.06201686
48	0xbdceb4a2	-0.10093047
49	0xbd94bf7e	-0.07263087
50	0x3dd66491	0.104684
51	0xbddeb3ae	-0.10874115
52	0xbd1c6fce	-0.038192563
53	0xbd6b0d35	-0.057385642
54	0xbdbf483e	-0.09339951
55	0x3d566606	0.05234339
56	0xbd6473f9	-0.055774663
57	0x3d90250f	0.07038318
58	0x3dbadb01	0.09123803
59	0x3dbb01e9	0.09131224
60	0xbd522ce4	-0.051312342
61	0xbd0a26d8	-0.03372845
62	0x3d26187a	0.040550686
63	0xbd159da8	-0.036527306

weight f4 [32, 64, 1, 1]
0	0xbd742474	-0.059605077
1	0x3d2446fc	0.04010676
2	0x3d8b1752	0.06791557
3	0xbdb125ec	-0.08649811
4	0x3d3f1ed8	0.046660274
5	0x3d80c48a	0.06287487
6	0x3da9778a	0.082747534
7	0xbdbaef1e	-0.09127639
8	0xbdeb996e	-0.11503874
9	0xbd58c09c	-0.05291806
10	0xbdc3edb6	-0.09566824
11	0xbdf1d2ee	-0.1180781
12	0xbdaa5b5a	-0.08318205
13	0x3d51a174	0.051179364
14	0x3cd5bc10	0.026090652
15	0x3d068d84	0.032849804
16	0xbde1a014	-0.110168606
17	0xbd98bbb0	-0.074576735
18	0x3d01635c	0.031588897
19	0x3dd5eb64	0.10445288
20	0x3d15b068	0.036545187
21	0xba060200	-0.00051119924
22	0x3bc3caa0	0.0059750825
23	0xbc340f40	-0.010989964
24	0xbdfcf734	-0.12351838
25	0xbd4901c4	-0.04907395
26	0x3d9f929a	0.07791634
27	0x3ba73680	0.0051029325
28	0xbdee991a	-0.116502956
29	0x3d4a7298	0.04942569
30	0xbd517fa8	-0.051147133
31	0x3dfbb18c	0.12289724
32	0xbdb16f64	-0.08663824
33	0xbdd10b04	-0.10207179
34	0xbd9e3aa8	-0.077260315
35	0x3dee861a	0.116466716
36	0x3d9a54a0	0.07535672
37	0x3d7a9d38	0.06118509
38	0x3d32aa44	0.04361941
39	0x3b123f00	0.0022315383
40	0xbde8cab2	-0.11366786
41	0x3de4c328	0.111700356
42	0x3d503f28	0.05084148
43	0x3d84efda	0.064910606
44	0x3d460604	0.04834558
45	0xbdb8388c	-0.089951605
46	0x3d747c5c	0.05968891
47	0xbdc56642	-0.09638645
48	0x3da84d18	0.082178295
49	0x3da2cc10	0.07949078
50	0xbd873584	-0.06602004
51	0x3dbc83a4	0.09204796
52	0xbdf73c6a	-0.1207207
53	0xbd4e2644	-0.05032946
54	0xbdc4a810	-0.09602368
55	0x3d46a910	0.048501074
56	0xbdd0c224	-0.101932794
57	0xbddd3698	-0.108014286
58	0x3de84a38	0.11342281
59	0x3dd495ac	0.1038011
60	0x3ca1e238	0.01976119
61	0x3dff543e	0.1246724
62	0xbd5b8e1c	-0.053602323
63	0x3daf5320	0.08560777
64	0x3d834b8a	0.06410892
65	0xbdbd6b3a	-0.092489675
66	0xbdebaac4	-0.1150718
67	0x3d34fb08	0.044184715
68	0x3d4bd234	0.049761012
69	0x3cb7c5e8	0.022433236
70	0x3d88736e	0.066626415
71	0x3dc53296	0.09628789
72	0xbc7dcc00	-0.015490532
73	0x3ca94de0	0.020667017
74	0xbd4d5798	-0.050132364
75	0xbdd2c2a0	-0.10291028
76	0xbcd69c20	-0.026197493
77	0x3d3aa848	0.04557064
78	0xbc9ee3d0	-0.019395739
79	0xbdc19f24	-0.09454182
80	0x3dd7ec1c	0.10543081
81	0xbc03ccc0	-0.008044422
82	0x3d092848	0.03348568
83	0x3d1f74c4	0.038929716
84	0xbdcdfee8	-0.10058385
85	0xbd79e658	-0.06101069
86	0xbd7eeaf4	-0.062235788
87	0x3d12a534	0.03580208
88	0xbd1573a0	-0.03648722
89	0xbda77d3e	-0.08178185
90	0x3d8ee31c	0.069769114
91	0xbdcac9ca	-0.099017695
92	0xbd33da50	-0.04390937
93	0x3dbffdea	0.09374602
94	0xbdbf2ece	-0.09335099
95	0x3dd82cec	0.10555443
96	0x3ccc2640	0.024920583
97	0x3c6788f0	0.01413177
98	0xbc9d5890	-0.019207269
99	0xbd74f410	-0.05980307
100	0xbdd531a8	-0.10409862
101	0xbdadf30a	-0.08493622
102	0x3d4c2460	0.049839377
103	0x3b547a00	0.003242135
104	0x3be800a0	0.0070801526
105	0xbdb57e38	-0.08861965
106	0x3da4b2fe	0.080419526
107	0xbbb927e0	-0.0056505054
108	0xbbc11300	-0.0058921576
109	0x3dc6d54a	0.097086504
110	0xbd918360	-0.07105136
111	0xbda99758	-0.0828082
112	0x3de435c2	0.11143066
113	0xbc846018	-0.016159102
114	0x3ce41fd8	0.027847216
115	0xbd8b0864	-0.0678871
116	0x3cdd80a8	0.027038887
117	0xbdf22716	-0.11823861
118	0x3d37e1e8	0.044893175
119	0xbc06c780	-0.008226275
120	0x3df642f4	0.12024489
121	0xbcd3f118	-0.025871798
122	0xbd8f1b52	-0.06987633
123	0xbdcbe1ac	-0.09955153
124	0x3da434ec	0.080179065
125	0xbda265b2	-0.07929553
126	0x3db2b8d8	0.087266624
127	0xbdee1a12	-0.11626066
128	0x3dd487a2	0.103774324
129	0x3dd3e708	0.103468
130	0xbda83e78	-0.0821504
131	0x3d0a0d8c	0.033704326
132	0xbdaf5c48	-0.08562523
133	0xbdefde6e	-0.11712347
134	0xbc42c930	-0.011888787
135	0xbdc66a22	-0.09688212
136	0xbdf2d60a	-0.11857231
137	0x3d00d404	0.031452194
138	0x3deaf312	0.11472143
139	0x3cdc4398	0.0268877
140	0xbddfced2	-0.1092812
141	0x3b83bb20	0.00402011
142	0xbd553f64	-0.052062407
143	0xbdf6ffe6	-0.120605275
144	0xbd16bdf4	-0.036802247
145	0x3dc3b1f0	0.09555423
146	0xbd8cfb7e	-0.06883906
147	0xbd24c4bc	-0.040226683
148	0x3db52d4c	0.0884653
149	0x3dd11c5c	0.10210487
150	0x3c01fda0	0.007934004
151	0x3d309cc8	0.04311827
152	0xbda90916	-0.08253686
153	0xbd7e6440	-0.062107325
154	0x3dfbab3a	0.12288518
155	0xbcc4b2a8	-0.024010971
156	0x3dd3d524	0.10343388
157	0x3d6615b0	0.056173027
158	0x3ce1c790	0.02756098
159	0xbdf0b066	-0.11752395
160	0x3ddb01fa	0.106937364
161	0xbcdea1b8	-0.027176723
162	0xbc715660	-0.014730066
163	0x3c618a30	0.013765857
164	0x3d7480d0	0.059693158
165	0xbdd82cfe	-0.105554566
166	0xbde5d2ca	-0.112218454
167	0x3b7b5700	0.0038351417
168	0xbdbcbeba	-0.09216066
169	0x3bd2a440	0.0064282715
170	0xbd4291f8	-0.047502488
171	0x3af6f500	0.0018841326
172	0xbc645110	-0.013935342
173	0x3b895b60	0.004191801
174	0x3ca047f8	0.019565567
175	0xbc555f80	-0.013023257
176	0x3deb9412	0.115028515
177	0xbd7c9cc0	-0.061672926
178	0xbd10988c	-0.03530173
179	0x3da5d51a	0.080972865
180	0x3a07a300	0.000517413
181	0x3dea584a	0.11442621
182	0x3ddc793c	0.10765311
183	0x3da3691a	0.07979031
184	0x3cb4e260	0.0220806
185	0x3db906ea	0.09034522
186	0xbdec4d2c	-0.11538157
187	0xbce4a6a0	-0.027911484
188	0xbd9efac4	-0.077626735
189	0xbd59bed4	-0.053160504
190	0x3d61a700	0.055090904
191	0x3d819bc8	0.06328541
192	0x3ddbb94a	0.107287005
193	0x3dd4c9da	0.10390063
194	0xbb7f3bc0	-0.0038945526
195	0xbdafd23e	-0.085850224
196	0x3cbfa510	0.023394138
197	0x3d7d6c94	0.061871126
198	0x3bc9f640	0.0061633885
199	0xbd962c54	-0.07332674
200	0xbda28fb4	-0.079375654
201	0xbcbd44f0	-0.023104161
202	0x3dcf2536	0.10114519
203	0xbde179ee	-0.11009584
204	0xbcbe8d78	-0.023260817
205	0x3db05f0c	0.08611879
206	0xbdff3d56	-0.12462871
207	0xbd3112ac	-0.043230698
208	0x3df65e00	0.12029648
209	0xbdd4cd02	-0.10390665
210	0x3deb3dde	0.114864096
211	0xbcb328a8	-0.021869972
212	0x3dc18f20	0.09451127
213	0xbcb75a78	-0.022382006
214	0xbddaaa1c	-0.10676977
215	0x3da66d20	0.08126283
216	0x3caba628	0.020953253
217	0xbd3ead4c	-0.046551988
218	0xbdf2994c	-0.11845645
219	0xbd04f5a0	-0.03246081
220	0xbd90cdb6	-0.07070486
221	0xbd825124	-0.063631326
222	0x3df749a0	0.1207459
223	0x3db8426e	0.089970455
224	0x3da77d94	0.08178249
225	0x3d7f9650	0.06239921
226	0xbd2bb2a4	-0.04191841
227	0xbd048db0	-0.032361686
228	0xbc700920	-0.014650613
229	0x3db89010	0.09011853
230	0x3dcdca8c	0.100483984
231	0x3d97fede	0.07421659
232	0xbc90e838	-0.017688856
233	0x3d331260	0.043718696
234	0x3cf242d8	0.02957289
235	0x3dd9f94c	0.10643253
236	0x3dd0f868	0.1020363
237	0x3d48daf4	0.049036935
238	0xbd23cb6c	-0.03998892
239	0x3d1599e4	0.036523715
240	0x3de9d7ee	0.114181384
241	0xbdc9404c	-0.09826717
242	0x3c2fb490	0.010724202
243	0x3cfe4c58	0.031042263
244	0xbd68c598	-0.056829065
245	0xbdba5e48	-0.09100014
246	0xbc24ab60	-0.010050625
247	0xbd52d61c	-0.05147372
248	0x3d350f04	0.044203773
249	0x3d05f74c	0.032706544
250	0x3d4a4b84	0.049388424
251	0xbbc6f760	-0.00607197
252	0xbd1d4860	-0.0383991
253	0x3de3f1d2	0.11130108
254	0x3cfa2e48	0.030539647
255	0x3cd78fe0	0.026313722

bias f4 [32]
0	0x3cf58ba8	0.02997382
1	0x3cb2c818	0.021823928
2	0x3cedbb28	0.029019907
3	0x3d47b66c	0.048757955
4	0xbdc99e10	-0.09844601
5	0xbdb40e60	-0.08791804
6	0xbd54382c	-0.051811382
7	0x3dff008e	0.12451278
8	0x3ddf905e	0.10916208
9	0x3dca18d2	0.09868015
10	0x3cbe7c38	0.023252591
11	0xb91ccc00	-0.00014953315
12	0xbcbcf450	-0.023065716
13	0xbdbbc212	-0.09167875
14	0xbda6c8d8	-0.08143777
15	0x3ce7f8d8	0.0283169
16	0xbdd47ed6	-0.103757545
17	0x3c8e6ac0	0.017384887
18	0xbdff15f8	-0.12455362
19	0xbd2d246c	-0.042271063
20	0x3d0547f8	0.032539338
21	0xbd431c10	-0.047634184
22	0xbdbc6d42	-0.09200527
23	0x3d307240	0.043077707
24	0xbd6f3c38	-0.05840704
25	0x3de66bac	0.112510055
26	0x3cd7c7f8	0.02634047
27	0xbd5edc18	-0.054409117
28	0x3d102ba8	0.035197884
29	0x3d2ab6f4	0.041678384
30	0xbdf6445a	-0.12024756
31	0x3dedf988	0.1161986

weight f4 [16, 32, 5, 5]
0	0x3928d700	0.00016101822
1	0xbc1b309a	-0.009472037
2	0xbbce9734	-0.006304646
3	0x3c964f8c	0.018348478
4	0xbd01f749	-0.03172997
5	0xbce07ba0	-0.027402699
6	0xbcd0fdb8	-0.025511608
7	0xbc29a492	-0.010354178
8	0xbcb44498	-0.022005364
9	0xbc5243c8	-0.012833543
10	0xbcf4fca3	-0.029905623
11	0xbc5dc77a	-0.013536328
12	0xbc14965a	-0.00906905
13	0x3c855cb2	0.016279552
14	0xbcd8a84d	-0.02644744
15	0x39e8dc80	0.00044414774
16	0x3b85e890	0.0040865615
17	0xbba8d9f8	-0.005152937
18	0x3be3e978	0.006955322
19	0x3b097990	0.0020976998
20	0x3cadfef0	0.021239728
21	0xbb9dcc74	-0.0048156325
22	0xbca4ec30	-0.020132154
23	0xbcc6c8ea	-0.024265725
24	0x3cbb6548	0.022875443
25	0x3c50aef8	0.012737028
26	0xbd00283f	-0.03128838
27	0xbbd306a4	-0.0064400006
28	0x3c863d6a	0.016386706
29	0xbc328ca4	-0.010897789
30	0x3c62e270	0.013847932
31	0xbc87ce25	-0.01657779
32	0xbc58437e	-0.013199685
33	0x3c1f9324	0.009739671
34	0x3b2ac8b0	0.002605956
35	0xbc8a967e	-0.016917463
36	0xbd0e08fe	-0.034676544
37	0xb9f5f700	-0.0004691407
38	0xbcb54288	-0.022126451
39	0xbab12e60	-0.0013517849
40	0x3be72da8	0.007055003
41	0xbb2fc8d0	-0.0026822574
42	0x3bd60980	0.006531894
43	0xbcb552ec	-0.022134267
44	0xbcfb0984	-0.030644186
45	0x3bf62fc0	0.0075130165
46	0xbcf04953	-0.029331839
47	0xbba06cbc	-0.0048957746
48	0x3d0698a1	0.032860402
49	0xbcffc38c	-0.031221174
50	0xbbc0003c	-0.005859403
51	0x3cf1683a	0.029468644
52	0x3ccda6ae	0.025103893
53	0x3cffcb7a	0.031224955
54	0xbcf4ad87	-0.0298679
55	0x3b33fda0	0.0027464405
56	0x3cc6811e	0.02423149
57	0x3d0a3905	0.033745784
58	0xbcc7f92e	-0.02441081
59	0x3cc8f01a	0.024528552
60	0xbd0932fd	-0.03349589
61	0xbcbcdbfc	-0.023054115
62	0xbbe44a20	-0.006966844
63	0xbcb90195	-0.022583762
64	0xbd01c8b0	-0.03168553
65	0x3c711bd4	0.014716107
66	0xbc85ff8c	-0.016357206
67	0xbc33c56a	-0.01097236
68	0xbbd02898	-0.0063524954
69	0xbc4179be	-0.011808811
70	0xbcbd817c	-0.023133032
71	0xbbb8e314	-0.005642304
72	0xbcd42722	-0.025897566
73	0xbbfbc00c	-0.007682806
74	0xbc511c5a	-0.012763107
75	0xbd002fff	-0.031295773
76	0x3c22351c	0.009900358
77	0x3d009e73	0.03140111
78	0x3aa42340	0.0012522712
79	0xbc841fef	-0.016128508
80	0xbc7e751a	-0.015530849
81	0xbc06216c	-0.008186679
82	0x3c814bee	0.015783276
83	0xbbe21098	-0.006898951
84	0xbc86e646	-0.016467225
85	0x3c8a652e	0.01689395
86	0x3c09d088	0.008411534
87	0xbb7b5240	-0.0038348585
88	0xbc0b8d90	-0.008517638
89	0x3c88e2b6	0.016709667
90	0xbc3d1910	-0.01154162
91	0xbb989390	-0.0046562627
92	0xbcb53e97	-0.022124572
93	0x3d06f175	0.032945115
94	0xb9f3e280	-0.00046517327
95	0x3cfc0a1a	0.030766536
96	0x3cfb6ca6	0.030691456
97	0xbcdf703d	-0.0272752
98	0xbcb32528	-0.021868303
99	0xbbf4f644	-0.007475646
100	0x3a0c4bc0	0.0005351864
101	0xbc010742	-0.007875266
102	0xbccca5c6	-0.02498139
103	0x3d0153cd	0.03157406
104	0xbb34f5d0	-0.0027612336
105	0x3cef188e	0.029186513
106	0x3cb8d74a	0.022563595
107	0x3c99fb42	0.018796567
108	0xbd03b703	-0.032156955
109	0xbcfa6700	-0.030566692
110	0x3b9b68f8	0.004742738
111	0x3cd77e38	0.026305303
112	0xbcbf624c	-0.023362301
113	0x3c2d253c	0.010567959
114	0x3a696a80	0.00089041144
115	0x3bcbf170	0.00622385
116	0x3c186760	0.00930199
117	0x3d095f97	0.033538427
118	0x3b6d4200	0.003620267
119	0xbd0a1465	-0.033710856
120	0xbac4b1c0	-0.0015006587
121	0xb7a48800	-1.9613653e-05
122	0x3d042a65	0.032266993
123	0xbc23f636	-0.010007432
124	0xbd0cd7f3	-0.034385633
125	0xbcd1dfe7	-0.02561946
126	0xbc75a9c8	-0.014994092
127	0xbb375eb0	-0.0027980022
128	0xbcec88c8	-0.028873816
129	0xbd0d909c	-0.03456174
130	0xbc8370c4	-0.016044982
131	0x3cf558fe	0.029949661
132	0x3c52607c	0.0128403865
133	0xbcb03856	-0.021511238
134	0xbca0c6d3	-0.019626057
135	0x3c6b0aac	0.014345806
136	0x3cffef6e	0.031242099
137	0xbcc63056	-0.02419297
138	0xbbfd5f38	-0.007732298
139	0xbd044ddc	-0.032300815
140	0x3c6cae20	0.0144458115
141	0xbce43cf2	-0.027861092
142	0xbc319e34	-0.010840941
143	0x3a809e40	0.0009812787
144	0xbc7fd2d6	-0.015614232
145	0x3cf2ff86	0.029662859
146	0xbcc7c040	-0.024383664
147	0x3baca5c8	0.005268786
148	0xbd09b02d	-0.03361528
149	0x3ca791bc	0.020455234
150	0x3c300aa0	0.010744721
151	0x3b21a680	0.0024665892
152	0xbc6a7e94	-0.014312405
153	0x3c967ade	0.018369135
154	0xbc6b410c	-0.01435877
155	0xbcb81d4f	-0.022474913
156	0xbbd0b9e0	-0.0063698143
157	0x3ca9d816	0.02073292
158	0xbc478fa2	-0.012180241
159	0xbcc54948	-0.024082795
160	0x3caa3034	0.020774938
161	0x3c828432	0.015932176
162	0xbcdca4c8	-0.026934043
163	0xbccfd1b4	-0.025368549
164	0x3bdfa920	0.006825581
165	0x3bad31e0	0.0052854866
166	0xbc3c4806	-0.011491781
167	0x3ca868a4	0.020557709
168	0x3cde2f1c	0.027122073
169	0x3ce7121a	0.028206874
170	0xbbacfed0	-0.0052793995
171	0xbce2cf5a	-0.027686764
172	0x3c567000	0.013088226
173	0xbc120394	-0.008911986
174	0x3ca5b63e	0.020228501
175	0xbcb93504	-0.022608288
176	0x3c290154	0.010315258
177	0x3c5208e0	0.012819499
178	0xbcd4af4c	-0.025962494
179	0x3ce1a70e	0.027545478
180	0xbd038cea	-0.032116808
181	0xbd029646	-0.031881593
182	0xbbf0b2b4	-0.007345522
183	0x3a2bf040	0.00065589324
184	0x3cd5f55e	0.026117977
185	0xbbe7c25c	-0.00707273
186	0xba59b7c0	-0.0008305274
187	0xbcc79c4b	-0.024366518
188	0x3c97f762	0.018550579
189	0xbcf124b4	-0.029436447
190	0xbcb3d226	-0.021950793
191	0x3b19af60	0.002345048
192	0x3c473ac0	0.012160003
193	0xbbbdfbb8	-0.0057978295
194	0xbc119c72	-0.008887397
195	0xbac9dca0	-0.0015400834
196	0xbc7ba200	-0.015358448
197	0x3c433234	0.011913825
198	0xbc9a2631	-0.01881704
199	0x3cef8086	0.02923609
200	0x3cbd53b0	0.023111194
201	0x3caf4b16	0.021398108
202	0x3c5b0d3c	0.013369855
203	0xbbdb34e0	-0.006689653
204	0x3d044d87	0.0323005
205	0xbc834c40	-0.01602757
206	0xbbaf98a0	-0.0053587705
207	0xbd104276	-0.035219632
208	0x3bd0a838	0.0063677095
209	0xbb9f0c74	-0.0048537795
210	0xbc0bf6b6	-0.008542707
211	0x3cbeb9c0	0.023281932
212	0xbd077449	-0.033069883
213	0x3d005953	0.031335186
214	0x3c7eb95c	0.015547123
215	0x3cf11f2a	0.029433805
216	0x3bfa8d78	0.007646259
217	0x3d042349	0.032260213
218	0x3b55d760	0.0032629594
219	0xbc7a02fa	-0.015259499
220	0x3d0ef083	0.03489734
221	0x3d07b96b	0.033135813
222	0x3bd333c0	0.006445378
223	0xbc295898	-0.010336064
224	0x3cfcc4fe	0.030855652
225	0x3c2a00ec	0.010376196
226	0x3c059d7c	0.008155223
227	0x3aeb88c0	0.0017969832
228	0xbd01a4bf	-0.031651255
229	0xbc68cde2	-0.014209243
230	0x3d053417	0.03252038
231	0x3c092254	0.008370001
232	0xbc9c5b29	-0.019086437
233	0x3cfc423a	0.030793298
234	0x3c0a7678	0.008451097
235	0x3c98fd9c	0.018675618
236	0x3d0b5663	0.03401793
237	0xbcf5e9ee	-0.030018773
238	0x3d0b653d	0.034032095
239	0x3ad83800	0.0016496181
240	0x3c8f519c	0.01749497
241	0xbce911de	-0.028450903
242	0xbcf49fa0	-0.029861271
243	0x3c91f756	0.017818134
244	0xbcd1ad56	-0.025595348
245	0xbcbada02	-0.022809032
246	0x3c769ddc	0.015052285
247	0x3c8d06be	0.017215129
248	0x3c3155b4	0.010823656
249	0x3b73b250	0.003718514
250	0x3c7a1fe4	0.015266392
251	0xbbbb7588	-0.005720798
252	0x3cce9f72	0.025222514
253	0xbbea1ea0	-0.007144764
254	0x3cc3349e	0.0238288
255	0xbca29956	-0.019848507

bias f4 [16]
0	0x3d044679	0.03229377
1	0x3cdfe49e	0.027330693
2	0xbc1722d6	-0.009224614
3	0xbbd52b6c	-0.0065054204
4	0x3d0915ed	0.033468176
5	0xbc14f18c	-0.009090792
6	0xbcfa4b18	-0.030553386
7	0x3cfd4ab2	0.030919407
8	0xbc62c9e8	-0.0138420835
9	0xbc333dc6	-0.010940021
10	0x3cc61dae	0.024184074
11	0x3c2cc268	0.010544397
12	0x3cd79d90	0.026320249
13	0x3c7e799c	0.015531924
14	0xbb831710	-0.004000552
15	0xbd0d39a4	-0.0344788
