weights/No_Optim_SUB_model_path.pth (torch, 251823 bytes, 8 tensors)

weight f4 [64, 1, 5, 5]
00000000: c5bb a23e 88a0 40bc a3ed 8dbe c927 15be
00000010: e624 623c a722 59be f478 a43d 8e84 503d
00000020: 84ab 85be c412 adbb d25c 903d 18f3 02be
00000030: 3b4a 853e 1b38 de3c 00dd 83bd f018 503e
00000040: 3bd1 48be 5d04 dfbe fc8b d6be 2d15 d0bd
00000050: f47b 9ebd 9ab9 01bd a882 34be a0d3 d4bc
00000060: aa68 8c3e 6584 893e 1289 50be 2885 8f3d
00000070: 9f95 d0bc cb47 bc3e 802d 853e 3c2a 5e3e
00000080: b5ed 973d 1dde adbd d686 4abd 9f90 aabc
00000090: 04b2 8ebe e74c adbc d90a c13d 818f 513e
000000a0: 1233 563d 2144 71be 5bed dfbd 1456 dabc
000000b0: fad2 293e 6d9e d13d 8a74 4b3e 500d 293e
000000c0: e3af 273e e31d 12be 75bf eb3e 4926 823e
000000d0: 87b5 3b3d 0353 223e 46e7 33bd 5338 9abd
000000e0: dd9c 2bbe cc73 2b3e 45ef b13e 0b64 183e
000000f0: c3dd b13d d446 513e acd5 6cbd 7f3b 773e
00000100: 4fd8 113e db2c ab3e 46df 113e cec7 7abe
00000110: 1512 823e abde 213c 7177 4a3d d58c 86be
00000120: 5d30 84be 8915 113e a62f 75be 6df0 9ebe
00000130: 0ed2 5e3d e703 e4be fef7 433d 55ee 48be
00000140: b4c0 3d3e cf32 a7bc 6a01 f13d e78e 053c
00000150: a100 a63d c72c bdbc 78f8 113c 37fd 56be
00000160: f84d d7bd c486 2a3e 9d36 523e a70f a73e
00000170: 12d9 63be 5afe ffbb c5bc c93e 80b4 86be
00000180: 50b5 4abd d824 993e a5cf 13bd 0fd6 a3bd
00000190: 88a7 a5be 59ef 6fbe b6b5 cebd 5f43 98be
000001a0: bf74 87be 9a0f 2dbe 4b3e aa3c 7b60 05bf
000001b0: 6ff9 f63d 412f 063e df1b 813e 503b 8fbc
000001c0: d7ce 4f3e 444b b4bd 35dc 153d 0403 8c3e
000001d0: 6a60 2b3e aabc 013e 786d f53d edcb 87bc
000001e0: 09bf 4bbd a7f3 86bd 5526 a5be 867d a83d
000001f0: db15 50be aaf7 87bd 7aee 873d 9c1d bbbc
00000200: 71fc f33d a66f 58be 228f 603d e0cc 833d
00000210: 8c7f 32be 688d bdbd 21b8 18bd c1db 38be
00000220: 324d 7e3d cd45 c43e 3026 c5ba 73f4 0bbe
00000230: 5883 60bc 12e2 313e 8077 0ebd de51 5abe
00000240: f559 c73d 9600 bc3e c3a4 843e 95ad 9cbe
00000250: b7d8 8c3d 93bd 1f3e d019 e93c b2dc 513e
00000260: 6ce1 58bd 1254 a6bd 0e9f 9a3e d7bc d6bd
00000270: 1c93 eebe 5c88 963d 7c11 5ebe 122f 72bd
00000280: 1338 8d3e 4ab2 f33d 7114 833e ec49 873d
00000290: 2633 583e d1e5 2dbe a0a0 d13c 1b51 213e
000002a0: f75d 32be e94d b83e 9ec3 c03e b8a1 82be
000002b0: 74f3 943d 2e5d 03be 6ce9 58be c507 463e
000002c0: eb22 73be 9d99 8fbc 6748 18be ea3d 6ebe
000002d0: 229c 4dbd f56c 8ebe fed2 82bd 1777 873d
000002e0: eb8a 623e 1a90 83bb 352d 7e3c 2141 013e
000002f0: dfee 7d3c db60 d7bc 3496 0abe cdc7 9d3c
00000300: ed36 2bbe 2b81 79be 90e1 67be 2f87 d63d
00000310: df89 00be e346 073d 6f50 5fbc a137 063e
00000320: 8a87 853e d352 36be fa6b e3be 9a56 6abe
00000330: 989f febd 2271 1f3d 2712 a7be 1273 d9bc
00000340: bb2d 0b3e 37a3 183b 3bea e8bc 559a 1e3d
00000350: 89d7 bb3d 1143 403d 7093 053c 7023 72be
00000360: 5f87 ebbc 94f8 3f3d 97f6 053e 98e0 05bd
00000370: 55f1 73be bcc8 05be 09f1 bbbd 02f6 3a3e
00000380: e01f 16bd 864f a8bd f6e9 cfbd 2f28 1e3c
00000390: 53eb 35bc c1b9 ad3c 2631 a4bd 03ca abbd
000003a0: 57f3 a2bd 0197 7c3e 8213 573e 2f69 213d
000003b0: 1b46 6d3e 6062 9abe 5eb7 8a3d 5f14 89bd
000003c0: 6678 7bbc e29e 4fbe a466 f93d ea52 96bc
000003d0: a64c 7fbd 9b5e 8f3e b3ff 313b efe4 15be
000003e0: cf83 dc3d 95a1 f03d 5974 bc3d 8ead b3bd
000003f0: 7f71 1e3d 8471 673e 7795 bdbd f644 36be
0.31783882 -0.011757024 -0.27720365 -0.14565958 0.013802743 -0.21204625 0.080308825 0.050907664
-0.2610742 -0.005281778 0.07048954 -0.12788045 0.26033196 0.027126363 -0.06438637 0.20322013
-0.19611065 -0.43558016 -0.41903675 -0.10160289 -0.07738486 -0.031671144 -0.17627966 -0.025979817
0.27423602 0.26858822 -0.20364788 0.070078194 -0.02546197 0.36773524 0.26011276 0.21695799
0.07418386 -0.0848963 -0.049444996 -0.020820914 -0.2787019 -0.021154834 0.09425897 0.20464899
0.0522948 -0.23561145 -0.10933944 -0.026652373 0.16584387 0.102352954 0.19868675 0.16508985
0.16375689 -0.14269213 0.46044508 0.25419834 0.045827415 0.15851979 -0.04392173 -0.07530274
-0.16759057 0.16743392 0.3475286 0.14881913 0.08684876 0.20437175 -0.05782096 0.2414379
0.14242671 0.3343266 0.14245328 -0.24490282 0.2540442 0.009879748 0.049430314 -0.2627932
-0.25818148 0.14168371 -0.23943958 -0.31042805 0.054399543 -0.44534227 0.047843926 -0.19622166
0.18530542 -0.02040997 0.11767848 0.008151746 0.08105589 -0.02309264 0.008909337 -0.20995031
-0.10512918 0.16652972 0.20528646 0.3262913 -0.22250775 -0.0078123035 0.39401832 -0.26309586
-0.04948932 0.29910922 -0.036086697 -0.07999813 -0.3235438 -0.23431148 -0.10093252 -0.297389
-0.26456258 -0.16900483 0.020781657 -0.5210034 0.120592944 0.13103963 0.25216576 -0.017484337
0.20293747 -0.08803418 0.03658696 0.2734605 0.16735998 0.12669626 0.1198377 -0.016576732
-0.049742732 -0.06589442 -0.32255808 0.08227067 -0.20320837 -0.06639035 0.06637283 -0.022841267
0.11913384 -0.2113634 0.054824002 0.06435561 -0.17431468 -0.09255487 -0.037284974 -0.1805258
0.062085338 0.38334504 -0.0015041288 -0.13667469 -0.01370319 0.17371395 -0.034781933 -0.21320292
0.09733955 0.36719197 0.25906953 -0.30601183 0.068772726 0.1559966 0.028454691 0.20494345
-0.052949354 -0.08121504 0.30199474 -0.10485237 -0.4659661 0.07350227 -0.21686357 -0.05912692
0.27581844 0.1189924 0.25601533 0.06605896 0.21113262 -0.16982199 0.025589287 0.15753596
-0.17418657 0.3599694 0.37649244 -0.25514007 0.072729975 -0.12828514 -0.21182793 0.19338901
-0.23743789 -0.017529303 -0.1487137 -0.23265806 -0.050197728 -0.27817503 -0.063879 0.066145115
0.22123305 -0.004014981 0.015513708 0.12622501 0.015498846 -0.026291301 -0.1353386 0.019260311
-0.16720171 -0.2436568 -0.22644639 0.10475003 -0.12552594 0.033026587 -0.013630017 0.13107158
0.2607997 -0.17805032 -0.44418317 -0.22884598 -0.12432784 0.03892625 -0.32631037 -0.026544128
0.13591664 0.0023290643 -0.028432002 0.0387214 0.091719694 0.04693896 0.008152828 -0.23646331
-0.028751073 0.046867922 0.13082348 -0.032684892 -0.2382253 -0.13064855 -0.09176833 0.18257907
-0.036651492 -0.08218293 -0.101520464 0.009653135 -0.011103469 0.021206738 -0.08017187 -0.0838814
-0.0795657 0.24666978 0.21003535 0.03940695 0.23171274 -0.3015318 0.06773256 -0.066933386
-0.015348529 -0.20275453 0.1217778 -0.018350083 -0.062328957 0.28001866 0.0027160465 -0.14638112
0.10767328 0.11749569 0.09201879 -0.08773337 0.038682457 0.22601897 -0.09257024 -0.17799744

bias f4 [64]
00000000: ad96 4abe 8a7b ec3d e5f5 323e c492 92bd
00000010: e0fe 4a3c e86f c0bc 9314 acbd 0ca8 343d
00000020: 93f4 9fbd 3b5f 2b3e de18 873d 1472 1d3d
00000030: 3b5f 403e d463 01be e95d 343e 95e7 0d3e
00000040: 8de2 16be b6e1 12be 6144 463e 484d 4fbd
00000050: 6f86 3f3e 356b 4c3e da2e 26be 087d 53bd
00000060: 4a84 01be ad13 a5bd 7936 273e 8751 2ebe
00000070: ffe2 1a3e cab2 3fbe 6c2e 04be 00c4 9a3a
00000080: 98ef 9a3c 6d30 273e fa0a 9bbd 064b d73d
00000090: 9d85 413e b0f9 45be 25b4 37be 702f fbbc
000000a0: c1e8 3f3e c8c9 333d 4e24 c43d b471 80bd
000000b0: 0273 d73d d065 e03c 2370 283e 9419 88bd
000000c0: e342 053e 8056 b8bd 4d9e 9cbd 7730 bebd
000000d0: 01fa 473e 004c 1d3c 3454 79bd ca74 a83d
000000e0: e828 7bbd 0ccd 32bd 6032 9f3b 3af9 af3d
000000f0: e857 343d 94f7 283d bbdc 3ebe 00f5 953b
-0.19784041 0.11547001 0.17476614 -0.071568996 0.0123898685 -0.023490861 -0.08402362 0.044105574
-0.07810321 0.16735546 0.0659654 0.03843887 0.18786328 -0.12635738 0.17613949 0.13857873
-0.1473486 -0.14343914 0.19362022 -0.05061081 0.18703626 0.19962771 -0.1622881 -0.05163291
-0.1264812 -0.080603935 0.16329373 -0.17023288 0.15125655 -0.18720546 -0.12908334 0.001180768
0.018913075 0.16327067 -0.07570453 0.105123565 0.18898626 -0.1933353 -0.17939813 -0.030662268
0.18741132 0.043893605 0.09577237 -0.06271687 0.10519983 0.027392298 0.16449027 -0.06645504
0.13013797 -0.090008736 -0.07647381 -0.09286588 0.19528963 0.009600639 -0.060871318 0.08225401
-0.061318308 -0.04365258 0.0048583 0.08592458 0.044029146 0.041251734 -0.1863889 0.0045763254

weight f4 [64, 64, 3, 3]
00000000: c022 653c f290 44bd 8aca cebb 891c 09bd
00000010: 21be b0bd 8939 b73d 7d19 97bd e8e7 2b3d
00000020: 579b 47bd 056b 3dbc 6e9b a23c 525f c8bd
00000030: 7f15 64bd 0f96 0b3e 6658 9abc d334 bcbc
00000040: d04c 553d 77d7 9e3d c8ac 8fbd 472e 63bd
00000050: dc74 833a c108 8dbc 4b00 ccbd f32a b33c
00000060: c592 86bd 346b 2dbd f5fd 053d 7d8d 0a3c
00000070: 0cbc e63c cfce d8bc ccbb abbc c244 c6bd
00000080: dc22 72bd 6551 e03d 4089 de3d c9d0 55bd
00000090: 535d 083d 5cfa 753c 47e9 5a3d 5c38 253d
000000a0: 6b86 74bd f6aa f53c 6657 0a3c ef2a a23c
000000b0: 9e27 27bd 8f5c da3c f078 0e3e b00a d6bc
000000c0: 1ddc c33d 7765 543a ca24 d93d 37e8 20bd
000000d0: cb8a cebb 4ed6 4dbb 0396 07bb 20bd 22bc
000000e0: 0efd c8bc 6749 63bc 6041 2bbd 2176 c63b
000000f0: ca32 233c 2bc7 83bd 2baf 05bd c966 67bd
00000100: 4582 c33d fe6c 203a 6161 a7bd 822d 11bd
00000110: fe2f a8bc 670f 963d 8521 a13d 1695 c33d
00000120: 3e34 eebc 45aa abbd fa07 2bbd 8c8d 953d
00000130: c9dc eb3d 1294 653c bf2e 083d cb2e e53b
00000140: c319 77bc edaf 183d 8c93 62bc 57c4 e33b
00000150: b28a 1d3c 949e 023c 2f81 543d cb2a a63b
00000160: 1653 e43d d4f8 123c cb7e 03bc f0c6 cfbd
00000170: d9d5 c13c c66e 823c 9411 ed3b f255 f53c
00000180: ae8a c1bc f5bf f03b c50b 5bbd 50b6 31bc
00000190: 2c0a 11bd 0581 c6bc ea11 aebd 3bc0 c4bc
000001a0: f3c4 283e 7880 95bd 8968 cfbc 6179 05bd
000001b0: fcd1 3fbd 5d3e 6fbd 2286 983d ff9c 11bd
000001c0: 08f6 76bc ec9c db3c 75fd edbc e52e 253d
000001d0: 6055 14bc dc8b 4dbd 792c a63d 4945 453d
000001e0: 012e dbbd 5946 9d3d 5b26 e139 9a71 2dbc
000001f0: e812 ec3d 0a5b 2e3d b906 b6bc ce58 bfbd
00000200: 2718 df3c c031 c4bd 801f bfbd a122 0fbd
00000210: 14ce 873d aa24 8cbd a14a e9bd df5a 453c
00000220: b544 973d c686 0b3d 24ac 25bd 2712 903c
00000230: 3104 6c3d 82c2 8d3d 1006 423c 2837 a7bc
00000240: 7bbc 493c f870 64bb c91e 11bc b887 f53c
00000250: 6c63 b4bd 46ea 4cbc 5be8 623d 3527 8e3d
00000260: 94d1 093d 87d0 553d b33f 9abc f4ff 263d
00000270: bd8d 863b b5d1 12bd 3690 62bc 94b5 223d
00000280: b837 aa3d eabf a2bd 29c2 37bc 528e 093e
00000290: 2a02 ccbd 6fdc c7bc 2fd9 e2bc a0e5 b4ba
000002a0: e97d d53c 010f 3d3d 9339 87bd 5269 e0bd
000002b0: e72f d0bd 489d 95bd cc04 58bd 4204 03bc
000002c0: 96ea 2b3d 47a5 4fbc 3f5f e13c e13c 753d
000002d0: 28a7 88bd c1c3 a63d d66a 9dbc afb2 b33d
000002e0: c69e 1cbd 015e fcbb 3312 11bd 3447 013d
000002f0: d0b5 503b 98f5 3e3d 942d 89bd d164 213d
00000300: 8d02 03be 7675 d63c 6d58 6c3c 5b57 143d
00000310: 4829 a43d ebdd a6bc d6c5 293d 79fb d03d
00000320: db49 03be 3c66 7abd 0693 9ebc 1614 dbbc
00000330: 9a91 17bd 1893 0dbd ed96 263d bd9f 18bd
00000340: f3b1 003d 529f 1ebc e6d2 21bd 986c 323d
00000350: 98ad d8bd 2dd8 bdbc ecb4 8abc 3e05 04bd
00000360: 3e4a a4bc 778f cc3d dbbd d83b abe2 7bbd
00000370: b1d3 253d 9f0f 89bb 1249 68bd 3630 64bc
00000380: d618 c5bc ff0c 46bd 8596 1ebd 43c2 79bd
00000390: 4c0c 4fbd f7c1 86bb bc06 fa3c 90d7 26bc
000003a0: 4d4a 04bd a225 1fbc ddc8 75bd a116 043d
000003b0: fd10 9f3c ec26 45bd 3af6 223e 6b4b 63bb
000003c0: c9b2 09bd 5a42 c8bc b6b2 d1bb c8df ee3c
000003d0: 2928 ca3c 9975 8a3d d9a4 163d 6903 86bc
000003e0: 502c 1e3d 822f 1b3b b1f9 343e 7ab3 5ebd
000003f0: 2f7d 2cbd fe9d 823d 37ca 7dbd 078e 6ebd
0.013985336 -0.047989793 -0.0063107656 -0.03347448 -0.08630014 0.08946521 -0.073779084 0.04196921
-0.048732128 -0.01156116 0.019849505 -0.09783806 -0.055684563 0.13631462 -0.01884098 -0.022974407
0.052075207 0.077559404 -0.07015377 -0.055464055 0.0010029334 -0.017216088 -0.099609934 0.021871066
-0.06570963 -0.042338565 0.032712895 0.008456585 0.02816584 -0.026465802 -0.020963572 -0.09681083
-0.059115276 0.10953025 0.10866022 -0.052201066 0.033292126 0.015013304 0.053445127 0.04033695
-0.059698503 0.029988747 0.008443689 0.019795863 -0.040809266 0.026655464 0.13913321 -0.026128143
0.09563468 0.00081022776 0.1060272 -0.039283957 -0.0063031665 -0.0031408253 -0.002068878 -0.009932786
-0.024534728 -0.013872481 -0.041810393 0.0060565625 0.0099608395 -0.06434473 -0.032637756 -0.056494508
0.09546331 0.0006119757 -0.081728704 -0.03544379 -0.020530697 0.073271565 0.078677215 0.0954992
-0.029077645 -0.08382086 -0.041755654 0.073023885 0.11516721 0.0140123535 0.033247706 0.0069941035
-0.015081826 0.03727715 -0.013829123 0.006950896 0.009615587 0.007972378 0.05188101 0.0050710193
0.1114866 0.008970458 -0.008025835 -0.10145366 0.02366154 0.015921962 0.0072347615 0.029948208
-0.023625698 0.007347102 -0.05347802 -0.010846689 -0.03541009 -0.024231443 -0.084995106 -0.024017444
0.1648138 -0.07299894 -0.025318401 -0.03258646 -0.046831116 -0.058409084 0.07447459 -0.035550114
-0.015073307 0.026808225 -0.029051522 0.040327925 -0.009053558 -0.05018221 0.08113951 0.04816178
-0.10702134 0.076794334 0.0004294392 -0.010586167 0.115270436 0.04256729 -0.022220002 -0.0934311
0.027233196 -0.095798016 -0.0933218 -0.034945134 0.06631103 -0.068429306 -0.113911875 0.012045591
0.07386152 0.034064077 -0.04044737 0.01758678 0.057621185 0.06921865 0.011842266 -0.020412043
0.012313004 -0.0034857374 -0.008857437 0.029971942 -0.08808026 -0.012507027 0.055397373 0.06941072
0.033647135 0.05220082 -0.018829202 0.04077144 0.004106252 -0.035844523 -0.013828328 0.039723948
0.08311409 -0.07946761 -0.011215725 0.13433197 -0.0996135 -0.024397103 -0.027691452 -0.0013801344
0.026061015 0.046156887 -0.06602778 -0.10957588 -0.10165387 -0.0730539 -0.05273895 -0.007996621
0.041971765 -0.0126736825 0.027511237 0.05987251 -0.066725075 0.08142806 -0.019215982 0.087743156
-0.038237356 -0.007701636 -0.035417747 0.031562045 0.003184665 0.046620935 -0.066981465 0.039402787
-0.12793942 0.026179057 0.014425379 0.03621612 0.08015686 -0.02036949 0.041448437 0.102042146
-0.12821142 -0.061132655 -0.019357216 -0.026742976 -0.03700409 -0.034564108 0.040671278 -0.037261713
0.031419706 -0.00968154 -0.03950777 0.043560594 -0.105799854 -0.02317437 -0.016931973 -0.03223156
-0.020054933 0.09988301 0.0066144294 -0.061495464 0.040485088 -0.0041827704 -0.05671031 -0.01392751
-0.024059694 -0.048352238 -0.038717765 -0.060976278 -0.050548837 -0.004112478 0.03052079 -0.01018323
-0.03229742 -0.009713562 -0.06000601 0.032248143 0.01941728 -0.048132822 0.1591424 -0.0034682404
-0.03361777 -0.024445701 -0.006399478 0.029159442 0.024677353 0.06760711 0.036778305 -0.016359048
0.03861648 0.002367944 0.17673375 -0.05437038 -0.042111572 0.06377791 -0.061960425 -0.058240917

bias f4 [64]
00000000: 2303 27bd a8cf 01bd 5dca 083d 5654 35bc
00000010: f6d0 cb3c 4400 01bd 708e c1bc 8383 05bd
00000020: 684f c9bb f01e d2bc c50e 0c3d d28f f63c
00000030: 3628 cebc 8053 a1bc ac56 21bd 3ce5 2b3c
00000040: 6095 843c 70ad 19bd b860 d4bb 0830 e93b
00000050: 57b1 213d 80c0 4dbb 9a28 bf3c 1b51 163d
00000060: 0cc7 4bbc 726c a13c 9222 bc3c 2685 a7bc
00000070: 8a2b fe3c ac9b 23bc 7dfe 263d e3e9 1ebd
00000080: ba1e 853c deb4 e83c 0b39 94bc dee9 e53c
00000090: c842 15bd e708 1cbd 4492 1a3c 8e9b 973c
000000a0: cdbf 223d 04ff 343c 03c2 f9bc aefc 833c
000000b0: c82b cabb 330a eebc 6710 203d 863d 52bc
000000c0: a392 bdbc 4846 2abd 20c6 893b 2857 ba3b
000000d0: 2f17 1fbd d8ca c7bb 660b 6bbc b0ec 18bd
000000e0: cc7a 21bd 68e7 82bb f683 4dbc 6a05 28bd
000000f0: 1350 243d 8e64 813c fb40 1abd a22e 923c
-0.040774476 -0.031692177 0.033396114 -0.011067471 0.024879914 -0.031494394 -0.02362749 -0.032596122
-0.006143499 -0.025649518 0.034193773 0.030097876 -0.025165658 -0.019693136 -0.039389297 0.010491665
0.016184509 -0.03751892 -0.0064812563 0.0071163215 0.039475765 -0.0031395257 0.02333479 0.036698442
-0.012437593 0.019705031 0.022965703 -0.020449232 0.03102662 -0.009985846 0.040770043 -0.03879727
0.016250003 0.028406557 -0.018093606 0.028065618 -0.03644064 -0.038094427 0.0094342865 0.018506791
0.039733697 0.011047129 -0.03048802 0.016111698 -0.00616977 -0.029057598 0.039078142 -0.012832051
-0.02314121 -0.04157093 0.0042045265 0.0056866594 -0.03884047 -0.006097179 -0.014345979 -0.037335098
-0.03942375 -0.003994871 -0.012543669 -0.04102079 0.040115427 0.015795019 -0.037659626 0.017844502

weight f4 [32, 64, 3, 3]
00000000: 6de0 abbc 696a 123d b69f 083d e79b 7bbd
00000010: 7550 543c fa2a 0d3e 0641 8b3c 584d 83bd
00000020: e6ab dc3c f3cf e1bd 9fe8 45bc 6391 56bd
00000030: 2ea0 0cbe 60b1 05bd 8ef9 8e3c f7c9 04be
00000040: 2dc4 8bbc 8fd3 4e3c b690 a73d 6d28 ae3d
00000050: fafa 553c 447c 813d 2793 68bd 0d7f 29bd
00000060: 6664 033c 98fd f93c 2982 50bc 4460 9cbd
00000070: 251f 943d 3d08 1bbd d90d 57bd 42a6 933d
00000080: 8297 30bd df10 babd 644c d0bc e2f6 9ebc
00000090: 0343 82bd 4e98 e3bd 4047 d53c 373c d33c
000000a0: 9cf7 a03a 41ea ea3c 66f0 0abe 39a7 e93c
000000b0: 322c 2b3e 8a1c 1abd ae3e d439 fd0e 233d
000000c0: 8d3d 26bd 34d7 c3bc e530 6fbd 630b 853d
000000d0: 55ec 813b eb1e f13d 2d30 16bd 0a9e 1a3c
000000e0: ccb3 923d 1856 fdbc 63fa 2e3d 70c4 bc3d
000000f0: a916 dc3d 32ae 36bd e273 13bd ba5d f4bb
00000100: 4ec2 a7bd 2250 a7bd 104c aa3d ea68 193d
00000110: c0f3 53bd b19a 3abd d9a2 263d 7bcc 73bd
00000120: 722d 2bbd d08d 413d 286e 883d b799 2c3d
00000130: 7679 443d 59e2 e03c 005c 0e3c 5000 d23d
00000140: 09de a5bc 2608 4c3d 8441 05bd cec0 06bd
00000150: 7095 d4bd c645 583d 7cad 803d 2569 bf3d
00000160: ec0d 0abd bf38 74bb ab2b 463d 16e8 b43c
00000170: 959d bfbc 69c9 403c 2d64 8f3d efea d1bc
00000180: 9189 37bd 887e 9e3c 251f efbc e6d2 21bb
00000190: fc1d ffbd 8af0 55bd 01a4 2b3d 64f3 fabc
000001a0: 8b7e 0fbd 4165 8f3d f914 a63d 1804 173b
000001b0: f9b3 e73d 4bb0 2dbd 49d1 533d 586f 693b
000001c0: 9aa0 e5bc 17b8 303d 0e9b 5dbc 44e3 adbd
000001d0: 605a 483d 0afd 713b d216 303d aaa5 bb3d
000001e0: fdeb 47bd fe4a e3bc 1f64 823a 51a9 823d
000001f0: 919e 7dbc 168f 34bc b799 51bd e01b 1c3d
00000200: 6e66 acbd 144e 2dbc 7bad 9e3b 2cc7 3a3d
00000210: 8fb0 a6bd fae7 b8bc 30ad a5bd 409e f83c
00000220: 177a d93c 9fd8 193c 8ff3 253d 8ce3 1f3d
00000230: 754e 42bd eb28 afbd 5f54 4e3e 38bb b03d
00000240: dfcc 0bbd 3fef 213d 5693 ebb8 109d f7bd
00000250: 45b4 03bd a98d 36bc 9f39 583d ac2d 53bc
00000260: 3401 73bc 6c1b d03c e23a 08bd 7639 2b3c
00000270: 99b4 0cbc c3a8 403d f818 18be 53b9 e6bd
00000280: a6b4 df3b 6609 a5bc b8ec b03d d52c 6f3c
00000290: e3ed 63bd 511b dcbc 7ea8 9cbd d7ea a83d
000002a0: 8abb 723d 1dcd 08be 0012 29bd 775d 933d
000002b0: 6968 653c e2f5 09bd f0fd a73d 544e a23d
000002c0: beb9 5dbd 74e5 b2bc d599 9fbc 5954 e5bc
000002d0: 9e85 df3d 2ecd 48bd ea69 1fbd 10a9 a8bd
000002e0: 8fb9 c83b 43a5 1e3d fd01 e23c 60ab d5bd
000002f0: 9494 2abd 2135 7fbd 2562 18bd 739e 453d
00000300: cf42 a1bb 4596 a7bd 2a5b 2abd 3dc6 623d
00000310: ddcb ce3d 569b 85bd 436c d23d 9249 2f3d
00000320: 7273 213d 075f 9bbc aff9 c0bd 4b43 ea3d
00000330: ae93 0dbe 6176 b63c c59c a23d 8773 573d
00000340: c988 2abd dd9d 3d3e d523 80bd d156 093d
00000350: 71dc 4f3c 2e78 08bc edc2 e3bd a671 6ebc
00000360: d512 08be 5ed6 c23d e1c4 0bbd 1bac e63b
00000370: 2250 fd3d 24e5 1c3d f3f9 c43c 2809 313a
00000380: 151d 683d 7159 c2bb 10c9 17bd 83d7 8b3b
00000390: e156 12bd 3fe7 f5bd 8c87 4a3c d319 e7bb
000003a0: 1241 64bd 2383 ad3d 7e6f 8ebd 7aca 8ebd
000003b0: 04cb 313d 470e 87bc 14a8 7cbd 102d d13d
000003c0: 4782 263e 054a 5a3c f13a ef3c 5649 04bc
000003d0: 4722 96bd 621d ef3c fa68 873d 0fec 03be
000003e0: 84a7 1f3b 9f66 ae3d 3e7a 96bc fae8 d53b
000003f0: a0c8 38bd 67b9 113c eb3a f8bc 5bb6 82bd
-0.020981038 0.035746012 0.033355437 -0.061427977 0.012958636 0.13785926 0.016998779 -0.064112365
0.026937436 -0.11025991 -0.012079387 -0.052384745 -0.13732979 -0.03263986 0.017452981 -0.12967668
-0.017061317 0.012623682 0.08181898 0.08503804 0.013060326 0.0632253 -0.05678096 -0.04138093
0.008019542 0.03051643 -0.012726345 -0.07635549 0.07232503 -0.037849654 -0.05250344 0.072094455
-0.04311324 -0.09085249 -0.02542705 -0.019404832 -0.06360438 -0.11113034 0.026034951 0.025785549
0.0012280825 0.028676154 -0.13568267 0.02852212 0.16716078 -0.037624873 0.0004048249 0.039809216
-0.040586043 -0.023906328 -0.05839624 0.064963125 0.0039649406 0.11773475 -0.036667038 0.0094370935
0.071632 -0.030924842 0.042719256 0.09217155 0.107465096 -0.04459972 -0.035999186 -0.007457462
-0.081913576 -0.08169581 0.08315289 0.03745357 -0.05174613 -0.04555768 0.040682647 -0.05952118
-0.041791387 0.047254384 0.06661636 0.04213878 0.047967397 0.027451681 0.008688927 0.10253966
-0.020247476 0.04981246 -0.032533184 -0.032898717 -0.103800654 0.052800916 0.062830895 0.093462266
-0.033704683 -0.0037265269 0.04838149 0.022083323 -0.02339057 0.01176677 0.07001529 -0.02562472
-0.044808928 0.019347444 -0.029189656 -0.0024692356 -0.12456891 -0.05223135 0.041904453 -0.030633636
-0.03503279 0.070017345 0.08109469 0.0023043212 0.11313624 -0.042404454 0.05171326 0.0035619345
-0.028030682 0.04314431 -0.013525737 -0.08490613 0.048914313 0.0036924505 0.042990513 0.09162457
-0.04880904 -0.02774572 0.0009948051 0.06379951 -0.0154797 -0.0110204425 -0.051171985 0.03811252
-0.084179744 -0.010577697 0.004842458 0.0456001 -0.08139145 -0.022571553 -0.080896735 0.030348897
0.026547475 0.009390025 0.04051548 0.039035365 -0.047438104 -0.08552726 0.20149373 0.08629459
-0.034130927 0.039534803 -0.00011233117 -0.12090504 -0.03215434 -0.011142173 0.052789327 -0.012889307
-0.01483183 0.0254037 -0.03325928 0.0104507115 -0.00858798 0.047035944 -0.14853275 -0.112658165
0.006826955 -0.020146083 0.086389005 0.014598091 -0.05564679 -0.026868494 -0.07649325 0.08247917
0.059260882 -0.13359495 -0.04127693 0.071955614 0.014001944 -0.033681758 0.082027316 0.07925096
-0.054132216 -0.021837927 -0.019482533 -0.027994322 0.10914157 -0.0490238 -0.038919367 -0.08235371
0.006125636 0.038731825 0.027588839 -0.10433078 -0.0416456 -0.062306527 -0.037202973 0.048246812
-0.0049212943 -0.081829585 -0.041590847 0.055364836 0.100974776 -0.065237686 0.102745555 0.04279477
0.039416738 -0.018966211 -0.09422623 0.11438616 -0.13825867 0.022273244 0.07940058 0.05260041
-0.041634355 0.18517251 -0.062568344 0.03353006 0.012686835 -0.008329434 -0.111211635 -0.014553463
-0.13288434 0.095135435 -0.034123305 0.0070395595 0.123688 0.038304463 0.024044966 0.00067533785
0.05666836 -0.0059310724 -0.037056983 0.0042676344 -0.035727385 -0.12006997 0.012361418 -0.007052639
-0.05572612 0.08472278 -0.06954859 -0.06972213 0.0434065 -0.0164863 -0.06168373 0.10213673
0.16260634 0.013323312 0.02920291 -0.008074125 -0.07330757 0.029188816 0.066118196 -0.12883018
0.0024361322 0.08515667 -0.018368836 0.006528017 -0.045113206 0.008894301 -0.030301532 -0.06382438

bias f4 [32]
00000000: e097 77bc 812b 1a3d 9805 da3b 3080 17bb
00000010: 7d44 223d 7211 f63c 7338 f5bc b06a 333c
00000020: 38e7 e2bc 200e d63b 0a28 ec3c 4639 4fbc
00000030: c3ae d2bc 304d 223c 13ec 8dbc 8b94 92bc
00000040: a0f6 e3bc 3045 0dbc 0aa5 893c cd85 1b3d
00000050: c630 84bc bc39 1dbd 0053 1a3b 18a6 a2bb
00000060: 9e77 94bc 60fa 9dbc d032 713b c0b6 6d3c
00000070: 0264 c33c f004 9cbc 9020 67bb 5096 073c
-0.015111893 0.037639145 0.006653499 -0.0023117177 0.039616097 0.030037615 -0.029934144 0.010950729
-0.027698144 0.0065324455 0.028827686 -0.012647932 -0.025718099 0.009906098 -0.017324483 -0.017893096
-0.02782756 -0.008622453 0.01680233 0.0379694 -0.016136538 -0.038385138 0.0023548007 -0.0049636476
-0.018123444 -0.019284427 0.0036803968 0.014508903 0.023851398 -0.019045323 -0.0035267211 0.008275583

weight f4 [16, 32, 3, 3]
00000000: 4017 55bd 3145 133e fbee a23d 1e46 28bc
00000010: 7566 103d 610f a0bb b0a5 aeb9 bcb9 273c
00000020: b648 553d cdd0 4fbc 30ac eabd c558 9d3c
00000030: b2ab 12bd 1904 a53d 2c50 fdbd 20ba 97bc
00000040: 19fa be3d 36df 43bc 7662 70bd dd19 813d
00000050: 1862 0abd e0fd 6f3d c232 d8bd f0e9 b2bb
00000060: 8100 a2bd 1c38 7e3d 3749 febd 444a f1bb
00000070: 8295 393d 6264 023d dd30 153d 867d 62bd
00000080: 776b 5f3c b8eb a8bd 9d0d 213d c347 cbba
00000090: c0ef 70bd 0e97 043d 7021 e2bd d9fd 253d
000000a0: 7341 c0bc 8b52 983b b14a 68bc 784d 48bd
000000b0: 9d69 8e3c cc8d 053d 3454 e53c 60e4 cebd
000000c0: 1f10 c13d b788 3abc bdd9 82ba ac9a ac3c
000000d0: 213f e7bd 6300 c13c f9fb 60bd a184 62bd
000000e0: 4422 453d 85f5 89bd 3707 cfbc d984 2cbd
000000f0: 495e f8bc 22d1 973c 71aa d73c 6d83 2dbd
00000100: bd7f 4f3d 27e7 2c3d cd9c b23d ae28 953c
00000110: 06ae ff3c e4cd b1bd a651 2a3d f56e 6f3d
00000120: bd5e 12b9 b2ed 28bc b584 a73c 0759 e5bc
00000130: 47b4 173d 369c 97bd c5b7 113d d2a8 bf3c
00000140: 8a42 1b3d 862c 5f3d 585f c73c 7f45 80bd
00000150: 6204 3ebd 5852 d4bc d3f3 1b3d 54ec 1abd
00000160: cd0d 833d 6e4a 8f3c 11e2 813b 0a16 003d
00000170: 4d32 7d3d ab65 bf3d 3103 e43c 6540 3dbc
00000180: 01b3 b3bb 974d a33a 5832 cebc 4960 0f3b
00000190: 0cdd 833c 8aef 6f3d c070 b63d 51ef 813d
000001a0: 9884 0fbe ab8a 99bd b7af b0bc d328 c7ba
000001b0: 871b a73d 3e6c aa3c 6b80 863d 2ce1 993c
000001c0: 80c2 ef3d c8e8 303c af94 1e3c b047 9f3d
000001d0: 614a 153c f721 ce3c 1fe6 3b3d e807 76bd
000001e0: 97d0 9e3d 9f8b 11bd d328 2a3b dfee 62bc
000001f0: 3b7c 06bd d8c7 f93c cddf 0cbd 7a2b 5b3d
00000200: 5550 8a3d ce5e c6bd 5ec0 fbbc 2e28 533d
00000210: 742d 3a3c 5ff0 393a d003 1abd 8fb7 123d
00000220: 10c8 9cbd e58d 57bd adb3 a23d 740b 80bd
00000230: d8cc a53c fee5 983c a35f 3abd 98eb aa3b
00000240: 4957 713c 943d eb3b 224d 52bd ead3 7abd
00000250: f486 d33c 4ba8 9a3d 59d7 23bd ff59 b53c
00000260: 831c 72bd 0372 0f3d fa4b 0b3d 42a5 06bc
00000270: 56e6 d23c 76e2 53bc 53d4 013d c3e9 673d
00000280: d77c bfbd 97ce 7b3c 930b d3bc 1977 13be
00000290: dffc 23bd aa46 f53c ebc2 85bd 6715 4dbc
000002a0: e7bc 0ebd e11d 93bd 8f2e 0bbe f156 173d
000002b0: 03c6 143b dfb1 bf3c 3531 7d3d 4623 613d
000002c0: 7aea 1abc 8847 a7bd f93a 673d 0f1f 7a3d
000002d0: f47d 40bd 40b6 c1bc b16a 273d 186f 66bc
000002e0: 17f7 a8bd ff40 823e 5b6c edbc 5f3a 073d
000002f0: 1a8a 4d3d 79e4 893d 3473 50bd c699 423d
00000300: 7585 2dbd d650 5e3d 562a 003d 8afd c33d
00000310: f6b2 c53c 432d 9bbd 2ea3 41bd 15c7 95bd
00000320: d79c edbd 492e 8ebd 3614 0d3c 25b6 b93d
00000330: 0f70 25bc 331f dabd 297e 443d ff6b 9a3c
00000340: 443b d73d a9c9 d63d 70ca 103e b58d 753d
00000350: 9fdd d1ba 7b57 3abd 75fc 143d 66d2 44bd
00000360: 958e 323d 6135 9dbd 285c 71bd 41b1 abbd
00000370: 0771 00bd 71f8 da3d 685a 03bd 127f c0bc
00000380: 759a 043d 3d3f 9f3d f91f 3d3d 8b45 083d
00000390: 3b68 ae3d f21b 053a e43d 03be 067d 17bd
000003a0: 104a c53c f486 bbbd 176b 823d 9564 0fbd
000003b0: c67c d6bd eb3e b73d 3cc6 bb3b 80cf 223e
000003c0: 5037 04ba 4b22 8b3d 6bc2 c93c f616 013d
000003d0: b44f 14bc 7479 eb3c dae0 a53d 32ed c438
000003e0: b9ba 3a3d 88f3 e23c 1492 e33c 9acb 293c
000003f0: 2a82 9d3c 875b 00bd 370a 99bd ad75 9bbc
-0.052024126 0.14381863 0.07955738 -0.0102706235 0.03525396 -0.004884646 -0.00033311313 0.010237154
0.052071296 -0.012684059 -0.114586234 0.019207368 -0.035808273 0.08057422 -0.12368807 -0.018521369
0.09325046 -0.011955073 -0.05868765 0.06303761 -0.033784956 0.058591723 -0.10556556 -0.0054600164
-0.07910252 0.06206523 -0.124163084 -0.0073635895 0.045308597 0.031834014 0.036423553 -0.05529549
0.013636461 -0.08248085 0.039319623 -0.0015509058 -0.058822393 0.03237062 -0.11041534 0.04052529
-0.023468709 0.0046485118 -0.014177964 -0.048902005 0.017384345 0.03260593 0.027994253 -0.10102153
0.09426903 -0.011385134 -0.0009983104 0.021069847 -0.11291338 0.023559755 -0.0549278 -0.055302266
0.04812838 -0.06736282 -0.025271995 -0.04211888 -0.030318396 0.01853234 0.02632639 -0.042361666
0.05065893 0.04221263 0.087213136 0.018207874 0.03121091 -0.08681849 0.041581772 0.058455426
-0.00013958938 -0.010310577 0.020449022 -0.027996553 0.03703716 -0.07402842 0.035575647 0.02339593
0.037905253 0.05448582 0.024337456 -0.06263255 -0.0463909 -0.02591817 0.038074326 -0.037823036
0.06399117 0.017491546 0.003963717 0.031271018 0.06181555 0.093455635 0.027833553 -0.011550997
-0.0054839854 0.0012459037 -0.02517049 0.0021877459 0.016096614 0.05857805 0.08908224 0.06344474
-0.14015424 -0.07497152 -0.021568162 -0.0015194662 0.08159547 0.020803567 0.065674625 0.018784128
0.1170702 0.010797687 0.009679004 0.07777345 0.009111972 0.02516268 0.045873757 -0.060066134
0.07754629 -0.035533544 0.0025964275 -0.013850897 -0.03283332 0.0304908 -0.03439312 0.05350826
0.06753603 -0.09686051 -0.030731376 0.05155199 0.011363376 0.0007093008 -0.037601292 0.035819586
-0.076553464 -0.052625556 0.07944427 -0.062521845 0.020239279 0.018664356 -0.045501363 0.0052160732
0.014730283 0.0071789715 -0.05134309 -0.061237253 0.025821187 0.075516306 -0.040000293 0.02213764
-0.059109222 0.03502084 0.034008004 -0.0082181115 0.025744598 -0.01293241 0.03169663 0.056619417
-0.09349983 0.015369079 -0.025762355 -0.14400901 -0.04003608 0.029940922 -0.06531318 -0.01251731
-0.03484812 -0.07183433 -0.1359198 0.03694815 0.0022701032 0.023400245 0.061814506 0.05496528
-0.009455318 -0.081679404 0.056452725 0.061064776 -0.04699512 -0.023646474 0.040873233 -0.014064573
-0.08250254 0.25440213 -0.028982332 0.03301465 0.050180532 0.06733031 -0.050891116 0.04750993
-0.042363603 0.05427631 0.031290375 0.09569843 0.024133187 -0.07576992 -0.04727476 -0.073133625
-0.116021805 -0.06942422 0.008610776 0.090679444 -0.010097518 -0.10650482 0.04797188 0.018850325
0.10509351 0.10487682 0.14139724 0.059949595 -0.0016011483 -0.045493584 0.036373574 -0.048052214
0.043593008 -0.07676197 -0.058925778 -0.08383418 -0.03135779 0.10691918 -0.03206864 -0.023498092
0.032373864 0.077757336 0.04617307 0.033269446 0.08515974 0.00050777115 -0.12816578 -0.036984466
0.024083167 -0.091566 0.06368082 -0.035008032 -0.104730174 0.089475475 0.0057304185 0.15899467
-0.00050436426 0.0679365 0.024628839 0.031516038 -0.009052206 0.028744437 0.08099528 9.3901894e-05
0.04558823 0.027704015 0.027779616 0.010363484 0.019227106 -0.031337287 -0.074726515 -0.01897701

bias f4 [16]
00000000: 380b de3b 202f 02bc f8eb b0bb 38b8 d9bb
00000010: 183f 22bd 40fe f2ba f8c2 823b 1c0d 5ebd
00000020: 2aa4 babc 868f a53c e0b9 683b c296 23bd
00000030: e2d8 a03c 1ecf b2bc ac8d 3ebc c856 cfbb
0.0067762397 -0.007945806 -0.0053992234 -0.006644275 -0.039610952 -0.0018538907 0.0039905272 -0.05421172
-0.022783358 0.020210039 0.003551118 -0.039938696 0.019634668 -0.021827277 -0.011630457 -0.006327484
