weights/No_Optim_FSRCNN_model_path.pth (torch, 64971 bytes, 15 tensors)

weight f4 [64, 1, 5, 5]
00000000: 49d9 20be bdc4 72be 7808 003f 42b0 fa3c
00000010: b672 84bd cf4a aabd d22b 713e 77cc 52be
00000020: 000b f5bd 5265 e83d 4352 c73d 5b3f f0bd
00000030: 8f75 393e 200c 793e c796 babe 9be7 85bd
00000040: db5b deba c232 183e 98e1 0dbe cff6 073e
00000050: 3ac6 c4bd fd14 9b3e 90fe 3b3d 27ae 07bd
00000060: 5ac9 e9bd 084f 593d 9ffb c0be 302b 663e
00000070: f787 d4bb 3367 843e b0fe e3bd 367a 193d
00000080: 3f18 5cbd 446f 84be caa0 bfbe 4297 0abd
00000090: 3798 84be 5379 fc3d 6fa5 473e be36 0b3e
000000a0: a073 a1be 90af df3a 90c9 ef3d c22c 133e
000000b0: 7fa9 16be 6735 37be 75b1 3dbe 259c 923e
000000c0: 60b4 813d 043e 1fbe 0be3 ce3d 57df 1d3d
000000d0: 7ff8 a8be 7859 0bbb 560b 20be f210 f33d
000000e0: b2d8 f33d 079e 833d e1e2 89bd c191 98be
000000f0: 59bc 933e c22f aebd 4fc9 c63d 60eb 57be
00000100: f8e1 81be 0f42 053e 1600 3cbe 0fb7 babd
00000110: 7022 bbbc f3b7 7f3d 1cee 273e d22d e7bc
00000120: 67d6 3abe 0380 12bc f3b2 8a3d 4baa 223e
00000130: 6984 b63e 52b2 e83e 5f38 a13e 1881 d0bd
00000140: 8fd4 4dbe 8c51 01be afb0 18bc b3bc c53e
00000150: f071 073e 5b87 18be e088 82be 932f 4b3d
00000160: 9ddf 6abd bde1 003f a1fe c43d f038 74be
00000170: 4f6b ba3d 35d6 2fbd 3ba2 bcbc ab51 2e3d
00000180: 1784 90bd 7b79 0d3e e575 103d 5487 a43c
00000190: 9f9b 933e 135f 04be 8933 14be 9cab 9a3e
000001a0: 5fa4 ae3d 8755 533e a1ab 46be f235 f6bd
000001b0: adfe 4dbd 483c 9f3d f34d 723e cf4d 4cbd
000001c0: 3e89 85bd ba27 35be 98dd a13c 8b3c dabd
000001d0: 9a29 a0bd ef28 d83d 15b6 71be c13b c13d
000001e0: 8b43 d3bd 53b8 84be 1a39 cdbd a5f1 98bd
000001f0: 1458 a33e 2962 a7be 38d8 50be c33a 963c
00000200: 53b9 663c 7b80 883e 44f5 2fbe 575e 07bd
00000210: b77b d1be 64dd 03be 2797 13bd d2ce 89be
00000220: b36f 8c3e facb 83bd 1bed cc3e 651d eabd
00000230: 36b6 13bd b7d3 62be 07f2 0bbe c900 c63d
00000240: bfb9 53bd 8351 babe 98e3 543d d72b 97be
00000250: 0ecc ad3d 1c14 083e da72 cebd 3c61 88be
00000260: 4f59 143d 2fea 1e3e b457 06bf cbf1 ce3e
00000270: 9011 793d ae3a 18be 8fe6 213e 12c3 9f3d
00000280: 57d3 bc3d ebcc aa3e 8bfd 03bd 4b58 20bd
00000290: b2c3 b33e a469 01bf 93b5 a3bd a1d0 21bd
000002a0: 0d2e d83d 5dbb 24bd bb02 0ebe cdc5 4d3e
000002b0: 83fe eabd eff2 1e3c 9079 91be e6b7 3e3d
000002c0: 04eb 13be 5a58 2e3d 294f 3cbe f544 7b3d
000002d0: 107e 2c3e b8b0 e03d d91e adbd c1f6 933e
000002e0: 346b 2dbe b8eb ce3c 69d8 95be 6b88 703e
000002f0: 1166 afbe 2745 b0bd eb13 b6be b27b c5be
00000300: 727f d43c e439 93be c354 5ebe 782b f8bd
00000310: 4bd0 1a3e a24d 99bd ff74 053d 1f5c ffbd
00000320: 02d8 e9bd f2ba d4be a768 513d 7032 da3d
00000330: e554 77be 0db4 253d 88bf ae3d 9af5 adbe
00000340: 5b47 2fbe e12a 8cbd c72e b3be 730c c53d
00000350: 4b91 adbe 0f58 893e eda5 093e e2c6 a5be
00000360: 3bbc 993c a3c1 19be 8516 03be f723 923c
00000370: a8a7 47bc 39c9 3f3d 83ab 34be dbe5 9a3e
00000380: 9b06 cb3d 35ab f63c 445d a7bd 3253 b3be
00000390: 5f40 003e a588 823d 0288 473e 2407 123d
000003a0: 3c39 8abe 63b1 94be 1730 853d 1b22 ac3d
000003b0: 8249 a8be 0220 b03d 58a8 383e 22a8 e5bd
000003c0: d53f 193d aa41 7d3c 8224 70bd 79ef 47bc
000003d0: 872e 913d bb1e a2be 8a84 d3bc be64 10be
000003e0: 11cc 10be 0bfb c4bd f2fd 89bc 072d 19be
000003f0: cb35 44be 9331 213d fe43 4cbd ca53 903e
-0.15707888 -0.23707862 0.5001292 0.030601624 -0.06467192 -0.0831505 0.23551872 -0.2058581
-0.11964989 0.1134745 0.09732487 -0.11730834 0.18111251 0.24321032 -0.3644316 -0.06538316
-0.0016964631 0.14863113 -0.13855588 0.13277744 -0.09608121 0.3028945 0.045897067 -0.03312507
-0.11415358 0.053053886 -0.37691972 0.22477412 -0.006485935 0.25859985 -0.11132562 0.037470065
-0.05373406 -0.2586614 -0.3742736 -0.033835657 -0.2589738 0.12327828 0.19496702 0.13595101
-0.31533527 0.0017065872 0.11708367 0.14372543 -0.14713095 -0.17891465 -0.18524726 0.28634754
0.06333232 -0.15551001 0.10101899 0.03854307 -0.33002087 -0.0021263044 -0.15629324 0.118684664
0.11906566 0.06426626 -0.06732727 -0.297987 0.28854635 -0.08505203 0.09706365 -0.21085882
-0.25367713 0.1301348 -0.18359408 -0.09116947 -0.02284357 0.062431287 0.16399425 -0.028220091
-0.1824585 -0.008941653 0.06772413 0.15885274 0.35647896 0.45448548 0.3148832 -0.10180873
-0.20100616 -0.12628764 -0.009319468 0.3862053 0.13227057 -0.14895384 -0.25495052 0.049605917
-0.05734216 0.5034445 0.09618879 -0.23849845 0.09102499 -0.042928893 -0.023026576 0.042558353
-0.07056444 0.13815872 0.035268683 0.02008406 0.28829667 -0.12926893 -0.14472784 0.30209053
0.08527445 0.20638095 -0.19401409 -0.12022008 -0.050291706 0.077751696 0.23662548 -0.04987889
-0.065203175 -0.17690936 0.019758984 -0.10656079 -0.07820435 0.105546825 -0.23604615 0.09435225
-0.10315617 -0.25921878 -0.10020657 -0.07467965 0.31903136 -0.32692078 -0.20394981 0.018338567
0.014082271 0.26660523 -0.17183405 -0.033048954 -0.409147 -0.12877423 -0.036032822 -0.26915604
0.2742897 -0.0643539 0.40024647 -0.11431388 -0.03606244 -0.22151075 -0.13666545 0.096681185
-0.051690813 -0.36390314 0.051974863 -0.29525635 0.08486186 0.13288921 -0.100805 -0.26636684
0.036217984 0.15519021 -0.52477574 0.40418848 0.060807765 -0.14866135 0.15810607 0.078008786
0.092199974 0.33359465 -0.03222422 -0.039146703 0.3511024 -0.5055182 -0.07993617 -0.039505605
0.105556585 -0.040217746 -0.13868229 0.20094986 -0.114743255 0.009701475 -0.28413057 0.046562098
-0.1444512 0.042564727 -0.18389572 0.06134506 0.16844964 0.109712064 -0.08453149 0.28899196
-0.16935426 0.025258884 -0.2926667 0.2348954 -0.34257558 -0.0860694 -0.3556207 -0.38570935
0.025939677 -0.28755105 -0.21712022 -0.12117666 0.1511852 -0.074855104 0.03258228 -0.124687426
-0.11418153 -0.41548878 0.051125195 0.106541514 -0.24153478 0.040454913 0.085326254 -0.33976442
-0.17117064 -0.06844116 -0.34996626 0.09621515 -0.33899912 0.26824996 0.13442202 -0.32378298
0.018766513 -0.15015273 -0.1280156 0.017839415 -0.012185968 0.04682276 -0.17643552 0.3025349
0.09913369 0.030110935 -0.08172086 -0.3502441 0.12524556 0.06373719 0.19485477 0.03565134
-0.2699679 -0.29041585 0.06503313 0.084049426 -0.32868582 0.08599855 0.18032968 -0.112137094
0.03741439 0.01545755 -0.058628567 -0.012203091 0.070889525 -0.3166407 -0.025820035 -0.1410093
-0.14140345 -0.09618195 -0.016844723 -0.14958583 -0.19161145 0.03935392 -0.04986953 0.28188926

bias f4 [64]
00000000: 0000 0000 0000 0000 0000 0000 0000 0000
00000010: 0000 0000 0000 0000 0000 0000 0000 0000
00000020: 0000 0000 0000 0000 0000 0000 0000 0000
00000030: 0000 0000 0000 0000 0000 0000 0000 0000
00000040: 0000 0000 0000 0000 0000 0000 0000 0000
00000050: 0000 0000 0000 0000 0000 0000 0000 0000
00000060: 0000 0000 0000 0000 0000 0000 0000 0000
00000070: 0000 0000 0000 0000 0000 0000 0000 0000
00000080: 0000 0000 0000 0000 0000 0000 0000 0000
00000090: 0000 0000 0000 0000 0000 0000 0000 0000
000000a0: 0000 0000 0000 0000 0000 0000 0000 0000
000000b0: 0000 0000 0000 0000 0000 0000 0000 0000
000000c0: 0000 0000 0000 0000 0000 0000 0000 0000
000000d0: 0000 0000 0000 0000 0000 0000 0000 0000
000000e0: 0000 0000 0000 0000 0000 0000 0000 0000
000000f0: 0000 0000 0000 0000 0000 0000 0000 0000
0.0 0.0 0.0 0.0 0.0 0.0 0.0 0.0
0.0 0.0 0.0 0.0 0.0 0.0 0.0 0.0
0.0 0.0 0.0 0.0 0.0 0.0 0.0 0.0
0.0 0.0 0.0 0.0 0.0 0.0 0.0 0.0
0.0 0.0 0.0 0.0 0.0 0.0 0.0 0.0
0.0 0.0 0.0 0.0 0.0 0.0 0.0 0.0
0.0 0.0 0.0 0.0 0.0 0.0 0.0 0.0
0.0 0.0 0.0 0.0 0.0 0.0 0.0 0.0

weight f4 [12, 64, 1, 1]
00000000: f385 e63d 5362 8fbd 831c 7a3e f0c7 5bbe
00000010: 97e2 5cbe e5d7 083e 7193 99be c5e2 943e
00000020: 92e9 95bd 04c8 af3d 088d b13d 2229 ab3c
00000030: 686e 91be ef01 29be 4d69 aebe e39c a23d
00000040: ba80 5ebc f8a6 b9bd a820 dc3d d311 153e
00000050: ab58 313e d1d4 883e e7d0 66be 3a26 bb3d
00000060: de93 c7bd b8b0 58be 7e16 b43d 83a6 763e
00000070: 7629 11be bb4a 84bd a5ae 87be 1777 043d
00000080: 36ec 1b3f af67 303e a2e3 803e 2311 8ebd
00000090: fa38 113e af68 27bd df35 783d 282d ed3d
000000a0: 5d2d e23e ad64 823d 8a6f 973c 550c 9d3d
000000b0: 2ba6 8ebd 1271 92bc 5369 23be c035 243c
000000c0: 23e3 a0bc 60a6 8d3d d237 88be e796 f73d
000000d0: db51 993c 27f6 26bd f940 043d 4586 fc3b
000000e0: fb75 963d e846 8bbd 1f15 a9bc 9d84 8c3e
000000f0: 15bd 0b3e 13ac 103e c536 273e 791f 44bd
00000100: ff6d d43e 4e70 893e 51aa 2cbe 9da1 03be
00000110: c717 c73e 66d2 1fbe feb5 37bd 0f6f e93e
00000120: c7aa 533d c720 e33d 3464 0c3d 0efc bf3b
00000130: 54e2 bb3e bd4a 6ebd 4a77 7dbd 1307 de3d
00000140: afd9 b93e eb75 503e 3b23 b8bd c527 103b
00000150: d785 83bd e948 8ebd 68f9 b7bd e26e d33b
00000160: d887 7abd bfe3 863d db5f f43d fbeb c0bd
00000170: db21 a73e 2701 893d b51a 7dbe 271d 1abd
00000180: 21e5 233e 7c7b 823e 4dcf 3fbe ca26 2abd
00000190: c406 31bd 5a6a 943e 9df1 82bd c3a5 8f3e
000001a0: 87e6 2abd a40e 96be 67ac 363e 331e cfbd
000001b0: 044f c43b 1b98 863d 90c2 933e f895 193d
000001c0: 0055 eabe a4b7 21be d70f aebe 8d36 6b3d
000001d0: cb6f 80be 8203 7a3e fc8b a83e 9b1a 2a3e
000001e0: edfb ec3d 8074 a8bc ba00 a0bd a6c5 a8be
000001f0: cb20 cebd 0578 753d a461 813e 41be 9cbd
00000200: b30e 3fbe 804d bf3d 07cf 0a3e b57f 6ebd
00000210: 8413 bb3d 3081 6d3d 1f4f 503d 35d5 fabc
00000220: 9f6d 823d 9b47 813c c7da 2abc 3fa5 08bf
00000230: 135c 953d e566 6cbd 6ee7 143e e0a8 eebd
00000240: 2885 e43e d8b0 8b3d 846e 47be b5df 9f3d
00000250: 532b c53d d322 163e e954 a23d 93de 09bf
00000260: bc57 40be f1a2 23be 2dbd 5a3e b822 813d
00000270: d97b 993e b081 8b3d ab2e a83e 43bf 07be
00000280: 1aa3 0a3e 87ed 1abe 8b30 5d3e 8543 bd3d
00000290: 9d88 d9be 55d5 ce3d 5440 ac3d 5a24 6b3e
000002a0: 5fec a73c 3a29 4bbe 5756 3d3e 682c 0e3c
000002b0: dd80 53be e51b 5abe 97d2 8b3e 3219 c03c
000002c0: fcc5 883d 595d a03e aba5 c13e 17ce 0dbe
000002d0: 371c 14be 98dd 3e3e 7598 b9be 5c0b 453e
000002e0: 9350 08be f192 983d 76a4 aebd 4722 353e
000002f0: c7d4 003e f80e 043f 1326 84bb 5751 4a3e
00000300: 3f98 11bd aab5 22be 7770 2d3d 144f a1bd
00000310: a5a4 dcbe 0396 1d3e f380 05be 7d3e 513d
00000320: bf50 e7bd 364e bd3d 2728 b9bd 676c a3bd
00000330: ed92 893d 79d8 8b3e 00c6 70be 28ab b5bd
00000340: 3baa cdbd 6a14 cbbe 06fa 9c3d 667a 0abe
00000350: 583d d33e c72d 68be b28b 2abd 40b2 c2bd
00000360: 7703 95be 03a3 fd3d 6ae9 66bc 16b3 4cbe
00000370: 5fb6 383e 6274 d1bc 0e24 983e dd63 2f3e
00000380: f709 9a3d fb45 f83e 73a2 96be 7ff3 403e
00000390: 0280 67be d016 21be 3d38 cd3d c2e3 573e
000003a0: 6a4d 603d 58f5 c33e 67f3 443d 01b3 8cbc
000003b0: 8da4 07be 95f7 063b 6557 cdbe cdf3 57be
000003c0: c6b3 c3be 6b2a 363c 28a2 17be baae 333d
000003d0: ef52 1f3d 5687 24be f6c8 1ebe e7c7 4a3d
000003e0: dd55 d1be ddec bd3e 6065 543e 3750 d8bc
000003f0: e0fd f5bc ff00 a5bd bac5 d93d c8f5 a03c
0.112560175 -0.07001176 0.24424939 -0.21462989 -0.21570812 0.13363607 -0.299953 0.2907926
-0.073199406 0.08583072 0.08669478 0.020893637 -0.28404546 -0.16504644 -0.34064713 0.0794008
-0.0135804955 -0.0906505 0.10748416 0.1455758 0.1731898 0.26724866 -0.22540627 0.091381505
-0.09745 -0.21161163 0.087933525 0.24086957 -0.14175972 -0.06459566 -0.2650043 0.032340135
0.60907304 0.17227052 0.2517367 -0.06936862 0.14181891 -0.04087132 0.06059825 0.115808785
0.44175234 0.06366859 0.018485803 0.07668368 -0.06965288 -0.017876182 -0.15958147 0.010022581
-0.019639557 0.06916499 -0.26605088 0.12089329 0.01871579 -0.040762093 0.032288525 0.007706436
0.07346722 -0.06800634 -0.020639954 0.27444926 0.13646348 0.14128141 0.16329487 -0.047881577
0.4149017 0.26843494 -0.16861846 -0.1285462 0.38885328 -0.15607604 -0.044851296 0.45592543
0.051676538 0.11090236 0.03427525 0.0058589047 0.36696112 -0.058176745 -0.06188134 0.10841193
0.36298892 0.20357482 -0.08991095 0.002199636 -0.06422012 -0.069475 -0.08983117 0.0064524272
-0.061164707 0.06586408 0.119323455 -0.0942001 0.32643017 0.06689673 -0.24717219 -0.037625458
0.16005374 0.25484836 -0.18731423 -0.0415409 -0.043219343 0.2898739 -0.0639374 0.28056154
-0.041723754 -0.29308045 0.17839204 -0.10113182 0.0059908647 0.065719806 0.28859377 0.037496537
-0.45767975 -0.1579271 -0.3399646 0.05742507 -0.2508529 0.244154 0.329193 0.16611712
0.115714885 -0.020563364 -0.078126386 -0.32963294 -0.100648485 0.059928913 0.25269806 -0.076534756
-0.18657951 0.09340954 0.13555537 -0.05822726 0.09134582 0.05798453 0.050856706 -0.030619243
0.06368565 0.015781214 -0.010428137 -0.53377146 0.072929524 -0.057715315 0.14541408 -0.11653304
0.4463284 0.0682084 -0.19475752 0.078063406 0.09627404 0.14661722 0.079263516 -0.53855246
-0.18783468 -0.15980126 0.21361227 0.0630545 0.299773 0.06811845 0.32848105 -0.13256554
0.13538781 -0.15129672 0.21600549 0.09241394 -0.4248704 0.100992836 0.08410707 0.22963086
0.020498453 -0.19839945 0.18489967 0.008677579 -0.20654626 -0.21299703 0.27309105 0.023449514
0.066783875 0.3132122 0.37821707 -0.13848148 -0.14463888 0.18639219 -0.36249128 0.19242615
-0.13311987 0.07449902 -0.08527462 0.17688857 0.12581168 0.5158534 -0.004032859 0.19757591
-0.035545584 -0.15889612 0.042343583 -0.07876411 -0.43094364 0.15389256 -0.13037471 0.051084984
-0.11294698 0.09243433 -0.090408616 -0.079796605 0.06717477 0.27313593 -0.23513031 -0.08870536
-0.100422345 -0.39664012 0.07664876 -0.13523254 0.4125774 -0.22673713 -0.04163713 -0.09506655
-0.29104206 0.12384608 -0.014093736 -0.19990191 0.18038319 -0.025568191 0.29715008 0.17127939
0.07521432 0.4849089 -0.29420814 0.18842886 -0.22607425 -0.15731359 0.10020492 0.21082976
0.054761328 0.3827312 0.04808369 -0.0171752 -0.13246365 0.0020594348 -0.4010574 -0.21089096
-0.38223094 0.011118512 -0.14807951 0.043867804 0.03889745 -0.16067252 -0.15506348 0.049507048
-0.4088582 0.37094775 0.20741796 -0.026405437 -0.030028284 -0.080568306 0.106334165 0.019648448

bias f4 [12]
00000000: 0000 0000 0000 0000 0000 0000 0000 0000
00000010: 0000 0000 0000 0000 0000 0000 0000 0000
00000020: 0000 0000 0000 0000 0000 0000 0000 0000
0.0 0.0 0.0 0.0 0.0 0.0 0.0 0.0
0.0 0.0 0.0 0.0

weight f4 [12, 12, 3, 3]
00000000: b200 a13c fda9 f43e ff8a fb3d db68 8a3d
00000010: fdd2 713d 8acf db3d 10c3 a43c 644a ad3e
00000020: 98f7 fdbc 445e 8d3e 281c 27be 709a e1be
00000030: 3b53 a9be 191f 40be bfbb 883c 91d2 9f3e
00000040: ba8f 3bbe 2cb4 4a3e 90c1 9b3d b37e 283c
00000050: 0209 153d 31b5 09be ff85 8d3d fb83 1a3c
00000060: bde3 653e 6329 a5bd 1038 d5bd 9ca8 babe
00000070: 8955 a03e 18fe d93c 9b64 663e ff1a 86bd
00000080: 458d 383e 0806 8e3e fb9e 95be 7512 57be
00000090: 79bc 853e 585d 09be dd3e ed3e 7521 d7bc
000000a0: b7e2 1e3e 504f a33e 6de9 8e3e f586 833d
000000b0: 89ee 813e edbb c0be d778 613e 2d2e fbbd
000000c0: ded5 9bbd 6fed f1bd 0fad 753d af06 fe3d
000000d0: a962 4c3e 176d 043e 8b8e 333d 4f10 eb3e
000000e0: 70e8 933c 5ff4 583e 3d76 3cbd 7d53 5c3e
000000f0: 78f8 ddbd 2d98 633d 3b09 01bd e7e4 493e
00000100: 8327 99bb 1eac 95bd 9570 ce3c 67cc 11be
00000110: 157e 5dbe e369 2e3e 5319 c63e afd8 86be
00000120: 43ae 7ebe bd21 1b3e 1321 b83e f391 e13e
00000130: ca78 7d3c 27e4 2cbe c61d 173c 7f29 e6bd
00000140: addc 9e3e 6162 8fbe 0281 673e 5077 e53c
00000150: 87d4 dfbd fd08 35be e76b f3be 0ed3 12bf
00000160: 1476 8fbe dba1 1b3e e313 febc af91 1cbe
00000170: df02 9d3e 77e8 e33d 88ed c5bd 418a bebd
00000180: fafe f3bd 26e0 873d da2e 7cbc 4022 57be
00000190: c65a 1abe bd96 cdbd 42d9 2cbe 9841 683e
000001a0: 837f c73d ef67 12bc b7cd 0dbd b773 d9bc
000001b0: 5e38 aa3e 67c8 b0be 3361 a1be df3f d5be
000001c0: 9234 5d3d 3a8d 62be db95 cc3c 6fc3 723c
000001d0: 35a8 dd3d 80be fd3b 3574 fcbe b4fe c63e
000001e0: df88 74bd 76bf 853e 5c2a 413e 25bc 51be
000001f0: dad6 bf3e 0b87 2cbe da60 1fbe 8570 e63d
00000200: fa64 06be 751b 103e f72e 98bd 1586 a9bd
00000210: e292 f83d 88a3 12be e7d7 39be 7bd2 80be
00000220: 44e6 8ebd 850f a03d 8749 783e ba45 abbd
00000230: ad29 273e df97 9c3e c840 1ebe 7ac7 e1be
00000240: d34b d5bd 6742 e73d fbd4 aa3c f532 323e
00000250: abe5 3ebe 471f 15bd bd13 f9bc ef80 983e
00000260: e1fb 243a a6cf 94be b8aa 34be 19af af3d
00000270: 40bc e3be 4f06 c43d b098 eb3d bb49 8cbd
00000280: 217b a13d c6c5 b93d 2a98 f5bd d21f 5f3e
00000290: 2c20 19be 1fc6 86bd c028 a1be b794 37be
000002a0: 50b2 dabe ae76 173e 6107 b13c 037a 2d3e
000002b0: 1632 983e c002 76be 58dc d8be e383 023f
000002c0: 4f02 e93d 22e5 853d 2b32 a8bd b597 4dbe
000002d0: 336a 4cbe 6b6d 0bbe e2c4 92be df74 903e
000002e0: 49a4 8dbc 9f2a c0be 5906 163d c53a 593d
000002f0: 3304 2d3e 6dcf 603e 6a0a 9cbe dcb8 a13d
00000300: c794 013d e10e 853d 562b 3d3e c3d6 3dbc
00000310: 570e 86ba 1099 493e 2dfe 44be 391e 04bd
00000320: af76 ba3d 17c3 bcbd 5564 3ebe 3a2a 74bd
00000330: 535a 323c 0355 25be a74c 08be 8ce5 373d
00000340: b8f9 84be 2544 1cbc 8d61 83be 8d4b 983c
00000350: df29 043e 0ef8 073e ebe5 df3d 3ba0 263e
00000360: 5c81 b0be aa8d 4e3e ad9f d83d 6f8f cfbd
00000370: 3085 e9bd e74b 993d e02f d7bc 0346 e7be
00000380: f388 25bd dabe 74be 2b35 cdbe e878 743c
00000390: 76de 9d3d 37c9 92be 10a1 3fbd f978 82be
000003a0: 3db1 5ebe 2fea 60be 4721 473d 7a9c 713d
000003b0: eb92 24bd 9f2f 58be b55d a23d dbc5 193e
000003c0: f7bd 223e c567 933d d87a c4bd af72 503e
000003d0: 6384 9e3e 4b08 83bc 5c4c 23be 7162 9fbd
000003e0: 6b27 91be a601 88be 9388 2d3e b33f e73e
000003f0: e802 493e d750 47be 8314 cdbe e4c1 a8be
0.019653652 0.4778594 0.12282371 0.06758281 0.059039105 0.10732944 0.020112544 0.33845818
-0.031001851 0.2761098 -0.16319335 -0.4406314 -0.33071312 -0.18761863 0.016691087 0.31215337
-0.18316546 0.19795293 0.076052785 0.010284114 0.036385544 -0.13448025 0.06910323 0.009430881
0.22450157 -0.080645345 -0.10411084 -0.36456764 0.31315258 0.02661042 0.22499315 -0.06548118
0.1802264 0.27738976 -0.29222855 -0.21003135 0.26120356 -0.13414514 0.46337023 -0.02626107
0.15516172 0.31896448 0.27912465 0.064222254 0.253773 -0.37643376 0.22018753 -0.12264667
-0.07609151 -0.11812865 0.059979495 0.124036185 0.19959511 0.1293224 0.04383711 0.4591088
0.01805517 0.2118697 -0.0460112 0.21516223 -0.10838407 0.055565048 -0.031502943 0.19716226
-0.0046738996 -0.073082194 0.025200168 -0.1423813 -0.21630128 0.1703258 0.38691196 -0.2633719
-0.24871163 0.15149589 0.35962734 0.44056663 0.015470693 -0.16883908 0.009223407 -0.112383835
0.31027737 -0.28004745 0.22607806 0.028010994 -0.10929208 -0.1767921 -0.4754326 -0.57353294
-0.28019774 0.15198462 -0.031015342 -0.15289949 0.30666253 0.111283235 -0.09664446 -0.093037136
-0.11913867 0.0663455 -0.01539203 -0.21009159 -0.1507369 -0.10038517 -0.16879752 0.22681272
0.09741118 -0.0089359125 -0.034620013 -0.026544435 0.3324613 -0.34527895 -0.3151947 -0.41650292
0.054005213 -0.22124186 0.0249738 0.014817103 0.108230986 0.0077436566 -0.4930741 0.38866198
-0.059700843 0.26122636 0.18863815 -0.20481928 0.37468606 -0.1684839 -0.1556429 0.1125193
-0.13124457 0.14072974 -0.07430833 -0.08277527 0.12137391 -0.14320195 -0.18148766 -0.25160584
-0.069775134 0.0781546 0.24246798 -0.08362909 0.16324492 0.30584618 -0.154544 -0.440975
-0.10414853 0.11291962 0.02085351 0.17402251 -0.18642299 -0.03640678 -0.03040492 0.2978587
0.00062936364 -0.29064673 -0.17643249 0.08578319 -0.4447956 0.09571516 0.11503732 -0.068500005
0.07884813 0.090709254 -0.119919136 0.21789482 -0.14953679 -0.06580757 -0.31476402 -0.17927824
-0.42714167 0.14791366 0.021609964 0.16941075 0.29725713 -0.24024487 -0.4235561 0.50982493
0.113773935 0.06537844 -0.08212694 -0.20077403 -0.19962387 -0.13615958 -0.28665835 0.28214166
-0.017290251 -0.37532517 0.036627147 0.053034563 0.16896133 0.21954127 -0.30476695 0.07896587
0.031636026 0.064969786 0.18473563 -0.011586848 -0.0010227662 0.19687295 -0.19237585 -0.032255385
0.09104668 -0.09216898 -0.18592961 -0.059610583 0.010885793 -0.1614571 -0.1331049 0.044896647
-0.2597177 -0.009537731 -0.25660363 0.018590713 0.12906598 0.13278219 0.10932525 0.1627206
-0.34473693 0.20171228 0.10577331 -0.1013478 -0.114023566 0.0748518 -0.026267946 -0.45170602
-0.040413808 -0.23900929 -0.40079626 0.014921404 0.07708447 -0.2866914 -0.04678446 -0.2548292
-0.21747299 -0.21964334 0.04861572 0.05898712 -0.040179174 -0.21111916 0.079280294 0.15016882
0.15892778 0.07197527 -0.09593743 0.20356248 0.30960378 -0.015995165 -0.15947098 -0.07782448
-0.28350386 -0.26563758 0.1694663 0.45165786 0.19630015 -0.19464432 -0.40054712 -0.32960427

bias f4 [12]
00000000: 0000 0000 0000 0000 0000 0000 0000 0000
00000010: 0000 0000 0000 0000 0000 0000 0000 0000
00000020: 0000 0000 0000 0000 0000 0000 0000 0000
0.0 0.0 0.0 0.0 0.0 0.0 0.0 0.0
0.0 0.0 0.0 0.0

weight f4 [12, 12, 3, 3]
00000000: 6ceb 33be 76a6 853e 0add f03d 2fe5 46be
00000010: a7a5 88be 047e 973e 5b5e febd 53c5 37bd
00000020: 6206 fcbe 0e15 95bd 0881 32be a988 3abd
00000030: 25ce edbd b3de 1f3e d3d5 d1bd ca5a cdbd
00000040: b80e 39be 91ef 4bbe ffd6 e6bd b936 19bd
00000050: c784 c33d 80ce 643e abab 20bd c9c8 34be
00000060: 4ed6 193e 96c9 b0be 37af cb3e 77f9 913e
00000070: 7a35 ddbe 8239 8d3d dd43 293e 70d0 7f3e
00000080: 98dc 283e c710 bb3e 1224 5c3e 0f12 e3be
00000090: edd9 393d 7998 a23d 1076 133e 75c8 cebd
000000a0: 5f87 363d 6d89 f03d 3f03 59be d7ba 0a3e
000000b0: 6795 9b3e 33b9 ec3d 1074 d73e edb4 1fbd
000000c0: af86 0c3e 5344 d7bd d6c7 453c c523 843c
000000d0: d820 f9bc eb33 273e 0963 49bd 4fb5 61be
000000e0: 2858 d63d f7e5 963e ebf7 033e 3d67 513e
000000f0: 650c 7c3d 4b96 e5bd 90b2 323a a799 523e
00000100: 67bf 06bd ffe5 00be aa55 5fbe dff6 e8bd
00000110: baed 503e 3f6a 93bd 63e2 9c3e e899 31be
00000120: b7e2 b63e f6b6 9dbe 3e1d a23e 2ec9 353e
00000130: 9bb3 bfbe 837b 31be d5a0 7a3d 8001 14be
00000140: 185c 8a3e 635c b8bc 12bb 963c d50e c43d
00000150: fb0c 373c 5be1 ff3e 0431 a83e 6c77 aa3d
00000160: 8066 2cbe 9450 b6be 17ef b33e a8d5 1ebd
00000170: 385c d23c b982 80be 0b42 f63c aff3 7dbc
00000180: 68c5 52be 4ee9 463e 72fc a13d ad0e fc3c
00000190: f6b0 8a3d cf72 37be d326 da3d 77bb 8cbe
000001a0: 5530 b6bd 6a39 7abe 33d1 173e cb23 efbd
000001b0: 8b57 5a3e b485 04bd d6b0 be3d e4dd 3b3c
000001c0: 65db 853e 17b0 653c e5f3 b2be 73fb 30bc
000001d0: cf85 eebc f28a 41be 6f31 edbd 265c 9e3d
000001e0: 50e9 ff3e a786 9d3e 5eac b3be 7340 433e
000001f0: 8ecd 833e 95f7 b33e 4097 0b3c 3bc5 bbbe
00000200: 3b09 5abe ef2c 603e 771a 85bd 63a1 4dbe
00000210: 8cc2 bd3d e135 abbc 04f0 333e 9f05 a13d
00000220: b714 983d 31b1 26be bad6 c9bd 7baa d33d
00000230: 9817 dc3d 07d3 343e 3f40 91bc d1d0 a9be
00000240: 2d8e 643c e11c 1bbe 5bd5 a33e 95f8 8dbe
00000250: 1ba3 4d3c d386 a8be bf3b 01be 8764 02be
00000260: f2d1 2b3e 618b a7bc f15f 93bd fabe 5abd
00000270: 6be8 273c 15f3 e33d 0c18 1dbe 62c0 113e
00000280: ad4e 5a3e 4b29 acbe 0f63 763e 8b0b 453b
00000290: cae5 783d dbd9 bc3d b78e 803e da18 363e
000002a0: d3b6 af3c 0d04 7f3d 20ca 753e 11e5 463b
000002b0: d5b7 5f3c b3c1 b63d 68c1 5d3e 13b5 953e
000002c0: 034e 81be 51f9 883e 062d 033e f774 053e
000002d0: 3f99 3cbe 9ce9 24be fde1 34be 739f f3bc
000002e0: 6148 1bbe 4b23 2dbe 0b6b 413e 18a1 2bbd
000002f0: a0bb cc3d 297d 93bd cd0f 553d 1721 19be
00000300: 8d92 0e3d 1046 d6bd 16fd 003e ed03 56be
00000310: 4fc4 bd3d e02e 3ebc 4ea5 adbd 55e5 763e
00000320: 1f23 34bd 7821 ebbc 1dff fd3c 415a 4a3e
00000330: af64 52bd 4fa8 5fbe 75b1 6bbb b84d 3fbe
00000340: 9ddd 503e 93b0 70be bf38 a13d 22d9 14bf
00000350: c794 aabe d055 bbbe d37e a73e d38c 153e
00000360: e7c5 e7bd cf77 9a3e eaab 553e 94a5 803c
00000370: 6316 b5bd 6f80 25be 9b4b 6ebe 8dd5 59bd
00000380: d2d4 c93e 2f64 e83e d200 a63d 5721 9c3d
00000390: a36e 923d e094 55be 2a33 18be 85c7 da3d
000003a0: 9161 9dbc bbbe cabe dba2 3bbb 573f c5bd
000003b0: faab 53bd f8c0 8dbe 6c07 423c c838 d2bd
000003c0: 8e1d 28bd ae22 403d 8af0 2dbb 738b 203e
000003d0: 5589 853e 88df b0be a28d 6d3e b0ca 08be
000003e0: 636d 97bd 4b5e 0abf 4831 0fbc cf52 943e
000003f0: 3e93 43be 2c3b 28be 7f39 bcbb de3e 0f3e
-0.17570275 0.26103562 0.1176091 -0.19423364 -0.26688883 0.2958833 -0.124203406 -0.044865917
-0.4922362 -0.072794065 -0.17432034 -0.045540486 -0.116115846 0.15612297 -0.10245862 -0.10027082
-0.18072021 -0.19915606 -0.11271476 -0.037405703 0.0954681 0.22344398 -0.039226215 -0.17654718
0.15023157 -0.34528798 0.39782116 0.2851064 -0.43204862 0.06895734 0.16529794 0.24981856
0.164904 0.36536238 0.21498135 -0.44349715 0.045373846 0.07939238 0.14400506 -0.10096828
0.044562694 0.11744962 -0.21192645 0.13547836 0.30387422 0.115587614 0.42080736 -0.038990904
0.13723253 -0.10511079 0.01207157 0.016130337 -0.030411169 0.16328399 -0.049166713 -0.2204182
0.10466033 0.29472324 0.12887542 0.20449539 0.061535258 -0.11210307 0.0006816769 0.20566426
-0.03289738 -0.12587737 -0.21810022 -0.11375212 0.20403185 -0.07197999 0.3064147 -0.17343867
0.35719845 -0.3080365 0.31662935 0.17752525 -0.37441716 -0.17332272 0.061188538 -0.14453697
0.27023387 -0.02250499 0.018399749 0.095731415 0.011172528 0.4997662 0.32849896 0.08323559
-0.16835976 -0.3560835 0.3514335 -0.038777977 0.025678739 -0.25099733 0.030060789 -0.015499993
-0.20583117 0.19424936 0.07909478 0.030768717 0.06772034 -0.1791489 0.106519364 -0.27486774
-0.08895937 -0.24435964 0.14825897 -0.11676749 0.21322457 -0.03235407 0.093110725 0.011466477
0.26143947 0.014019034 -0.34951702 -0.010802138 -0.02911654 -0.1890066 -0.11581694 0.0773242
0.4998269 0.30766794 -0.35092443 0.19067554 0.25742763 0.35149828 0.0085199475 -0.36673912
-0.21292584 0.21892141 -0.064991884 -0.20081095 0.092656225 -0.020899715 0.17572027 0.078624
0.07425826 -0.1627853 -0.09855409 0.10335251 0.10746688 0.17658626 -0.01773083 -0.33167127
0.013949913 -0.15147735 0.31998715 -0.27728716 0.012551094 -0.32915363 -0.12620448 -0.1273366
0.16779307 -0.020452203 -0.07196034 -0.053404786 0.010248284 0.111303486 -0.15341204 0.14233544
0.21319075 -0.33625254 0.24061225 0.0030066695 0.06076602 0.0922124 0.25108883 0.17782918
0.021449482 0.062259723 0.24002886 0.0030348937 0.013654669 0.08923664 0.2165581 0.2923971
-0.2525483 0.26752713 0.12810144 0.130329 -0.18417834 -0.1610474 -0.17664333 -0.029739117
-0.15164329 -0.16907994 0.1888849 -0.041901678 0.09996724 -0.07201607 0.052017022 -0.14954029
0.03480773 -0.10462582 0.12596545 -0.20899935 0.092659585 -0.011607856 -0.08478795 0.2411092
-0.043978807 -0.028702483 0.031005437 0.19760992 -0.05136555 -0.21841548 -0.0035963927 -0.18681991
0.20397039 -0.23504858 0.078721516 -0.5814382 -0.33316633 -0.36588907 0.32713947 0.14604501
-0.11317044 0.30169532 0.20866361 0.015703954 -0.088421606 -0.16162275 -0.23271029 -0.053182174
0.39420182 0.45388934 0.08105625 0.076235466 0.071500085 -0.20857573 -0.14863268 0.106825866
-0.019211562 -0.3959864 -0.0028631005 -0.09631222 -0.05167768 -0.27686286 0.01184259 -0.102647364
-0.04104381 0.046908073 -0.0026541078 0.15678196 0.2608134 -0.3454554 0.2319856 -0.13358569
-0.07393911 -0.5405013 -0.008739777 0.28969428 -0.19099137 -0.16428822 -0.0057441588 0.13988826

bias f4 [12]
00000000: 0000 0000 0000 0000 0000 0000 0000 0000
00000010: 0000 0000 0000 0000 0000 0000 0000 0000
00000020: 0000 0000 0000 0000 0000 0000 0000 0000
0.0 0.0 0.0 0.0 0.0 0.0 0.0 0.0
0.0 0.0 0.0 0.0

weight f4 [12, 12, 3, 3]
00000000: 375a a63e 2daf 8abc 6ffd f8bc ec45 2f3e
00000010: 6b55 febd 646f 433e 4b73 863d e584 723d
00000020: 6a7f 8e3d 4b8f 21be e3f1 033f 4f90 c13e
00000030: 7968 813e 4fcc 18be d9fb a6bd 6b11 2e3e
00000040: cb34 463e 5703 3a3e e8b7 e03d 5bcb 913c
00000050: 3b3a 83be 83dd 823e 657e b2be 3507 c3be
00000060: 973f 9fbd 12be 9fbe 8876 e63d c3a3 d8bd
00000070: af31 a73e ec10 23bd 7a7b 2ebe 5b23 54bd
00000080: b348 323e d9fa 943e 0f49 d0bd 4bfa e4bc
00000090: 2d2e 55be 9b96 b23a d3bf 6a3c ceca c63d
000000a0: fa60 5b3d ff66 323e 987c 9c3c 0f46 533e
000000b0: 0193 c4bd 334a 033e 3769 31be 2d07 6a3c
000000c0: 1886 31be 0840 b0bd 3286 94bc 6bc1 053e
000000d0: bfce 71be f0c0 043e c5a2 0ebe dd1c ea3d
000000e0: 0a00 fdbd e169 af3c bfee 0b3e 0337 aabe
000000f0: dbd0 a8be a435 27be 8fb9 9b3e 96e7 09be
00000100: eda6 ed3d d1a4 033e 42eb 09be 02e4 35bd
00000110: 4b8c fe3e 1d89 0e3e b207 a3bc b3bd f1bc
00000120: e0ce 6f3e 0b7c c5bd 8b16 c13d 05bf f43e
00000130: 80b0 1dbd 3a7b 703e fbc0 2d3e 23fb 803e
00000140: ce9e 163e a8ba 8c3b f80b 323d 20d0 183c
00000150: 43b1 983e 790b 1cbe 53f7 e93e ee53 b83e
00000160: f4cb 3ebe b011 ce3d 7f6f 63bd a4d4 9a3a
00000170: ac1d 233e 589e eb3d c5a0 6a3e 75f3 71bd
00000180: 5f98 10bf b7d9 1bbd c599 71be b3be 44be
00000190: a89f be3d 93b4 033e f5fd e6be 17e1 24be
000001a0: f847 e0bc 3768 633e d0c9 6ebe d099 5c3e
000001b0: 87c7 b5be f305 8f3e 3310 f83d 4f12 0abe
000001c0: 4330 493e 03e0 94bd ef30 dc3e a83b 593e
000001d0: 0045 7dbe a374 153e ef52 f63e 2473 103e
000001e0: ce81 46bd 8fb1 713e 6aa7 7c3e df95 b2be
000001f0: 941d c7be 4a74 cc3c 4cc2 293e 42a2 3dbd
00000200: 5de1 743d ecb0 12be e91d 03be 31a0 c23b
00000210: 5ce7 aa3d d380 2b3e bd8c e43e 54c3 8abc
00000220: 7601 893d a526 21be e707 6ebc c8f2 5a3d
00000230: c524 0fbe c225 6d3d 3d0f 96bd 49c9 aebd
00000240: 67f6 19be 326f efbe 5033 913d dfa5 97bc
00000250: 9e01 893d ff07 4dbd 40d9 133e 3a1e 2abf
00000260: f0f2 9f3d e1b5 c53d f974 993d 8587 003e
00000270: 81f7 97bd 3a3e 1dbc cf95 dc3c 958b 053e
00000280: 91ad b83d 97c1 35be 83be a3bd ff88 a8be
00000290: 4d60 81bc 9f5a 66be 6de8 d43c 8fec 19bb
000002a0: 0377 d63d fe8a 9e3b 3290 37be 7a20 623e
000002b0: 5dba 4fbd 5f80 06be 97d3 9cbd 8464 9abd
000002c0: f8e8 eb3d 835e 8c3e 735e 5c3e 4dfc cd3e
000002d0: 920c 05bd 5851 3c3e 06d5 423e f34b 873e
000002e0: 50b4 713e 7064 5f3e 97d0 e93e 7225 1c3d
000002f0: 5d14 3dbd 2432 4c3e 37cb bd3c 967a 093d
00000300: 2b5b a23d f399 74be cd55 3a3e 0d1f 79bd
00000310: ff1e 78be e2be c5bd 077b c63e d04e 6d3d
00000320: 94af 213d 903f 97bd 1079 d13e 933d a43e
00000330: 1b0b 883e cbd0 e63d f279 723d 255e 50be
00000340: 8ca8 0f3e a3df bfbd 9839 35be 5cc6 2ebe
00000350: b5fa a9bd c376 20be 7a55 853d d337 5c3c
00000360: 4643 10be 11a1 993c 976d 6f3e e749 113d
00000370: aaa0 d2be 1f8c 393d 335d 6cbe b64e 8abd
00000380: e8ee d63b ab2f 64bc 63eb ba3e 92d7 d3ba
00000390: e53d 72bd 779a bfbe 08ab 923d 638c 3cbe
000003a0: 741f 8a3c 1dec 6e3e e39e f13c 0ca6 843e
000003b0: abf0 e0bd e123 96bd dcd5 c23e 5ae7 303e
000003c0: 8b85 da3d 9117 c4be 3f56 d23c 13f5 213e
000003d0: abc7 8bbd 9dea debd b4df 0d3e 8d82 78be
000003e0: 08e6 d43d db6e 793e 7658 b9bc a3e9 7a3c
000003f0: 6a16 a4be 2149 b5bd 2961 01bf 2bad bdbb
0.32490703 -0.016929233 -0.030394284 0.17116517 -0.12418636 0.19085461 0.06564959 0.05920877
0.06957896 -0.15777318 0.51540965 0.3780541 0.2527502 -0.14921688 -0.08153505 0.16998832
0.19356076 0.18165337 0.10972577 0.017797163 -0.25630364 0.25559625 -0.34862056 -0.38091436
-0.07775801 -0.311997 0.11253077 -0.1057811 0.32655093 -0.03981106 -0.1703929 -0.05179153
0.17410545 0.29097632 -0.10170185 -0.02795138 -0.20818396 0.0013625206 0.014327961 0.09706651
0.05355928 0.17422102 0.01910238 0.20632194 -0.09598351 0.12821274 -0.17325293 0.014283937
-0.17336309 -0.08605963 -0.018130396 0.13062064 -0.23614024 0.12964225 -0.13929279 0.114312865
-0.12353523 0.021412792 0.13665293 -0.33245096 -0.32971844 -0.16329056 0.30415007 -0.1346725
0.11604104 0.12855841 -0.1346865 -0.0444069 0.4971641 0.13919492 -0.01990113 -0.029509401
0.2341876 -0.096428 0.09428128 0.47801986 -0.0384984 0.23484507 0.16968147 0.25191602
0.14709017 0.004294712 0.043468446 0.009326965 0.2982274 -0.15238751 0.45696506 0.36001533
-0.1863249 0.100619674 -0.055526253 0.001181264 0.15929288 0.11504811 0.22912891 -0.05907007
-0.564825 -0.038049426 -0.23593815 -0.19213371 0.09307796 0.12861852 -0.4511563 -0.1610149
-0.027378067 0.22207724 -0.23319173 0.2154305 -0.3550379 0.27934226 0.12112465 -0.13483547
0.19647317 -0.07269289 0.43006083 0.21214163 -0.24733353 0.14595275 0.48110148 0.14106423
-0.048463635 0.2360289 0.24673238 -0.34879968 -0.38889754 0.024957795 0.16578025 -0.04629732
0.059785236 -0.14325303 -0.12804379 0.0059395065 0.083449095 0.16748361 0.44638625 -0.016938843
0.06689732 -0.15737398 -0.014528251 0.05345419 -0.1397887 0.057897337 -0.07327125 -0.08534486
-0.15035401 -0.46764523 0.07089865 -0.01851171 0.066897616 -0.050056454 0.14438343 -0.6645237
0.078100085 0.09653831 0.07493014 0.12551697 -0.074202545 -0.0095973555 0.026926903 0.13041528
0.0901748 -0.1774963 -0.079953216 -0.3291702 -0.01579299 -0.22495507 0.025989735 -0.0023486947
0.104719184 0.0048383465 -0.179261 0.22082701 -0.05071484 -0.13134907 -0.07657545 -0.07538703
0.11519045 0.27415857 0.21520405 0.40231553 -0.03248269 0.18390405 0.19026574 0.26425132
0.2360394 0.21815658 0.45666954 0.038121648 -0.046161998 0.19941002 0.02316819 0.033564173
0.07927545 -0.23886852 0.18196793 -0.060820628 -0.24230574 -0.09655549 0.38765737 0.05793649
0.039474085 -0.073851705 0.40912676 0.32078227 0.26570973 0.11270293 0.059198327 -0.20348413
0.1402914 -0.09368827 -0.17697752 -0.17067856 -0.08299772 -0.15670304 0.06510444 0.013441044
-0.14088163 0.01875356 0.23381649 0.03547087 -0.41138202 0.045299646 -0.23082428 -0.06753294
0.0065592416 -0.013927381 0.3650771 -0.0016162267 -0.05914106 -0.37422535 0.07161528 -0.18412928
0.016860701 0.23332258 0.029494708 0.25907934 -0.10983404 -0.07331062 0.38053787 0.17275754
0.106700025 -0.3829923 0.025675891 0.15816145 -0.06825193 -0.10884593 0.13854867 -0.24268551
0.103954375 0.24358694 -0.02262519 0.015314492 -0.3204835 -0.08851839 -0.5053888 -0.0057884655

bias f4 [12]
00000000: 0000 0000 0000 0000 0000 0000 0000 0000
00000010: 0000 0000 0000 0000 0000 0000 0000 0000
00000020: 0000 0000 0000 0000 0000 0000 0000 0000
0.0 0.0 0.0 0.0 0.0 0.0 0.0 0.0
0.0 0.0 0.0 0.0

weight f4 [12, 12, 3, 3]
00000000: cfd0 233e 79c4 bbbd 0766 df3e e241 63bd
00000010: 1497 863e 2da1 7cbe 761b a5bd 8a28 4c3e
00000020: a38c 93be 15d7 a5bd 1b53 dbbc 93a7 81be
00000030: 433e 853d 27de 7c3c 428c 46bc 488e f0be
00000040: cb60 c73d 7a9c 82be 8b16 ab3d 6d62 2d3d
00000050: cb41 113e 0754 af3c 9273 acbd e6a5 bc3d
00000060: bafd fdbd b777 9fbd 47aa 22be a343 aa3d
00000070: 03cd 2cbc 180f 463e 2ccc 3abe 3f83 62bd
00000080: 0626 293e a272 22be f124 92be 79d1 113e
00000090: 8f8b 46be 02b7 8a3d f2ce 823e 2a56 e9bd
000000a0: 47e0 90be eb66 083d 7335 90bd f29c 3d3d
000000b0: a43b 16be f2a3 22be de69 b3bd 3d02 53be
000000c0: 1be9 14be 50be b53d 331a 9c3d c088 b1b8
000000d0: effb 8d3c 4036 cebe 6dbe 76bc 820f dfbc
000000e0: 3fc2 25bc c548 dbbd b940 b7bd cdf5 f93d
000000f0: 378d 1bbe b727 863e b375 31bd bda4 273d
00000100: 6833 ee3d 6761 60be a138 2c3e fb42 3e3e
00000110: a470 053d 5051 e13b 0e4c 863e 5fed a33e
00000120: ea70 babe 365f 4a3e 67d3 34be eb66 0a3e
00000130: 7cac 3abd 97f3 ae3d 456a 8fbe 7f02 99be
00000140: 4aee 4ebe abb3 c03c e81b 9d3e c0d4 e2be
00000150: b315 a03c cba1 0bbe 6296 9fbd 5a11 edbd
00000160: 90df 4f3e bf63 763e f2f4 b3bc 3aba 333e
00000170: f3f3 7bbe ad26 b0bd c39b 11be 59d8 0fbe
00000180: 7ef4 00bf 9399 9fbe 4a0b 5ebe ba4b 183e
00000190: 6042 5bbe ecef 9a3e df50 473e f6aa c9be
000001a0: 9b15 eb3e 0b3a 6a3e 3d15 5cbe 7c1b 21be
000001b0: 99aa 313e 1812 9f3e ddbd 913c 62f8 46be
000001c0: 2708 8b3d f4d0 433d a602 a73d 8621 99bc
000001d0: f33e c93c e1cf babd 005c 0f3e b661 0dbd
000001e0: 7a2c 6dbe 6f66 b73d 42e1 7bbe 1cd0 a4be
000001f0: 53c7 f33d 7d2a 753d 7b82 363e 2299 48bb
00000200: 2b05 3c3e b576 0d3d 5c53 1a3e f08b 08be
00000210: a455 013e 4b9f 343e 1040 1abe 8fd5 883e
00000220: 96ff a03d 750c 1c3e 48cf ffbd dce6 ae3d
00000230: 3cfc 8f3c d82f ccbd 2f3b 16be 42ee dfbd
00000240: 8721 ba3e cc94 1d3d 466e 1dbc b5a7 6abe
00000250: 64ba 8b3d c47d b7bd dbe8 9fbd ef83 7b3e
00000260: 25f5 883e a0cb ad3c b1eb 21be 1676 8abd
00000270: a5eb 24be 4f04 26bc d3d0 1dbd c8f6 42be
00000280: b209 e43c c173 203e b389 423d eed4 82be
00000290: 0816 5d3d d19d 96be 125a 63be 6c18 223e
000002a0: 1b85 4bbe c781 f6bc b54e fcbd 25ab 53be
000002b0: 2df3 f63e bc7d 11be 29d7 06bd 3377 b1bd
000002c0: 1d3b 123d 9bf0 7a3e ab19 89bd 3788 33be
000002d0: f21e 88bd dfa6 80bd ed9b 4fbd 7d78 bbbb
000002e0: ba3b 973e 2703 e5bc 7dfa 033d a88e b2bc
000002f0: 9865 d4be a0b6 ff3d caa3 9fbe 1e31 afbd
00000300: 2a6e 513e 4f68 bdbe 8ba2 d43e 53f2 2f3e
00000310: 70b9 71be 739b 60be 8b1b 283e 5877 113e
00000320: 88b5 34be bd9a a9bd 490a 0bbe 35ee 943d
00000330: c955 2c3d 3e13 4b3e 3e62 4cbe 0797 a93b
00000340: 38ff e8b9 7ad7 95bd fa9f e43d b758 53bd
00000350: b758 63bb 17bb 063f f874 21be d328 683d
00000360: 1f4e 0cbe 6324 733e ecf1 4a3e ffb2 8f3c
00000370: 1173 bd3e 621c 0f3e 0b00 09be 5b0d 00be
00000380: 60d8 56bd 3f95 c4bd cff1 dbbe dfb8 263e
00000390: bb49 663e 66c2 ad3c be5b 253e 0f28 e73d
000003a0: 92bc abbb ef6e fabd 40be 67bd 4145 2a3c
000003b0: 1625 babd 05a8 5a3d d870 dbbd 47fc 843e
000003c0: 55d1 9bbe dd0c 743e 3ba6 22be 8074 fa3d
000003d0: 8040 3abd b9dc 833e 18ec 5abe d76e 9e3c
000003e0: c3ca 183e 127d 77be 4007 1ebe 0196 bd3d
000003f0: defd 313e 188f ab3c 20d3 b6bd 6293 33be
0.15997623 -0.091683336 0.43632528 -0.055482753 0.26287138 -0.24670859 -0.080618784 0.1993734
-0.28818235 -0.08097664 -0.026773026 -0.2532316 0.06506016 0.015433825 -0.012118401 -0.46983552
0.09735259 -0.25510007 0.08353909 0.042330194 0.14185254 0.021402372 -0.08420481 0.0921133
-0.1240191 -0.07786506 -0.15885268 0.08313682 -0.0105469255 0.19341695 -0.18241948 -0.055300947
0.16518411 -0.15864041 -0.2854381 0.14240064 -0.19389175 0.06773187 0.25548512 -0.113933876
-0.2829611 0.033301275 -0.07041445 0.046292253 -0.14671189 -0.15882853 -0.08760427 -0.20606323
-0.14542048 0.0887419 0.076221846 -8.4654894e-05 0.017332045 -0.40275764 -0.0150600495 -0.027229074
-0.010117113 -0.10707239 -0.08947892 0.12205086 -0.15190588 0.26202175 -0.043325137 0.04092859
0.11630899 -0.21912156 0.16818477 0.18580239 0.032578126 0.0068761483 0.262299 0.32017037
-0.36414272 0.19762883 -0.17658769 0.13515823 -0.04557465 0.08542555 -0.28010765 -0.29884717
-0.20208088 0.023523172 0.30685353 -0.4430294 0.019541597 -0.13635938 -0.07792355 -0.11575575
0.20300126 0.24061488 -0.021967385 0.17551509 -0.24604778 -0.08601127 -0.14219575 -0.14047374
-0.50373065 -0.31171855 -0.21683994 0.14872637 -0.21412039 0.3026117 0.19464444 -0.39388245
0.4591492 0.22873704 -0.21492477 -0.1573314 0.17350234 0.31068492 0.01779073 -0.19430688
0.06788664 0.047806695 0.08154802 -0.018692743 0.02456615 -0.09121681 0.13999939 -0.034517013
-0.23161498 0.089550845 -0.24597648 -0.32190025 0.119032525 0.059854973 0.17823212 -0.0030608852
0.18361346 0.034537036 0.15070862 -0.13334632 0.12630326 0.1763889 -0.150635 0.26725432
0.07861249 0.15239127 -0.12490708 0.08540127 0.01757633 -0.09970063 -0.14671014 -0.10934116
0.36353704 0.038471982 -0.009608811 -0.22915538 0.068226606 -0.08959535 -0.078080855 0.24562047
0.2674953 0.02121526 -0.15812565 -0.06760804 -0.16105516 -0.010132863 -0.03852923 -0.19039452
0.027836654 0.15669157 0.0474946 -0.25553077 0.05397609 -0.2941728 -0.22202328 0.15829629
-0.19874994 -0.03009118 -0.123197 -0.20670755 0.48232403 -0.1420812 -0.032920036 -0.086653136
0.035700906 0.24505846 -0.06694349 -0.1753243 -0.06646527 -0.06281828 -0.05068581 -0.0057211504
0.29537755 -0.027955605 0.032221306 -0.02179654 -0.4148376 0.12486005 -0.3117965 -0.0855429
0.2045218 -0.36993644 0.4153026 0.17182283 -0.23605895 -0.21934299 0.16416757 0.14205682
-0.17647374 -0.08281467 -0.13578142 0.07271997 0.042074 0.19831559 -0.19959351 0.0051754746
-0.0004444064 -0.073164895 0.111633256 -0.051598277 -0.003469033 0.52629226 -0.15767276 0.056679558
-0.13701676 0.23744349 0.19818848 0.017541407 0.3700185 0.13975671 -0.13378923 -0.12505095
-0.052452445 -0.09598779 -0.42957923 0.1628146 0.22489063 0.02121086 0.16148278 0.112869374
-0.005240985 -0.1222819 -0.05657792 0.010392488 -0.09089105 0.053382892 -0.107148826 0.25973722
-0.30433145 0.23833032 -0.15883724 0.12229252 -0.04547167 0.25754336 -0.21379125 0.019339962
0.14921097 -0.24168804 -0.15432453 0.092571266 0.17381999 0.020942256 -0.08926988 -0.17536691

bias f4 [12]
00000000: 0000 0000 0000 0000 0000 0000 0000 0000
00000010: 0000 0000 0000 0000 0000 0000 0000 0000
00000020: 0000 0000 0000 0000 0000 0000 0000 0000
0.0 0.0 0.0 0.0 0.0 0.0 0.0 0.0
0.0 0.0 0.0 0.0

weight f4 [64, 12, 1, 1]
00000000: cde9 a83e 762f 343c a31a e03e 2d68 cbbd
00000010: 07a9 5dbd 9331 1cbe fdad 2dbd c14f 4cbd
00000020: 97e9 82be 8f57 4fbe 157a bf3e 8b34 ebbd
00000030: a383 3bbe 7adc d13e 0b7c 5b3d 95c3 58be
00000040: 48cd 4bbe 6847 6fbd 4f90 d13d 5320 003d
00000050: e5f4 ee3d 8f5a 413e 38b5 93be cfd7 aa3d
00000060: 014b 30be 38a8 943d 4c42 89be 125a 70bd
00000070: 556e f13d 62c3 1abd 6707 193d 47aa edbd
00000080: e95d 023c 8c8a 873d eda8 e53d 57c7 8b3e
00000090: 826b 273e bb47 e1bd 4548 53bd 6f6c 503e
000000a0: cd65 7a3e 7bff d0bd 9f35 033e 7d50 0abe
000000b0: f97b 073e 401b 563d b8c2 e2be 2b86 dfbd
000000c0: 66f2 02be c27a e3be 8bf0 49bc 5432 06be
000000d0: a2a0 853d 6279 23be b2d6 68be 2025 593b
000000e0: b5c8 dd3d c7e7 9ebe 28d7 e5be 61b9 0dbe
000000f0: 6b7b d2bd f4d0 133d 4a04 963d 6301 6f3e
00000100: fbc2 873d e094 e8bd d870 703e 43e6 8cbe
00000110: 636a 8d3e 3589 febd 427a ce3c 40c2 09bf
00000120: 502a e93e a6ca cabd d7c1 6abe 518d 03be
00000130: 2bd8 0b3d 9237 9fbd bf49 aebd c567 4abe
00000140: 71cd 04be 2f5a 62be 562a a9be b5ab ba3c
00000150: 1e20 153e 4369 5cbc ee7d 08bd 8efd 8a3c
00000160: c349 ec3d 4ab3 5bbe da22 bebe f70c bcbd
00000170: c6ef 2abe 3749 143e 2309 fbbb 9f28 623d
00000180: b77e 0fbe a5df c33e aba5 58be 5071 ecbd
00000190: 5602 b83d db0c 9abd cf8b 0d3e dfb7 d73d
000001a0: cf55 dbbd 135c bdbd ff53 32be 25ea 81be
000001b0: d6f8 46be b2b3 eebe b8d4 913d 25c1 8dbe
000001c0: 1d41 df3d db01 aabd 174b 82bc d3d7 d03d
000001d0: ddad 72be 3f08 7fbe dba9 c0bd 907d 5ebe
000001e0: 5b60 893e 3908 89be 558d 453e 6b72 f3bd
000001f0: a8ac 673e 6261 d6bd 6879 573e d181 0abd
00000200: 3025 22be f6d0 acbd 63ab 303f 97e7 cebc
00000210: 68ad 7dbe 28ef a33d f058 7f3d d7e5 a23e
00000220: 518c 18be 576b 133e 9ef6 293e daaf 3bbe
00000230: c621 28be 49ba c5bd 3dcf 293d eb81 74bc
00000240: b81a fa3d cd28 cf3e 560b 863d 27ad 11be
00000250: bdb7 d23c 67f8 ff3b af54 02be be5d ab3e
00000260: 0165 993d e007 433d dadb 6d3e b3ec 313e
00000270: f238 a63e 0bc4 db3d 7219 7d3e 759b 95be
00000280: 72c8 213d 0749 a0bb 4d23 793e ff75 4ebe
00000290: 7826 d0be e9a1 87be c5a8 77bd bf14 11be
000002a0: a3ab 183e 6533 9abe 8f91 94be db16 c9bc
000002b0: bbc1 11be bb37 183f eb3f 313e ffd9 6dbe
000002c0: 6531 7b3e fe08 8c3c e79d e6bd fdf3 733d
000002d0: 13e3 063d a3b3 5b3d f531 f9bd ebec 8f3e
000002e0: 75d9 06bb 6538 b3bd f3a8 bd3d 39ee b9be
000002f0: 7bdc 0ebe 48a5 02bd e522 0d3f 186d 183e
00000300: 7a74 953e 288e 33bd dbf5 0c3c 5b0d cb3d
00000310: a961 97bd 4be2 9e3c 5344 0e3e 5cbb 2cbc
00000320: 78af 483e 3e6a 233e c764 9b3c 9c04 b03e
00000330: 4b74 1e3e 9c65 3cbc f605 433d d7f1 e2bd
00000340: b3f0 3dbd af6a 1bbe 67f3 05bf b34c 1dbd
00000350: b6d5 b5be 7208 5f3e 49c9 1ebc 731d 273d
00000360: 7388 dcbd 93a6 20be f7dd 113e d7ad 54bd
00000370: 8388 523e 41d3 c1bd 0f20 023c 7212 04be
00000380: 7ac2 71be 91d7 a4be a6d0 a33d d61b 2a3e
00000390: a083 38bd 0ecf 01bc 3769 41bd c770 6a3e
000003a0: 9f70 6abe 7f25 36be 4fe9 a9bd 6d4f 83be
000003b0: 63b5 debe 4699 45be eb0b 03be 6d1e ba3d
000003c0: 9833 8cbc ce13 963e d321 e93d 86d7 81bd
000003d0: b7a1 9d3e 9873 ebbc 08f3 b0be 98bc 073c
000003e0: cf63 11bd a5df 7ebe 9001 6dbd 8b9a d93d
000003f0: f767 fbbd 5fef f6be 1d62 793d a42d a13c
0.32990876 0.010997644 0.43770322 -0.09931979 -0.054116275 -0.15253286 -0.042402256 -0.049880747
-0.2556884 -0.20248245 0.3739783 -0.11484631 -0.18311934 0.40988523 0.053585093 -0.21168359
-0.19902527 -0.058417708 0.10232603 0.031280827 0.11667804 0.18882202 -0.28849196 0.083419435
-0.17216112 0.07258648 -0.26808393 -0.058679648 0.11788622 -0.037783988 0.037360575 -0.116047435
0.00795696 0.066182226 0.11213861 0.27300522 0.16349605 -0.110000096 -0.051582593 0.20353864
0.24452896 -0.10204979 0.12813424 -0.13507266 0.13230886 0.05227208 -0.44289184 -0.109142624
-0.1278778 -0.44429594 -0.012325416 -0.13105136 0.06524779 -0.15964273 -0.2273815 0.00331337
0.108292975 -0.31036207 -0.44890714 -0.13840248 -0.10277446 0.036087945 0.07325037 0.23340373
0.066289864 -0.11356521 0.23480546 -0.27519426 0.2762023 -0.12428514 0.025204781 -0.53812027
0.45540094 -0.09901933 -0.22925507 -0.12846877 0.0341417 -0.07774271 -0.0851016 -0.19766147
-0.12968995 -0.22104715 -0.33040112 0.022786954 0.14563033 -0.013452831 -0.03332322 0.016966607
0.115375064 -0.21455112 -0.37135965 -0.0918216 -0.16693029 0.14481054 -0.0076610013 0.05521452
-0.14013182 0.38256565 -0.21156947 -0.1154505 0.089848205 -0.07521983 0.13822864 0.105331175
-0.10709726 -0.092460774 -0.17414854 -0.2537395 -0.19430861 -0.46621472 0.07120651 -0.2768642
0.10901091 -0.08301135 -0.015904946 0.10197415 -0.23699136 -0.2490549 -0.09407397 -0.21727586
0.26831326 -0.26764086 0.19292195 -0.11887058 0.22624457 -0.10467793 0.21042407 -0.03381521
-0.15834498 -0.08438294 0.69011515 -0.025256915 -0.2477318 0.080046 0.062340677 0.3181598
-0.14897276 0.14396416 0.16597983 -0.18328801 -0.16419134 -0.09654672 0.041457403 -0.014923553
0.122121274 0.40460816 0.06545131 -0.14226209 0.025722379 0.0078115943 -0.12727617 0.33469957
0.07489968 0.047614932 0.23228398 0.1737545 0.3246532 0.107307516 0.24716738 -0.29220167
0.0394978 -0.004891518 0.24329872 -0.201622 -0.4065435 -0.26490715 -0.060463686 -0.1416807
0.14909224 -0.30117336 -0.29017302 -0.024547031 -0.14234059 0.5946004 0.17309539 -0.2322769
0.24530561 0.017094132 -0.11260586 0.059558857 0.0329314 0.05363811 -0.12167732 0.28110442
-0.0020576392 -0.08750991 0.0926074 -0.36314562 -0.13951294 -0.031895906 0.5513137 0.14885366
0.29190427 -0.043836743 0.008603538 0.09914657 -0.07391674 0.019395014 0.13893251 -0.010542717
0.19598186 0.15958497 0.018968953 0.34378517 0.1547405 -0.011498835 0.047613107 -0.110812835
-0.046372127 -0.15177415 -0.5232453 -0.038403224 -0.3551461 0.21780565 -0.009691545 0.04079957
-0.10768213 -0.15688543 0.14244829 -0.0519236 0.20559888 -0.094641216 0.007942214 -0.12897661
-0.23609343 -0.32195714 0.07998781 0.16612181 -0.045047402 -0.007922901 -0.04721948 0.22894584
-0.22894524 -0.17787741 -0.08296453 -0.25646535 -0.43497762 -0.1929675 -0.12797515 0.090878345
-0.017114446 0.29311985 0.113834046 -0.06339936 0.3078744 -0.028741643 -0.34560418 0.00828471
-0.035495576 -0.24890001 -0.05786282 0.1062518 -0.12275689 -0.482295 0.060884584 0.019675083

bias f4 [64]
00000000: 0000 0000 0000 0000 0000 0000 0000 0000
00000010: 0000 0000 0000 0000 0000 0000 0000 0000
00000020: 0000 0000 0000 0000 0000 0000 0000 0000
00000030: 0000 0000 0000 0000 0000 0000 0000 0000
00000040: 0000 0000 0000 0000 0000 0000 0000 0000
00000050: 0000 0000 0000 0000 0000 0000 0000 0000
00000060: 0000 0000 0000 0000 0000 0000 0000 0000
00000070: 0000 0000 0000 0000 0000 0000 0000 0000
00000080: 0000 0000 0000 0000 0000 0000 0000 0000
00000090: 0000 0000 0000 0000 0000 0000 0000 0000
000000a0: 0000 0000 0000 0000 0000 0000 0000 0000
000000b0: 0000 0000 0000 0000 0000 0000 0000 0000
000000c0: 0000 0000 0000 0000 0000 0000 0000 0000
000000d0: 0000 0000 0000 0000 0000 0000 0000 0000
000000e0: 0000 0000 0000 0000 0000 0000 0000 0000
000000f0: 0000 0000 0000 0000 0000 0000 0000 0000
0.0 0.0 0.0 0.0 0.0 0.0 0.0 0.0
0.0 0.0 0.0 0.0 0.0 0.0 0.0 0.0
0.0 0.0 0.0 0.0 0.0 0.0 0.0 0.0
0.0 0.0 0.0 0.0 0.0 0.0 0.0 0.0
0.0 0.0 0.0 0.0 0.0 0.0 0.0 0.0
0.0 0.0 0.0 0.0 0.0 0.0 0.0 0.0
0.0 0.0 0.0 0.0 0.0 0.0 0.0 0.0
0.0 0.0 0.0 0.0 0.0 0.0 0.0 0.0
