weights/No_Optim_VDSR_model_path.pth (torch, 601375 bytes, 6 tensors)

weight f4 [64, 1, 3, 3]
0	0xbe4905ee	-0.19631168
1	0xbde037dc	-0.10948154
2	0x3decd5dc	0.11564228
3	0xbdfe2020	-0.12408471
4	0xbdbc79c6	-0.09202914
5	0x3ea9f64d	0.33195725
6	0xbd9b2ef4	-0.07577315
7	0xbe83a96e	-0.25715202
8	0xbe10c078	-0.14135921
9	0xbe823030	-0.2542739
10	0xbcc88c70	-0.024481028
11	0x3e198bbe	0.14994714
12	0xbdec5f50	-0.11541617
13	0x3e690f3a	0.22759715
14	0x3e9b66d9	0.30351904
15	0x3e9bb999	0.30415037
16	0x3e315d7e	0.1732082
17	0x3e984069	0.2973664
18	0x3e2eb3ca	0.17060772
19	0xbe547d1e	-0.20750853
20	0x3ea38475	0.31936994
21	0x3dbb5530	0.091471076
22	0xbe9fb39c	-0.3119172
23	0x3ea15041	0.3150654
24	0xbcf14570	-0.029452056
25	0xbe5a4bdb	-0.21317999
26	0x3dfae56c	0.1225079
27	0x3e22f75e	0.15914676
28	0x3e2673ae	0.16255066
29	0xbe5f11ab	-0.21784084
30	0x3e898bab	0.2686437
31	0x3d9b7f3c	0.075926274
32	0x3e7d0b4a	0.24711338
33	0x3ea34417	0.31887886
34	0x3ca81480	0.020517588
35	0xbe3e36eb	-0.18575637
36	0xbe356f60	-0.17718267
37	0x3e1df252	0.15424469
38	0xbe7c00e0	-0.24609709
39	0xbe403bc6	-0.18772802
40	0xbce6da30	-0.028180212
41	0x3e6b704e	0.2299206
42	0xbd99c7dc	-0.07508823
43	0x3e421372	0.1895273
44	0x3e91cf55	0.28478494
45	0x3ded7984	0.11595443
46	0xbddbc12c	-0.10730204
47	0x3e063a32	0.13108137
48	0x3d95dbfc	0.07317349
49	0xbe3f7bb3	-0.18699531
50	0x3e2c22f2	0.16810206
51	0xbe1f0226	-0.15528163
52	0xbe18a61e	-0.14907119
53	0xbe54b788	-0.20773137
54	0x3e81b137	0.25330517
55	0x3e2bfe6a	0.1679627
56	0x3e2793c0	0.16364956
57	0x3cdccdc0	0.026953578
58	0xbe83608c	-0.25659597
59	0xbe3bc383	-0.183363
60	0x3dd1dc50	0.102470994
61	0xbd487f58	-0.04894957
62	0x3e8a1d19	0.26975325
63	0xbe9613ba	-0.29311925
64	0xbe61a84e	-0.2203686
65	0x3e996853	0.29962406
66	0x3e51f11e	0.20502135
67	0xbe9fe9ce	-0.31233066
68	0x3d8307e4	0.063979894
69	0x3d6d4258	0.0579246
70	0xbe9a4c66	-0.30136412
71	0x3ea5473f	0.3228092
72	0x3cda8540	0.026674867
73	0x3e77153a	0.24129191
74	0xbe93070f	-0.28716323
75	0xbe497960	-0.19675207
76	0xbea22048	-0.31665254
77	0xbe54884e	-0.20755121
78	0x3e85311d	0.26014033
79	0x3e0a9a5a	0.13535443
80	0xbe13cbde	-0.14433238
81	0x3e912cc9	0.2835448
82	0x3e232850	0.15933347
83	0x3e8718e9	0.26386192
84	0xbe1c0363	-0.15235667
85	0x3c281b80	0.010260463
86	0x3d768428	0.060184628
87	0xbcc140f0	-0.023590535
88	0xbcb3c5f0	-0.02194497
89	0xbd0b9d60	-0.03408563
90	0x3ea66a3f	0.32502934
91	0x3e61e6b2	0.2206066
92	0x3ea9c37f	0.33156964
93	0x3db45dfc	0.088069886
94	0xbe975bdb	-0.29562268
95	0xbdbce530	-0.092234015
96	0xbe800436	-0.25003213
97	0x3e89725d	0.26845065
98	0xbdee25e6	-0.11628322
99	0xbe5d50ab	-0.21612804
100	0xbda7b40c	-0.08188638
101	0x3e844e45	0.25840965
102	0xbe78868e	-0.24270079
103	0x3e7c0b4e	0.24613687
104	0xbdf2043c	-0.11817214
105	0xbe25cc70	-0.16191268
106	0xbe8a8564	-0.27054894
107	0xbc26b200	-0.010174274
108	0xbe8e8f02	-0.2784348
109	0x3da6961c	0.081341
110	0x3d81c740	0.06336832
111	0x3df05eb0	0.1173681
112	0xbe9a525e	-0.30140966
113	0x3e612cee	0.21989796
114	0xbdfc2030	-0.12310827
115	0x3e75ab6a	0.2399117
116	0x3d8d9fe4	0.06915262
117	0x3c035fe0	0.008018464
118	0x3e5342ce	0.20630953
119	0x3e50e76e	0.20400783
120	0xbdec76b0	-0.11546075
121	0x3dd5abec	0.10433182
122	0xbd80dffc	-0.06292722
123	0x3c641be0	0.013922662
124	0x3de16b7c	0.11006829
125	0x3db6817c	0.08911416
126	0xbe488006	-0.19580087
127	0x3ea25749	0.31707218
128	0xbdfa6f66	-0.12228279
129	0x3dfeeb14	0.12447181
130	0xbe07d0e3	-0.13263278
131	0x3ea58c27	0.3233349
132	0x3e9039c7	0.2816908
133	0x3e97f9bb	0.29682717
134	0x3e33f17a	0.17572585
135	0xbe66779e	-0.22506568
136	0xbd169b28	-0.036769062
137	0x3e6b8bfa	0.23002616
138	0xbc36dde0	-0.011161298
139	0x3e8df797	0.2772796
140	0x3e6f90fe	0.23395154
141	0x3cdc7090	0.026909143
142	0x3e4d949a	0.20076218
143	0x3e6304c2	0.22169784
144	0xbe4ea708	-0.20180905
145	0xbd85d784	-0.06535247
146	0x3e91c7cd	0.28472748
147	0x3e46654e	0.19374582
148	0x3dccc94c	0.09999332
149	0xbe9b1bc0	-0.3029461
150	0xbe84c4be	-0.25931352
151	0xbdf5bd06	-0.11998944
152	0x3e4f3c2a	0.20237795
153	0xbe90e40e	-0.28298992
154	0x3e521ffa	0.2052001
155	0x3d4a7880	0.049431324
156	0x3dc2b43c	0.09507033
157	0x3e034e6e	0.12822887
158	0x3d89c55c	0.067270964
159	0xbdf163bc	-0.11786601
160	0x3c8668d0	0.0164074
161	0x3e83a1f9	0.25709513
162	0x3e5f7bd6	0.21824583
163	0x3e9e3b79	0.3090475
164	0xbe93854e	-0.2881264
165	0x3e31aef2	0.17351893
166	0xbea4a7b0	-0.32159185
167	0x3e5e3cfe	0.21702954
168	0xbdf8c4bc	-0.12146899
169	0xbea6d16a	-0.32581645
170	0x3e01a768	0.12661517
171	0xbdab43b0	-0.0836252
172	0x3e5161aa	0.20447412
173	0x3a883b00	0.001039356
174	0x3e8d784d	0.27630845
175	0xbe5816ae	-0.21102402
176	0x3e0eb520	0.13936281
177	0x3e85fde3	0.26170263
178	0xbea000c3	-0.3125058
179	0xbe034443	-0.12819009
180	0xbe0fc646	-0.14040479
181	0xbe4ec868	-0.20193636
182	0x3e507be2	0.20359758
183	0xbdf78760	-0.120863676
184	0x3dc4a270	0.09601295
185	0xbdf8b5dc	-0.12144062
186	0xbe366398	-0.1781143
187	0x3de8021c	0.11328527
188	0xbe9b9ab8	-0.3039148
189	0xbe96424e	-0.2934746
190	0xbe689668	-0.22713625
191	0x3e6c4b12	0.23075512
192	0x3dc5fdac	0.09667525
193	0xbb97afc0	-0.0046291053
194	0x3e6e08ea	0.23245588
195	0x3e66741e	0.22505233
196	0x3adb9400	0.0016752481
197	0x3e014536	0.12624058
198	0xbe9e2013	-0.30883846
199	0x3e0df746	0.13863859
200	0xbe2399ae	-0.15976593
201	0x3e6d4256	0.23169836
202	0xbd0224e0	-0.031773448
203	0x3c8a9f70	0.016921729
204	0x3e118e62	0.14214471
205	0xbe5e524e	-0.21711084
206	0x3d1a0af8	0.037608117
207	0xbe90f208	-0.28309655
208	0xbd423cf8	-0.047421426
209	0xbe119f3e	-0.14220902
210	0xbea47576	-0.32120866
211	0x3dae20dc	0.08502361
212	0x3e1cc388	0.15308964
213	0xbe4963ae	-0.19666931
214	0x3e5bfe8e	0.21483824
215	0xbe903ae6	-0.28169936
216	0xbda3ce7c	-0.07998368
217	0x3e4d322a	0.20038667
218	0x3e8c1a09	0.27363613
219	0xbcd65b50	-0.026166588
220	0xbd340fe8	-0.043960482
221	0xbc0d8120	-0.008636743
222	0x3e86e06b	0.26343092
223	0xbe222538	-0.1583451
224	0x3e77189a	0.24130479
225	0xbdbab160	-0.09115863
226	0xbe054aae	-0.1301677
227	0xbe665140	-0.22491932
228	0x3e873e49	0.26414707
229	0xbe0c36e6	-0.13692817
230	0x3e00712e	0.12543175
231	0xbb5f7d80	-0.0034101903
232	0xbdce32b6	-0.10068266
233	0xbe6a55e3	-0.22884326
234	0xbe90fb10	-0.28316545
235	0x3e20d4d2	0.15706185
236	0xbe7c816b	-0.24658744
237	0xbc3ae820	-0.011407882
238	0x3e69242a	0.22767702
239	0x3e236410	0.1595614
240	0x3e2f215a	0.17102566
241	0xbe9ee39a	-0.3103302
242	0x3e04b3c6	0.12959203
243	0x3ea74a21	0.32673743
244	0xbe03a7ee	-0.12857029
245	0xbd434920	-0.04767716
246	0x3e984107	0.29737112
247	0xbd8f2670	-0.06989753
248	0xbdd15316	-0.102209255
249	0x3e9c88e7	0.30573198
250	0x3ea3a163	0.31959066
251	0x3ea0d76d	0.31414357
252	0xbe89df00	-0.26927948
253	0x3ea1c595	0.31596056
254	0xbe300788	-0.17190373
255	0xbe352cc6	-0.17692861

weight f4 [64, 64, 3, 3]
0	0x3a61c340	0.00086121634
1	0xbcab3da0	-0.020903409
2	0x3d04aded	0.03239243
3	0xbc8b4cab	-0.017004332
4	0x3d232bcf	0.0398367
5	0xbcb5b4c3	-0.02218092
6	0xbca1da43	-0.019757396
7	0xbc2c98cc	-0.0105344765
8	0xbb9cb248	-0.004781995
9	0x3b2c3190	0.0026274659
10	0xbc5e6096	-0.013572833
11	0x3cf4bc1a	0.02987485
12	0x3d295db5	0.04134913
13	0x3ac1a3e0	0.001477357
14	0xbd0510c6	-0.0324867
15	0xbaa68120	-0.0012703277
16	0xbc8e5ecb	-0.017379185
17	0x3cd837a2	0.026393715
18	0xbce15a33	-0.02750883
19	0x3d220f09	0.03956512
20	0x3cf6cfa6	0.030128311
21	0xbc9fec76	-0.019521933
22	0x3a586fc0	0.0008256398
23	0x3d188b2b	0.037242096
24	0xbd1ec1ef	-0.03875917
25	0xbceb1e60	-0.028701007
26	0x3c1f1ab0	0.009710953
27	0x3d0674e7	0.03282633
28	0xbcb53218	-0.022118613
29	0xbca9a4ab	-0.020708403
30	0x3c0c8f90	0.00857915
31	0x3cbbdfb2	0.022933815
32	0x3cc9d0ea	0.02463575
33	0xbc893440	-0.016748548
34	0xbd0812de	-0.03322112
35	0x3c941892	0.018078122
36	0x3d15afa9	0.036544476
37	0xbcad7cb6	-0.02117763
38	0x3b170080	0.002304107
39	0xbd103d4c	-0.035214707
40	0xbce35456	-0.027750175
41	0x3cb5c0a6	0.022186588
42	0x3d23877b	0.039924126
43	0x3cf3e252	0.029771004
44	0xbcb6295b	-0.022236517
45	0xbc81d220	-0.015847266
46	0x3d126c4b	0.035747807
47	0x3be34c28	0.0069365688
48	0x3cd44d0a	0.025915641
49	0xbcb10253	-0.021607554
50	0xbc8208c8	-0.015873328
51	0x3d05fcd1	0.032711808
52	0x3c685a74	0.014181722
53	0xbd144cae	-0.03620594
54	0x3cb9e302	0.022691254
55	0xbba199c0	-0.0049316585
56	0xbd06a7c4	-0.032874838
57	0xbd178d66	-0.037000082
58	0xbd002c3a	-0.031292178
59	0xbce8f1ae	-0.028435554
60	0xbc416d50	-0.011805847
61	0xbb12fbb0	-0.002242785
62	0x3d09b8c5	0.033623476
63	0xbc9d8d1b	-0.019232323
64	0xbc008f4c	-0.007846665
65	0xbd03276b	-0.032020014
66	0xbc403890	-0.011732236
67	0x3d146e39	0.03623793
68	0xbc979abb	-0.018506398
69	0xbc72df40	-0.014823735
70	0xbd05cc52	-0.03266556
71	0x3d22944f	0.03969222
72	0xbb647f50	-0.0034865923
73	0x3c5e29ec	0.0135598
74	0x3d068357	0.0328401
75	0xbcdb371b	-0.026759675
76	0x3ce17272	0.027520392
77	0xbcd09e43	-0.02546609
78	0x3ce6d8aa	0.028179485
79	0x3d14dcaf	0.036343273
80	0xbcd53c0b	-0.026029607
81	0x3b5bd190	0.0033541657
82	0x3d0d8689	0.03455213
83	0xbcfa7e33	-0.030577755
84	0x3d0fba5d	0.03508984
85	0x3d19488d	0.037422705
86	0xbd0b2d53	-0.03397877
87	0xbca66d9e	-0.020315941
88	0xbcf53f7e	-0.029937502
89	0xbbf25038	-0.0073948167
90	0xbbd86440	-0.0066037476
91	0xbd12dbe6	-0.035854243
92	0xbcf4392b	-0.029812416
93	0xbc435fbc	-0.01192468
94	0x3c970f28	0.018439844
95	0xba945c20	-0.0011318959
96	0x3d2226f7	0.03958794
97	0xbc9efa20	-0.019406378
98	0xbc9b6cd6	-0.018972795
99	0x3c9a62e2	0.01884598
100	0xbcec497e	-0.028843638
101	0xbd20c888	-0.03925374
102	0x3cfd2ed2	0.030906115
103	0xba2e80c0	-0.00066567585
104	0x3d0f5f9d	0.035003293
105	0x3d108ccb	0.03529052
106	0xbc891653	-0.016734278
107	0xbc706056	-0.014671406
108	0xbc43f480	-0.011960149
109	0xbbe60848	-0.00702003
110	0xbc8c7e9e	-0.01715022
111	0x3c915256	0.017739456
112	0x3ccfa252	0.025345955
113	0x3cc94d86	0.024573099
114	0xbcbb9b03	-0.022901064
115	0x3d1db4c5	0.038502473
116	0xbc7bf720	-0.015378743
117	0xbc8d854e	-0.017275479
118	0xbd199163	-0.037492167
119	0xbc657b30	-0.014006421
120	0x3c7045cc	0.014665078
121	0xbd0c71b2	-0.034288116
122	0x3d21c19f	0.039491292
123	0x3c625cbc	0.013816055
124	0xbcbb1036	-0.022834878
125	0xbb9f0d00	-0.0048538446
126	0x3d186ec1	0.037215
127	0xbb4a68f0	-0.0030885302
128	0x3d26c8cd	0.040718842
129	0x3bece6a0	0.007229641
130	0x3d0623fb	0.032749157
131	0xbd29d1df	-0.041459914
132	0x3c6fa580	0.014626861
133	0xbd09b0aa	-0.033615746
134	0x3d22ef6d	0.039779115
135	0xbca21e18	-0.01978974
136	0x3d1fb1fb	0.038988095
137	0xbd1ed742	-0.038779505
138	0xbb9848c8	-0.004647348
139	0xbc94271e	-0.018085059
140	0x3c92de6a	0.01792832
141	0x3d1ea219	0.038728807
142	0x3d05f49d	0.032703985
143	0xbbe19fb8	-0.006885495
144	0xbd1ac1d4	-0.037782505
145	0x3d0f70b9	0.03501961
146	0xbcf1b638	-0.029505834
147	0x3d03e721	0.032202844
148	0xbcb2a948	-0.021809235
149	0x3c97b38e	0.018518236
150	0x3c3c7750	0.011503056
151	0xbd1f1ba6	-0.038844727
152	0x3cdeaa86	0.027180921
153	0xbc0f1ef0	-0.008735403
154	0x3b5a5f00	0.0033320785
155	0x3d039aa1	0.032129887
156	0x3b91ec28	0.004453201
157	0xbd1eefd6	-0.038802944
158	0xbb84b248	-0.004049573
159	0xbd0313e2	-0.032001384
160	0xbcfd6e63	-0.030936426
161	0xbc9731e3	-0.018456405
162	0xbca86cd8	-0.020559713
163	0xbcc8b830	-0.02450189
164	0xbacf09e0	-0.001579579
165	0xbc45c3cc	-0.012070607
166	0x3c034fb4	0.008014608
167	0x3cfcff0a	0.03088333
168	0x3b8ab9a8	0.0042335577
169	0xbd1ab87c	-0.037773594
170	0x3c96faf0	0.018430203
171	0xbad866a0	-0.0016510077
172	0x3cc1edda	0.023672987
173	0xbcc95018	-0.024574324
174	0x3ce611e6	0.028084707
175	0x3d1dae99	0.038496587
176	0x3be17de8	0.0068814643
177	0xbd1c152e	-0.038106136
178	0x3c121b70	0.008917674
179	0x3d1a3087	0.037643936
180	0xbd1180f6	-0.035523377
181	0x3cf040b2	0.029327724
182	0x3cdac84a	0.026706833
183	0xbd0ba91c	-0.034096822
184	0xbc2c8e70	-0.010532007
185	0x3c48d904	0.012258772
186	0xbd193d67	-0.037412073
187	0xbc76daec	-0.0150668435
188	0xbd1f1e34	-0.038847163
189	0xbcb897a0	-0.022533238
190	0x3d212469	0.039341364
191	0x3c8460a0	0.016159356
192	0x3d1cfb97	0.038325872
193	0x3cc2bfe2	0.023773137
194	0x3cde443a	0.027132142
195	0x3c903538	0.017603502
196	0xbcabb0e3	-0.02095837
197	0xbc826b20	-0.015920222
198	0x3bbd6488	0.0057798065
199	0xbba97dc8	-0.005172465
200	0xba8134e0	-0.0009857677
201	0xbcc2bb2b	-0.02377089
202	0x3c6ff560	0.014645904
203	0x3ca74eb2	0.020423267
204	0xbb873408	-0.0041260757
205	0xbb899418	-0.0041985624
206	0x3d1802e5	0.037112135
207	0x3cfe893a	0.031071294
208	0xbacebb80	-0.0015772432
209	0x3bb901a8	0.0056459494
210	0x3cb144aa	0.021639187
211	0xbd1f670c	-0.038916633
212	0xbcf9becb	-0.030486485
213	0x3c936f46	0.017997395
214	0x3d1e4801	0.038642887
215	0xbc987d90	-0.01861456
216	0xbd05c3f2	-0.03265757
217	0x3cdac7fa	0.026706684
218	0x3c32d614	0.010915298
219	0xbc0369a0	-0.008020788
220	0x3ca3cc4a	0.019994874
221	0xbd228bf3	-0.039684247
222	0xbccf68a3	-0.02531845
223	0xbbd009e8	-0.006348837
224	0x3c236470	0.009972677
225	0x3bb3af60	0.005483553
226	0xb9d38580	-0.0004034452
227	0xbd06f1b8	-0.032945365
228	0xbd2220f4	-0.039582208
229	0x3d1526ed	0.036414076
230	0xbcd87973	-0.026425099
231	0x3c51b0b4	0.012798477
232	0xbc0dce24	-0.008655105
233	0x3d171a49	0.0368903
234	0x3ce727e6	0.028217267
235	0x3d0cf81d	0.034416307
236	0x3ad18300	0.0015984476
237	0xbcbaed03	-0.022818094
238	0xbd251c02	-0.040309913
239	0x3bd9bef8	0.0066450797
240	0x3cc7e432	0.024400804
241	0xbcaf6566	-0.021410655
242	0x3cc0821e	0.023499545
243	0xbc153650	-0.009107187
244	0x3c9d395a	0.019192386
245	0x3c9fb62e	0.01949605
246	0xbc4291c0	-0.01187557
247	0xbd2494ec	-0.040181085
248	0x3cfe5142	0.031044606
249	0x3cb458fa	0.022015084
250	0x3c81aa38	0.015828237
251	0xbb8229b8	-0.0039722584
252	0x3c097824	0.00839046
253	0x3cfb1f72	0.030654643
254	0x3c7486dc	0.014924731
255	0xbbf46940	-0.007458836

weight f4 [64, 64, 3, 3]
0	0x3d129047	0.035782125
1	0xbcee7116	-0.029106658
2	0xbd163f94	-0.036681727
3	0xbc689a1c	-0.014196899
4	0xbd0eba8a	-0.034845866
5	0x3c9444a0	0.01809913
6	0x3b0545d0	0.00203358
7	0xbbb6cc40	-0.0055785477
8	0xbcd416f8	-0.025889859
9	0x3cd95876	0.02653144
10	0x3d078f09	0.033095393
11	0x3d178605	0.036993045
12	0x3c142114	0.00904109
13	0xbc5c0dec	-0.013431054
14	0xbc165efc	-0.0091779195
15	0xbca6f10b	-0.02037861
16	0xbb48a2d0	-0.0030614622
17	0x3c3f9260	0.011692613
18	0xbcceb3de	-0.025232252
19	0x3ce8f732	0.028438184
20	0xbd079bf2	-0.033107705
21	0x3bbeada0	0.0058190376
22	0x3cfd121a	0.03089242
23	0xbcbef14e	-0.023308422
24	0x3c9c7e22	0.019103114
25	0x3cef3ee6	0.029204797
26	0x3b5e27f0	0.0033898316
27	0xbc85891e	-0.016300734
28	0xbd214568	-0.03937283
29	0x3d0d17fb	0.034446698
30	0x3cfe4252	0.031037483
31	0x3c145da0	0.009055525
32	0xbd0302f8	-0.031985253
33	0x3d27a7c9	0.040931497
34	0x3c331a50	0.010931566
35	0xbd0d2430	-0.03445834
36	0xbcaa87f0	-0.020816773
37	0x3ad73aa0	0.001642067
38	0xbb43e970	-0.0029893778
39	0x3c76c86c	0.015062433
40	0x3be422a0	0.0069621354
41	0x3b03daf0	0.002011951
42	0x3c28566c	0.010274511
43	0xbce773b6	-0.028253417
44	0xbcb5bab0	-0.022183746
45	0x3cff6676	0.031176787
46	0x3adfaa80	0.0017064363
47	0x3d2438c9	0.040093217
48	0x3b16a650	0.0022987314
49	0xbbc22a48	-0.0059254505
50	0xbd0d5b33	-0.034510802
51	0xbc0c4aec	-0.008562785
52	0x3c7a9610	0.015294567
53	0x3cd51d46	0.026014935
54	0x3d19e133	0.037568282
55	0x3c9d23e0	0.019182146
56	0x3cb01502	0.021494392
57	0xbb82f040	-0.003995925
58	0x3d0b5953	0.034020733
59	0x3cce6342	0.025193814
60	0x3c74dccc	0.01494522
61	0xba259fc0	-0.0006318055
62	0xbca8a0c8	-0.020584479
63	0x3bd5cfb8	0.006525006
64	0xbc392770	-0.011300907
65	0xbd1d578a	-0.038413562
66	0x3ccee0d2	0.025253687
67	0x3c6a1be0	0.0142888725
68	0xbd225337	-0.03963014
69	0xbc988f03	-0.01862288
70	0xbc4950d6	-0.012287339
71	0x3ac15400	0.0014749765
72	0xbbdeb960	-0.0067970008
73	0xbcf29bde	-0.029615339
74	0xbd1411bf	-0.036149736
75	0xbca0bf63	-0.01962251
76	0x3cc60732	0.024173353
77	0xbc3af070	-0.011409864
78	0x3cab8a5a	0.020939995
79	0xbcae2e7b	-0.021262398
80	0xbb8636c0	-0.004095882
81	0x3c4906e4	0.012269709
82	0xbd10cd6f	-0.035352167
83	0xbcd323ce	-0.025773909
84	0xbcd12568	-0.025530532
85	0x3c2a9134	0.010410596
86	0x3ce11c82	0.027479414
87	0xbcc6ca06	-0.024266254
88	0x3cd53b82	0.026029352
89	0xbba92af8	-0.005162593
90	0xbb9cfd80	-0.0047909617
91	0xbc7bdc40	-0.015372336
92	0x3c225c50	0.009909704
93	0x3cd649c6	0.026158225
94	0xbd0abdec	-0.03387253
95	0xbbdb6398	-0.006695222
96	0xbb928028	-0.004470844
97	0x3ca032a0	0.01955539
98	0xbd1790ff	-0.037003513
99	0x3b693f30	0.0035590641
100	0xbbdd2c98	-0.0067497008
101	0x3caaaf8e	0.020835664
102	0xbb23a6b0	-0.002497118
103	0x3c8bc466	0.017061424
104	0xbd0ef10f	-0.03489786
105	0xbd1137aa	-0.035453476
106	0xbd0cd57e	-0.03438329
107	0x3d2872ab	0.04112498
108	0xbd04e294	-0.032442644
109	0xbd199e02	-0.037504204
110	0x3d118c91	0.035534445
111	0x3c22c890	0.009935513
112	0xbce61c56	-0.028089684
113	0x3c5a4100	0.013321161
114	0x3c680c40	0.014163077
115	0xbd21fefa	-0.039549805
116	0x3ba29528	0.0049616285
117	0x3d1cda57	0.038294163
118	0x3b0c0ac0	0.0021368712
119	0x3c29c2f4	0.010361422
120	0xbc69839c	-0.0142525695
121	0x3be55218	0.0069983117
122	0x3c964582	0.01834369
123	0x3ca24876	0.019809943
124	0x3d1e21f3	0.038606595
125	0xbc900816	-0.01758198
126	0xbd13005f	-0.035889026
127	0xbc85dd28	-0.016340807
128	0xbd05ab53	-0.03263409
129	0xbd159b30	-0.03652495
130	0x3c0fd600	0.008779049
131	0xbd19df10	-0.037566245
132	0xbc93c198	-0.018036649
133	0xbc0dad30	-0.008647248
134	0xba7beac0	-0.00096098706
135	0xbd1aa0e6	-0.0377511
136	0x3b267a50	0.0025402494
137	0xbc545f76	-0.012962213
138	0xbcdb08e8	-0.026737645
139	0x3b7c3c90	0.0038488247
140	0xbcbc6536	-0.02299748
141	0x3c2505bc	0.010072168
142	0xbc092374	-0.008370269
143	0xbc937fc6	-0.018005263
144	0xbb590080	-0.003311187
145	0x3d1649e7	0.036691573
146	0x3d077bc9	0.033077035
147	0xbc09d46c	-0.008412462
148	0xbd158c36	-0.03651067
149	0x3cf9a56a	0.030474383
150	0x3cee9696	0.02912454
151	0xbcc2cf48	-0.02378048
152	0xbb48c170	-0.0030632876
153	0xbc1d08f4	-0.009584654
154	0xbc5dffc0	-0.013549745
155	0x3bc4be08	0.006004099
156	0xbae81a80	-0.0017708093
157	0x3cf81af2	0.030286286
158	0x3c85943e	0.016306039
159	0xbc92f29e	-0.017937955
160	0x3cec056a	0.028811175
161	0xbd2552a2	-0.040362008
162	0x3a5db140	0.0008456893
163	0x3caf61e6	0.021408986
164	0xbd261a4e	-0.04055243
165	0x3d099e33	0.033598136
166	0x3c0cc054	0.0085907765
167	0xbca825cb	-0.020525834
168	0x3d04b9ed	0.032403875
169	0xbd0f4cc2	-0.03498531
170	0xbb14f3b0	-0.0022728257
171	0xbd1df946	-0.038567804
172	0x3c91543e	0.017740365
173	0x3cd5bbce	0.026090529
174	0x3caba32a	0.020951826
175	0xbc831a70	-0.016003817
176	0xbc2e6150	-0.010643318
177	0x3c66ffcc	0.014099073
178	0x3c4eab10	0.012614027
179	0x3d1fef81	0.039046768
180	0x3bd9c3d8	0.006645661
181	0x3cb88d62	0.022528354
182	0xbce2a3be	-0.027665969
183	0x3cb2eb16	0.021840613
184	0xbce66b03	-0.028127199
185	0x3cb656b2	0.022258136
186	0xbc350f7c	-0.011051055
187	0x3cc3759a	0.023859788
188	0xbcc006ae	-0.023440685
189	0xbc927233	-0.01787672
190	0xbcca7a88	-0.02471663
191	0x3cdaca22	0.026707713
192	0x3cde1672	0.027110312
193	0xbc0f9180	-0.008762717
194	0x3c1e5fe0	0.009666413
195	0xbc5935c6	-0.0132574495
196	0xbaefff20	-0.0018310286
197	0x3d1739bb	0.03692029
198	0x3a9619a0	0.0011451729
199	0xbba88778	-0.0051431023
200	0x3b9c73e8	0.0047745593
201	0xbcde4100	-0.027130604
202	0x3ceefc66	0.029173087
203	0xbcd16ab3	-0.025563573
204	0x3d220c63	0.039562594
205	0x3d1afee7	0.03784075
206	0xbc9fa788	-0.019489065
207	0x3ca570a2	0.02019531
208	0xbd0232df	-0.031786796
209	0x3d0905ff	0.033452984
210	0x3cc5f2ce	0.02416363
211	0x3b416140	0.0029507428
212	0xbc7ef9e6	-0.01556251
213	0x3c3fec00	0.011713982
214	0xbd066513	-0.032811236
215	0x3cb83782	0.022487406
216	0xbc074c4c	-0.008257937
217	0xbca4a9ce	-0.0201005
218	0xbca68dc6	-0.020331275
219	0x3d1a7679	0.03771064
220	0xbcf1ad16	-0.02950148
221	0x3b245890	0.0025077201
222	0x3c55d1b4	0.013050485
223	0xbd12a2f7	-0.035799947
224	0x3d1e08c9	0.038582597
225	0x3d113b15	0.035456736
226	0x3d1a5c1f	0.03768551
227	0x3b572490	0.003282819
228	0x3c5ad3d4	0.013356168
229	0x3ce9e292	0.02855042
230	0x3cc62c66	0.024191093
231	0xbd10a840	-0.035316706
232	0xbb88c8e0	-0.004174337
233	0x3936b300	0.00017423555
234	0x3c8b0ffe	0.0169754
235	0xbc8de750	-0.017322212
236	0x3c5540d0	0.013015941
237	0x3d00897d	0.03138112
238	0x3c946300	0.018113613
239	0x3cc41942	0.023937825
240	0xbcd4bee8	-0.025969937
241	0xbc341f60	-0.0109938085
242	0x3bbd4e20	0.0057771355
243	0xbc9d1bc0	-0.019178271
244	0xbd0c15ef	-0.034200605
245	0xbc73d1bc	-0.014881548
246	0x3c9e96a6	0.019358944
247	0xbc61f360	-0.013790935
248	0xbd28d1f0	-0.041215837
249	0x3cf40d4e	0.0297915
250	0xbcb80e7b	-0.022467842
251	0xbb80d1c8	-0.003931258
252	0xb8fe5200	-0.000121269375
253	0xbc52ec5c	-0.012873735
254	0xbd0885d3	-0.03333075
255	0xbd26e64b	-0.04074697

weight f4 [64, 64, 3, 3]
0	0xbd126abf	-0.035746332
1	0xbd0b23bb	-0.033969622
2	0x3cfb877e	0.030704256
3	0x3d08a99b	0.033364873
4	0xbc84cda6	-0.016211342
5	0x3cae6e42	0.02129281
6	0xbc9958b3	-0.018719053
7	0x3c8f40c6	0.017486941
8	0x3c782f04	0.015147928
9	0xbc6ccec6	-0.0144535955
10	0xbb8bd028	-0.0042667575
11	0xbcaf23d8	-0.021379396
12	0x3ca9beb8	0.020720825
13	0x3bb62e40	0.0055597126
14	0x3c8997c8	0.016796008
15	0xbc15b470	-0.009137258
16	0xbc9489a3	-0.018132037
17	0xbd0bff74	-0.034179166
18	0xbd111224	-0.03541769
19	0x3cc80e06	0.02442075
20	0x3c91747a	0.017755736
21	0xbc3317c6	-0.010930961
22	0xbce7b503	-0.028284555
23	0x3cbb02ea	0.022828538
24	0x3c83df92	0.016097818
25	0x3c85e206	0.016343128
26	0x3cc093d2	0.023507986
27	0xbc77710c	-0.015102636
28	0x3c939b22	0.018018309
29	0x3bb14a18	0.005410444
30	0xbbd77800	-0.0065755844
31	0x3c09197c	0.008367892
32	0xbc85a4f6	-0.016314011
33	0x3cabf4a2	0.020990673
34	0x3cfaac12	0.030599628
35	0x3bfc8908	0.007706765
36	0xbc37f1bc	-0.011227068
37	0x3ca64e86	0.020301115
38	0xbc1c2534	-0.009530354
39	0xbd15b828	-0.03655258
40	0x3c821b78	0.015882239
41	0x3cd3ce3e	0.02585518
42	0xbcbf9838	-0.023388013
43	0x3c89ad4e	0.01680627
44	0x3ba51108	0.0050374307
45	0xbc14df00	-0.0090863705
46	0x3cb50e12	0.022101436
47	0x3b6856f0	0.003545221
48	0xbc28c520	-0.0103009045
49	0xbc913aa3	-0.017728155
50	0xbb711000	-0.0036783218
51	0x3d29894b	0.0413907
52	0xbd0a9dda	-0.033841945
53	0x3bb6ac00	0.005574703
54	0xbc78952c	-0.015172284
55	0x3c7926cc	0.015207004
56	0x3d128e09	0.035779987
57	0x3cbe122a	0.02320202
58	0xbbc937b8	-0.0061406754
59	0xbc8ff533	-0.017572975
60	0xb96f8800	-0.0002284348
61	0x3ce708da	0.028202463
62	0x3bff17d8	0.007784825
63	0x3d20a163	0.03921641
64	0x3d000731	0.03125686
65	0x3bc244c8	0.0059286095
66	0x3d11269b	0.035437208
67	0xbd251e3c	-0.040312037
68	0xbc40b47c	-0.011761781
69	0x3d251241	0.04030061
70	0x3cc28962	0.02374715
71	0x3c75ffcc	0.0150146
72	0xbc937168	-0.017998412
73	0x3b36a810	0.002787117
74	0x3b365a90	0.0027824976
75	0xbd005268	-0.03132859
76	0x3acdaaa0	0.0015691109
77	0xbc575986	-0.013143903
78	0xbd0793fe	-0.03310012
79	0xbbc738a0	-0.0060797483
80	0x3d212015	0.039337236
81	0xbcc47508	-0.023981586
82	0xbc0793f4	-0.008275021
83	0xbd0a2f76	-0.03373667
84	0xbc03c57c	-0.008042689
85	0x3c697dc0	0.014251173
86	0xb9ca4f80	-0.00038587674
87	0xbcd45d03	-0.025923258
88	0x3917fd00	0.00014494732
89	0xba005dc0	-0.00048967823
90	0xbca632db	-0.020287922
91	0x3c5b44a0	0.013383061
92	0xbd1a775a	-0.03771148
93	0x3c9d8976	0.019230586
94	0xbaa3e480	-0.0012504011
95	0x3cb6a282	0.022294287
96	0x3cd43e2a	0.025908548
97	0x3d09ae49	0.033613477
98	0x3c323290	0.010876313
99	0xbcc3b63b	-0.023890605
100	0x3c97fd7e	0.018553492
101	0xbcfd0388	-0.030885473
102	0xbc474dac	-0.0121645145
103	0x3cef78ea	0.029232461
104	0x3b763d50	0.0037573166
105	0x3a919b60	0.0011108927
106	0x3cf63892	0.030056272
107	0x3c207430	0.009793326
108	0x3c1f5e64	0.009727094
109	0xbc105f2c	-0.008811753
110	0x3ca6daaa	0.020367939
111	0x3d19aa6d	0.037516046
112	0x3be86f80	0.00709337
113	0x3b98b3e8	0.0046601184
114	0x3d0a4869	0.033760462
115	0xbcd2419b	-0.025666049
116	0x3d07fe7d	0.033201683
117	0x3cd7318a	0.02626874
118	0xbd296cbc	-0.041363463
119	0x3c6d7bac	0.014494818
120	0xbd10ecbf	-0.03538203
121	0x3b973758	0.004614752
122	0xbaddee60	-0.0016932003
123	0x3c9dfb8a	0.019284982
124	0xbd029c6f	-0.031887468
125	0xbc9651a6	-0.01834948
126	0xbccf7603	-0.025324827
127	0xbbf4baa8	-0.00746854
128	0xbc853146	-0.016258847
129	0x3cbf334a	0.023339886
130	0x3d03409d	0.032044042
131	0x3cfae876	0.030628424
132	0x3ce988ca	0.028507609
133	0xbc02fa84	-0.007994298
134	0xbbd12dd8	-0.006383639
135	0xbd1be4a8	-0.03805986
136	0xbca2a126	-0.019852232
137	0x3d1a30ab	0.03764407
138	0x3d15c519	0.03656492
139	0x3b08dc40	0.0020883232
140	0xbc87375b	-0.016505888
141	0x3c4ed364	0.012623642
142	0x3c101280	0.008793473
143	0x3cb8ff6a	0.022582728
144	0x3c1c6800	0.00954628
145	0x3cae1f26	0.021255087
146	0xbc7b17ac	-0.015325468
147	0x3d218ee3	0.039442908
148	0x3c08a944	0.008341137
149	0xbcc28456	-0.023744743
150	0x3c92d550	0.017923981
151	0xbbb4ff18	-0.0055235736
152	0x3d1a7559	0.037709568
153	0x3c93d416	0.018045466
154	0xbcc1ab18	-0.023641154
155	0x3d1ab9bf	0.037774798
156	0xbb68a450	-0.0035498329
157	0xbd2363ab	-0.039889973
158	0x3cc77c3a	0.024351228
159	0xbc36e1f0	-0.011162266
160	0x3ce21c5a	0.02760141
161	0x3cc3eb6a	0.023915965
162	0xbcab7e08	-0.02093412
163	0x3cf53a0e	0.02993491
164	0x3c0ecb50	0.008715466
165	0x3c9e566e	0.019328322
166	0x3ca16fd8	0.019706652
167	0x3d13a665	0.036047358
168	0xbc8a59a3	-0.016888445
169	0x3c8c9982	0.017163042
170	0x3c39c914	0.011339445
171	0xbc864656	-0.01639096
172	0xbc86aac0	-0.016438842
173	0xbac68a80	-0.0015147477
174	0xbccc3ce6	-0.024931382
175	0xbc964b1e	-0.018346366
176	0x3c4e49f0	0.01259087
177	0x3ae4e8a0	0.0017464347
178	0x3ba91978	0.005160507
179	0x3ba0e4b8	0.004910078
180	0xbcb65ea8	-0.022261932
181	0xbd22732b	-0.039660614
182	0xbc269db4	-0.010169435
183	0x3c8d3322	0.017236296
184	0x3c7cb5cc	0.015424203
185	0xbcaa489e	-0.02078658
186	0x3d27268f	0.040808257
187	0x3d0af1df	0.033922072
188	0xbcc84c6e	-0.024450507
189	0x3c13da54	0.009024221
190	0x3c7ad56c	0.015309673
191	0xbc7c7f10	-0.015411153
192	0x3d0567e3	0.032569777
193	0xbca288f3	-0.019840693
194	0x3cacd20a	0.021096248
195	0x3c975268	0.018471912
196	0x3c9cb050	0.019127041
197	0xbba56298	-0.0050471537
198	0x3ca09c1e	0.019605692
199	0x3c811a48	0.015759602
200	0xbc2fd786	-0.010732537
201	0x3d252c3f	0.0403254
202	0xbc8a45e0	-0.016879022
203	0xbc764516	-0.01503112
204	0x3c0a79ec	0.00845192
205	0x3bae24c0	0.0053144395
206	0x3cb798be	0.0224117
207	0x3d0be7d5	0.03415664
208	0xbcdead5e	-0.027182277
209	0xbbb0d360	-0.0053962916
210	0xbcd9cd38	-0.026587114
211	0x3c56f284	0.013119344
212	0xbc50a7c6	-0.012735313
213	0x3c97364a	0.018458504
214	0x3c99a9d8	0.018757746
215	0x3cdad3d2	0.026712332
216	0xbd22609a	-0.039642908
217	0x3cb4e98e	0.022084024
218	0x3d1e7081	0.03868151
219	0x3d088d93	0.03333814
220	0xbcdb3ffb	-0.026763907
221	0x3cdb0f36	0.026740652
222	0x3c88b05e	0.01668566
223	0x3c78f9b4	0.015196253
224	0x3ce080ca	0.027405161
225	0xbcac8a63	-0.021062082
226	0x3c96d94e	0.018414166
227	0x3cc35f8a	0.023849268
228	0xbc1869c0	-0.0093025565
229	0x3c1bad94	0.0095018335
230	0xbc1ae2d4	-0.009453494
231	0xbd038f08	-0.032118827
232	0x3a640340	0.0008697994
233	0x39ead000	0.0004478693
234	0xbd1e4fa8	-0.038650185
235	0x3d043ff3	0.03228755
236	0xbc7aa52c	-0.015298169
237	0xbceb33d3	-0.028711235
238	0x3c509100	0.012729883
239	0x3d033157	0.032029476
240	0x3caad6fa	0.020854462
241	0xbc8c9a0b	-0.017163297
242	0x3c8dcad8	0.017308637
243	0x3b692680	0.0035575926
244	0x3cba6a2a	0.022755701
245	0x3b7de5b0	0.003874164
246	0x3cd7c14e	0.026337292
247	0x3cd29722	0.025706831
248	0xbcdda960	-0.027058303
249	0x3cb1e4a2	0.021715466
250	0x3d21fdbd	0.039548624
251	0xbcc98168	-0.024597839
252	0xbc5c1926	-0.01343373
253	0x3cd196b6	0.02558456
254	0x3ab47d60	0.0013770275
255	0xbb716470	-0.0036833547

weight f4 [64, 64, 3, 3]
0	0x3c041324	0.008061204
1	0x3cfa6fda	0.030570913
2	0x3b2683b0	0.0025408082
3	0xbc807f13	-0.015685594
4	0x3d14b91d	0.03630935
5	0x3cfc474a	0.030795712
6	0xbd040f3e	-0.0322411
7	0xbc54f260	-0.01299724
8	0xbcb75d06	-0.022383224
9	0x3b2a9c80	0.0026033223
10	0x3c1c7c4c	0.009551119
11	0x3d0d20f9	0.034455273
12	0x3cd88dfa	0.026434887
13	0xbc0c90d4	-0.008579452
14	0xbcb4bb18	-0.02206187
15	0x3d19d5c7	0.03755739
16	0x3d13e925	0.036111016
17	0xbcd87543	-0.026423102
18	0x3d268dfd	0.040662754
19	0x3c691e80	0.014228463
20	0xbce6c6c0	-0.028170943
21	0x3c89611e	0.016769942
22	0x3bf9a9d8	0.007619124
23	0x3c9d22f6	0.01918171
24	0xbd17d2ea	-0.037066378
25	0x3bfe4da0	0.0077607185
26	0x3c85178a	0.016246576
27	0x3d283995	0.04107054
28	0xbd154a54	-0.036447838
29	0xbce765e8	-0.028246835
30	0xbb91cc28	-0.004449386
31	0xbca12cf0	-0.019674748
32	0xbb8b1cf8	-0.0042453967
33	0x3c6c6ebc	0.014430698
34	0x3d120635	0.03565045
35	0xbd043a4c	-0.03228216
36	0xbcde7bf8	-0.027158722
37	0x3b0f5800	0.002187252
38	0x3cd88a1a	0.02643304
39	0xbd0ce076	-0.03439375
40	0xbc629ef0	-0.013831839
41	0xbc564056	-0.013076862
42	0x3d2074b7	0.039173808
43	0xbc10fa54	-0.008848745
44	0x3c5bf3d4	0.013424832
45	0xbb005680	-0.0019582808
46	0x3d05a537	0.032628264
47	0x3cd5303a	0.026023973
48	0xbc9ef753	-0.019405043
49	0x3c82b5b8	0.01595579
50	0x3b823ef8	0.0039747916
51	0x3d1185cb	0.035527986
52	0x3cbac752	0.022800121
53	0x3d0e6e7d	0.03477334
54	0xbd1b524f	-0.037920292
55	0xbc215164	-0.009846065
56	0x3ca8b5c8	0.020594493
57	0xbb6bb270	-0.0035964511
58	0x3c867fae	0.016418304
59	0xbba3ff00	-0.0050047636
60	0x3d11db97	0.035609808
61	0xbd27a282	-0.040926464
62	0x3ad19680	0.0015990287
63	0x3d109cdd	0.035305846
64	0xbc301c70	-0.0107489675
65	0xbc82e828	-0.015979841
66	0xbcd51a86	-0.026013624
67	0x3c2828c0	0.010263622
68	0xbc82276e	-0.015887942
69	0x3ca05272	0.019570563
70	0x3d02637f	0.031833168
71	0x3c20f110	0.009823099
72	0x3cbab9ce	0.022793677
73	0xbcbd71b3	-0.023125505
74	0x3cdc92d6	0.026925486
75	0xbcaff128	-0.021477297
76	0x3c0d1454	0.008610804
77	0x3c5429d0	0.012949422
78	0xbbb45f60	-0.0055045336
79	0xbbf05980	-0.007334888
80	0xbca00c20	-0.019537032
81	0xbd037f74	-0.03210397
82	0xbcd1c030	-0.025604337
83	0xbcf9bb88	-0.03048493
84	0x3cbaf44a	0.022821564
85	0xbb7f38f0	-0.003894385
86	0x3cc8c1ca	0.024506468
87	0x3d1f4451	0.03888351
88	0xbc8d14de	-0.017221864
89	0xbca3a716	-0.019977134
90	0x3ca1f0b0	0.019768089
91	0xbd016510	-0.03159052
92	0x3ce43546	0.027857434
93	0x3d13eaad	0.036112476
94	0x3bec5228	0.007211942
95	0x3cabb782	0.020961527
96	0x3d279109	0.0409098
97	0x3bbe3fd8	0.0058059506
98	0x3cd8f29e	0.026482876
99	0xbc892656	-0.016741913
100	0xbd208b4f	-0.039195355
101	0x3d193083	0.03739978
102	0x3d251e79	0.040312264
103	0x3c959870	0.018261164
104	0xbce2aa58	-0.027669117
105	0x3c632a3c	0.01386505
106	0xbd229a12	-0.039697714
107	0xbc5c2aa6	-0.013437903
108	0x3a0afd40	0.00053020194
109	0x3c19940c	0.009373676
110	0x3bb02a38	0.0053761266
111	0x3c8d45ca	0.017245192
112	0x3c67f6ac	0.014157932
113	0x3c4aa310	0.012367979
114	0xbd1c1c76	-0.03811308
115	0x3cf7b342	0.030236844
116	0xbc4e369c	-0.012586262
117	0xbd1d60db	-0.038422447
118	0x3cf87c9a	0.030332852
119	0xbbf14c38	-0.0073638223
120	0xbbce01f8	-0.006286856
121	0x3b284300	0.00256747
122	0xbb334510	-0.0027354397
123	0xbc949c83	-0.018141037
124	0xbca87753	-0.02056471
125	0xbb5eb9c0	-0.0033985227
126	0xbcec2ac8	-0.028828993
127	0xbc94a9b6	-0.01814733
128	0x3c755abc	0.014975246
129	0x3c307734	0.010770608
130	0xbcdd275b	-0.026996305
131	0x3ca48108	0.020081058
132	0x3d00fbb5	0.031490047
133	0xbcc5843e	-0.02411091
134	0xba937800	-0.0011250973
135	0xbca17df8	-0.019713387
136	0xbc3fd316	-0.011708042
137	0xbc05523c	-0.008137282
138	0xbb8794f8	-0.0041376315
139	0x3d1a41af	0.037660297
140	0xbc335a20	-0.01094678
141	0xbcf3ce5b	-0.029761484
142	0x3c83a58e	0.016070154
143	0xbccac13b	-0.024750343
144	0xbc565b5c	-0.013083305
145	0x3becbf58	0.0072249584
146	0xbd112dfa	-0.035444237
147	0xbd0258de	-0.03182303
148	0x3ccbbaea	0.024869401
149	0x3a8b5a20	0.0010631718
150	0x3c7899cc	0.015173387
151	0x3be0b3c0	0.0068573654
152	0xbd002390	-0.031283915
153	0x3b8a1960	0.0042144507
154	0xbb8a8858	-0.004227679
155	0x3c4319e0	0.011908025
156	0x3d06dc79	0.032925103
157	0x3c7750e0	0.015094966
158	0x3d0f3f55	0.034972508
159	0x3c615ff4	0.013755787
160	0x3d19a7fb	0.037513714
161	0xbccee996	-0.025257867
162	0xbb83df28	-0.004024405
163	0x3c6bb244	0.014385764
164	0xbd1ecbdb	-0.03876863
165	0x3cb350ca	0.02188911
166	0x3c887c9e	0.016660985
167	0x3d18e709	0.037329707
168	0x3d04af5d	0.032393802
169	0xbc41ce1c	-0.011828925
170	0x39d79600	0.00041119754
171	0xbbe82160	-0.0070840567
172	0x3c1ea890	0.009683743
173	0xbbb4ea68	-0.0055211075
174	0xbcf1ce28	-0.029517248
175	0x3c78afe4	0.015178654
176	0x3cf43032	0.029808138
177	0xbd12235a	-0.035678245
178	0xbce19ffe	-0.02754211
179	0xbce8c763	-0.028415387
180	0x3d0ee16d	0.03488295
181	0x3c1271d4	0.008938272
182	0xbd1f765e	-0.038931243
183	0x3ca134ea	0.019678552
184	0xbcee9d10	-0.029127628
185	0xbd00735c	-0.031360015
186	0x3c9e8b92	0.019353662
187	0xbcde6016	-0.027145427
188	0x3ca80f5e	0.02051514
189	0xbd0436ef	-0.03227895
190	0x3d0655d7	0.032796707
191	0x3c0e7fe4	0.008697484
192	0x3bb05a00	0.0053818226
193	0x3c17a550	0.009255722
194	0x3be5aca8	0.0070091076
195	0xbd1655bf	-0.036702868
196	0x3cd10a5e	0.025517639
197	0xbd2130ee	-0.039353304
198	0x3d00d739	0.031455252
199	0xbd165b2a	-0.036708035
200	0x3d1283cf	0.035770234
201	0x3c9ca24a	0.019120354
202	0xbb5c31c0	-0.003359899
203	0xbbd8ccb8	-0.0066162013
204	0x3c1d9910	0.0096190125
205	0x3d0e36a5	0.03472008
206	0x3d111423	0.035419594
207	0x3c6f1c5c	0.014594164
208	0x3cb8b5ae	0.02254757
209	0xbc26e270	-0.010185823
210	0xbcce03e6	-0.025148343
211	0x3c04cba0	0.008105189
212	0x3bc031a8	0.0058652945
213	0x3d042925	0.0322658
214	0xbcf3b948	-0.029751435
215	0x3a88f400	0.0010448694
216	0xbc0a9d80	-0.0084604025
217	0xbd1b74d6	-0.03795322
218	0xbc5307ec	-0.012880307
219	0xbd0a6366	-0.0337862
220	0x3d0576ef	0.032584127
221	0x3cdab4b6	0.026697498
222	0xbcaf951e	-0.02143341
223	0xbc819228	-0.015816763
224	0xbd11f42b	-0.035633247
225	0xbc861080	-0.01636529
226	0x3d1c3e69	0.038145456
227	0xbcffc8d0	-0.031223685
228	0xbc9e8418	-0.019350097
229	0x3cb2ba6a	0.021817405
230	0xbce9e196	-0.02854995
231	0x3b7bc030	0.0038414113
232	0xbcabeb06	-0.020986091
233	0x3b4aaa00	0.0030924082
234	0xbd16ee52	-0.036848374
235	0x3cdc8afa	0.026921738
236	0xbc4a8510	-0.012360826
237	0x3c22bff4	0.0099334605
238	0xbc973123	-0.018456047
239	0x3c079750	0.008275822
240	0xbd1164c6	-0.035496496
241	0x3caa222e	0.020768251
242	0x3c16b5ac	0.009198587
243	0xbac6c700	-0.0015165508
244	0x3d218059	0.039429042
245	0xbc7f3adc	-0.015577998
246	0x3d126373	0.035739373
247	0xbc8bf906	-0.017086517
248	0x3d104811	0.035224978
249	0xbce0c180	-0.027436018
250	0x3d21d61d	0.039510835
251	0xbc8b6126	-0.017014097
252	0x3c0a4780	0.0084398985
253	0xba9475a0	-0.0011326559
254	0x3cf6daa2	0.03013355
255	0x3b3f6870	0.0029206537

weight f4 [1, 64, 3, 3]
0	0xbce4ba80	-0.027920961
1	0xbc555ff6	-0.013023367
2	0xbcedb3a8	-0.02901633
3	0x3d294b7d	0.041331757
4	0x3c5cec44	0.0134840645
5	0x3c74d72c	0.014943879
6	0x3d04fb49	0.032466207
7	0x3c6a9630	0.014318034
8	0xbc3b86cc	-0.011445712
9	0xbc95c7b8	-0.01828371
10	0xbd26841b	-0.04065333
11	0x3d1f87d5	0.0389479
12	0x3c29d9d4	0.010366876
13	0x3c0570cc	0.008144569
14	0xbd2782cc	-0.040896222
15	0xbc1d7844	-0.009611193
16	0xbceff71e	-0.02929264
17	0x3c0809ec	0.008303147
18	0x3c9e28d2	0.019306574
19	0x3b83e708	0.004025344
20	0xbd075ea4	-0.03304924
21	0xbc324160	-0.010879844
22	0xba003f40	-0.00048922375
23	0x3a909080	0.0011029392
24	0xbd1f6d3f	-0.038922545
25	0x3c1fc7e4	0.0097522475
26	0x3a88ca80	0.0010436326
27	0xbc704edc	-0.014667239
28	0xbc3640f0	-0.011123881
29	0xbc40add0	-0.01176019
30	0x3d286b99	0.041118238
31	0x3d277857	0.04088625
32	0x3d0e07d7	0.034675445
33	0x3c9b02f8	0.018922314
34	0x3c74018c	0.014892947
35	0x3ca9a268	0.020707324
36	0x3c79125c	0.015202131
37	0x3c88cdb0	0.016699642
38	0xbc557756	-0.01302894
39	0xbcaab30e	-0.020837333
40	0x3d26d3c3	0.040729295
41	0xbd12c952	-0.035836525
42	0xbd2a30f4	-0.04155059
43	0x3a0b0740	0.00053035095
44	0x3bad4b08	0.0052884854
45	0x3cf22142	0.029556874
46	0xbb36fcd0	-0.0027921684
47	0xbc5ec8ac	-0.013597649
48	0x3c922a58	0.017842457
49	0x3c9d3878	0.019191965
50	0xbc5a8166	-0.013336515
51	0x3cc6f15a	0.024285007
52	0x3c52f854	0.012876589
53	0xbd288486	-0.04114201
54	0xbd083cef	-0.033261236
55	0x3ce888c2	0.028385524
56	0xbd0d6832	-0.034523197
57	0x3d1a88f1	0.037728254
58	0x3d1d74b5	0.03844138
59	0xbc8bd4c3	-0.017069226
60	0x3cc7f216	0.024407428
61	0xbc040ffc	-0.008060452
62	0xbd1c4db4	-0.03816004
63	0xbcbe35fe	-0.023219105
64	0x3d061f5f	0.03274476
65	0xbcf7941b	-0.03022199
66	0xbc7e9436	-0.015538266
67	0xbc8fcbc6	-0.017553221
68	0x3ae3a980	0.001736924
69	0x3c4b2de4	0.012401078
70	0xbbef7d58	-0.0073086433
71	0x3c36e964	0.011164043
72	0xbb17f1c0	-0.0023184866
73	0x3cde037e	0.027101275
74	0xbc8aa090	-0.016922265
75	0x3d05596f	0.032555994
76	0x3bec4500	0.007210374
77	0x3c850760	0.016238868
78	0xbccaab80	-0.02473998
79	0x3d264009	0.040588412
80	0x3c9a01d6	0.018799704
81	0x3d0356b1	0.032065097
82	0xbcfc796e	-0.030819621
83	0x3d20de3d	0.039274443
84	0xbcdc72f8	-0.02691029
85	0x3ae5ada0	0.0017523058
86	0xbc9f027e	-0.019410368
87	0x3cd247aa	0.025668938
88	0x3d0e849d	0.03479444
89	0x3d0e0ed1	0.0346821
90	0x3c99aae0	0.018758237
91	0xbd185687	-0.037191894
92	0xbcfd8f3e	-0.030952092
93	0xbc9fdbe0	-0.019514024
94	0x3d148731	0.03626174
95	0x3d28b591	0.04118878
96	0xbb12e1d0	-0.0022412427
97	0x3cf8e7ae	0.030383911
98	0x3c7fb4c0	0.015607059
99	0x3cdab9b6	0.026699882
100	0xbc8fc3d6	-0.017549437
101	0xbcccda28	-0.025006369
102	0x3d1645d5	0.03668769
103	0xbd1d8e38	-0.03846571
104	0xbb034cd0	-0.0020034797
105	0x3c9dca92	0.019261632
106	0x3ca94310	0.02066186
107	0xbc346926	-0.0110113975
108	0x3ce2dbfa	0.027692784
109	0xbc76bbec	-0.0150594525
110	0xb9422500	-0.00018515065
111	0xbc5089d0	-0.01272817
112	0xbd0a7a1b	-0.033807855
113	0xbbd1c8f8	-0.006402131
114	0x3aa8d380	0.0012880415
115	0x3c2f3964	0.010694835
116	0xbd0020eb	-0.031281393
117	0xbc2a4490	-0.010392323
118	0x3d091741	0.033469442
119	0xbd08ff68	-0.0334467
120	0xbbc3c9b8	-0.0059749745
121	0x3cea2e9e	0.028586682
122	0x3ce357a2	0.027751748
123	0x3cc6710a	0.024223823
124	0xbd0c6e53	-0.0342849
125	0xbd0e5cc2	-0.03475643
126	0xbcf4e736	-0.029895406
127	0xbcfd890e	-0.030949142
128	0xbcd65f06	-0.026168358
129	0xbc796360	-0.015221447
130	0x3c39a24c	0.0113301985
131	0xbd0acdc0	-0.033887625
132	0xbc42d8e0	-0.011892527
133	0x3d0b58d3	0.034020256
134	0x3b6349f0	0.0034681521
135	0xbc87ef18	-0.016593501
136	0xbc1772d0	-0.009243682
137	0xbd0fbb9b	-0.035091024
138	0xbc9b1dd8	-0.018935129
139	0xbcd23936	-0.025662046
140	0x3cef5482	0.029215101
141	0xbc2d790c	-0.010587942
142	0x3d1b7165	0.03794994
143	0x3c931746	0.017955434
144	0xbc80af7e	-0.015708681
145	0xbcd2d63e	-0.025736924
146	0xbc786cb6	-0.015162637
147	0x3cbbbb7a	0.022916544
148	0xbc8e4dfb	-0.017371168
149	0x3c52ae4c	0.012858938
150	0xbcb3298e	-0.0218704
151	0x3d01fd2b	0.03173558
152	0xbbf0e638	-0.007351663
153	0xbcad590e	-0.021160629
154	0x3c29d280	0.0103651285
155	0x3d0c8dfd	0.034315098
156	0x3c907376	0.017633181
157	0x3d23e71b	0.04001532
158	0xbceb2f18	-0.02870898
159	0x3c4ca38c	0.0124901645
160	0xbcde21c0	-0.027115703
161	0x3c7e17ec	0.015508633
162	0x3b90b018	0.0044155233
163	0xbbc92088	-0.006137911
164	0x3c8383c6	0.016054045
165	0xbc8a5adb	-0.016889026
166	0x3ccff582	0.025385622
167	0x3ca28aa2	0.019841496
168	0xbcce0996	-0.025151055
169	0x3d001111	0.031266276
170	0x3d252d5b	0.040326457
171	0xbca649ae	-0.020298805
172	0x3ca143fe	0.019685742
173	0xbba7afe8	-0.005117405
174	0xba9a4a00	-0.0011771321
175	0x3cab3eda	0.020903993
176	0x3ce03a26	0.027371477
177	0x3c357350	0.011074856
178	0xbcc76340	-0.024339318
179	0xbcec8010	-0.028869659
180	0xbbe9bb18	-0.007132899
181	0x3c2aa7d4	0.01041599
182	0x3c87d778	0.016582236
183	0x3d2a5ddd	0.04159342
184	0x3cc41a9a	0.023938466
185	0x3b5e0010	0.003387455
186	0x3ce71cb2	0.028211925
187	0x39e6dd80	0.0004403405
188	0xbc0cc824	-0.008592639
189	0xbd0de1ba	-0.034639098
190	0x3cdc71ea	0.026909787
191	0x3c0efc00	0.008727074
192	0xbb539010	-0.0032281913
193	0x3c272c80	0.010203481
194	0xbd14c4f4	-0.03632064
195	0xbc00588c	-0.007833611
196	0x3c913e3a	0.017729867
197	0xbc17b010	-0.009258285
198	0x3d19c585	0.037541885
199	0x3c3ef7fc	0.011655804
200	0x3c98005a	0.018554855
201	0xbd062ac6	-0.032755636
202	0x3d14f9e5	0.03637113
203	0x3b99c280	0.0046923757
204	0x3cfea5ba	0.031084884
205	0x3bf6a518	0.007527005
206	0xbd1b492b	-0.037911575
207	0xbcd3498e	-0.02579191
208	0xbbc04028	-0.005867023
209	0xbcf8266e	-0.030291762
210	0x3c27c714	0.010240335
211	0xbcbb0ea3	-0.022834128
212	0xbc79eeb6	-0.015254667
213	0xbd114eb6	-0.035475455
214	0xbcf0f3ae	-0.02941307
215	0x3cf5bbea	0.029996831
216	0xbceae0f6	-0.028671723
217	0x3cd64a86	0.026158582
218	0xbb4fceb0	-0.0031708889
219	0x3ce4b7aa	0.02791961
220	0x3c5157a0	0.012777239
221	0xbd269272	-0.040667005
222	0xbd018bec	-0.03162758
223	0xbc2afa20	-0.010435611
224	0x3d2481a1	0.040162686
225	0xbce44490	-0.027864724
226	0xbca7efdb	-0.020500114
227	0xbcf95d56	-0.030440014
228	0xbbda26b8	-0.0066574477
229	0x3c8ecb6a	0.01743098
230	0x3d04f6bb	0.032461863
231	0x3c768f14	0.015048761
232	0xbb909db8	-0.004413333
233	0xbc9e276b	-0.019305905
234	0x3c97eafe	0.01854467
235	0xbc89e38e	-0.01683214
236	0x3d0586f9	0.032599423
237	0x3d26bdc1	0.040708307
238	0x3c9e423e	0.019318696
239	0xbd0aec33	-0.033916663
240	0xbd1a44d8	-0.03766331
241	0x3b9585c8	0.004563067
242	0xbd235247	-0.039873388
243	0x3d020a4d	0.031748105
244	0xbd136410	-0.0359841
245	0x3ccd6ec2	0.025077228
246	0xbcc73f23	-0.024322098
247	0xbd12f013	-0.035873484
248	0xbd0c8cc3	-0.03431393
249	0x3c4fa420	0.012673408
250	0x3c47f400	0.01220417
251	0xbba269e0	-0.004956469
252	0xbcfb2973	-0.030659413
253	0x3bec86a0	0.007218197
254	0xbcfd11ab	-0.030892214
255	0x3cf6c70e	0.030124214
