weights/prun_VDSR_model_path.pth (torch, 601239 bytes, 6 tensors)

weight f4 [64, 1, 3, 3]
00000000: d0aa 23bf d616 84bd bcc8 4fbd 7d7c fcbc
00000010: 1eac 47bd 52f2 1abf d647 11bf f46c 1dbf
00000020: 0251 02ba ae21 4d3d 7be2 7a3e ad37 fd3e
00000030: adfb a33e 6436 953d ec1d bd3e 12db 3c3a
00000040: e091 6e3e 121c 553e d5c9 a03e babd 153f
00000050: d996 693e 857e 053f 3dd0 b23e 2802 1e3f
00000060: 7e05 053e dedc 2e3e 807d 0b3f 9c28 f7be
00000070: 8c9b c8bc e896 95bc 7ba2 08be 89f3 cbbd
00000080: 8fd3 11bf 9589 f8bd 5274 75bd 3701 e2be
00000090: 612e 40be 02e2 82bd 3de2 20bd 177a 173e
000000a0: 7ba5 b33e ee7a 4a3e 9b86 133e 0b91 783b
000000b0: c4bc b23e 4a63 9abd a3c5 febe f7b0 5ebe
000000c0: 8247 d63c 6670 93be ca67 e5be 7453 81be
000000d0: 101a 19bd 86f1 8abe fa5e 943d ec01 c6bd
000000e0: bad6 a33d 94ff a53d 10ab 08be bc7e 48bd
000000f0: 9e52 89bc ed2f 2abe 8ebe 353e babd 61bd
00000100: 24d6 a6bc 6275 f9bc dc74 01bf 2eaf 10bf
00000110: 5312 fdbe 5d02 c6bd c697 fbbd 5353 82bd
00000120: 5ebd 87be 5d86 afbc ff7f 77be 40a3 a8bd
00000130: 4799 103e 5996 273e 0581 7dbe 7e07 27be
00000140: 8a61 07bd 6c58 143f 094a d83e 13ed cb3e
00000150: d693 e73e b6b8 e03e 7851 0a3f 7b9e 5c3e
00000160: 5f55 e33e 5476 973e 09cf 7fbd 83df 98be
00000170: 7aa6 77be 24c9 2ebe 72a7 15bf 2f4a 73be
00000180: 38e3 dcbc 880f 34be cf89 c0bd 4255 38be
00000190: ddcd a1be b4aa aebe a549 49be 909a 4ebe
000001a0: cbf4 5abe 365f a4bc 00dc 79be 6674 80be
000001b0: 0d07 623e f96e 9bbe 9dcc 31bd 08f8 2cbe
000001c0: 2eb5 f6bd af87 493e 0425 1ebe f839 453e
000001d0: e00e 843d bf18 b0be 7653 a53d bf47 e13d
000001e0: 9aee b53d 8539 603b 4b22 9bbe 2f68 bebe
000001f0: 162b 99be 2872 51be fa97 953d 0560 f83d
00000200: b791 19be a877 983e f212 b13d c040 b73d
00000210: 1669 053e 3910 623d 460f 613e 23a7 f53d
00000220: 5626 a93e 0ce4 d53e d391 b23e 3219 8f3c
00000230: 7960 aabd 9eec 563d 793b ca3e 3c85 923e
00000240: 04db 313d 629b 85be 599c 853e f5df 4fbd
00000250: 6b32 84be 6847 a03e 16d3 4c3e b3d6 09bd
00000260: 4af1 f63c ceac ec3e 4db4 083f dfb1 6fbc
00000270: 946b 043f cd8a d53e 521d fb3e 0266 a33e
00000280: 9bde 203f d3b6 e63e 388a a43d 414c 06be
00000290: 807e b8be cf0f 06be 3572 93be 7138 edbe
000002a0: 277f ddbe 89b4 5cbc 1b8f f4be cb0c 833e
000002b0: 763d a03c 46ee 00bd ed6e cc3c cc22 95be
000002c0: d8d4 b8be c831 3f3e 7bc8 1e3e 8519 abbe
000002d0: b932 cbbe 8d4a febe 5ea3 04be 150f 00be
000002e0: 2a5a 06bf 8d8b d03d ec60 f2be 082d f3be
000002f0: dd6c ddbe 48a3 8fbe 6f53 f9be 1277 8f3d
00000300: 5efc 80be 4615 483d 57e3 93be 960d 353c
00000310: 4274 15be a49a 77be 05be 043e cf77 b2bc
00000320: ca47 883e 6aec d2bd 24eb 083e 9c12 8c3e
00000330: 35b5 1f3e 5b81 973e 9399 3d3d 7e64 763e
00000340: 172d 603e 1a97 f83e 7d67 21bc 1c00 963e
00000350: 105d fa3e 82bd 683e b02d b43e 74d5 c03e
00000360: 7bb4 bc3d 7bdf afbe 0bb1 9fbe 7c40 dcbe
00000370: 5a26 cbbd 5e18 b9bd ed7f 90be 7edf e1be
00000380: 0a99 973c ec77 88be 78f1 a5be ff9b 99bd
00000390: 8581 08bf a062 19be 3f86 e4bd c715 f7be
000003a0: 69ae 2a3d 4551 9ebe 3f69 8b3e 76c7 1d3d
000003b0: 714a 843e 471d 533e 412b b93a 36e1 153e
000003c0: eef3 9c3e 31b2 6cbb f69c 263e 500e 023f
000003d0: 3546 7a3e afb2 f53e 60aa fc3e 4af5 db3e
000003e0: 6b4b f83e fb57 f53e 7a62 163e 5608 b93e
000003f0: 5286 d7be 3a7a 0abc bebb 25bd d4b7 c4be
-0.63932514 -0.06449668 -0.050728545 -0.03082108 -0.048748128 -0.60526 -0.5675024 -0.61494374
-0.00049711776 0.050080948 0.24500458 0.4945654 0.3202795 0.07285765 0.3693689 0.0007204275
0.23297834 0.20811489 0.31403986 0.58492625 0.2281145 0.5214618 0.34924498 0.6172204
0.12990376 0.17076442 0.5448837 -0.4827317 -0.024488233 -0.018260434 -0.13343231 -0.0995856
-0.5696344 -0.12135617 -0.059925385 -0.44141552 -0.18767692 -0.06390764 -0.039278258 0.14792667
0.3508719 0.19773456 0.14406817 0.003792825 0.34909642 -0.07538469 -0.4976016 -0.21747194
0.026157144 -0.2879669 -0.44805747 -0.25258982 -0.03737837 -0.27137393 0.07244678 -0.09668335
0.0799994 0.08105388 -0.13346505 -0.04894899 -0.016763028 -0.16619845 0.17748472 -0.055112578
-0.020365782 -0.03045148 -0.5056894 -0.56517303 -0.49428043 -0.096684195 -0.12284808 -0.06363549
-0.26511663 -0.021426374 -0.2416992 -0.082342625 0.1412097 0.16365947 -0.24756248 -0.16311452
-0.033052005 0.5794742 0.42243984 0.3982931 0.45229977 0.43890923 0.5403056 0.2154483
0.4440107 0.29582465 -0.062453303 -0.29858026 -0.241846 -0.17068917 -0.58458626 -0.23758768
-0.026963815 -0.1758405 -0.09401285 -0.18001273 -0.31602374 -0.3411461 -0.19657 -0.20176148
-0.21382444 -0.020064931 -0.2440033 -0.25088805 0.22073002 -0.30358103 -0.043408025 -0.16891491
-0.12046276 0.19680665 -0.15443808 0.19260395 0.0644815 -0.3439388 0.080725595 0.110000126
0.088834 0.0034213972 -0.302996 -0.3718886 -0.29915684 -0.20453703 0.07304378 0.12127689
-0.14996992 0.2977879 0.08646192 0.08947897 0.13028368 0.055191252 0.21978483 0.119947694
0.3303706 0.41775548 0.3487688 0.017468069 -0.08319182 0.05247175 0.394985 0.28617275
0.04342176 -0.2609511 0.26095846 -0.05075069 -0.25819716 0.3130448 0.20002398 -0.03365202
0.030144352 0.4622559 0.5340012 -0.01462981 0.5172665 0.4170746 0.49045807 0.31913763
0.6283967 0.4506136 0.08034176 -0.13115026 -0.36034012 -0.13091968 -0.2879807 -0.46332124
-0.43261072 -0.013470777 -0.4776543 0.25595698 0.019560557 -0.031477235 0.024955237 -0.2912811
-0.36099887 0.18671334 0.15506165 -0.33417907 -0.39687136 -0.49666253 -0.12952945 -0.12505753
-0.5248133 0.10182867 -0.4733957 -0.47495294 -0.4324712 -0.2805426 -0.48696467 0.07005133
-0.2519254 0.048848413 -0.28884384 0.011050602 -0.1459513 -0.24180084 0.12963112 -0.021785645
0.2661727 -0.10298999 0.13370949 0.27357948 0.15596469 0.29590878 0.046289038 0.24061772
0.218922 0.4855278 -0.009851334 0.29296958 0.48899126 0.22728541 0.35191107 0.37662852
0.092141114 -0.3435019 -0.3118976 -0.43017948 -0.09919424 -0.09037851 -0.282226 -0.44115824
0.018505592 -0.26653993 -0.3241079 -0.07500457 -0.5332263 -0.14979029 -0.11158418 -0.48258802
0.041670237 -0.3092138 0.27228734 0.0385203 0.25838044 0.20616637 0.001412727 0.14636692
0.30654854 -0.0036116953 0.16270813 0.5080309 0.24440844 0.47987887 0.49348736 0.42960578
0.4849504 0.47918686 0.14686003 0.36139172 -0.42094666 -0.008451993 -0.040462248 -0.384215

weight f4 [64, 64, 3, 3]
00000000: fb85 88be fb80 99be 2fc8 77be afe6 9abe
00000010: 713a 9ebe 6357 79be 45d0 92be 6255 8dbe
00000020: aadf 93be 7a8c 9e3e 2a62 8f3e 7e66 743e
00000030: ab03 8e3e ce4f 6b3e 212b 763e 7b56 923e
00000040: a52a 813e 1d49 903e cdb5 8ebe 43f0 a7be
00000050: fec6 96be 040d a5be 8201 afbe 17a2 abbe
00000060: 530b b1be bb65 8ebe 0674 8fbe 1470 85be
00000070: 7f70 8cbe 1e7d 89be db47 90be 3987 83be
00000080: c4d7 92be 82a8 85be 2792 89be ad92 94be
00000090: 33ad 8e3e db6e a53e a64f a93e 2f9a a33e
000000a0: ee97 9b3e 3fe9 983e eaea 923e 9468 973e
000000b0: c7f3 a23e 073e 76be a43e 6ebe e18c 8ebe
000000c0: 3d06 74be b33e 94be 6d22 9dbe 1029 84be
000000d0: 1539 81be 9592 84be f602 943e dffb 923e
000000e0: b589 9c3e acfc 983e 7c59 9b3e 5070 813e
000000f0: 27c0 a33e fae6 a03e f964 853e 686d 90be
00000100: 8005 90be 53a9 96be 043b acbe 3463 89be
00000110: 750d 8dbe ab90 a0be 9b8a 88be a9f1 9ebe
00000120: 6644 893e 1056 8c3e d8e4 963e 53e5 873e
00000130: 8f02 983e 88eb 953e 2e05 ad3e 02e6 943e
00000140: 9b5a 9b3e 7cdc b2be 0fbf a8be 7bec a8be
00000150: b737 90be 5329 abbe 6362 98be 9f17 94be
00000160: a778 b6be 0377 9bbe 8f35 95be 8c83 9abe
00000170: afc1 9ebe d011 88be 48a1 97be eab2 a8be
00000180: 83d6 97be 175f 8fbe 789d 92be 2b14 953e
00000190: 723e a23e 79d6 8e3e 6d1f 8c3e 0741 903e
000001a0: 4dfa 953e c3a1 ab3e 06ab 883e 280e 953e
000001b0: 98f0 a53e df78 943e eb2e ac3e acfa b43e
000001c0: 5fe8 963e 2e1f b13e 4190 b33e 9a5f 983e
000001d0: 8f8a 923e 4517 b23e c3ed 9c3e f0c4 913e
000001e0: b146 993e dc70 b13e b925 9d3e 0ea4 9c3e
000001f0: 4e79 a63e ed5e 903e 7753 893e 8616 3f3e
00000200: b205 433e dc20 483e 6f04 663e 5c70 483e
00000210: bb9d 743e 9052 673e 5b36 4e3e 36a3 8e3e
00000220: 0847 8e3e 557e 833e c129 7e3e e602 873e
00000230: 6593 763e 7a74 993e e2bf 913e 2bec 653e
00000240: 13d9 91be 1b05 8cbe 6a4e 8abe 5e91 7cbe
00000250: cc2b 9abe 9477 8fbe 5e3c 9fbe 6f58 93be
00000260: 375b 8cbe c3cf a4be 940f b2be 5de6 9dbe
00000270: 8928 abbe e70f 96be 41bf b0be c804 b4be
00000280: d1a4 9ebe f54b a6be 14f7 84be 73a1 94be
00000290: 796e 81be c822 a4be 2229 a0be 27b2 9ebe
000002a0: 1e2f 8abe 568a 9dbe cfda 9bbe 81e8 723e
000002b0: 48f8 843e 17ee 9b3e 8f01 693e 33da 733e
000002c0: 62ec 923e 86ed 803e ccfb 6e3e f58f 8a3e
000002d0: 64e7 953e 998b a63e 28a3 983e 929d a03e
000002e0: c5d7 ab3e 562c a63e a367 9f3e 069a 983e
000002f0: d5b9 8e3e 4b1f 90be fcd1 98be 4026 a1be
00000300: cd67 a1be 7a58 7fbe fa7c 8fbe fb1f a6be
00000310: 2b38 a6be faba 8abe 33c9 afbe 8861 a4be
00000320: e394 93be 84b3 abbe 493a 93be f5cc a2be
00000330: 993f 90be b70d 93be 7114 a7be 7f69 b3be
00000340: fa56 8abe 5933 a3be 7517 b1be 6ed7 8cbe
00000350: d902 a0be f2de 99be 40e3 a9be 3544 89be
00000360: 62e8 87be c0bd 66be 7169 58be 7dd1 85be
00000370: b85c 8abe 28c6 79be 88aa 5dbe 40e7 6abe
00000380: b10a 7cbe 9e64 a63e 8cd4 b33e 972b ae3e
00000390: a283 933e 2f27 893e 1c54 943e bb95 943e
000003a0: 9ca7 a13e bc07 9e3e 8303 8b3e 79b0 743e
000003b0: 4c6f 593e 9116 753e 6cea 8a3e ca33 703e
000003c0: e968 8f3e 382d 8b3e f01c 753e 358c abbe
000003d0: 3ade 9abe f1f0 b7be 3c8b 90be 6326 98be
000003e0: 9e7a b5be a954 9cbe 3894 a6be ad7f a9be
000003f0: e798 a23e f064 a83e e417 ac3e b19f ad3e
-0.2666472 -0.29981217 -0.24197458 -0.30254123 -0.30903962 -0.24349742 -0.28674522 -0.27604204
-0.2888158 0.3096655 0.2800458 0.23867223 0.27737173 0.22979662 0.2403989 0.28581604
0.25227848 0.2818078 -0.27873078 -0.32800493 -0.29448694 -0.32236493 -0.34180838 -0.33522102
-0.34578952 -0.2781199 -0.28018206 -0.2606207 -0.27429578 -0.2685327 -0.2817982 -0.25689104
-0.2868024 -0.26105124 -0.26869318 -0.29018155 0.27866516 0.3231114 0.3306858 0.3195357
0.3038935 0.29865453 0.2869485 0.29571974 0.31826612 -0.24047099 -0.23266083 -0.27841857
-0.23830505 -0.28954086 -0.30690327 -0.25812578 -0.25238863 -0.25893083 0.2890851 0.28707787
0.30573812 0.29880273 0.3034171 0.25281 0.31982538 0.3142622 0.260536 -0.2820847
-0.28129196 -0.2942606 -0.33638775 -0.26833498 -0.2754933 -0.31360373 -0.26668248 -0.31043747
0.26809996 0.2740941 0.2947147 0.26542148 0.29689452 0.2928126 0.33793014 0.29081732
0.30342564 -0.3493384 -0.32958266 -0.3299292 -0.28167507 -0.33429965 -0.29762563 -0.2892427
-0.35638925 -0.30364236 -0.29142424 -0.30178487 -0.31007144 -0.2657609 -0.29615235 -0.32949
-0.29655847 -0.28002235 -0.28635764 0.2911695 0.31688267 0.27898005 0.27367726 0.28174612
0.29292527 0.33521852 0.2669298 0.29112363 0.3241012 0.28998467 0.33629546 0.35347497
0.2947416 0.345941 0.35070994 0.29760438 0.28621337 0.34783378 0.30650148 0.28470564
0.29936746 0.34656417 0.30692843 0.30593914 0.32514423 0.28197423 0.2682149 0.18660936
0.19045141 0.19543785 0.22462629 0.19574112 0.23888294 0.22590089 0.20137922 0.27858895
0.27788568 0.2568232 0.24820615 0.263694 0.24079664 0.29971677 0.28466707 0.22453372
-0.28485927 -0.27347645 -0.2701295 -0.24664828 -0.3011154 -0.28020918 -0.31100744 -0.28778407
-0.2741334 -0.3218976 -0.3477751 -0.30839816 -0.33429363 -0.29309008 -0.34520915 -0.35159898
-0.3098512 -0.32479826 -0.25969756 -0.29029426 -0.25279596 -0.32057786 -0.31281382 -0.30995294
-0.26989073 -0.30769604 -0.30440375 0.23721506 0.25970674 0.30455086 0.22754501 0.23813705
0.2869597 0.25181216 0.2333824 0.27062955 0.292781 0.3252838 0.29811978 0.31370217
0.33563057 0.324557 0.31133756 0.2980501 0.27876154 -0.28148875 -0.29847705 -0.31474495
-0.31524506 -0.24936095 -0.28025037 -0.32446274 -0.32464728 -0.27095777 -0.3433319 -0.3210566
-0.2882453 -0.33535397 -0.28755406 -0.31796995 -0.2817352 -0.287214 -0.32632783 -0.35041425
-0.27019483 -0.31875113 -0.3458821 -0.2750811 -0.31252173 -0.30052906 -0.3318119 -0.2680985
-0.26544482 -0.22533321 -0.21133973 -0.2613639 -0.27023864 -0.24391997 -0.21647084 -0.22939777
-0.24613453 0.3249864 0.35123098 0.3401763 0.28811365 0.26787707 0.2897042 0.29020485
0.31573188 0.30865276 0.27151117 0.23895444 0.21233863 0.2393439 0.27131975 0.23457256
0.28009728 0.27182937 0.2393682 -0.33505407 -0.3024767 -0.3592601 -0.28231227 -0.29716787
-0.35445112 -0.3053334 -0.32534957 -0.3310522 0.3175728 0.3288951 0.33611977 0.33910897

weight f4 [64, 64, 3, 3]
00000000: b21d 3c3e a2ba 5e3e e181 603e d055 2e3e
00000010: cff0 4b3e c773 5e3e a901 493e 504e 533e
00000020: 5574 433e c821 d43e a316 d73e 6196 cb3e
00000030: ffa1 cf3e 1dce e73e 2ccd c53e a3a6 c73e
00000040: 8454 d73e e829 e33e 114f 97be 70aa 9fbe
00000050: 8c5a a1be 531a 9ebe 5197 b6be aa81 b8be
00000060: 064e b7be b98f 9dbe 95cd a4be da67 043f
00000070: e25b f73e 34c7 f23e 4de9 073f fb4e 043f
00000080: 809a 033f 90ca fc3e 2c31 f63e c08c fb3e
00000090: c9bc c53e 6627 c43e 3683 d53e 5bac dc3e
000000a0: 661a da3e d4e7 e43e d250 cd3e 9bfd d43e
000000b0: d70b db3e 262f 12bf a4eb 12bf c486 0cbf
000000c0: c962 18bf cdfa 07bf 0bf7 09bf f467 0dbf
000000d0: e00e 14bf 6895 0abf 08ea f93e 57ba dc3e
000000e0: 8f99 e83e 1565 df3e 4162 e73e 0b3f ed3e
000000f0: e9a5 013f d703 f03e 7445 e03e 8b8a a8be
00000100: 7eb3 a0be c769 96be 5ebf 93be 67a8 98be
00000110: ed75 a5be 0422 aabe 6dd1 9fbe 4616 b0be
00000120: 361d b1be 2aa0 b2be d14f 9bbe 1390 b2be
00000130: dea3 b6be 46c3 a4be 845f aebe d297 91be
00000140: e986 9ebe 4775 d13e 644a eb3e a5a1 c73e
00000150: 6b14 ce3e 293f e73e 8481 d43e 94fe c73e
00000160: 4eb1 cc3e 4eed e63e 2655 783e 200f 973e
00000170: 2302 7e3e b49f 773e 1a87 8a3e 04f0 793e
00000180: f008 883e 618a 6a3e b8fd 603e dc9d 01bf
00000190: ce59 eabe b15a e5be 6965 e6be 780a debe
000001a0: 9464 f0be 425b e8be e7f3 ffbe 26d2 edbe
000001b0: 85ac a9be c618 a7be c808 9ebe 8682 a2be
000001c0: d79a b2be 3fc2 9cbe 715f b1be 65d6 a6be
000001d0: 10fc abbe 7206 b5be 3f73 b3be 89d8 9dbe
000001e0: ed51 adbe 761c a3be 4ef1 b6be 89f4 acbe
000001f0: 91f3 91be 8e26 96be d0c0 8ebe ab83 a6be
00000200: b80d 88be 7563 92be 28b6 95be d1a2 9ebe
00000210: 4e49 88be b695 acbe e480 9ebe 7db2 a33e
00000220: b9a9 ab3e 5cb3 933e 7514 893e 95c4 933e
00000230: c47e a63e 3384 8b3e 3a7a a53e 628f a83e
00000240: 8fbd ca3e a3ad d33e 8ca4 e53e 9b80 c63e
00000250: d341 b73e 7ea3 cb3e 6fce cb3e 4c77 cf3e
00000260: bc04 b63e 1ad4 debe 6bba ebbe e9eb d5be
00000270: c89f eabe 1534 e8be d040 f8be 579a dabe
00000280: c9c4 f6be ae09 d3be 225d 04bf 9607 0abf
00000290: d14f 08bf 4d1c 04bf 5d98 01bf e9e4 00bf
000002a0: b1b0 04bf a9f1 04bf 039c 02bf 2c1c 14bf
000002b0: 44d6 1bbf 2f46 0bbf e9a3 15bf 4b06 0ebf
000002c0: 8f17 1abf 30ea 12bf 097a 14bf f2ce 17bf
000002d0: cd5b 833e 13d9 903e ab5d 8a3e 73b7 8a3e
000002e0: ffff 893e bf0b 8b3e 73de 973e c177 a43e
000002f0: 902b 913e 47e2 14bf 8fc4 12bf e865 0ebf
00000300: dd3e 0dbf b54b 0fbf 72e5 0cbf 4eea 1dbf
00000310: 924d 0cbf 0633 15bf e1d2 cb3e 7c00 f23e
00000320: 9bc8 eb3e 7c06 cd3e b3ec de3e 5964 e33e
00000330: 32ef ce3e 081a d33e 346d d03e c41a d33e
00000340: 7748 f33e b150 d23e 8515 f03e ed57 de3e
00000350: c2fd da3e 6b89 f03e 2d64 e03e ce0e eb3e
00000360: 5241 6fbe fe3d 85be 9ec6 8fbe 3e0e 87be
00000370: 15c9 9ebe 7118 9cbe 09c4 98be 4b5e 9bbe
00000380: c42f 89be 2c79 bbbe dae9 9ebe a5af bcbe
00000390: 9e79 babe 8e1b 9dbe efda b9be a3d0 9cbe
000003a0: 7d21 9dbe 77b6 a7be ce84 413e cf81 663e
000003b0: cd07 843e b2ef 673e 0980 7f3e 50ff 4a3e
000003c0: 90ef 533e 0001 5c3e 5735 4b3e f1cb c03e
000003d0: da47 c63e 4178 d03e c46c c33e 4648 bb3e
000003e0: e7c8 d23e b51f cd3e 5cde c93e dcf7 bf3e
000003f0: db6f 92be 8002 b2be 8df5 adbe 7509 a8be
0.18370703 0.21750882 0.21924545 0.17024922 0.1991608 0.21723853 0.1962954 0.20635343
0.19087346 0.41432023 0.42009458 0.39763168 0.4055328 0.4527444 0.38633096 0.3899432
0.42056668 0.4436791 -0.2955251 -0.3118472 -0.31514394 -0.3087946 -0.3566232 -0.36036426
-0.35801715 -0.30773714 -0.32188097 0.51720965 0.4831229 0.47417605 0.53090364 0.51683015
0.51407623 0.49373293 0.4808439 0.4913082 0.38620594 0.3831131 0.41701669 0.43100247
0.42598265 0.4470812 0.40100724 0.41599736 0.4278247 -0.5710319 -0.5739081 -0.54893136
-0.59525734 -0.53117067 -0.5389258 -0.55236745 -0.578352 -0.54134226 0.48811364 0.43110916
0.45429656 0.43631807 0.4519215 0.4633716 0.50643784 0.4687793 0.4380299 -0.329182
-0.31386942 -0.29377577 -0.2885694 -0.2981598 -0.32316533 -0.33229077 -0.31214467 -0.34391993
-0.345926 -0.3488782 -0.30334333 -0.34875545 -0.35671896 -0.32180232 -0.34057248 -0.28436142
-0.30962303 0.40909788 0.45955193 0.38990512 0.40249953 0.45165375 0.41505063 0.39061415
0.39979023 0.45102924 0.24251232 0.29503727 0.24805503 0.24182016 0.270562 0.24407965
0.2656932 0.2290435 0.21971786 -0.506315 -0.4577164 -0.44795755 -0.44999245 -0.43367362
-0.46951735 -0.45382124 -0.4999077 -0.46449393 -0.33139434 -0.32636088 -0.30866075 -0.31740206
-0.34883758 -0.30616948 -0.3464313 -0.32585445 -0.33590746 -0.3535648 -0.35048863 -0.30829266
-0.33851567 -0.3185765 -0.35730976 -0.33780316 -0.2850614 -0.2932629 -0.2788148 -0.3252233
-0.26572967 -0.28591505 -0.29240537 -0.30983594 -0.26618427 -0.3370797 -0.3095771 0.31972113
0.33527926 0.28847778 0.2677342 0.28860918 0.3251859 0.27249297 0.32319814 0.32921892
0.39597747 0.41343412 0.44852102 0.38769993 0.35792407 0.39773172 0.39805934 0.40520704
0.35550487 -0.43521196 -0.46040663 -0.41781548 -0.45825028 -0.45352235 -0.48486948 -0.42695877
-0.4819701 -0.41218323 -0.5170461 -0.53917825 -0.5324679 -0.51605684 -0.5062311 -0.5034929
-0.5183211 -0.51931244 -0.51019305 -0.57855487 -0.6087382 -0.54403967 -0.5845323 -0.5547835
-0.601922 -0.5738859 -0.5799871 -0.5930015 0.25655976 0.28290614 0.27024588 0.27093086
0.26953122 0.271574 0.29661903 0.32122615 0.28353548 -0.5815777 -0.57331175 -0.55624247
-0.55174047 -0.55974895 -0.55037606 -0.61685646 -0.5480586 -0.5828098 0.39809325 0.47265995
0.46051487 0.4004401 0.43539962 0.44412497 0.40416867 0.41230798 0.40708315 0.41231358
0.47516224 0.41077188 0.46891418 0.43426457 0.42771727 0.46979842 0.43826428 0.45909733
-0.23364761 -0.2602386 -0.2808122 -0.26378053 -0.31012788 -0.30487397 -0.29837063 -0.30345377
-0.26794255 -0.36615884 -0.3103779 -0.36852756 -0.36420912 -0.30685085 -0.36299846 -0.30627927
-0.30689612 -0.32756397 0.18898317 0.22510456 0.25787202 0.2265003 0.24951185 0.19823956
0.20696855 0.21484756 0.19844566 0.37655595 0.38726693 0.40716746 0.3816892 0.36578578
0.411689 0.40063253 0.3942746 0.3749379 -0.28600964 -0.34767532 -0.33976403 -0.32819715

weight f4 [64, 64, 3, 3]
00000000: 6afd c3be 4c21 b3be 975b b5be a68a d4be
00000010: 406f b9be cbd4 bdbe 2cbc c8be 7f37 bcbe
00000020: 942b b5be 9615 323e e10f 223e 6b36 3b3e
00000030: cf24 303e a5af 1b3e 1904 0e3e fdd4 4d3e
00000040: 7af0 053e 960c 453e 81c1 b9be d80a bfbe
00000050: 3b5e a0be bbfc aebe 50bd bcbe 5784 aebe
00000060: 65b5 b4be 07fa bdbe 5000 a8be 85eb 063e
00000070: fc98 063e 408f eb3d c8df f23d e702 3a3e
00000080: 8e36 253e 238e 053e d9e3 3c3e 1e31 f23d
00000090: 103b 88be df3b 9ebe ce5d 92be 7777 9dbe
000000a0: 752b 9cbe 57e1 77be dd27 90be 0ff0 8bbe
000000b0: 2380 73be 8163 4c3e ef45 373e 1266 523e
000000c0: 2efe 693e b5a2 4b3e 2e0f 573e 2788 313e
000000d0: b871 1e3e b4db 363e 48e7 a0be 771b a2be
000000e0: e910 a6be ce4c 9bbe 352c a7be d0df a4be
000000f0: ae83 b3be 67f0 9fbe cf41 adbe 3e63 fa3d
00000100: e4c1 2a3e a411 113e e101 123e 9cf5 2b3e
00000110: 6ae1 073e 2aa6 373e 6c4f 193e 65f1 393e
00000120: f55a 93be 8653 adbe d71f adbe 66d6 85be
00000130: 4909 90be 8a6c 9abe 3587 abbe 0491 87be
00000140: 4df9 9bbe b7b8 1d3d 11ef 16bc eaf6 8abb
00000150: 5ec5 0bbd fa1e 3f3c 3f35 1ebb d3bd e33c
00000160: 4f58 f2bc 9390 453d b808 333e 0839 2f3e
00000170: 46c5 3e3e 4435 193e 7d3b 3f3e 4e65 1a3e
00000180: 1065 1b3e 5f63 073e 64b6 153e 78d1 6bbe
00000190: 6e91 4cbe d3b1 7fbe 1bf5 3abe 6317 83be
000001a0: 6737 4abe 82f8 58be 8fc7 5cbe af11 69be
000001b0: 2ca2 0e3e 43f8 533e 0a40 203e 25a7 223e
000001c0: 1c61 083e 1df8 3c3e f4fd 203e cb3f 073e
000001d0: 27f8 203e 48bd 233e 352e 283e c0d0 023e
000001e0: 2e85 373e a9dc 333e 5b44 393e 3421 083e
000001f0: c45d 083e b338 433e 8be5 85be 32c8 77be
00000200: 3748 46be c474 60be 1acf 5ebe a5dc 4ebe
00000210: dc83 7abe 4a8f 7fbe 82d0 52be e103 9cbe
00000220: b7b1 8cbe c893 95be 6a2a aabe cb5d 99be
00000230: f451 aabe 14d7 86be 6973 9abe 3de1 a2be
00000240: 98c9 91be 62ec 72be 2d6e 82be 2d1a 87be
00000250: 12df 8ebe a435 9abe 47ea 6bbe 85f8 91be
00000260: ca43 6fbe 7627 52bd 1ae3 6dbd 1880 bfbd
00000270: 6f4b 04bd cf7b e0bc 597c adbd 0fbc 8cbd
00000280: 4f5e 25bd c4e2 b1bd eb02 d23d 379a cc3d
00000290: 6083 993d cc89 d13d ac8b f83d 5a40 b33d
000002a0: 469d 053e db95 e03d 3f2a 8e3d 43df 8fbe
000002b0: c4a1 83be 1c37 9dbe 9bf0 98be d78e 9fbe
000002c0: c74b 8fbe 89e7 94be 30ec 9bbe a1ab 9cbe
000002d0: 0a8f 1a3e 09a8 303e b44a 173e 6a61 113e
000002e0: 3cda 133e fe38 423e f9f5 fa3d 7df0 e93d
000002f0: 75df 243e 76d1 a5be 79fb b0be 3c67 bdbe
00000300: 7b68 bfbe 139c a4be 83f4 bdbe f26b abbe
00000310: 1f19 a1be cc32 a3be b706 4b3d 8ecd 833d
00000320: 71ee db3d d5f6 c73d 36cb c83d 93c1 d33d
00000330: 291b 993d 950d 803d 9f06 c23d f6df 263e
00000340: 4f55 f73d 51e5 273e 680b 353e 034a 2c3e
00000350: e110 d23d 52d2 143e e578 fa3d b617 e53d
00000360: bd67 593d 9379 2f3c 916f 973c ea2f 9d3d
00000370: 8993 843d 6451 5f3d 928f 8b3d c869 423d
00000380: 3378 a63c 9e62 e23d 2feb a53d ab9f 653d
00000390: 9665 e93d 99bf 673d cb3e be3d dbf9 813d
000003a0: bb39 b23d 5835 943d 5267 adbe 1731 91be
000003b0: e115 90be 7ac8 8abe 9c37 a0be 967c a1be
000003c0: 42cb a3be a6a8 91be ff72 a0be 01a7 ec3b
000003d0: cc20 58bd e393 adbb 4066 903b cd1c feba
000003e0: 00fe 6cbd 9aa0 17bc 4125 9ebc 6273 41bd
000003f0: 01c3 3c3e a374 483e f584 473e 9f74 4d3e
-0.38279277 -0.3498634 -0.3542144 -0.4151203 -0.3621769 -0.3707641 -0.39206064 -0.3676109
-0.3538481 0.17391047 0.1582637 0.18282478 0.17201541 0.15203722 0.1386875 0.2010078
0.13080016 0.19243082 -0.36280444 -0.3731296 -0.31321892 -0.34177193 -0.36863184 -0.34085342
-0.35294643 -0.37104818 -0.32812738 0.13175781 0.13144296 0.11501932 0.11859089 0.1816517
0.16134092 0.13042502 0.18446292 0.118257746 -0.2660756 -0.30905053 -0.28587192 -0.30755207
-0.30501905 -0.24207054 -0.28155413 -0.27331588 -0.23779349 0.19959833 0.17897771 0.20546749
0.22850868 0.19886287 0.21001884 0.17337094 0.15473068 0.17857248 -0.31426454 -0.3166158
-0.32434776 -0.30332035 -0.32650915 -0.32202005 -0.350614 -0.312381 -0.3383927 0.1222596
0.16675526 0.14166886 0.14258529 0.16792911 0.13269582 0.1793448 0.14971703 0.18158491
-0.28780332 -0.33852786 -0.33813354 -0.26140136 -0.28132084 -0.30160934 -0.33501592 -0.26477826
-0.3046364 0.038506236 -0.009212271 -0.00424086 -0.03412377 0.0116651 -0.0024140624 0.027800476
-0.029583124 0.04823358 0.17483795 0.171116 0.18629941 0.14961725 0.18675037 0.15077707
0.15175271 0.13221501 0.14620358 -0.23029125 -0.19977352 -0.24970178 -0.18257563 -0.2560378
-0.19747697 -0.21188548 -0.215605 -0.22760652 0.13929051 0.20700173 0.15649429 0.15884073
0.13318294 0.18454023 0.15721875 0.13207929 0.15719663 0.15990174 0.16423877 0.12774944
0.17921898 0.17564644 0.18092482 0.13293916 0.13317019 0.19064598 -0.2615169 -0.24197462
-0.19363485 -0.21919543 -0.2175869 -0.20201357 -0.24464363 -0.24957004 -0.20587352 -0.3047171
-0.27479336 -0.2921431 -0.33235484 -0.2995437 -0.3326565 -0.26335967 -0.30166176 -0.31812468
-0.28474116 -0.23722985 -0.25474682 -0.26387158 -0.27904564 -0.3011905 -0.23038588 -0.28509918
-0.23365703 -0.051307164 -0.05807791 -0.09350604 -0.0322985 -0.027402787 -0.08470983 -0.06871807
-0.040373143 -0.0868583 0.10254463 0.09990352 0.07495761 0.10231361 0.12136015 0.087525085
0.13048276 0.10966083 0.069416516 -0.28100023 -0.25709355 -0.30706108 -0.29871067 -0.31163666
-0.279875 -0.29082897 -0.30453634 -0.30599692 0.15093628 0.172516 0.1477459 0.14197317
0.14438719 0.18967053 0.12253947 0.114228226 0.16100867 -0.3238637 -0.34566858 -0.36992824
-0.373844 -0.32150325 -0.3710061 -0.33480793 -0.31464478 -0.31874692 0.04956695 0.06435691
0.107388385 0.09763876 0.098043844 0.10339656 0.074758835 0.062525906 0.09473919 0.16296372
0.12076818 0.16396071 0.17680132 0.16825108 0.10257126 0.14533356 0.1223009 0.11186163
0.05307745 0.010710138 0.018485816 0.076751545 0.064734526 0.05452098 0.06814493 0.047464162
0.020320987 0.11053966 0.08101498 0.056060474 0.11396329 0.056579206 0.092893206 0.06346484
0.087024175 0.07236737 -0.3386789 -0.28357765 -0.28141692 -0.27106076 -0.31292427 -0.31540364
-0.3199101 -0.2844898 -0.31337735 0.007222057 -0.052765653 -0.0052971705 0.0044067204 -0.0019387245
-0.05785942 -0.009254599 -0.019304873 -0.04722918 0.18433763 0.19575743 0.19484313 0.20064019

weight f4 [64, 64, 3, 3]
00000000: d045 a33c bc51 033d 2750 c63c 803b 30bb
00000010: dd25 153d d3e3 cc3b 15a4 223c 3083 fabc
00000020: 6376 e3bb 260f 753e b739 753e 0c11 463e
00000030: f3da 673e 611e 633e 290d 5a3e 68eb 6f3e
00000040: e4ff 7c3e 2683 4c3e b9d4 4e3c 783f 323d
00000050: 6edc 483d b1f1 b93c 2b02 55bc a4ff 06bc
00000060: c8f2 afbb ac6e 293d 3866 ecbc 2030 86bd
00000070: 312a 19bb d338 403c 0152 c9bc b070 cfbb
00000080: ac3a 68bd 7447 52bd 61da bbbc 838f 5dbd
00000090: f90f 30bb b750 a8bc afa0 483d c20b 10bc
000000a0: 7a22 403d 3fd3 983c 49e3 4c3d 6e64 fd3c
000000b0: 92ea 9a3c ab39 20bd c3dd ad3c 2e3b 9fbc
000000c0: f190 b83c 6b75 603b ffdd 6b3c d98c 42bc
000000d0: b2ae 2dbd ce42 abbc 9e33 18bd 8fa0 65bd
000000e0: d11c a5bc 2813 eebc c110 1fbd 604c d0bc
000000f0: 7428 623c 20a1 d5bc 6050 72bd e0ba 4abd
00000100: c074 6ebd 75a8 3bbd a397 83bd ac42 38bd
00000110: 429c 83bd 6295 66bc 14be 7bbb b8f5 3fbd
00000120: 4511 423e 6c02 473e 3a2a 863e 93c6 703e
00000130: f243 803e f622 5b3e 3425 853e 36c5 433e
00000140: 3630 873e c8e3 843e d077 873e 8aa4 5c3e
00000150: 16ab 923e b2e8 613e 22b5 5a3e ba1d 923e
00000160: ac0d 8a3e c992 903e 61a0 a23e 65fa aa3e
00000170: f2a4 963e 4a3e a43e 147e 933e 2ecc b63e
00000180: 0329 a23e a21c a63e f601 bb3e 0def a3bc
00000190: 96e5 803c 5f26 54bd fa11 c5bb 371e 33bb
000001a0: 4e0d 19bd a987 c13c c047 4fbd adf0 d8bc
000001b0: c55e 57bd 6520 eebc d851 21bd 0db2 a03a
000001c0: e868 38bd 90ef 03bc e6a3 6fbc f64a 203c
000001d0: 35b4 59bd f5c5 6bbe 959b 8fbe 83f7 8bbe
000001e0: ec07 55be ca84 80be bbd0 5dbe 8be7 7bbe
000001f0: 0eb5 5fbe 94da 78be 971d a13e 01f0 a33e
00000200: 515d a33e 9056 7a3e 7fb9 8f3e c657 a03e
00000210: 692d 7f3e 1972 8a3e 6862 823e 6ba0 8bbe
00000220: 2d20 a2be 80fa 8cbe 9385 a4be ca22 99be
00000230: f209 a5be fe23 98be 0798 89be 7588 99be
00000240: 729a 8f3c 3b19 f2bc 10ce c5bc 9f6e 0dbd
00000250: 57f9 cb38 637f 05bd ceaf e13c 24b8 01bd
00000260: 565f 5bbd 8baa a53e c5df 9d3e 566d 9e3e
00000270: ae07 7c3e ae55 843e 7506 7c3e 50bc 9a3e
00000280: c713 a23e 947e 8a3e c86a 443e 070c 673e
00000290: 9d21 843e 7829 833e 0273 843e 8179 583e
000002a0: baf9 763e 71ab 863e 3646 403e 34bb f2bc
000002b0: e9a7 e4bb d74d 463d 3c58 b43c 6c1f 173d
000002c0: a1cf 9f3c c541 463b 9b80 1d3c 1aaa 233c
000002d0: cf88 953e c67b 813e 0a33 933e 4b07 933e
000002e0: 32d2 a43e 6196 8c3e e619 933e 7b69 8b3e
000002f0: 3586 883e 4ca0 aa3e c015 aa3e 726b 8a3e
00000300: 04b0 ae3e 16ce 903e 8166 9f3e fcc8 8c3e
00000310: 379f a33e d946 ad3e 73cb 2ebb 4afb fc3c
00000320: 6a3a 183d 4f87 153d ef9a 57bc cfe9 18bb
00000330: 246f 363d 632d 9f3c ff99 05bc 25b8 a53e
00000340: cf12 ab3e da48 af3e 22f7 8f3e 62c5 a83e
00000350: 0faf aa3e 8e8e 923e 19f2 a13e ebd0 ac3e
00000360: 6f4a 383d ad95 3f3d 0965 543d 6040 933b
00000370: 4cc5 fd3b b234 fbb8 dc6b 95bc 7b8f 8d3b
00000380: 4897 373d df3e 7e39 5791 45bd 4f9e 343c
00000390: a8dc 4d3c 404e 0cbd d5cd 90bc 338a 11bd
000003a0: 042e f6bc 4770 a6bc f93c 903e 740e 923e
000003b0: 6301 703e 0fb1 9f3e 799a 9e3e 0219 763e
000003c0: e687 8e3e 96d4 7b3e c0ab 8f3e f8e3 5abb
000003d0: 3629 62bd e578 51bc 2bb0 49bc f65c 01bd
000003e0: 77c9 043b 47e8 6c3c 148d fcbc ab7e 24bd
000003f0: 6427 babb 4942 0fbb ee50 47bd d937 7a3c
0.01993075 0.03206037 0.024208141 -0.0026890934 0.036413062 0.0062527447 0.0099268155 -0.030580133
-0.006941603 0.2393156 0.23947798 0.1934244 0.22642116 0.22179557 0.21294083 0.23429644
0.2470699 0.19971904 0.012623959 0.04351756 0.049038343 0.022698255 -0.013001005 -0.00823966
-0.005369518 0.04136531 -0.028857335 -0.06552148 -0.0023371095 0.011732298 -0.024575235 -0.006330572
-0.05669658 -0.051337674 -0.02293128 -0.05409194 -0.002686499 -0.0205463 0.048981365 -0.008791866
0.04690788 0.018655417 0.050021444 0.030931678 0.01891068 -0.039117496 0.021223908 -0.019437399
0.022530051 0.0034249674 0.01439619 -0.011874401 -0.04240293 -0.020905878 -0.0371586 -0.056061324
-0.020155342 -0.029061869 -0.038834337 -0.025427043 0.01380359 -0.026077807 -0.059158683 -0.049494624
-0.05821681 -0.04581495 -0.06425407 -0.04498546 -0.06426288 -0.014073702 -0.0038412856 -0.046865195
0.189519 0.19434518 0.2620409 0.2351325 0.25051838 0.21400055 0.26004946 0.19118199
0.2640397 0.25955033 0.26458597 0.21547142 0.28646153 0.22061422 0.21358159 0.28538305
0.26963556 0.28236988 0.31762984 0.3339416 0.29422718 0.32078773 0.28807127 0.35702652
0.31671914 0.3244372 0.36524934 -0.02001145 0.015734475 -0.051794406 -0.006014106 -0.0027331242
-0.037366204 0.023624258 -0.050605536 -0.02648195 -0.052580614 -0.029068181 -0.039384693 0.0012260095
-0.04502192 -0.008052722 -0.014626479 0.009783497 -0.053150374 -0.23024733 -0.28048387 -0.27337274
-0.20803803 -0.2510131 -0.21661656 -0.24600045 -0.2184641 -0.24302131 0.31467888 0.32019046
0.31907132 0.24447083 0.2807121 0.31316966 0.24919666 0.27040175 0.25465703 -0.27270827
-0.31665173 -0.27534866 -0.3213316 -0.29909354 -0.3223415 -0.2971496 -0.268738 -0.2998692
0.0175297 -0.029553046 -0.02414611 -0.034529325 9.7262375e-05 -0.03259219 0.02754965 -0.03166975
-0.053557716 0.32356676 0.30834785 0.30942792 0.24612305 0.25846618 0.24611838 0.30221796
0.31655714 0.27049696 0.19181359 0.22563182 0.25806895 0.25617576 0.25868994 0.211401
0.241187 0.26302674 0.18776783 -0.029630281 -0.0069780243 0.048414078 0.02201473 0.0368952
0.019508185 0.0030251604 0.009613181 0.009989286 0.2920594 0.25289744 0.28749877 0.28716502
0.32191616 0.2745848 0.28730696 0.27228913 0.26664892 0.33325422 0.3321972 0.270351
0.34118664 0.2828223 0.31132892 0.2749709 0.3195741 0.33843115 -0.0026671558 0.030881543
0.037165083 0.036505993 -0.013159498 -0.002333272 0.044539586 0.019430822 -0.008154391 0.32367054
0.33412787 0.3423527 0.28118235 0.3296309 0.33336684 0.28624386 0.31630018 0.33753142
0.04499286 0.0467736 0.051854167 0.004493758 0.007744467 -0.00011978428 -0.018239908 0.0043200827
0.044822007 0.00024246749 -0.04823431 0.011024072 0.012564816 -0.034254313 -0.017676273 -0.035532188
-0.030051239 -0.02031721 0.28171518 0.28526652 0.23438029 0.31189772 0.30977228 0.24032977
0.27838057 0.24592814 0.28060722 -0.003340004 -0.055215083 -0.012785171 -0.012310068 -0.031582795
0.0020261684 0.014459676 -0.03082899 -0.040159862 -0.0056809653 -0.0021859577 -0.048661165 0.015272104

weight f4 [1, 64, 3, 3]
00000000: 7a3b 8e3e 61e3 953e 1111 9c3e 34ee 953e
00000010: c42e 923e efa1 8d3e 2250 a73e 3ddc 963e
00000020: acd7 ae3e d3b1 0fbd 4578 21bd 4e44 bfbd
00000030: 18e1 6ebc d21a dfbc fd88 b1bc 90b2 9ebd
00000040: 0e2f bbbd ae9d 11bd 45fa 293b 501a 63bc
00000050: 4b53 4dbd e4c4 35bd 0c40 5ebd 9e27 42bd
00000060: 5b8a 40bd b9b1 2c3b 4f48 8dbd b5fd c2bc
00000070: 157b 57bc ad64 42bb f5bb bb3c f255 1f3c
00000080: 2df6 da3c 1a34 f33c 45e5 22bd 3a00 1ebd
00000090: 5c6f 0f3d 285b cdbc c2fe 96bc d9bf bc3c
000000a0: 64d1 8e3c 0128 073c e572 85bc 5c2f 60bb
000000b0: 018d 84bc 0b57 d53d 4da9 473d 7152 4d3d
000000c0: fe56 103d 5099 993d d836 113d 1a32 b93d
000000d0: 5240 973d 55b1 983d fc67 86bc a98b 8cbd
000000e0: d9e4 50bd 1bab d7bc ddc0 a73b 333e 9abd
000000f0: adc3 83bd 974b 27bd 989b e4bc 5050 cc3c
00000100: 50e6 e53c 210e 003d 40d7 1d3c cad1 303d
00000110: d591 eabc b2e4 b6bc 7ef2 dbba 72bf 77bc
00000120: 2bdb 81bd 457f 8ebd 7370 13bd 0974 09bc
00000130: 4c06 1dbd 66b4 5ebd eb21 8dbd 4125 71bc
00000140: 00f4 3abd 41ef 59bd 16e9 82bd 337b fbbc
00000150: 29b1 69bd 484e 1dbd ed80 52bd 379d 85bd
00000160: 8c71 dfbc 251f 7bbd d62f 9fbd 117f a6bc
00000170: 1796 a8bd a612 8bbd d8cc 18bd 0637 89bd
00000180: f09f d2bc 29b4 12bd 5901 25bd 090c 8e3c
00000190: a4c3 81bd eb71 a1bc 43a0 75bc 1d3c 0bbd
000001a0: 7533 fabc 5a97 85b9 4753 3e3a 9c9d 73bc
000001b0: 3848 eabc 83d1 0abd 8f21 f03c 1744 08bd
000001c0: 311b 6d3c 8ae9 683c 9080 883c 91c0 723c
000001d0: cf84 a23c 0e48 8e3c 8efc 39bd 6723 d0bc
000001e0: 5b00 283c 1b2b a73c 4faf 73bb 4b64 c7bc
000001f0: 9821 edbc f7b8 cf3b eb25 933c 1da4 3c3d
00000200: 3135 8a3d b1ab 493d 8f54 813c 23dc 643d
00000210: 8199 1c3c 28d1 563d 9e8b 853c 0749 4bbd
00000220: 45a3 58bd d33b 3abd 41ab fbbc 053a 04bd
00000230: a07d 97bd 3687 42bd 457c 3dbd b6ef 06bd
00000240: e5b8 a23c 1a82 0fbd 4569 5f3c b38b a4bc
00000250: dab7 7c3a 9b3f 81bc 849e 003d 7981 3b3c
00000260: ecf9 023d f4c5 73bd 78fe f0bb 0fce 83bd
00000270: 612e 6cbd 789b d7bb aa8e 4d3c bb89 ffbb
00000280: 632a 58bd 890b 20bc fbb2 43bd 0e53 10bd
00000290: 152d 8cbd e61e 46bd f348 30bd 8582 7fbd
000002a0: 07f5 5fbd 7c7e aebc 3015 95bc dba3 ad3b
000002b0: 33e1 333c 9a55 96ba 7452 5cbc 05de 62bb
000002c0: 7baa 1f3d de1d f6bc b6de 99bc 35ee 88bc
000002d0: 1a6e 693c 0a02 4c3b c486 0b3a 9699 253c
000002e0: badb 1dbc 8e26 073d 086d 39bd bfb2 0fbb
000002f0: 56e6 14bd 34d8 8abc 5eb8 c0bc 6280 8b3c
00000300: 18c3 82ba a23b 3c3c 3bd8 913c 8f9c 0bbd
00000310: 8ded 0fbd cbc8 f1bc 44c1 703d 4605 13bc
00000320: 2e94 743d 14d3 1c3d be37 ffbb f6c4 8b3d
00000330: a079 523d 7e45 103c 10ce 7d3c fc86 b33c
00000340: 61af 233c 9782 01bd 958e 47bc c5a9 ef3b
00000350: ac71 2abc cac1 15bd 8e90 eaba e500 763c
00000360: 2a51 923d 2ee4 b03d 619c c43d 59e4 6e3d
00000370: a3ba 833d 8ab9 673d 7779 e73d f4f7 c63d
00000380: 3430 ff3d fd42 0a3c 55ac 953c 715d 0b3c
00000390: 933b 073b 5397 59bc d509 bf3c 6506 32bd
000003a0: 82ed 86bc cfcd 2fbd 1b42 2abd cf61 34bc
000003b0: 54b3 e6bb 058c 8bbd 2f32 5ebd 47d9 9cbd
000003c0: a864 16bd 3eb3 6abd b83c 74bd 8cd0 f8bb
000003d0: b64e babc a06f 96bc df05 80bc 4e15 bdbc
000003e0: e800 acbc 93fb 213d 4856 00bd d1c3 0dbc
000003f0: 40fb 1fbd c34b 02bd 7514 88bd 6438 0bbd
0.27779752 0.2927504 0.3048177 0.29283297 0.28551304 0.27662608 0.32678324 0.29464903
0.3414892 -0.035081696 -0.03942134 -0.093392 -0.014580034 -0.027234469 -0.021671766 -0.07748902
-0.09139834 -0.035550766 0.0025936526 -0.013861254 -0.050128262 -0.044377223 -0.0542603 -0.047401063
-0.047006946 0.0026351048 -0.068985574 -0.023802618 -0.013151904 -0.0029662058 0.022916773 0.009725081
0.026728714 0.02968793 -0.03976943 -0.038574435 0.03501831 -0.02506788 -0.018432025 0.023040699
0.01743383 0.008249284 -0.016290138 -0.0034207916 -0.016180517 0.10416993 0.048745442 0.05012745
0.035239212 0.07499945 0.035452694 0.09042759 0.07385315 0.074556984 -0.016407005 -0.068625756
-0.050999496 -0.026326707 0.0051194266 -0.07531395 -0.064338066 -0.040843572 -0.027906224 0.02494064
0.028063923 0.031263474 0.009633839 0.04316882 -0.028633991 -0.022325847 -0.0016780642 -0.015121328
-0.06340631 -0.069578685 -0.03599591 -0.008389481 -0.038336083 -0.05437126 -0.06891235 -0.014718355
-0.045642853 -0.053206686 -0.06392114 -0.030698394 -0.05705372 -0.038404733 -0.051392484 -0.06524127
-0.027275823 -0.061309 -0.07772796 -0.020324262 -0.08231752 -0.06790666 -0.03730473 -0.06699948
-0.02571103 -0.035816345 -0.04028449 0.017339723 -0.063361436 -0.01970764 -0.014991823 -0.033992875
-0.030542115 -0.00025480503 0.0007260334 -0.01486912 -0.02859889 -0.033891212 0.029312877 -0.03326806
0.014471815 0.014215836 0.016662866 0.014816419 0.019838719 0.017368343 -0.04540687 -0.025407506
0.010253991 0.020406296 -0.003718335 -0.024339816 -0.028946683 0.006339188 0.017962417 0.046054948
0.06748427 0.049236003 0.015787391 0.055874 0.009558083 0.05244556 0.016301926 -0.04963019
-0.05289008 -0.04546721 -0.030721309 -0.032281894 -0.07397008 -0.04749223 -0.04626109 -0.03294345
0.019863555 -0.035036184 0.013635938 -0.020086145 0.0009640433 -0.0157774 0.031401172 0.011444443
0.031976625 -0.059514955 -0.007354554 -0.06435787 -0.057661418 -0.0065798126 0.012546221 -0.007798401
-0.052774798 -0.009768375 -0.04777811 -0.035235457 -0.06844536 -0.04836931 -0.04303832 -0.062380332
-0.054677036 -0.021300547 -0.01819858 0.005299074 0.010978985 -0.0011469603 -0.013447393 -0.0034617197
0.038980942 -0.030043539 -0.018782955 -0.016715148 0.014247442 0.0031129145 0.0005322511 0.0101074185
-0.009634906 0.032995753 -0.045269996 -0.002192661 -0.036352478 -0.016948797 -0.023525413 0.017028991
-0.0009976355 0.011488827 0.017803302 -0.034084853 -0.035138655 -0.02951469 0.058778062 -0.008973425
0.059711628 0.038287237 -0.0077886274 0.06824677 0.051385522 0.008805631 0.015491024 0.021914952
0.009990544 -0.03161868 -0.01217999 0.0073139393 -0.010403078 -0.036561765 -0.0017895864 0.015014862
0.07144387 0.08637272 0.096001394 0.058323238 0.064320825 0.05657343 0.113024645 0.09715262
0.12460366 0.008438823 0.01827065 0.008506165 0.0020634874 -0.013280707 0.023320118 -0.04346313
-0.016470674 -0.042920884 -0.04156695 -0.0110096475 -0.0070404205 -0.06813816 -0.054247078 -0.0765863
-0.036717087 -0.057299845 -0.05962822 -0.00759322 -0.02274261 -0.018363774 -0.0156278 -0.023081448
-0.020996526 0.03954656 -0.031332284 -0.008652643 -0.03905797 -0.031810533 -0.06644527 -0.033989325
