weights/prun_SRCNN_model_path.pth (torch, 84975 bytes, 6 tensors)

weight f4 [64, 1, 9, 9]
0	0xbe239fcf	-0.15978931
1	0xbdc8dea2	-0.09808089
2	0xbdba18dd	-0.090867735
3	0xbd4ca496	-0.04996165
4	0xbd728e9a	-0.059218027
5	0xbe0060b9	-0.12536897
6	0xbd8d0c1f	-0.068870775
7	0xbc9fdc4f	-0.019514231
8	0xbcf02517	-0.02931456
9	0x3d8aaf6d	0.06771741
10	0x3d33c478	0.04388854
11	0x3c9b815c	0.018982582
12	0xbd46e4f9	-0.04855821
13	0x3d7c6d54	0.0616277
14	0xbdf1453b	-0.11780783
15	0xbcf00376	-0.029298525
16	0xbdb675a4	-0.08909157
17	0xbc6d46e3	-0.014482233
18	0xbb92c817	-0.004479419
19	0x3d0542fa	0.032534577
20	0xbd754d99	-0.059888456
21	0xbe03f00d	-0.12884541
22	0x3cd7922c	0.026314817
23	0xbd741fa6	-0.059600495
24	0xbde8e352	-0.11371483
25	0xbc19ece0	-0.009394854
26	0xbdda3839	-0.10655255
27	0xbc915fcf	-0.01774588
28	0xba97e4d9	-0.0011588588
29	0xbd53ea40	-0.05173707
30	0xbd8208aa	-0.06349309
31	0xbd50ef6e	-0.051009588
32	0x3d445120	0.04792893
33	0xbdd7f71b	-0.105451785
34	0x3c15ef35	0.00915127
35	0xbb86be31	-0.004112028
36	0xbe0edc99	-0.13951339
37	0xbddc5235	-0.10757867
38	0xbdb4ea19	-0.08833713
39	0x3c4c7afe	0.0124804955
40	0xbe6cc4c1	-0.2312193
41	0xbd4188a6	-0.04724946
42	0xbd38c7ca	-0.04511241
43	0x3cfc7773	0.030818677
44	0xbd10879f	-0.03528559
45	0xbdfaf6c6	-0.122540995
46	0xbd12fc0d	-0.035884906
47	0xbe099b5b	-0.1343817
48	0xbcdf667e	-0.027270552
49	0x3cf97f64	0.030456252
50	0xbe15cab3	-0.14628105
51	0xbc05d600	-0.008168697
52	0x3d1a3c54	0.03765519
53	0x3d3bed60	0.045880675
54	0x3d44ce38	0.048048228
55	0xbbdc1ff9	-0.0067176786
56	0xbd04d6ec	-0.032431528
57	0xbdf7ad30	-0.1209358
58	0xbe0f84bb	-0.14015476
59	0xbd08514a	-0.03328065
60	0xbca88d1e	-0.020575102
61	0xbdafcb2e	-0.08583675
62	0xbbf24636	-0.0073936237
63	0xbc03ff50	-0.008056477
64	0xbcfeeca1	-0.031118693
65	0xbd928b32	-0.07155456
66	0xbe0e3664	-0.13887936
67	0xbcd102ba	-0.025513995
68	0xbb98f7a6	-0.004668194
69	0xbe18b605	-0.14913185
70	0x3d0a23fa	0.033725716
71	0x3cbc645c	0.022997074
72	0xbd413abb	-0.04717515
73	0xbd5c9014	-0.05384834
74	0xb9122464	-0.00013937202
75	0xbdcbb8f2	-0.09947385
76	0xbe211582	-0.15730861
77	0x3d3fdb31	0.046839897
78	0xbc987606	-0.018610965
79	0x3c2088af	0.009798213
80	0xbe072d07	-0.1320077
81	0xbeea76e6	-0.45793837
82	0xbe823129	-0.2542813
83	0xbec213f4	-0.37905848
84	0xbed74e78	-0.42052054
85	0xbec0308e	-0.37537044
86	0xbea6b594	-0.32560408
87	0xbea82d82	-0.3284722
88	0xbeb4074e	-0.35161823
89	0xbecb076e	-0.39654106
90	0xbeebdb2b	-0.4606565
91	0xbeb02896	-0.34405965
92	0xbe2e9d1e	-0.17052123
93	0xbec3085b	-0.38092312
94	0xbed54742	-0.41655928
95	0xbed30f7e	-0.41222757
96	0xbea8989b	-0.3292893
97	0xbeb29372	-0.34878117
98	0xbebc187f	-0.3673744
99	0xbec3a721	-0.38213447
100	0xbe9c84b3	-0.3056999
101	0xbf023dea	-0.50875723
102	0xbebde429	-0.37088135
103	0xbea937c6	-0.33050364
104	0xbee1de11	-0.44114736
105	0xbeb068ec	-0.3445505
106	0xbed077a1	-0.4071627
107	0xbeccc045	-0.3999044
108	0xbecf4395	-0.40481248
109	0xbe84faf1	-0.25972703
110	0xbe872421	-0.26394752
111	0xbee421b5	-0.44556966
112	0xbea50eb9	-0.32237795
113	0xbea9d95a	-0.3317364
114	0xbec4b9fe	-0.3842315
115	0xbebb698e	-0.3660397
116	0xbead7ffb	-0.33886704
117	0xbe90a140	-0.28248024
118	0xbea7f75c	-0.32805908
119	0xbe46dba6	-0.19419727
120	0xbeaf2dfe	-0.34214777
121	0xbeaefb0d	-0.34175912
122	0xbea27f21	-0.31737617
123	0xbd847625	-0.06467847
124	0xbe7c3d00	-0.24632645
125	0xbebff5dd	-0.37492266
126	0xbe94d487	-0.29068395
127	0xbe4c9a4d	-0.19980736
128	0xbeaedd17	-0.34153053
129	0xbe3415b3	-0.17586403
130	0xbd8f4e26	-0.069973275
131	0xbea7fbae	-0.32809204
132	0xbe777754	-0.24166614
133	0xbe8f3e97	-0.2797744
134	0xbec5ce4b	-0.38633952
135	0xbedfcb15	-0.43709627
136	0xbecbe726	-0.3982479
137	0xbe21aba6	-0.15788135
138	0xbe323db4	-0.1740635
139	0xbee7be5a	-0.45262414
140	0xbecc77f4	-0.39935267
141	0xbea08442	-0.31350905
142	0xbe829ba3	-0.25509366
143	0xbec863e7	-0.3913872
144	0xbe93f124	-0.28894913
145	0xbe69de13	-0.22838621
146	0xbe7a9914	-0.24472457
147	0xbeebe41b	-0.46072468
148	0xbeaf5a4b	-0.34248576
149	0xbe991b9e	-0.29903883
150	0xbe7d876f	-0.24758695
151	0xbeb5042c	-0.35354745
152	0xbe80f6f8	-0.25188422
153	0xbe73b070	-0.23797774
154	0xbed05692	-0.40691048
155	0xbeb1c710	-0.34722185
156	0xbe98ddc2	-0.29856688
157	0xbe64e977	-0.22354685
158	0xbea14026	-0.31494254
159	0xbeca0715	-0.39458528
160	0xbeb18fcd	-0.34680024
161	0xbeca1fdc	-0.39477432
162	0xbe5bf0eb	-0.21478622
163	0xbe86caab	-0.26326498
164	0xbe9be892	-0.30450875
165	0xbe6c59c6	-0.23081121
166	0xbe94c1d0	-0.29054117
167	0xbe9221b7	-0.28541347
168	0xbeb46ffb	-0.35241684
169	0xbe52e644	-0.20595652
170	0xbe38e033	-0.18054275
171	0xbeab9aca	-0.33516532
172	0xbe1eacf2	-0.15495661
173	0xbe53da4c	-0.20688742
174	0xbeafa9ce	-0.34309238
175	0xbe993b29	-0.29927948
176	0xbe83019f	-0.25587174
177	0xbe2d3c30	-0.16917491
178	0xbea36350	-0.31911707
179	0xbe26781d	-0.16256757
180	0xbe5b3283	-0.21405987
181	0xbe76627d	-0.24061008
182	0xbeb5da44	-0.35518086
183	0xbea86ac6	-0.32893962
184	0xbe14f474	-0.14546376
185	0xbee02b80	-0.43783188
186	0xbe301a48	-0.17197526
187	0xbeb5411d	-0.3540124
188	0xbe406d6a	-0.18791738
189	0xbe67787a	-0.22604552
190	0xbe875987	-0.2643549
191	0xbe602711	-0.21889903
192	0xbed3c6b6	-0.41362542
193	0xbec79a75	-0.3898503
194	0xbec419a6	-0.38300818
195	0xbe2f58c9	-0.17123713
196	0xbe72c53c	-0.23708051
197	0xbe7e327f	-0.2482395
198	0xbe3ddae8	-0.18540537
199	0xbe91b955	-0.2846171
200	0xbeb6ed79	-0.35728052
201	0xbe79da20	-0.24399614
202	0xbce6ae90	-0.02815941
203	0xbe55e827	-0.2088934
204	0xbe38ca09	-0.1804582
205	0xbe8bb4aa	-0.27286273
206	0xbe6ee2a1	-0.2332864
207	0xbe288331	-0.16456296
208	0xbe8ead43	-0.27866563
209	0xbe9dbae8	-0.3080666
210	0xbe999851	-0.2999902
211	0xbe268bd3	-0.16264276
212	0xbe916b8f	-0.28402373
213	0xbeca3595	-0.39494005
214	0xbe8ac24f	-0.2710137
215	0xbe04817b	-0.12940018
216	0xbe800c23	-0.2500926
217	0xbe6a27be	-0.22866723
218	0xbeaf0cc2	-0.3418942
219	0xbe5da4f0	-0.2164495
220	0xbe106847	-0.14102279
221	0xbe9e0bf0	-0.30868483
222	0xbe5c35f0	-0.2150495
223	0xbe6db766	-0.23214492
224	0xbe921713	-0.2853323
225	0xbe3464ee	-0.17616627
226	0xbe835de4	-0.2565757
227	0xbe924ae3	-0.2857276
228	0xbe7dcd97	-0.24785458
229	0xbe861abb	-0.2619227
230	0xbea61afc	-0.32442462
231	0xbe623cd0	-0.2209351
232	0xbe2b6d32	-0.16740873
233	0xbe8a769b	-0.27043614
234	0xbe989a9b	-0.29805455
235	0xbe3aa752	-0.1822789
236	0xbe9f372c	-0.3109678
237	0xbe1f1f0e	-0.1553919
238	0xbe7c3ae1	-0.24631836
239	0xbe7e55d8	-0.24837434
240	0xbeab878e	-0.33501858
241	0xbe58b631	-0.2116325
242	0xbe5cd140	-0.21564198
243	0xbecac1d9	-0.3960102
244	0xbee76ca8	-0.45200086
245	0xbeed3a3f	-0.463335
246	0xbef6c261	-0.48195174
247	0xbec0fa38	-0.37690902
248	0xbe8bcc7f	-0.27304456
249	0xbeacd5d3	-0.33756885
250	0xbee9ed6c	-0.4568895
251	0xbeb6a3a0	-0.3567171
252	0xbeb4908a	-0.35266525
253	0xbe99071c	-0.29888237
254	0xbeb291aa	-0.34876758
255	0xbe9e0fdd	-0.30871478

bias f4 [64]
0	0x3dde63b7	0.10858863
1	0xbed42e6f	-0.41441676
2	0xbe4eaf87	-0.20184146
3	0xbeb2c232	-0.34913784
4	0xbdfc56a0	-0.1232121
5	0xbdf7cb41	-0.120993145
6	0xbe9c32ff	-0.30507657
7	0xbedc33e4	-0.4300834
8	0xbe8806ab	-0.26567587
9	0x3d71507b	0.058914643
10	0xbe92769e	-0.28606123
11	0xbe631351	-0.22175337
12	0xbea95575	-0.3307301
13	0xbe243e5e	-0.16039416
14	0xbe799169	-0.24371876
15	0xbeb1ff2a	-0.34764987
16	0xbd6285aa	-0.055303253
17	0xbcc810e9	-0.024422126
18	0x3c82cbc8	0.015966311
19	0x3d7ea510	0.062169135
20	0xbeb99fda	-0.3625477
21	0x3e7e21dc	0.24817604
22	0xbe0044e1	-0.12526275
23	0x3d7ef6df	0.062247153
24	0x3e1d0a3a	0.15335932
25	0xbe905ca5	-0.28195682
26	0xbe1c0777	-0.15237223
27	0x3dd7bbd6	0.10533874
28	0xbe8adfaa	-0.27123767
29	0xbdcd20c9	-0.10016019
30	0xbe53e914	-0.20694381
31	0xbe83fc93	-0.25778636
32	0xbea3be26	-0.3198101
33	0xbeaf86be	-0.34282488
34	0xbea7ebbb	-0.32797036
35	0xbd0ffcaf	-0.035153087
36	0xbe961aa8	-0.29317212
37	0xbeb8702e	-0.36023086
38	0xbdec92b0	-0.11551416
39	0xbe513d3e	-0.20433518
40	0xbededc2e	-0.4352736
41	0xbec1fa96	-0.37886494
42	0xbd931e5e	-0.071835265
43	0xbd8419e3	-0.0645025
44	0xbea5c4f3	-0.32376823
45	0xbe3490d2	-0.1763337
46	0xbe6305e2	-0.22170213
47	0xbea73b08	-0.32662225
48	0xbe6c67b2	-0.23086432
49	0xbd7c6649	-0.061620984
50	0xbd5f6da3	-0.054547917
51	0xbd3497ea	-0.04409019
52	0xbdaafcc8	-0.083489954
53	0xbe78bbbc	-0.24290365
54	0xbeb1a1bf	-0.34693715
55	0xbec38d42	-0.3819371
56	0xbe6dd0ca	-0.23224178
57	0xbe0455fb	-0.12923424
58	0xbe249a92	-0.16074589
59	0xbeb30605	-0.3496553
60	0xbed3fb54	-0.41402686
61	0xbe9e1f8d	-0.30883446
62	0xbdcd641c	-0.1002886
63	0xbdc73b84	-0.097281486

weight f4 [32, 64, 1, 1]
0	0xbdc12c3b	-0.094322644
1	0xbd98062e	-0.07423054
2	0x3d8292c2	0.06375648
3	0x3eb67df9	0.35642985
4	0x3e08a197	0.13342892
5	0xbe79a66b	-0.2437989
6	0x3da4e0b6	0.08050673
7	0x3ec64cc7	0.3873045
8	0x3dab5db7	0.08367484
9	0xbe3117f6	-0.17294297
10	0x3f028834	0.5098908
11	0x3df2d371	0.118567355
12	0xbea417f0	-0.32049513
13	0x3f01d9a3	0.5072271
14	0xbe476a65	-0.1947418
15	0x3ea57919	0.32318953
16	0xbe24b84b	-0.16085927
17	0xbd955ac2	-0.07292701
18	0xbc68d928	-0.01421193
19	0x3de50b44	0.11183789
20	0x3f1396d9	0.5765205
21	0xbe68456f	-0.22682737
22	0x3ea1ee11	0.31626943
23	0x3e9f873b	0.3115786
24	0xbe2877b6	-0.16451916
25	0xbe9acbdd	-0.3023366
26	0x3ea37883	0.3192788
27	0xbe4cdba5	-0.20005663
28	0x3eaec8c4	0.34137547
29	0x3e09bc98	0.13450849
30	0xbea92647	-0.33037016
31	0x3e7574fd	0.23970409
32	0x3e89e584	0.2693292
33	0x3e31da27	0.17368375
34	0xbea7106a	-0.3262971
35	0xbe34a635	-0.17641528
36	0x3d802161	0.062563665
37	0x3e736ee4	0.2377277
38	0xbdb1eaba	-0.08687349
39	0x3ea04a8d	0.31306878
40	0x3dc84609	0.09778983
41	0x3e8a403a	0.27002126
42	0xbea95412	-0.33071953
43	0xbdb25e6e	-0.08709417
44	0x3e9c1feb	0.304931
45	0x3e659ada	0.22422352
46	0x3ee9c5c6	0.45658702
47	0x3f110bf5	0.5665887
48	0x3e5be3c4	0.21473604
49	0x3ea6c521	0.32572272
50	0xbe1f8d52	-0.15581253
51	0x3ddf14b4	0.10892621
52	0xbe46ed41	-0.19426443
53	0x3e24e320	0.16102266
54	0x3e289e0f	0.16466545
55	0x3e7ee4f6	0.24892029
56	0x3e838ccd	0.2569336
57	0xbe21ebc6	-0.15812597
58	0x3da76ae5	0.081746854
59	0xbde02931	-0.10945357
60	0x3e428a84	0.18998152
61	0xbd8c5705	-0.06852535
62	0xbd510318	-0.05102834
63	0xbe9605d9	-0.29301336
64	0xbeabc623	-0.33549604
65	0x3e055d93	0.13023977
66	0x3e96c1ad	0.29444638
67	0x3e61a1ab	0.22034328
68	0x3eef31f1	0.4671779
69	0xbeb368f8	-0.35041022
70	0x3ed43d01	0.41452792
71	0x3e306eed	0.17229815
72	0xbd2f020e	-0.04272657
73	0xbe42eaa1	-0.19034816
74	0x3ec615a6	0.3868839
75	0x3eb811ab	0.3595098
76	0xbdbafe98	-0.09130591
77	0x3e83f6d6	0.25774258
78	0x3d8eafb0	0.069671035
79	0x3e5f4183	0.21802334
80	0xbec925ce	-0.39286655
81	0xbe5dfe44	-0.21679026
82	0xbb95b7b7	-0.0045690197
83	0xbea31364	-0.3185073
84	0x3e69e7a0	0.22842264
85	0xbc450664	-0.012025449
86	0x3e9786ae	0.2959494
87	0x3e5f61c2	0.21814635
88	0xbeca61ab	-0.3952764
89	0xbe1f00c6	-0.15527639
90	0x3e988bb8	0.29794097
91	0xbe201a47	-0.15635024
92	0x3e86c08a	0.2631877
93	0x3ec31738	0.38103652
94	0xbeedc496	-0.46439046
95	0x3d76c175	0.06024309
96	0x3ceae87f	0.028675316
97	0x3e9b1719	0.3029106
98	0xbd86d948	-0.06584412
99	0xbe504c57	-0.20341621
100	0x3ecc9e75	0.39964643
101	0x391be325	0.0001486657
102	0x3d3e0da6	0.046399735
103	0x3e90dbed	0.2829279
104	0x3f28bcdc	0.65913177
105	0x3e0d84eb	0.13820235
106	0xbe74a0a5	-0.23889406
107	0xbe8fc717	-0.2808158
108	0x3e29b78a	0.16573921
109	0x3e3d5e8d	0.184931
110	0x3e6f5181	0.23370935
111	0x3e98de78	0.2985723
112	0x3d428fd4	0.047500446
113	0x3be9db46	0.007136735
114	0xbeb17739	-0.34661272
115	0x3ea2de1d	0.31810084
116	0x3e074325	0.13209207
117	0x3de86d1d	0.11348937
118	0x3e12ec6b	0.14347999
119	0x3e85a4ff	0.26102445
120	0x3e2afbca	0.16697612
121	0x3e0b2b89	0.13590826
122	0x3dd19a5f	0.10234522
123	0xbd7dd530	-0.06197089
124	0x3e3b9e72	0.18322161
125	0xbecc86a7	-0.39946482
126	0xbce88734	-0.028384782
127	0xbef89fb8	-0.48559356
128	0xbe4bdce7	-0.19908486
129	0xbe66c958	-0.22537744
130	0x3ee40155	0.44532266
131	0xbe6bba9a	-0.23020402
132	0x3e3d0c6d	0.18461771
133	0x3d305caa	0.04305712
134	0x3e0e4cb4	0.13896447
135	0x3d586304	0.052828804
136	0x3ea52dcd	0.32261506
137	0xbc8b37e2	-0.01699442
138	0xbe11862e	-0.14211342
139	0x3e2f83dc	0.17140144
140	0x3ef78f1f	0.4835138
141	0xbdfbe61d	-0.1229975
142	0xbe341653	-0.17586641
143	0xbdce345d	-0.10068581
144	0xbd690957	-0.056893673
145	0xbe157059	-0.14593638
146	0xbeb818e5	-0.35956493
147	0x3e19d230	0.15021586
148	0xbe013f7e	-0.12621877
149	0xbe71ea57	-0.2362455
150	0xbc53f2d1	-0.01293631
151	0xbe2b3ae1	-0.1672168
152	0xbe064a02	-0.13114169
153	0x3e1666fb	0.14687721
154	0xbcb3115e	-0.021858867
155	0xbdac685c	-0.084183425
156	0xbdaa28ee	-0.08308588
157	0x3e16614b	0.14685552
158	0x3e73575e	0.23763797
159	0x3da96043	0.082703136
160	0x3e48f7e2	0.1962581
161	0x3e9bafd1	0.30407575
162	0x3ee4cbd1	0.4468675
163	0xbe6ff6c5	-0.23433979
164	0x3e610eeb	0.21978347
165	0x3e4b70cf	0.19867252
166	0x3ed1b984	0.4096185
167	0xbe7aef46	-0.24505338
168	0xbe953aae	-0.29146332
169	0xbe3a055d	-0.18166108
170	0x3e3efed0	0.18651891
171	0x3d33aef1	0.04386801
172	0x3e158c65	0.14604338
173	0x3cdb6643	0.02678216
174	0xbd84aba0	-0.06478047
175	0xbebd0e0f	-0.36924788
176	0xbe614ee2	-0.22002748
177	0x3e1f9505	0.1558419
178	0xbe281c22	-0.16416982
179	0x3ecf6cb9	0.40512636
180	0xbe0dab3e	-0.13834855
181	0xbea32461	-0.31863692
182	0xbc9cece2	-0.019155923
183	0x3dd2cc02	0.10292818
184	0x3cbeae0d	0.023276353
185	0xbea434c4	-0.32071507
186	0x3ea9d8d1	0.3317323
187	0xbdd89944	-0.10576108
188	0x3d042f20	0.032271504
189	0x3e2c6745	0.16836269
190	0xbe98d347	-0.29848692
191	0x3d4303cd	0.047611047
192	0x3e4fbf14	0.20287734
193	0x3e27234c	0.16322058
194	0x3dbdbbb4	0.09264317
195	0x3e4dc2dd	0.20093866
196	0xbe57d290	-0.21076417
197	0x3e616c38	0.22013938
198	0xbe2182d2	-0.1577256
199	0xbd4b1056	-0.049576126
200	0xbcf10d91	-0.029425414
201	0x3e867314	0.26259673
202	0x3e4b28b6	0.19839749
203	0xbe55ac70	-0.20866561
204	0x3d892aea	0.06697638
205	0x3e760518	0.2402538
206	0x3e0a3546	0.13496885
207	0x3ddb9962	0.10722615
208	0x3e2cf344	0.16889673
209	0x3e22ddf9	0.15904988
210	0xbc714e4d	-0.014728141
211	0xbd2bfde4	-0.041990176
212	0x3df9c21c	0.121952266
213	0xbd142e49	-0.036176953
214	0xbd753268	-0.059862524
215	0x3d9ce840	0.07661486
216	0x3dba9dea	0.09112151
217	0xbc9e5448	-0.019327298
218	0x3cf46172	0.029831622
219	0xbd366dbf	-0.044538256
220	0x3dff1fec	0.124572605
221	0xbe61e7fa	-0.22061148
222	0xba62b5b8	-0.0008648294
223	0xbca3a3d0	-0.019975573
224	0xbdc28305	-0.09497646
225	0xbe25eaa3	-0.16202788
226	0x3cfb269b	0.030658057
227	0x3d1d5d3e	0.038419
228	0xbe1ec04d	-0.15503044
229	0x3bdf30f2	0.0068112547
230	0xbd89d126	-0.06729345
231	0x3e6e01a1	0.23242809
232	0xbcdd1e09	-0.026991861
233	0x3e13ec98	0.14445722
234	0x3dd4abc3	0.103843234
235	0x3e79ba64	0.24387509
236	0xbe56f105	-0.20990379
237	0xbe552383	-0.20814328
238	0x3caf4399	0.021394538
239	0x3e854d72	0.2603565
240	0x3e27568e	0.16341612
241	0x3cae20d9	0.021255897
242	0xbbce384e	-0.006293333
243	0xbc0049a9	-0.007830062
244	0x3dfdfb9f	0.124015085
245	0x3eb1a177	0.346935
246	0xbbf25cf7	-0.007396336
247	0x39842f41	0.0002521221
248	0x3bbcc4ec	0.0057607796
249	0x3e3ef9ad	0.18649931
250	0xbdadac8b	-0.084801756
251	0x3e94c5bf	0.29057118
252	0xbd9d7809	-0.076889105
253	0x3e538093	0.20654516
254	0x3ea76c19	0.3269966
255	0x3dd249fa	0.10268016

bias f4 [32]
0	0xbe7360d1	-0.23767401
1	0xbe2e6b3e	-0.17033097
2	0xbbcda15b	-0.0062753386
3	0x3deb6dca	0.1149555
4	0xbee12ed7	-0.43981048
5	0xbe7c6174	-0.2464655
6	0xbeb165a3	-0.34647855
7	0xbe8ddd79	-0.27708033
8	0xbe4e3d27	-0.20140515
9	0xbe60cc93	-0.21953039
10	0xbe0539bf	-0.1301031
11	0xbe107e79	-0.14110745
12	0xbe70975b	-0.23495238
13	0xbe874506	-0.26419848
14	0xbed8c3a6	-0.42336768
15	0xbe8a50b6	-0.27014703
16	0xbe6a6cb6	-0.22893032
17	0xbd11f62e	-0.035635166
18	0x3e1fdcea	0.15611616
19	0xbd72dd2f	-0.05929297
20	0xbeed8d54	-0.46396887
21	0xbee2a537	-0.44266674
22	0xbd228583	-0.039678108
23	0xbed73321	-0.42031196
24	0xbe40fe83	-0.18847089
25	0xbe9ae249	-0.30250767
26	0xbdf0b81e	-0.117538676
27	0xbe42ed82	-0.19035915
28	0xbeb31190	-0.34974337
29	0xbea8607e	-0.32886118
30	0xbdfb08aa	-0.12257512
31	0xbe9ed288	-0.31019998

weight f4 [16, 32, 5, 5]
0	0x3e3d862a	0.18508211
1	0x3e5ad895	0.21371682
2	0x3e4e7c2b	0.20164554
3	0x3e7fd238	0.24982536
4	0x3e673dc7	0.2258216
5	0x3e4d2b44	0.20036036
6	0x3e37eee8	0.17962229
7	0x3e4e9821	0.2017522
8	0x3e49c81d	0.19705243
9	0x3e2c0f76	0.16802773
10	0x3e569434	0.20954973
11	0x3e3af60d	0.18257923
12	0x3e36e6b9	0.17861451
13	0x3e68fc76	0.22752556
14	0x3e4afda6	0.19823322
15	0x3e4dbe96	0.20092234
16	0x3e35ec0b	0.17765824
17	0x3e585eb0	0.2112987
18	0x3e645dfe	0.2230148
19	0x3e7b8a47	0.24564467
20	0x3e6c3afc	0.23069376
21	0x3e4d0f48	0.2002536
22	0x3e3332c0	0.17499828
23	0x3e5d0c8a	0.21586815
24	0x3e4df943	0.20114617
25	0xbdb93b55	-0.0904452
26	0xbd9ba824	-0.0760043
27	0xbb22da01	-0.0024849179
28	0xbd9c5bd7	-0.076347046
29	0xbd0e8242	-0.034792192
30	0xbcbbb6b0	-0.02291426
31	0xbc101a8a	-0.00879539
32	0x3d5be124	0.053681508
33	0xbd19d69f	-0.037558194
34	0xbd3c603a	-0.045990206
35	0x3dc02391	0.09381784
36	0xbc66776c	-0.014066558
37	0x3d810c57	0.06301182
38	0xbab3c8a0	-0.0013716407
39	0x3d0fe292	0.035128184
40	0xbdafc48d	-0.08582411
41	0xbdca94fe	-0.09891699
42	0xbd90072c	-0.07032618
43	0xbdd4e026	-0.103943154
44	0x3c344505	0.011002784
45	0xbd78580b	-0.06063084
46	0x3cb2473e	0.021762487
47	0x3d8ac154	0.06775156
48	0xbd62af4a	-0.05534295
49	0xbd914215	-0.07092682
50	0xbc2eba18	-0.010664485
51	0x3c1cc831	0.009569214
52	0xbc7c2bd0	-0.015391305
53	0xbd00b300	-0.031420708
54	0xbcff62cd	-0.031175042
55	0xbcc23b5d	-0.023709947
56	0xbc5f0672	-0.0136123765
57	0xbd9e1bb3	-0.07720127
58	0x3b987d3f	0.0046536024
59	0xbd197fd0	-0.037475407
60	0xbcbc2cbf	-0.022970555
61	0xbd38ebb2	-0.04514665
62	0xbb8f86d1	-0.004380085
63	0xbc4009db	-0.0117211
64	0xbc9376df	-0.018001018
65	0xbc8cd48f	-0.0171912
66	0xbd14d973	-0.03634019
67	0x3cc9dd47	0.024641646
68	0xbc76177d	-0.0150202485
69	0xbc9ed9aa	-0.0193909
70	0xbc5472ce	-0.012966825
71	0x3c063fe2	0.008193942
72	0xbb0a8f30	-0.0021142475
73	0x3af4ba3b	0.0018671224
74	0xbbc2f32d	-0.005949399
75	0x3dcd1691	0.1001407
76	0x3ddbf614	0.10740295
77	0x3e0eb540	0.13936329
78	0x3ddd0117	0.107912235
79	0x3e2073c1	0.15669157
80	0x3dbd1c4b	0.09233912
81	0x3e20b24c	0.15693015
82	0x3dffa893	0.12483325
83	0x3e0d2101	0.13782121
84	0x3dc69400	0.096961975
85	0x3d6303b7	0.055423465
86	0x3e3422ea	0.17591444
87	0x3d9686da	0.0734994
88	0x3df976a0	0.12180829
89	0x3de6bb21	0.11266161
90	0x3d95c2c7	0.073125415
91	0x3e0f007c	0.13965029
92	0x3dc2c3f8	0.09510034
93	0x3deec46b	0.116585575
94	0x3dd0f619	0.102031894
95	0x3dfda6a1	0.123852976
96	0x3dc358df	0.09538435
97	0x3dc0a8a2	0.09407164
98	0x3dfd5f2c	0.12371668
99	0x3e036246	0.12830457
100	0xbe263351	-0.16230513
101	0xbe117fee	-0.14208958
102	0xbe23fa66	-0.16013488
103	0xbe068d31	-0.13139798
104	0xbe2afbae	-0.1669757
105	0xbdf07139	-0.117403455
106	0xbe299ea3	-0.16564421
107	0xbe610beb	-0.21977203
108	0xbe1762e2	-0.14783815
109	0xbe10f258	-0.14154947
110	0xbe4a8219	-0.19776191
111	0xbe27f09d	-0.1640038
112	0xbde5feb9	-0.11230225
113	0xbe4c8259	-0.19971599
114	0xbe0edb04	-0.13950735
115	0xbe0fbd2a	-0.14037004
116	0xbe267137	-0.16254126
117	0xbdb68206	-0.08911519
118	0xbe526ef5	-0.20550139
119	0xbe32ceb2	-0.1746166
120	0xbe4dddac	-0.20104092
121	0xbe249aaf	-0.16074632
122	0xbe06fe36	-0.13182911
123	0xbe216c5b	-0.1576399
124	0xbe3e6b0c	-0.18595523
125	0xbb04501c	-0.002018935
126	0xbbafbaef	-0.0053628604
127	0xbc4e4979	-0.012590759
128	0xbcc81901	-0.024425985
129	0xbcd9244e	-0.02650657
130	0xbcca7d9c	-0.024718098
131	0x3ce0f0b9	0.027458536
132	0x3d2291bf	0.039689776
133	0xbb3da66b	-0.0028938304
134	0xbcaf247e	-0.021379706
135	0x3d190553	0.037358593
136	0x3d1a8a43	0.037729513
137	0x3cc2de0f	0.023787526
138	0xbc934ad7	-0.017980022
139	0x3cfed5c2	0.031107787
140	0xbd60e8f9	-0.05490968
141	0xbd6e0b59	-0.05811629
142	0xbc06242e	-0.008187337
143	0xbc997e91	-0.01873711
144	0x3a14e3e7	0.0005679712
145	0x3b94cecc	0.0045412537
146	0xbc44d7a3	-0.012014302
147	0x3c84a39d	0.016191298
148	0xbb63c78b	-0.0034756388
149	0xbd0355bb	-0.03206418
150	0xbe978450	-0.29593134
151	0xbe94d506	-0.29068774
152	0xbe99444a	-0.29934913
153	0xbe9ee15c	-0.3103131
154	0xbe9262a8	-0.28590894
155	0xbe9e1ad4	-0.30879843
156	0xbe94b87d	-0.29047003
157	0xbe95c9bd	-0.29255477
158	0xbea1588d	-0.3151287
159	0xbe938634	-0.28813326
160	0xbeb3dc1d	-0.3512887
161	0xbe9afc17	-0.30270454
162	0xbe81e4ac	-0.25369775
163	0xbe808bd2	-0.25106674
164	0xbe81f323	-0.2538081
165	0xbea1b154	-0.31580603
166	0xbe8d2db0	-0.2757392
167	0xbe8411e3	-0.25794896
168	0xbe9e558c	-0.30924642
169	0xbea73ee4	-0.3266517
170	0xbe8ec965	-0.27888027
171	0xbe847b45	-0.25875297
172	0xbeb5fc0b	-0.35543856
173	0xbe9f9065	-0.31164852
174	0xbea7587b	-0.32684693
175	0x3e13fdc9	0.1445228
176	0x3e36ae5e	0.17839953
177	0x3e37f636	0.17965016
178	0x3e3135ac	0.1730563
179	0x3e20084f	0.1562817
180	0x3e130db8	0.14360702
181	0x3e057ea1	0.13036586
182	0x3e0c2f7e	0.13689992
183	0x3e4e46b9	0.20144166
184	0x3d3aa38f	0.045566138
185	0x3e3daf37	0.1852387
186	0x3e2c0f31	0.1680267
187	0x3e0ad3a2	0.13557294
188	0x3de1ec65	0.11031417
189	0x3def0802	0.11671449
190	0x3df030ae	0.11728035
191	0x3d9dccd2	0.07705082
192	0x3de03e9d	0.109494425
193	0x3da03caf	0.078240745
194	0x3e3b7863	0.18307643
195	0x3e00f455	0.12593205
196	0x3e0c00ac	0.13672131
197	0x3e3b0c08	0.18266308
198	0x3e20ee81	0.15715982
199	0x3e2b1a0f	0.1670916
200	0x3d4f1bcd	0.050563622
201	0x3dbf84a8	0.09351474
202	0x3d9f616a	0.07782252
203	0x3dcef133	0.10104599
204	0x3d76af40	0.060225725
205	0x3dac4cb1	0.08413065
206	0x3d08e81c	0.03342448
207	0x3da30797	0.07960432
208	0x3df81725	0.121137895
209	0x3dbd639b	0.09247514
210	0x3da24ac4	0.07924417
211	0x3d429019	0.047500703
212	0x3dcbbebb	0.09948488
213	0x3dac754d	0.08420811
214	0x3d4b0bc4	0.049571767
215	0x3da19c55	0.07891146
216	0x3e005be4	0.12535053
217	0x3e1e83a6	0.15479907
218	0x3ce62d61	0.02809781
219	0x3d2fd006	0.042922996
220	0x3dca180e	0.09867869
221	0x3d912205	0.07086567
222	0x3dad950e	0.084756956
223	0x3d84c34c	0.064825624
224	0x3dc6ebde	0.09712957
225	0x3e4da3fa	0.20082083
226	0x3e3896f8	0.1802634
227	0x3e31a957	0.17349754
228	0x3e316a8d	0.17325802
229	0x3e2cf8d0	0.1689179
230	0x3e110763	0.14162974
231	0x3e509f8c	0.20373362
232	0x3e6412a5	0.22272737
233	0x3e6fc93f	0.23416613
234	0x3e2e69e7	0.17032586
235	0x3e27afd6	0.1637567
236	0x3e373a7c	0.17893404
237	0x3de5223c	0.1118817
238	0x3e29ef5c	0.16595215
239	0x3e4d99c7	0.20078193
240	0x3e26ffdb	0.16308539
241	0x3e3c94a5	0.18416078
242	0x3dfea541	0.124338634
243	0x3e3b8128	0.18310988
244	0x3e804224	0.2505046
245	0x3e22515f	0.15851353
246	0x3e25fdb9	0.16210069
247	0x3e10f1ef	0.1415479
248	0x3e5169f5	0.20450576
249	0x3e3933e0	0.18086195
250	0x3e3ca5ce	0.18422624
251	0x3d98fc80	0.074700356
252	0x3dd245f2	0.10267247
253	0x3e274078	0.16333187
254	0x3dfb59ab	0.12272962
255	0x3e55f73f	0.20895098

bias f4 [16]
0	0x3e6789d4	0.22611171
1	0x3e876a04	0.2644807
2	0x3e494dcd	0.19658585
3	0x3e6e419b	0.23267214
4	0x3e5910dd	0.21197839
5	0x3d9ca424	0.07648495
6	0x3e3bbd21	0.18333866
7	0x3dbc2904	0.091875106
8	0x3e5b455a	0.21413174
9	0x3e49e081	0.19714548
10	0x3dfc71c0	0.123263836
11	0x3dd58a71	0.10426796
12	0x3e7b7e5f	0.24559925
13	0x3e789741	0.24276449
14	0x3e6d9f7f	0.23205374
15	0x3e8af251	0.27137998
