weights/prun_FSRCNN_model_path.pth (torch, 64235 bytes, 15 tensors)

weight f4 [64, 1, 5, 5]
-0.3665948 -0.24268624 -0.2196248 0.00011045404 0.02025262 -0.18650676 -0.63183326 -0.4655383
-0.0046551595 -0.5230313 -0.3850592 0.040380053 -0.24658342 0.108687006 -0.3077059 0.01716572
-0.03344513 0.06489861 -0.18766877 -0.22180289 -0.19887032 0.07601923 -0.16239862 0.11036751
-0.31846142 0.054869097 0.09588372 0.23812436 0.096069455 0.14489886 0.2878543 -0.16251634
-0.008862473 -0.18261626 0.1033693 -0.053564236 -0.13648167 -0.35798314 -0.10262663 -0.26928023
-0.12352754 0.104279295 0.21511151 0.049324233 0.28276128 0.70337516 0.1966932 0.24354073
-0.50377566 0.4072488 -0.019009266 -0.42328614 -0.38727638 -0.43674415 -0.39251536 -0.47814906
-0.08224805 -0.20051746 -0.3224181 -0.57888573 -0.031561583 -0.11556184 -0.09208255 -0.6853467
-0.3333675 -0.039759114 -0.260503 -0.31893393 -0.6528051 -0.3423827 -0.21744002 -0.28241304
-0.31640312 -0.32187226 0.013208648 -0.18634419 0.11612412 -0.528672 -0.13990766 -0.21241064
-0.4210848 -0.039539244 -0.13085623 -0.370724 -0.3170018 0.091423795 -0.34437317 -0.38853738
-0.25991708 -0.26434878 -0.29978696 -0.17617604 -0.39746338 -0.64966786 -0.002285531 -0.2499578
-0.17654666 0.051660724 -0.3682872 -0.2779998 0.3972347 -0.32302752 -0.062266238 0.17284344
0.1534212 -0.10188642 -0.22741996 0.1827446 0.1800173 0.24846883 -0.059104905 -0.317669
0.043228406 0.031880643 0.12673727 0.18124183 0.31479192 0.006290327 -0.031226425 0.21396905
0.049746614 0.031468283 0.031605046 -0.0478357 0.38622934 -0.3392984 -0.019358382 -0.02701676
-0.017600527 -0.43909153 -0.45606384 -0.12167364 0.21409811 0.21522658 -0.20586291 -0.16720086
-0.39798668 -0.13172324 -0.065115206 0.43523893 0.048909374 -0.3444938 -0.20908031 -0.27657214
-0.34121227 -0.33695877 -0.19551632 -0.21220279 -0.08152612 -0.03366198 0.19280095 -0.014554712
-0.28473485 0.3282191 0.1773834 0.051498454 0.030125128 0.19406772 -0.07219599 0.25014925
0.39536363 0.4448736 -0.09094189 0.4057837 -0.030659812 -0.15080196 -0.11556138 -0.10418516
-0.13428044 0.36622173 0.0672244 0.016317392 -0.10078238 0.115436874 0.15226124 -0.56630594
-0.7236541 -0.38250935 -0.31705195 0.2604751 -0.12601388 -0.5588347 -0.02882351 -0.4966682
-0.51731473 -0.58636105 -0.28509456 -0.10393844 -0.23453794 -0.22162351 -0.30235302 -0.4678028
0.13006817 -0.36438125 -0.5744586 0.08297301 -0.2655655 -0.22073378 -0.21969046 -0.6839064
0.13077027 -0.11419983 -0.19018133 0.08343556 0.12268199 -0.4757558 -0.06564705 0.16276519
0.41349277 -0.01615023 0.2689634 -0.24326949 0.23093621 0.103256635 -0.08826143 0.32874754
-0.060388807 0.1539562 -0.16554427 -0.36989 0.51793194 0.18219522 0.08953844 0.3303797
-0.053417206 0.7237476 0.41768655 0.26220936 0.13088042 0.38584632 0.22797889 0.07875799
0.16327348 0.49725214 -0.03873567 0.30477947 0.16518687 -0.21358357 0.21861191 0.25431517
-0.06896857 0.6504004 0.17871986 -0.0008523748 0.4362169 0.23119777 0.06448139 0.09942556
-0.045144234 0.3144189 -0.17506552 -0.7021695 -0.18001886 -0.391078 0.10596289 -0.48246154
00000000: 50b2 bbbe be82 78be 53e5 60be 90a3 e738
00000010: d3e8 a53c a1fb 3ebe d3bf 21bf 095b eebe
00000020: 4f8a 98bb 61e5 05bf 7b26 c5be 8e65 253d
00000030: 5d80 7cbe 4b97 de3d a18b 9dbe 209f 8c3c
00000040: c3fd 08bd 90e9 843d 3e2c 40be 4c20 63be
00000050: a9a4 4bbe f8af 9b3d d34b 26be 5c08 e23d
00000060: 600d a3be 6bbe 603d af5e c43d dfd6 733e
00000070: 10c0 c43d 5e60 143e a461 933e af6a 26be
00000080: e833 11bc c2ff 3abe 49b3 d33d 2c66 5bbd
00000090: dac1 0bbe 9149 b7be e92d d2bd 19df 89be
000000a0: 02fc fcbd 6290 d53d 3146 5c3e 3508 4a3d
000000b0: 16c6 903e 6510 343f f169 493e be62 793e
000000c0: 71f7 00bf ea82 d03e 52b9 9bbc f6b8 d8be
000000d0: 1749 c6be ee9c dfbe c6f7 c8be f4cf f4be
000000e0: aa71 a8bd 7354 4dbe fc13 a5be db31 14bf
000000f0: b846 01bd b0ab ecbd c795 bcbd e272 2fbf
00000100: 25af aabe 74da 22bd a660 85be 4f4b a3be
00000110: 3c1e 27bf c94c afbe 99a8 5ebe 7198 90be
00000120: 97ff a1be 71cc a4be 1669 583c 03d1 3ebe
00000130: 7cd2 ed3d 0c57 07bf f443 0fbe 2d82 59be
00000140: 6d98 d7be e7f3 21bd 2dff 05be 89cf bdbe
00000150: 0f4e a2be 663c bb3d ae51 b0be 5fee c6be
00000160: da13 85be b958 87be ad7d 99be 7e67 34be
00000170: 5280 cbbe a250 26bf d9c8 15bb f0f4 7fbe
00000180: a6c8 34be 329a 533d 2490 bcbe fd55 8ebe
00000190: 5962 cb3e dd63 a5be e20a 7fbd dffd 303e
000001a0: 721a 1d3e d4a9 d0bd c7e0 68be 6721 3b3e
000001b0: 7556 383e 9d6e 7e3e fc17 72bd 83a5 a2be
000001c0: 4510 313d 4795 023d 6ac7 013e 7597 393e
000001d0: 682c a13e 161f ce3b 8fce ffbc b41a 5b3e
000001e0: 1bc3 4b3d e3e4 003d 4b74 013d 5eef 43bd
000001f0: dabf c53e 85b8 adbe 7895 9ebc 4152 ddbc
00000200: fb2e 90bc 9bd0 e0be 3381 e9be 0830 f9bd
00000210: 893c 5b3e 5b64 5c3e bacd 52be b436 2bbe
00000220: e9c4 cbbe 75e2 06be 1f5b 85bd a3d7 de3e
00000230: 3255 483d 7e61 b0be 2619 56be dd9a 8dbe
00000240: 60b3 aebe dc85 acbe 6e35 48be b04b 59be
00000250: 2bf7 a6bd 25e1 09bd 9d6d 453e e376 6ebc
00000260: c4c8 91be 550c a83e fea3 353e 0bf0 523d
00000270: f9c8 f63c b0b9 463e 7edb 93bd 9013 803e
00000280: 1a6d ca3e 79c6 e33e be3f babd e2c2 cf3e
00000290: 492a fbbc d46b 1abe 72ab ecbd 075f d5bd
000002a0: d080 09be 6a81 bb3e f2ac 893d 0dac 853c
000002b0: fe66 cebd 2b6a ec3d 5fea 1b3e 6df9 10bf
000002c0: 6541 39bf 44d8 c3be a254 a2be fe5c 853e
000002d0: c809 01be ca0f 0fbf 481f ecbc 4b4b febe
000002e0: bd6e 04bf c21b 16bf eaf7 91be addd d4bd
000002f0: b72a 70be 46f1 62be 04ce 9abe d983 efbe
00000300: 9730 053e 2e90 babe b80f 13bf c1ed a93d
00000310: 34f8 87be 0908 62be 89f6 60be 7d14 2fbf
00000320: a4e8 053e 9ae1 e9bd e5be 42be 43e0 aa3d
00000330: b240 fb3d 4496 f3be f671 86bd ebab 263e
00000340: 53b5 d33e 7d4d 84bc 92b5 893e a31b 79be
00000350: 8b7a 6c3e 3778 d33d 69c2 b4bd 9951 a83e
00000360: 415a 77bd b2a6 1d3e 7084 29be 3962 bdbe
00000370: 3097 043f 6291 3a3e ee5f b73d 8727 a93e
00000380: 00cc 5abd 8647 393f 03db d53e 4e40 863e
00000390: 8405 063e a68d c53e 4c73 693e de4b a13d
000003a0: 2a31 273e d597 fe3e 4ba9 1ebd 0e0c 9c3e
000003b0: bf26 293e a7b5 5abe cddb 5f3e 9935 823e
000003c0: 653f 8dbd a480 263f 5702 373e e871 5fba
000003d0: d257 df3e 1cbf 6c3e d20e 843d a19f cb3d
000003e0: 29e9 38bd 84fb a03e 6044 33be 61c1 33bf
000003f0: dd56 38be 603b c8be 1203 d93d 3305 f7be

bias f4 [64]
-0.16488867 0.13356252 -0.31389037 -0.37107202 0.06815516 -0.029084278 0.0095452005 -0.28060782
0.18093626 0.35151103 -0.37940904 0.05656945 0.11803434 0.048080362 -0.26710913 0.014004433
0.15274449 0.40302736 0.34777543 -0.15208794 -0.34878737 0.11389692 -0.3446391 -0.36289132
0.44950578 -0.57610625 -0.0049182177 -0.16546193 0.28872657 0.107568525 0.26385075 -0.4311746
-0.030776482 -0.70236915 0.2498739 0.32472405 0.26767716 0.10998336 0.068941675 0.74230176
0.20489404 0.197709 -0.36711776 0.1418757 0.05103166 0.26827633 0.095820524 -0.004575223
-0.36525118 0.090991855 0.021814924 0.22323725 -0.05046867 -0.33412412 0.36722237 0.116351806
0.09355537 0.13324483 -0.45431146 0.37248686 -0.4039679 0.12784652 -0.0019551981 -0.35846397
00000000: 93d8 28be 9dc4 083e 3db6 a0be 27fd bdbe
00000010: ef94 8b3d 2742 eebc 7963 1c3c d4ab 8fbe
00000020: 5b47 393e 41f9 b33e e741 c2be 5eb5 673d
00000030: fdbb f13d eaef 443d 87c2 88be d972 653c
00000040: 0d69 1c3e 9a59 ce3e 9f0f b23e f1bc 1bbe
00000050: 4294 b2be ca42 e93d 8974 b0be e4cc b9be
00000060: 9f25 e63e b37b 13bf 0029 a1bb da6e 29be
00000070: f8d3 933e e34c dc3d 7217 873e ebc2 dcbe
00000080: f61e fcbc 77ce 33bf f2de 7f3e 3b42 a63e
00000090: fb0c 893e f53e e13d 4b31 8d3d 7d07 3e3f
000000a0: becf 513e 3a74 4a3e dcf6 bbbe dd47 113e
000000b0: 9306 513d 845b 893e 8d3d c43d c1eb 95bb
000000c0: 3402 bbbe f059 ba3d 36b5 b23c 4e98 643e
000000d0: 3cb8 4ebd 5112 abbe 9204 bc3e db49 ee3d
000000e0: f599 bf3d 5571 083e 839b e8be 99b6 be3e
000000f0: e1d4 cebe 33ea 023e c822 00bb 9788 b7be

weight f4 [12, 64, 1, 1]
0.7184883 0.38964242 -0.16221681 0.0014492949 0.57987744 0.5054249 -0.29513234 0.5346898
0.6471823 0.32641527 0.077146895 0.5497781 -0.10345634 -0.05426635 -0.12796956 -0.39685094
0.401692 0.09202588 0.34136152 0.5683596 0.14467517 0.4073467 -0.04053199 -0.16535261
0.09939974 0.48270684 0.045910865 0.66507286 0.19537748 0.36431214 0.06613925 0.6182931
-0.50379086 0.7758969 0.38197464 0.16245274 0.06905609 0.33091748 0.36479706 -0.4347322
0.49214086 0.024621176 0.33745232 0.16851135 0.392887 0.1022301 0.40561107 -0.16307107
-0.14646502 0.32819995 0.10396286 0.4340651 0.39627057 0.18047246 0.1050723 0.4778089
0.5328972 0.21670252 0.28764972 -0.4663957 0.28261262 0.47090587 -0.12529731 0.07840255
0.14910424 -0.07616713 -0.123230405 0.074327864 -0.2210715 0.2585419 0.07199982 0.35123795
-0.040240195 -0.00017061376 0.53483784 0.093861185 0.17542756 0.09820506 -0.14961652 -0.16412584
0.13347812 -0.51746505 -0.3141578 0.313422 0.39976838 -0.19947049 0.35014826 -0.09711483
-0.46329755 0.5064649 0.27193367 0.08300772 0.10522193 -0.2586785 0.095816284 0.48534253
0.087450355 0.33245707 -0.30223152 0.0122094015 -0.066452846 -0.1839964 0.10742011 -0.4660439
0.009222224 -0.3575319 0.31821328 -0.26736867 0.11166027 -0.3460186 0.096277095 0.063167445
-0.004267582 0.17038535 -0.13828701 -0.23555058 -0.040653426 0.26477674 -0.44508418 0.12478158
-0.10430604 0.13427225 0.5185301 -0.38518825 0.61986166 0.1940974 0.27912676 0.42711636
0.49317512 0.56213194 0.20268537 -0.15513003 0.5450045 0.41635853 -0.6423539 0.18780224
0.608396 0.075115986 0.15144323 0.5406804 -0.6369875 -0.62681603 -0.066156685 -0.44307896
0.7947398 -0.1532025 -0.21141858 0.3072592 -0.20251273 0.7175849 0.07390188 0.35923252
-0.18075673 0.6940622 0.51279753 0.52987784 0.3933963 0.6368895 0.30600858 0.5032095
-0.60236645 0.77778035 -0.35887775 0.42238382 -0.22984318 0.82273185 0.93738264 -0.5627448
-0.16463216 -0.36155796 0.12083879 0.46063167 0.6320317 -0.1526718 0.82077587 -0.73242575
-0.4392501 0.7263172 0.82385933 0.42660484 0.4647163 0.096872546 -0.22847328 0.72189134
0.75170076 0.49150229 -0.019642482 -0.42906588 0.4126774 0.19234861 0.3515811 0.004123296
-0.26007536 0.1918577 0.7584241 0.15260522 0.51699877 -0.33017796 -0.36773306 -0.3198558
0.64331067 -0.14181815 0.34565285 -0.25682995 -0.36092407 -0.16166505 0.7095776 -0.40411955
0.32534936 -0.068650246 -0.1612352 0.12121615 0.32526332 0.41763672 0.6010714 -0.3882804
0.25517213 -0.15014914 -0.14504646 -0.51214087 -0.43599305 0.30717158 -0.28705278 -0.19918354
-0.081030376 0.5460972 -0.5156766 -0.49719405 -0.4115564 0.20470934 0.039254084 -0.21578756
-0.4259639 -0.83394516 -0.020971067 0.2588218 0.10326084 -0.428586 0.16962577 -0.26107967
0.23579599 -0.19906856 0.38802513 0.5666138 0.3728362 0.109536305 0.63035554 0.22879863
0.25855902 -0.2721065 0.5519856 0.20705546 0.06173436 0.6775988 -0.46432826 0.72641
00000000: d9ee 373f 367f c73e 2a1c 26be 44f6 bd3a
00000010: d972 143f 8763 013f 961b 97be 6ee1 083f
00000020: bdad 253f e71f a73e 31ff 9d3d 42be 0c3f
00000030: ebe0 d3bd 6446 5ebd 740a 03be 0c30 cbbe
00000040: 93aa cd3e 1178 bc3d f0c6 ae3e 0480 113f
00000050: ba25 143e bf8f d03e df04 26bd 3252 29be
00000060: 1792 cb3d 5a25 f73e 080d 3c3d 3742 2a3f
00000070: 0911 483e 1f87 ba3e 0474 873d 7548 1e3f
00000080: 70f8 00bf 2ea1 463f 2e92 c33e 035a 263e
00000090: 486d 8d3d 046e a93e aec6 ba3e 3895 debe
000000a0: e3f9 fb3e 59b2 c93c 8dc6 ac3e 3d8e 2c3e
000000b0: 7c28 c93e 045e d13d 41ac cf3e 1afc 26be
000000c0: edfa 15be d309 a83e 7bea d43d c83d de3e
000000d0: fae3 ca3e c6cd 383e 2530 d73d 5ea3 f43e
000000e0: f36b 083f 44e7 5d3e d346 933e 6bcb eebe
000000f0: 9ab2 903e 931a f13e f04d 00be 8491 a03d
00000100: c8ae 183e 83fd 9bbd 3960 fcbd 3539 983d
00000110: 9160 62be 9b5f 843e a474 933d 76d5 b33e
00000120: e7d2 24bd c8e6 32b9 22eb 083f 4b3a c03d
00000130: 48a3 333e bc1f c93d 1335 19be 9b10 28be
00000140: 7dae 083e 9778 04bf 4bd9 a0be d978 a03e
00000150: 71ae cc3e fe41 4cbe a246 b33e 24e4 c6bd
00000160: 5635 edbe afa7 013f e43a 8b3e f4ff a93d
00000170: 987e d73d 8271 84be 543b c43d d17e f83e
00000180: 2c19 b33d d037 aa3e 17be 9abe f109 483c
00000190: 6e18 88bd 8d69 3cbe 13ff db3d 4e9d eebe
000001a0: d018 173c 6c0e b7be daec a23e 8ce4 88be
000001b0: 24ae e43d 5a29 b1be ed2c c53d ef5d 813d
000001c0: 13d7 8bbb 7f79 2e3e 1c9b 0dbe 2c34 71be
000001d0: 3584 26bd d190 873e 13e2 e3be 7c8d ff3d
000001e0: 689e d5bd aa7e 093e 63be 043f 6537 c5be
000001f0: 41af 1e3f 78c1 463e b4e9 8e3e ffae da3e
00000200: 7381 fc3e e1e7 0f3f c18c 4f3e 68da 1ebe
00000210: 6a85 0b3f f22c d53e 4e71 24bf 3b4f 403e
00000220: d7bf 1b3f 69d6 993d ef13 1b3e 086a 0a3f
00000230: 9d11 23bf 0477 20bf 287d 87bd 3fdb e2be
00000240: 1174 4b3f 1ee1 1cbe 1d7e 58be 1451 9d3e
00000250: 7f5f 4fbe a5b3 373f de59 973d 53ed b73e
00000260: 4b18 39be 0fae 313f b346 033f 13a6 073f
00000270: 3d6b c93e 310b 233f 28ad 9c3e 56d2 003f
00000280: b034 1abf 9d1c 473f d3be b7be b142 d83e
00000290: 035c 6bbe 8e9e 523f 4ff8 6f3f 0b10 10bf
000002a0: 5595 28be 201e b9be 547a f73d ead7 eb3e
000002b0: d4cc 213f ff55 1cbe 5e1e 523f 4180 3bbf
000002c0: 64e5 e0be edef 393f 72e8 523f f36b da3e
000002d0: 4bef ed3e 1d65 c63d e6f4 69be dfcd 383f
000002e0: 766f 403f 30a6 fb3e 45e9 a0bc 86ae dbbe
000002f0: 744a d33e 09f7 443e 7002 b43e b71c 873b
00000300: 9928 85be 5876 443e 1528 423f 8b44 1c3e
00000310: 085a 043f 160d a9be 8247 bcbe 24c4 a3be
00000320: 02b0 243f c738 11be 69f9 b03e 377f 83be
00000330: 0acb b8be 868b 25be e1a6 353f c2e8 cebe
00000340: 3194 a63e 8098 8cbd d71a 25be 2c40 f83d
00000350: ea88 a63e 7bd4 d53e d1df 193f b0cc c6be
00000360: eca5 823e b2c0 19be 0f87 14be aa1b 03bf
00000370: 7b3a dfbe 9845 9d3e 95f8 92be c5f6 4bbe
00000380: 41f3 a5bd 07cd 0b3f 6203 04bf 3890 febe
00000390: 85b7 d2be 539f 513e e4c8 203d 6af7 5cbe
000003a0: f117 dabe 6e7d 55bf 84cb abbc 4a84 843e
000003b0: 6b7a d33d a06f dbbe 61b2 2d3e 3cac 85be
000003c0: 8174 713e a1d8 4bbe 3bab c63e 9a0d 113f
000003d0: 63e4 be3e 9254 e03d fb5e 213f 304a 6a3e
000003e0: d961 843e 8b51 8bbe ee4e 0d3f 5906 543e
000003f0: 2bdd 7c3d 1d77 2d3f 6fbc edbe 01f6 393f

bias f4 [12]
-0.39802203 -0.014372204 -0.49833462 -0.27047122 -0.606328 -0.4909746 -0.4721884 -0.45757887
-0.46538943 -0.57244474 -0.6208701 -0.47951454
00000000: 8bc9 cbbe 6579 6bbc b725 ffbe 347b 8abe
00000010: 5038 1bbf 0661 fbbe aec2 f1be c747 eabe
00000020: 8647 eebe bd8b 12bf 58f1 1ebf ee82 f5be

weight f4 [12, 12, 3, 3]
-0.30356705 -0.8242031 -0.32668406 -0.7121781 -0.72338796 -0.5473157 -0.7626583 -0.42256477
-0.44008437 0.20421828 0.13573052 0.19085811 0.33729511 0.5766222 0.1735496 0.35649002
0.118893184 0.13618091 -0.85167354 -0.6772561 -0.43682677 -0.42110386 -0.8761167 -0.7358487
-0.97588855 -0.530921 -1.167562 -0.4529617 -0.55205154 -0.31110635 -0.44131917 -0.23457569
-0.3061616 -0.38660857 -0.53728026 -0.42403713 -0.07899784 -0.025500748 -0.251338 0.020271465
-0.39139828 0.028246693 -0.083833136 -0.6104874 -0.51586324 -0.3955815 -0.51300704 -0.15378666
-0.40125373 -0.5644976 -0.54970884 -0.41143742 -0.2730487 -0.74218374 0.048194196 -0.47871697
-0.050095033 0.04236081 -0.09788004 -0.30361617 -0.03776422 -0.33765057 -0.4099863 0.21445926
0.10230753 0.054136448 -0.03485721 0.02761267 0.058154047 -0.1515089 -0.557751 -0.10525428
-0.34638974 -0.66599804 -0.13313332 -0.5552563 -0.17580447 -0.35960865 -0.4296433 -0.23431978
-0.16977997 -0.23486075 -0.42491892 -0.4673905 -0.21995917 -0.38992006 -0.42851168 -0.3462776
-0.40823394 -0.40027976 -0.09012405 -0.6644501 -0.427932 -0.34267837 -0.39517242 -0.60101104
-0.37609637 -0.41911742 -0.4279112 0.0450634 -0.24918155 -0.10471488 -0.0902003 -0.10871519
-0.5699211 -0.0017743849 -0.23065881 0.05027079 0.26402423 0.5347664 0.20694108 0.17337558
0.45685235 -0.030047685 0.18901488 -0.1005737 0.15252295 0.48813888 -0.001093021 0.13604096
0.7555739 0.46754023 0.3759249 0.35424018 0.5313398 0.5690825 0.609775 0.18420376
-0.2759168 0.28890607 0.12761517 0.23850264 0.12831366 -0.00742353 -0.247626 -0.032428987
0.014964459 -0.34370908 -0.49062112 0.066097364 -0.053041037 0.208107 -0.17669097 -0.037415646
-0.44426534 -0.5117626 -0.1000498 0.06855771 -0.41598108 -0.19134124 -0.22691768 -0.10207775
0.24556528 -0.34334964 -0.31282526 -0.1374498 -0.28344315 -0.4912657 -0.16709484 0.00013702136
0.009307611 -0.39732286 -0.17984375 -0.004572547 -0.34067997 -0.41394398 -0.25727665 -0.3906909
-0.41834193 -0.35722315 -0.104188666 -0.39158452 -0.42738613 -0.2672093 -0.16093944 -0.22256131
-0.33731008 -0.21072216 -0.37496263 -0.39480802 -0.17457862 0.15746899 -0.32962963 0.014186972
-0.46960554 -0.24989706 0.110121846 -0.6451201 -0.15508889 -0.08365959 0.016248183 -0.3676819
-0.30021402 -0.441498 -0.09124858 -0.15338024 0.08305854 -0.21452916 -0.27139726 0.05628172
-0.012588807 -0.19409803 -0.42842466 -0.5691726 -0.14619857 0.12972426 -0.09604471 -0.39910576
-0.29735488 -0.53707063 -0.28443304 0.025910212 -0.3265725 -0.26310003 -0.3493032 -0.29727864
-0.6015186 -0.5941147 -0.35211635 -0.40866825 -0.61431456 -0.80418247 -0.47225598 -0.63900715
-0.3422799 0.16446131 0.44969156 0.41690886 0.17962417 0.12826757 0.16388431 0.15044473
0.05233081 0.37497574 -0.24097416 -0.38762763 -0.7499618 -0.99891 -0.7393581 -0.16915052
-0.09040343 -0.48849225 -0.6764588 -0.13011155 -0.17029409 -0.6032298 0.032875326 -0.32663643
-0.13562097 -0.02770165 -0.48872793 -0.1528437 -0.10308196 0.12886979 0.055766966 0.1352682
00000000: 246d 9bbe f9fe 52bf 2243 a7be 4e51 36bf
00000010: f42f 39bf e21c 0cbf 933d 43bf 695a d8be
00000020: bd52 e1be 991e 513e f1fc 0a3e 4f70 433e
00000030: f2b1 ac3e 839d 133f fdb6 313e dc85 b63e
00000040: 457e f33d 0273 0b3e 4707 5abf a860 2dbf
00000050: c2a7 dfbe ed9a d7be 2f49 60bf 9560 3cbf
00000060: d5d3 79bf 70ea 07bf ac72 95bf 99ea e7be
00000070: 4053 0dbf 5549 9fbe 96f4 e1be 9c34 70be
00000080: 37c1 9cbe 8ff1 c5be 338b 09bf 651b d9be
00000090: 9fc9 a1bd f2e6 d0bc 60af 80be 5810 a63c
000000a0: 5b65 c8be 9c65 e73c b5b0 abbd e748 1cbf
000000b0: 9d0f 04bf a989 cabe 6e54 03bf 407a 1dbe
000000c0: 2171 cdbe ea82 10bf b8b9 0cbf eda7 d2be
000000d0: 0acd 8bbe c1ff 3dbf 4767 453d 641a f5be
000000e0: 7330 4dbd 8782 2d3d 5575 c8bd 9473 9bbe
000000f0: a8ae 1abd 89e0 acbe b9e9 d1be 359b 5b3e
00000100: 9c86 d13d 2ebe 5d3d 6fc6 0ebd f733 e23c
00000110: f032 6e3d 2625 1bbe c5c8 0ebf 8e8f d7bd
00000120: ff59 b1be d97e 2abf 1a54 08be 4725 0ebf
00000130: 1606 34be a01e b8be 35fa dbbe 86f1 6fbe
00000140: cdda 2dbe 567f 70be f98e d9be cf4d efbe
00000150: fa3c 61be 9aa3 c7be e265 dbbe 4c4b b1be
00000160: 0a04 d1be 78f1 ccbe f592 b8bd 6719 2abf
00000170: e719 dbbe 8a73 afbe 0a54 cabe dcdb 19bf
00000180: b48f c0be 8f96 d6be 2d17 dbbe 6694 383d
00000190: 7329 7fbe c174 d6bd efba b8bd 12a6 debd
000001a0: 59e6 11bf 7a92 e8ba d331 6cbe bee8 4d3d
000001b0: 2f2e 873e 73e6 083f 5de8 533e 5e89 313e
000001c0: 8de8 e93e 9026 f6bc 1e8d 413e 96f9 cdbd
000001d0: fa2e 1c3e 57ed f93e b343 8fba 524e 0b3e
000001e0: 4b6d 413f 6f61 ef3e 3a79 c03e f85e b53e
000001f0: e305 083f 64af 113f 371a 1c3f e99f 3c3e
00000200: f844 8dbe 7feb 933e 8dad 023e 093a 743e
00000210: a864 033e 1541 f3bb ac91 7dbe 42d4 04bd
00000220: 7e2d 753c a3fa afbe b132 fbbe 0e5e 873d
00000230: 8f41 59bd 001a 553e 7aee 34be 2641 19bd
00000240: bf76 e3be e002 03bf e9e6 ccbd fc67 8c3d
00000250: 79fb d4be f5ee 43be 1c5d 68be 240e d1bd
00000260: 7775 7b3e 86cb afbe a22a a0be a4bf 0cbe
00000270: 761f 91be 2e87 fbbe e91a 2bbe 64ad 0f39
00000280: f37e 183c e76d cbbe f628 38be 4ed5 95bb
00000290: 9b6d aebe 77f0 d3be c4b9 83be a308 c8be
000002a0: ea30 d6be f4e5 b6be de60 d5bd c47d c8be
000002b0: 5bd2 dabe a8cf 88be 4fcd 24be 1de7 63be
000002c0: e8b3 acbe 8dc7 57be 1afb bfbe 4724 cabe
000002d0: bdc4 32be 8d3f 213e 37c5 a8be 7970 683c
000002e0: 2370 f0be 04e5 7fbe 9087 e13d 9726 25bf
000002f0: 9fcf 1ebe b855 abbd e91a 853c cd40 bcbe
00000300: a7b5 99be 070c e2be 89e0 babd b60f 1dbe
00000310: 991a aa3d 88ad 5bbe 95f4 8abe a987 663d
00000320: 4941 4ebc a2c1 46be 7a5a dbbe 4cb5 11bf
00000330: 14b5 15be 70d6 043e 17b3 c4bd 9757 ccbe
00000340: e63e 98be 767d 09bf 35a1 91be a741 d43c
00000350: 8334 a7be 0cb5 86be ded7 b2be e834 98be
00000360: 1ffd 19bf e717 18bf 9848 b4be f73c d1be
00000370: b843 1dbf e7de 4dbf 89cb f1be f995 23bf
00000380: 503f afbe 8c68 283e f93d e63e 1475 d53e
00000390: 66ef 373e 9358 033e 4ad1 273e 2f0e 1a3e
000003a0: d558 563d d2fc bf3e eec1 76be 2177 c6be
000003b0: 7ffd 3fbf 91b8 7fbf 9346 3dbf cb35 2dbe
000003c0: 6f25 b9bd a81b fabe 672c 2dbf f63b 05be
000003d0: 9361 2ebe 456d 1abf 47a8 063d e43c a7be
000003e0: 39e0 0abe 92ee e2bc 8c3a fabe 0f83 1cbe
000003f0: a21c d3bd 71f6 033e e76b 643d bf83 0a3e

bias f4 [12]
0.40258017 0.18744767 0.11356915 -0.08191476 -0.016464308 -0.067559786 -0.08110176 -0.02262605
0.12927277 0.12943381 -0.20903233 -0.318279
00000000: fd1e ce3e 48f2 3f3e f196 e83d edc2 a7bd
00000010: 28e0 86bc c95c 8abd ae18 a6bd 445a b9bc
00000020: 1560 043e 4c8a 043e 920c 56be 77f5 a2be

weight f4 [12, 12, 3, 3]
-0.74986684 -0.07141732 -0.47518456 -1.0077065 -0.5516324 -0.7048898 -0.3776359 -0.4810787
-0.42279023 0.4891338 0.3670509 0.34562877 0.46708387 0.2955029 0.2031048 0.26962116
0.2178439 0.36188513 -0.59583634 -0.060949095 -0.32535625 -0.5853479 -0.7293134 -0.4576459
-0.75504196 -0.50746804 -0.48224217 0.25627932 -0.072278455 0.19578545 0.32784268 -0.29727006
-0.043338582 0.06886981 -0.04687219 0.25250748 -0.0071161664 -0.4923292 -0.20997816 -0.4055407
-0.04638006 -0.10043032 -0.12384146 0.12614858 -0.48077995 0.10671373 -0.17383039 -0.12246379
0.12196339 -0.19601439 0.07353764 0.08652771 -0.028012294 -0.009010576 0.22610885 0.33625016
0.0035027398 -0.3673715 0.045452546 -0.28135353 -0.1120554 0.21988092 -0.38230726 0.29028374
0.355523 -0.025820728 0.09842153 -0.21707083 0.1740591 -0.22576834 -0.18647243 0.04207731
-0.07381321 0.18556267 -0.4736379 -0.50130755 0.24901298 -0.20883688 -0.035125688 -0.25228992
0.4465514 0.26120105 0.13643266 0.3309924 -0.03385373 0.44919407 0.23694399 0.36570674
0.42871863 -0.0027535306 0.21744266 0.40049025 0.22200198 0.1885421 0.3097781 0.35255334
0.29594126 0.6377174 0.41394207 0.7011821 0.42069793 0.3353161 0.44448394 0.7475077
0.5901844 0.17436865 0.6402433 0.4018194 0.3855582 0.60447925 0.4013684 0.69072473
0.09717946 0.37292138 0.32883656 0.58393914 0.46300352 -0.18467645 -0.18817243 -0.19135006
-0.3991278 0.008384051 -0.41686672 -0.08580984 -0.18281324 -0.21476135 0.13168567 0.3633871
0.5771548 0.3380352 0.19409809 0.36435744 0.09109538 0.08473383 -0.032780133 0.18425411
0.42181075 -0.15405306 0.095900215 -0.12828463 0.1316232 -0.13790539 0.107131526 -0.07165906
0.2011987 -0.14143914 0.0854294 -0.50748247 0.08362399 0.06779887 -0.11436021 0.14252463
0.13156618 2.9321607e-05 0.21877068 -0.06215272 0.06375659 0.14078288 -0.027211161 0.24931303
0.038822208 -0.15933739 0.37328497 0.15493232 -0.07583084 0.5534492 0.50437367 0.2755506
0.19297633 0.037151773 -0.20595372 -0.1199942 0.025780363 -0.3277023 0.06935552 -0.059240784
0.15142809 0.14914101 -0.05712289 0.24746837 -0.513471 -0.458702 0.080326505 -0.0068582827
-0.22506297 -0.12734348 -0.0067445394 -0.19700578 -0.44491112 0.10988415 -0.042649083 -0.027868193
0.08898679 0.07188861 0.2799905 -0.030761316 0.20912547 0.39823022 -0.502928 -0.363748
-0.40774986 -0.17177051 -0.04119431 -0.3962807 -0.51050085 -0.32963684 -0.53821474 -0.524966
-0.12170314 -0.09933253 -0.3388774 -0.3686045 -0.23895171 -0.556663 -0.6771189 -0.4907729
0.049352597 0.20430608 -0.3657207 -0.08756179 -0.026954401 -0.20335872 0.08620131 -0.23817296
-0.04242886 0.20899488 0.31814072 0.24327324 0.27245787 0.3235768 0.22749911 0.27633005
0.044848815 0.054282088 0.26016042 -0.008998405 -0.050013818 0.15526153 0.04519842 -0.285446
0.26440015 -0.10252071 0.38514972 -0.6166305 -0.6415919 -0.6705272 -0.5964381 -0.57145345
-0.4379288 -0.60437036 -0.54267323 -0.36258847 -0.60447603 -0.36281562 -0.29322675 -0.670373
00000000: 46f7 3fbf 3e43 92bd 644b f3be 87fc 80bf
00000010: c837 0dbf a873 34bf 7e59 c1be f34f f6be
00000020: f677 d8be bf6f fa3e 18ee bb3e 41f6 b03e
00000030: 9e25 ef3e 284c 973e b4fa 4f3e c90b 8a3e
00000040: 7912 5f3e 0249 b93e bb88 18bf c2a5 79bd
00000050: 1895 a6be 5cd9 15bf 48b4 3abf 9050 eabe
00000060: 6e4a 41bf 6de9 01bf 72e8 f6be 0b37 833e
00000070: ba06 94bd fb7b 483e ffda a73e c833 98be
00000080: cc83 31bd 9d0b 8d3d 0efd 3fbd a948 813e
00000090: bb2e e9bb 9312 fcbe 8404 57be 08a3 cfbe
000000a0: 05f9 3dbd 69ae cdbd 97a0 fdbd 182d 013e
000000b0: ca28 f6be ba8c da3d 9800 32be 4cce fabd
000000c0: f1c7 f93d ffb7 48be e79a 963d 7135 b13d
000000d0: 0a7a e5bc 18a1 13bc 1489 673e fb28 ac3e
000000e0: 398e 653b 1e18 bcbe 732c 3a3d 920d 90be
000000f0: 4d7d e5bd 7728 613e c7bd c3be 12a0 943e
00000100: 1c07 b63e fe85 d3bc 3a91 c93d d147 5ebe
00000110: 8c3c 323e d12f 67be a1f2 3ebe 4259 2c3d
00000120: 612b 97bd 2404 3e3e ab80 f2be b155 00bf
00000130: 42fd 7e3e 56d9 55be f4df 0fbd 252c 81be
00000140: 63a2 e43e 25bc 853e 01b5 0b3e d677 a93e
00000150: 35aa 0abd c4fc e53e 72a1 723e ea3d bb3e
00000160: 0281 db3e 9474 34bb 4aa9 5e3e 0f0d cd3e
00000170: 7d54 633e 2e11 413e 3c9b 9e3e df81 b43e
00000180: 9d85 973e 7341 233f 37f0 d33e ac80 333f
00000190: b865 d73e 8dae ab3e 6693 e33e aa5c 3f3f
000001a0: 5316 173f b28d 323e fce6 233f 46bb cd3e
000001b0: e267 c53e 27bf 1a3f 2980 cd3e 56d3 303f
000001c0: 0606 c73d 8def be3e 445d a83e 097d 153f
000001d0: cc0e ed3e d31b 3dbe 46b0 40be 45f1 43be
000001e0: 7b5a ccbe 425d 093c 8e6f d5be 12bd afbd
000001f0: 6533 3bbe 66ea 5bbe 9cd8 063e e00d ba3e
00000200: 6bc0 133f f312 ad3e a6c1 463e 0f8d ba3e
00000210: 3790 ba3d ee88 ad3d 7644 06bd 1cad 3c3e
00000220: 94f7 d73e 16c0 1dbe 5567 c43d 0c5d 03be
00000230: 3bc8 063e 1237 0dbe c667 db3d fcc1 92bd
00000240: 0807 4e3e 6cd5 10be 9cf5 ae3d 5fea 01bf
00000250: 0e43 ab3d 22da 8a3d b035 eabd faf1 113e
00000260: 49b9 063e acf7 f537 6c05 603e da93 7ebd
00000270: d192 823d 6329 103e f1e9 debc ea4b 7f3e
00000280: 0904 1f3d 5729 23be 351f bf3e 94a6 1e3e
00000290: 334d 9bbd d9ae 0d3f a21e 013f f814 8d3e
000002a0: 969b 453e 752c 183d 88e5 52be 85bf f5bd
000002b0: 5731 d33c 99c8 a7be 440a 8e3d 77a6 72bd
000002c0: f70f 1b3e 6cb8 183e b1f9 69bd 5968 7d3e
000002d0: d672 03bf fdda eabe 3982 a43d 72bb e0bb
000002e0: e876 66be 5466 02be 4c01 ddbb e2bb 49be
000002f0: 64cb e3be f10a e13d ceb0 2ebd d64b e4bc
00000300: b53e b63d 563a 933d ea5a 8f3e 28ff fbbc
00000310: fd24 563e d5e4 cb3e e4bf 00bf 2e3d babe
00000320: 97c4 d0be 9ce4 2fbe 5dbb 28bd 4ee5 cabe
00000330: 2fb0 02bf 29c6 a8be 71c8 09bf 2c64 06bf
00000340: 7f3f f9bd da6e cbbd 5781 adbe bbb9 bcbe
00000350: c2af 74be 7781 0ebf aa57 2dbf 9646 fbbe
00000360: f325 4a3d 9d35 513e be3f bbbe 9953 b3bd
00000370: 7acf dcbc 453d 50be 508a b03d 9de3 73be
00000380: e2c9 2dbd c102 563e 57e3 a23e 9f1c 793e
00000390: 997f 8b3e dcab a53e 87f5 683e 227b 8d3e
000003a0: 64b3 373d e556 5e3d bf33 853e 0c6e 13bc
000003b0: 4adb 4cbd e1fc 1e3e fa21 393d fa25 92be
000003c0: 755f 873e 61f6 d1bd 5832 c53e 7fdb 1dbf
000003d0: 5e3f 24bf aca7 2bbf 2bb0 18bf c64a 12bf
000003e0: 3438 e0be 04b8 1abf a2ec 0abf 32a5 b9be
000003f0: f1be 1abf f8c2 b9be d121 96be 919d 2bbf

bias f4 [12]
0.030457363 -0.070520245 0.6631402 0.28475142 0.038133815 -0.026678763 -0.3106802 -0.486238
-0.54340434 -0.18051253 -0.2640047 0.15643854
00000000: b881 f93c eb6c 90bd 8ec3 293f f0ca 913e
00000010: 3432 1c3d 6c8d dabc 7a11 9fbe 30f4 f8be
00000020: 8c1c 0bbf 47d8 38be a02b 87be 6d31 203e

weight f4 [12, 12, 3, 3]
0.20919988 0.44621676 0.20848055 0.5717583 0.26237056 0.5313406 0.02052546 0.72245234
0.13713127 -0.48748738 -0.9379583 -0.60310566 -0.31145462 -0.12636335 -0.30923516 -0.15645543
-0.5279299 -0.45810926 -0.26767772 -0.5022112 -0.58128494 -0.41960448 -0.343326 -0.8543726
-0.3100355 -0.5191926 -0.07427127 0.5733492 -0.016252534 0.4617183 0.39394853 0.3605612
0.4640458 0.3870473 0.27250338 0.35985383 -0.22482125 -0.33134884 -0.32971925 -0.8162706
-0.03840103 -0.2123722 -0.5179271 -0.5768119 -0.13124132 -0.625738 -0.56523734 -0.583477
-0.7473689 -0.62494856 -0.3556607 -0.7659257 -0.5333052 -0.42163208 -0.57352984 -0.17726259
-0.58751625 -0.51078284 -0.36533532 -0.5659854 -0.4758559 -0.17912194 -0.6859061 0.39206025
0.44074795 0.539451 0.3434711 -0.10449262 0.39798227 0.33127284 0.041075867 0.6428302
0.017896205 0.46810144 0.11863818 0.5065158 -0.18235435 0.41205874 -0.019908104 0.37809503
0.07214722 0.42299572 0.5205422 0.20597488 0.21103592 0.0045894426 0.54810846 0.39223576
-0.3340829 0.1233612 0.085239984 0.13811378 0.43299755 0.12149295 0.32748196 0.44673312
0.47329947 0.5563416 0.6408279 0.51248395 0.07283887 -0.005473037 0.5666372 0.53595567
0.6770893 0.29706848 0.14918262 0.23480242 0.32134926 0.5052706 0.3841453 0.71045715
0.5965878 0.3642756 0.5006466 0.10340289 0.022044215 -0.70211416 -0.5568594 -0.42356157
-0.56655407 -0.462667 -0.51586944 -0.2730624 -0.839213 -0.698732 -0.06271292 -0.23387246
0.020780563 -0.18395059 -0.5805168 -0.294091 -0.19042182 -0.13256703 0.004292668 0.7284768
0.50547034 0.40846428 0.73317564 0.92061895 0.49140188 0.52567536 0.25557825 0.22917119
-0.35956395 -0.4374071 -0.2898979 -0.37341586 -0.36050478 -0.38214588 -0.14783464 -0.444247
-0.07144506 -0.4600402 -0.15270047 -0.2964308 -0.459344 -0.3432059 -0.22705711 -0.44829398
-0.32660627 0.04262446 -0.5934696 -0.63428235 -0.85975176 -0.574238 -0.6981077 -0.19562803
-0.5374205 -0.60261893 -0.49101195 -0.03813725 0.35097682 -0.0974014 0.2070526 0.24850398
0.23348294 0.27022988 -0.22655812 0.23879293 0.076469086 0.7286704 0.65599644 0.2766966
0.2174735 0.7156053 0.019552585 0.7095337 0.32442772 0.2697256 0.25849926 0.2831653
0.4689336 0.6305433 0.26304972 0.36249503 0.44691098 0.37657863 0.32384795 0.22944276
0.58013076 0.22658327 0.8939796 0.97782415 0.3273991 1.1523771 0.60775214 -0.07909939
0.24183235 0.40189898 0.6529912 0.29227644 0.06470341 0.23414592 0.29700145 0.51059574
-0.32645765 -0.43507677 -0.2759355 -0.06489001 -0.32414985 -0.41968596 -0.38299042 -0.40699628
-0.50576925 0.3309979 0.27206498 -0.18645899 0.06262187 0.263123 0.22125551 0.069190554
0.38423342 0.20329124 0.5593425 0.5564963 0.11647519 0.26901987 0.3909533 0.34245938
0.628253 0.5546495 0.4592376 0.024490682 -0.2324698 0.18746954 -0.2982503 0.0756415
0.27072796 -0.26129094 -0.1734772 0.013288973 0.192208 0.1571074 0.40746382 0.32065094
00000000: 7e38 563e 8676 e43e ed7b 553e c05e 123f
00000010: 6f55 863e f005 083f 0225 a83c a3f2 383f
00000020: 246c 0c3e f297 f9be 091e 70bf 2265 1abf
00000030: fb76 9fbe 6565 01be 1254 9ebe da35 20be
00000040: 6a26 07bf 4c8d eabe 0e0d 89be ea90 00bf
00000050: 17cf 14bf 66d6 d6be 6dc8 afbe 2ab8 5abf
00000060: f9bc 9ebe cee9 04bf 891b 98bd 03c7 123f
00000070: 0924 85bc 5766 ec3e 9fb3 c93e 7a9b b83e
00000080: 6997 ed3e 102b c63e 9085 8b3e c33e b83e
00000090: 8b37 66be 8ea6 a9be f6d0 a8be 1cf7 50bf
000000a0: 664a 1dbd 1978 59be df96 04bf f2a9 13bf
000000b0: 2064 06be 5e30 20bf 65b3 10bf c05e 15bf
000000c0: 9153 3fbf a1fc 1fbf 2919 b6be b513 44bf
000000d0: b186 08bf 29e0 d7be dad2 12bf 5384 35be
000000e0: 7767 16bf aac2 02bf 3b0d bbbe 6be4 10bf
000000f0: 62a3 f3be be6b 37be 8b97 2fbf 1fbc c83e
00000100: b7a9 e13e 7619 0a3f 72db af3e 3a00 d6bd
00000110: 55c4 cb3e 989c a93e 2b3f 283d 8590 243f
00000120: 109b 923c feaa ef3e 93f8 f23d 05ab 013f
00000130: 19bb 3abe 5df9 d23e 5216 a3bc ac95 c13e
00000140: ecc1 933d e592 d83e 4142 053f 14eb 523e
00000150: cd19 583e 0963 963b d650 0c3f 20d3 c83e
00000160: ea0c abbe cca4 fc3d 4d92 ae3d b36d 0d3e
00000170: dbb1 dd3e 4cd1 f83d b7ab a73e 34ba e43e
00000180: 4f54 f23e 676c 0e3f 4c0d 243f 2632 033f
00000190: 8c2c 953d 2957 b3bb 230f 113f 6434 093f
000001a0: b955 2d3f 5c19 983e 54c3 183e 0c70 703e
000001b0: e487 a43e 6a59 013f b1ae c43e 85e0 353f
000001c0: fab9 183f 5582 ba3e 602a 003f e5c4 d33d
000001d0: 1296 b43c c1bd 33bf 568e 0ebf 10dd d8be
000001e0: b009 11bf b0e2 ecbe 0510 04bf d6ce 8bbe
000001f0: aad6 56bf 1ae0 32bf a26f 80bd 437c 6fbe
00000200: 003c aa3c 8b5d 3cbe c09c 14bf 1893 96be
00000210: f0fd 42be a7bf 07be 82a9 8c3b 757d 3a3f
00000220: 8166 013f 3b22 d13e 66b1 3b3f afad 6b3f
00000230: 0799 fb3e a992 063f 27db 823e daab 6a3e
00000240: c418 b8be d3f3 dfbe 7f6d 94be 5d30 bfbe
00000250: 1594 b8be a0a8 c3be f761 17be 5874 e3be
00000260: ca51 92bd 648a ebbe 835d 1cbe c7c5 97be
00000270: 232f ebbe afb8 afbe a981 68be ca86 e5be
00000280: f038 a7be fc96 2e3d a0ed 17bf 5460 22bf
00000290: b118 5cbf 4301 13bf 30b7 32bf b752 48be
000002a0: 6494 09bf 3c45 1abf eb65 fbbe ce35 1cbd
000002b0: 3cb3 b33e 637a c7bd 9905 543e d477 7e3e
000002c0: 2716 6f3e 925b 8a3e dafe 67be 2286 743e
000002d0: d39b 9c3d 258a 3a3f 62ef 273f 2dab 8d3e
000002e0: 60b1 5e3e e931 373f be2c a03c 00a4 353f
000002f0: 641b a63e 7919 8a3e 045a 843e 0bfb 903e
00000300: 1118 f03e 496b 213f 74ae 863e f398 b93e
00000310: 84d1 e43e eace c03e 66cf a53e 0bf3 6a3e
00000320: 7383 143f 7205 683e d9db 643f af52 7a3f
00000330: dba0 a73e 1881 933f a595 1b3f dcfe a1bd
00000340: e6a2 773e b4c5 cd3e 6e2a 273f 42a5 953e
00000350: 3983 843d f3c3 6f3e 9310 983e 67b6 023f
00000360: 7525 a7be 62c2 debe 6b47 8dbe 0ee5 84bd
00000370: f8f6 a5be 14e1 d6be 5217 c4be d161 d0be
00000380: 187a 01bf 8f78 a93e 1a4c 8b3e 1bef 3ebe
00000390: e53f 803d 0fb8 863e ce90 623e c7b3 8d3d
000003a0: 3eba c43e 942b 503e 1231 0f3f 8b76 0e3f
000003b0: 8b8a ee3d f9bc 893e 082b c83e d656 af3e
000003c0: 30d5 203f 82fd 0d3f 3121 eb3e afa0 c83c
000003d0: 900c 6ebe 04f8 3f3e 43b4 98be eee9 9a3d
000003e0: db9c 8a3e edc7 85be 02a4 31be feb9 593c
000003f0: 2dd2 443e c3e0 203e 199f d03e 5c2c a43e

bias f4 [12]
-0.17833808 -0.7680731 0.027568154 0.7947558 0.59471303 -0.3789831 0.033109892 0.5101841
-0.91234523 0.1763888 0.13302232 0.043370575
00000000: 429e 36be 70a0 44bf 9cd6 e13c 1e75 4b3f
00000010: 1d3f 183f 130a c2be 3d9e 073d 6d9b 023f
00000020: 758f 69bf 449f 343e 0137 083e 58a5 313d

weight f4 [12, 12, 3, 3]
0.6599779 0.28820303 0.62231386 0.59263515 0.6030721 0.45138073 0.7991407 0.003950169
0.067980394 1.0378385 0.77018774 0.52342737 0.5985622 0.5499494 0.56808424 0.9010047
0.63949347 0.5033283 -0.0040176585 0.15312484 0.53687936 0.383341 0.6348382 0.6961473
0.18921189 0.41897333 0.33888334 -0.17450102 -0.056426 0.009109704 -0.24225391 -0.23342857
-0.3287683 -0.06472129 0.08037725 0.032368254 0.3657601 0.41706717 -0.05863616 -0.25992948
0.2475214 0.3154209 -0.07612618 0.24428968 0.063427106 -0.3365588 0.059792604 -0.42593884
-0.41715762 -0.3082209 -0.26978648 -0.5258311 -0.15414499 -0.019931013 -0.10373425 -0.51243925
-0.34594107 -0.37146547 -0.3975579 -0.16802527 -0.5340812 -0.2105167 -0.3421719 0.110248305
-0.023967965 0.16887565 0.2182355 0.38497725 0.123156585 -0.107560724 0.4054649 0.67918813
0.31523788 0.40707496 0.6809622 -0.23811956 0.17880233 0.6346442 0.47462642 0.0009163852
0.5728942 0.34386817 -0.4607123 -0.046289653 -0.19607231 0.04218237 -0.18475719 -0.30735335
-0.04794747 -0.058683146 0.076431565 -0.0656189 0.20771739 0.07246914 0.17670402 0.1455765
-0.044021413 0.097889 0.006086277 0.15711033 -0.08102063 -0.2306032 0.10863435 0.08656945
0.26191172 -0.12219541 0.084545024 -0.09078752 0.45314005 0.46007478 0.3830959 0.5156144
0.56599665 0.6148175 0.4271141 0.41976824 0.22674543 0.59247977 0.6288283 1.050511
0.57432467 0.6457293 0.7314594 0.61363244 0.65437675 0.7565322 0.037029963 -0.3832742
0.08527969 0.2569885 -0.09505774 -0.009844799 0.12904488 -0.12079758 0.060569163 -0.13809757
-0.1873353 0.08388641 -0.37662452 -0.10519941 -0.26049137 0.079618745 -0.2408403 -0.4123901
0.033280656 -0.037108526 -0.73276454 -0.5141555 -0.052571654 0.0300221 0.13561347 -0.15980376
-0.20924668 0.6240895 -0.17873083 -0.08457707 0.105603054 0.1128937 -0.20610608 0.16580461
0.39009807 0.10258767 0.0054621906 0.11569297 -0.32767716 -0.114215955 -0.49107724 -0.030089438
-0.20173012 -0.17637299 -0.43617007 -0.14682953 -0.11294602 -0.411431 -0.023857353 -0.20667721
0.1985445 -0.4453711 0.2309688 -0.23748913 0.3877476 0.18757345 0.5534068 0.25062624
-0.07829629 0.1053369 0.5182189 0.64686453 0.21867411 0.07090755 -0.1844886 -0.26040894
-0.09205318 0.054306597 -0.28848672 -0.03073406 0.0909211 0.240285 0.33073077 0.17978525
0.16651627 0.35131127 -0.20593399 -0.05840789 -0.21220984 -0.16590221 0.52636033 0.27177498
-0.012698385 -0.18079938 -0.29933494 0.3066381 0.15623416 0.041667555 -0.013753241 -0.14016928
0.06901314 0.10048361 0.30430028 0.31969956 -0.23001224 0.34646168 -0.20611958 -0.446935
-0.090706594 0.51243997 0.58961415 0.55787826 0.9924361 0.5599649 0.73458666 0.57869184
0.6649972 0.41231546 -0.03083368 -0.35528958 -0.30496815 -0.11026508 -0.4287053 -0.5427948
-0.309169 -0.68028283 -0.3862521 -0.09101249 -0.1776246 0.021767968 0.1327416 -0.40450796
-0.25753602 -0.39892465 -0.19600892 -0.08371863 0.039301157 0.03241226 -0.08661051 -0.20210923
00000000: 50f4 283f 598f 933e f64f 1f3f f0b6 173f
00000010: ef62 1a3f 601b e73e 7c94 4c3f 6b70 813b
00000020: 4e39 8b3d e4d7 843f 062b 453f 56ff 053f
00000030: 5f3b 193f 7cc9 0c3f f86d 113f 3ea8 663f
00000040: d8b5 233f 20da 003f 90a6 83bb c2cc 1c3e
00000050: ed70 093f 4645 c43e c284 223f b636 323f
00000060: c3c0 413e ac83 d63e 1e82 ad3e 65b0 32be
00000070: f31e 67bd de40 153c 6911 78be e607 6fbe
00000080: 5254 a8be 988c 84bd d49c a43d 9394 043d
00000090: e844 bb3e d489 d53e 782c 70bd 7a15 85be
000000a0: 4076 7d3e d97e a13e 0be8 9bbd 1327 7a3e
000000b0: 12e6 813d 6f51 acbe 17e9 743d a814 dabe
000000c0: af95 d5be 21cf 9dbe 7421 8abe de9c 06bf
000000d0: 2fd8 1dbe 5d46 a3bc 9f72 d4bd 382f 03bf
000000e0: 301f b1be b930 bebe b68c cbbe d10e 2cbe
000000f0: 8cb9 08bf b191 57be 2831 afbe ddc9 e13d
00000100: 7758 c4bc bded 2c3e 2079 5f3e bd1b c53e
00000110: 8539 fc3d cc48 dcbd 1899 cf3e 46df 2d3f
00000120: dc66 a13e 216c d03e 8a53 2e3f 9dd5 73be
00000130: f517 373e 0b78 223f 3c02 f33e 9239 703a
00000140: 32a9 123f 7d0f b03e 7ce2 ebbe 389a 3dbd
00000150: 2ec7 48be 6cc7 2c3d fd30 3dbe 6b5d 9dbe
00000160: 9164 44bd bd5d 70bd 2788 9c3d 3463 86bd
00000170: deb3 543e b36a 943d e6f1 343e 0212 153e
00000180: cc4f 34bd 077a c83d 646f c73b 88e1 203e
00000190: 25ee a5bd 3f23 6cbe b07b de3d 534b b13d
000001a0: 4b19 863e 9641 fabd f125 ad3d cfee b9bd
000001b0: f901 e83e ec8e eb3e 2525 c43e 4eff 033f
000001c0: 28e5 103f ae64 1d3f b3ae da3e ddeb d63e
000001d0: f42f 683e c1ac 173f e4fa 203f 2577 863f
000001e0: f106 133f 844e 253f ec40 3b3f 0417 1d3f
000001f0: 3c85 273f 18ac 413f bbac 173d 843c c4be
00000200: 1ea7 ae3d ff93 833e a2ad c2bd 144c 21bc
00000210: 5724 043e b964 f7bd 5f17 783d 7369 0dbe
00000220: d3d4 3fbe a3cc ab3d eed4 c0be ca72 d7bd
00000230: 205f 85be 270f a33d d79e 76be cc24 d3be
00000240: 4c51 083d 1cff 17bd 7596 3bbf b29f 03bf
00000250: 6055 57bd e8f0 f53c 42de 0a3e 99a3 23be
00000260: c344 56be 54c4 1f3f 3705 37be be36 adbd
00000270: 6a46 d83d d034 e73d 790d 53be afc8 293e
00000280: efba c73e 7c19 d23d 2dfc b23b 70f0 ec3d
00000290: 4dc5 a7be 0eea e9bd 7a6e fbbe 207e f6bc
000002a0: 5792 4ebe 1f9b 34be af51 dfbe 7b5a 16be
000002b0: 3e50 e7bd 16a7 d2be 7f70 c3bc 31a3 53be
000002c0: 404f 4b3e ae07 e4be 1683 6c3e 5a30 73be
000002d0: da86 c63e 4113 403e 11ac 0d3f 1552 803e
000002e0: ce59 a0bd dfba d73d fea9 043f ea98 253f
000002f0: 1bec 5f3e fa37 913d 94ea 3cbe 5254 85be
00000300: 6186 bcbd 9870 5e3d 88b4 93be ffc5 fbbc
00000310: d734 ba3d 450d 763e 8b55 a93e a019 383e
00000320: 3e83 2a3e 12df b33e 5ce0 52be 1d3d 6fbd
00000330: 894d 59be 45e2 29be 8dbf 063f 1726 8b3e
00000340: e30c 50bc 7923 39be 6e42 99be abff 9c3e
00000350: d9fb 1f3e 99ab 2a3d 4655 61bc 8988 0fbe
00000360: c356 8d3d 5aca cd3d 3fcd 9b3e a9af a33e
00000370: 5488 6bbe 6d63 b13e 0311 53be aad4 e4be
00000380: 61c4 b9bd 442f 033f f4f0 163f 1cd1 0e3f
00000390: 4b10 7e3f dc59 0f3f df0d 3c3f 2625 143f
000003a0: 423d 2a3f 031b d33e ea96 fcbc 84e8 b5be
000003b0: c924 9cbe a9d2 e1bd 437f dbbe 9af4 0abf
000003c0: 664b 9ebe 0427 2ebf d6c2 c5be c264 babd
000003d0: 39e3 35be bd52 b23c 6aed 073e ab1b cfbe
000003e0: c3db 83be da3f ccbe 90b6 48be ac74 abbd
000003f0: 40fa 203d b8c2 043d da60 b1bd b9f5 4ebe

bias f4 [12]
-0.7663754 -0.6351089 -0.8649279 -0.4376764 -0.5652807 -0.74058694 -0.75343674 -0.51448524
-0.8253041 -0.28507146 -0.5817513 -0.7297325
00000000: 2e31 44bf 7f96 22bf ea6b 5dbf 1f17 e0be
00000010: 3cb6 10bf 1b97 3dbf 3be1 40bf 4eb5 03bf
00000020: 2147 53bf e3f4 91be a7ed 14bf c0cf 3abf

weight f4 [64, 12, 1, 1]
-0.629124 -0.36365998 -0.3861287 -0.024321774 -0.861293 -0.21694267 -0.35292196 0.13178203
-0.23989402 -0.50733995 -0.2844876 -0.37108216 -0.34594336 0.29804233 0.2804267 -0.0630096
-0.27968717 0.15907899 -0.36769065 0.08537972 0.20021023 -0.13959074 0.55224144 -0.33298674
-0.27326137 0.90847945 0.42293 0.8343272 0.61967915 -0.84937626 0.023708828 0.42667288
-0.47584325 -0.1975938 0.0459692 -0.095972 0.1260807 -0.2592416 -0.5460599 0.06368199
-0.20391649 -0.4009798 -0.34593433 -0.078190066 -0.03843188 -0.31004864 -0.2760543 -0.51047623
0.43451768 0.1348027 -0.512083 0.5391757 0.13137583 0.62628835 0.2152136 0.06162115
-0.18871422 -0.28636193 -0.11028334 0.07966472 -0.6276847 -0.5379682 -0.3184083 -0.36818948
-0.37499395 -0.13191435 -0.35622504 -0.059740946 -0.33121708 -0.2745174 -0.38299876 -0.38200963
-0.3382861 -0.028264118 0.056600317 0.49068332 -0.23666076 -0.18966405 -0.25453493 0.062500596
0.08104337 0.5578695 0.4824298 -0.17420998 -0.42170122 0.69365203 -0.4935139 0.14178005
0.09693516 -0.4948503 -0.4877849 -0.41325894 -0.2161632 -0.16674131 -0.05462821 -0.25954407
-0.29976413 0.71326697 -0.16347292 0.5403422 0.05431634 -0.5873805 -0.25434676 0.28372386
-0.34307525 -0.19216901 0.1880955 -0.1711823 -0.38311073 0.59591204 -1.153888 0.728884
-1.04556 -1.078716 -0.87674356 -1.0264181 -0.5563999 -1.1951191 0.084744476 -1.1896772
0.07840892 0.31246805 0.028314382 0.6839459 -0.052863847 0.36260116 0.03365886 1.1646041
0.17422953 0.4568577 -0.08939057 -0.25157693 -0.17355779 -0.18309896 -0.32947996 -0.3995462
-0.195108 -0.012897377 -0.52864975 -0.12660049 -0.530963 -0.29486853 -0.44229865 0.3504505
-0.29866076 -0.29746234 -0.4575261 -0.15024887 -0.13285975 -0.51814115 -0.086394496 0.37287146
-0.3341253 0.3227269 -0.38000005 -0.52634907 -0.22756122 -0.23678206 -0.49674663 -0.13824472
-1.0882008 -0.39799717 -0.20909123 -0.42601708 -0.35004008 -0.36662146 -0.6055448 -0.13293606
0.12587377 0.50279254 0.053312246 0.86703277 -0.19692796 -0.15088144 0.18007906 0.2840871
-0.35839382 -0.13903347 -0.22040688 -0.3002851 -0.36442918 -0.112017855 0.43023372 -0.0044556125
-0.2993447 -0.22081052 -0.22876745 0.07587795 0.64380664 0.4487819 -0.55821556 -0.0063798665
-0.49704835 -0.06313769 -0.71549296 -0.4783341 -0.4055371 -0.3998483 -0.0933952 -0.35464293
-0.0685194 -0.16870855 -0.40128455 -0.3644032 -0.63764554 -0.028710255 -0.35455805 -0.26412356
-0.093490586 -1.005571 -0.21734948 -0.3834728 -0.008397751 0.23612486 0.48488358 -0.015764313
-0.4818074 -0.33064136 -0.21644527 -0.46139905 -0.3370905 -0.39897335 -0.23760508 -0.17174186
-0.42103124 0.4153146 -0.4960792 -0.54270786 -0.35955045 -0.069170356 -0.08708498 -0.48954794
-0.28455082 -0.65083337 -0.29019117 -0.31457654 -0.07557325 -0.418832 0.13881983 -0.28290707
-0.10694679 -0.0025525328 -0.90996796 0.07864991 -0.24184099 -0.69439304 -0.26368675 -0.20901778
0.35606554 0.026596561 0.37802863 -0.6010598 -0.351471 -0.19963093 -0.34231284 -0.41800153
00000000: 450e 21bf a431 babe a9b2 c5be 753e c7bc
00000010: b37d 5cbf 3826 5ebe 30b2 b4be def1 063e
00000020: c7a6 75be 08e1 01bf 5ca8 91be 7bfe bdbe
00000030: 7d1f b1be 0199 983e 1794 8f3e 2d0b 81bd
00000040: 2833 8fbe 9ae5 223e f341 bcbe 90db ae3d
00000050: e903 4d3e e0f0 0ebe b25f 0d3f 3d7d aabe
00000060: eae8 8bbe 1c92 683f 488a d83e 7896 553f
00000070: 4ba3 1e3f b970 59bf 0439 c23c de74 da3e
00000080: baa1 f3be 0756 4abe 334a 3c3d f88c c4bd
00000090: 4d1b 013e 51bb 84be 95ca 0bbf b46b 823d
000000a0: 7ccf 50be 394d cdbe 4e1e b1be 1d22 a0bd
000000b0: bf6a 1dbd b2be 9ebe fd56 8dbe 92ae 02bf
000000c0: 1a79 de3e b809 0a3e df17 03bf 6b07 0a3f
000000d0: 6387 063e 6f54 203f f460 5c3e 7566 7c3d
000000e0: 4d3e 41be 089e 92be 3bdc e1bd 4227 a33d
000000f0: f2af 20bf 49b8 09bf 6a06 a3be 5583 bcbe
00000100: 35ff bfbe 8e14 07be 2163 b6be ecb2 74bd
00000110: 4995 a9be 8b8d 8cbe 6a18 c4be c496 c3be
00000120: d633 adbe 278a e7bc bcd5 673d d83a fb3e
00000130: 3357 72be 4b37 42be 6752 82be 5000 803d
00000140: 11fa a53d 89d0 0e3f 0a01 f73e 1a64 32be
00000150: 39e9 d7be 2e93 313f dbad fcbe ca2e 113e
00000160: f185 c63d 055d fdbe f1be f9be ad96 d3be
00000170: e359 5dbe 3cbe 2abe d4c1 5fbd f6e2 84be
00000180: af7a 99be aa98 363f 7265 27be de53 0a3f
00000190: cf7a 5e3d 925e 16bf bd39 82be 4144 913e
000001a0: 8fa7 afbe f4c7 44be 1b9c 403e 6a4a 2fbe
000001b0: 1727 c4be b18d 183f 9ab2 93bf 2498 3a3f
000001c0: e9d4 85bf 5e13 8abf 4472 60bf ab61 83bf
000001d0: 3970 0ebf aaf9 98bf 838e ad3d 5847 98bf
000001e0: db94 a03d d0fb 9f3e 90f3 e73c 1417 2f3f
000001f0: c387 58bd dca6 b93e dfdd 093d bf11 953f
00000200: 3a69 323e 41e9 e93e 6712 b7bd b1ce 80be
00000210: 22b9 31be 4b7e 3bbe 99b1 a8be 5291 ccbe
00000220: 64ca 47be 854f 53bc 9755 07bf 8fa3 01be
00000230: 31ed 07bf 02f9 96be f874 e2be 3f6e b33e
00000240: 10ea 98be fc4c 98be dc40 eabe d7da 19be
00000250: 630c 08be e6a4 04bf 99ef b0bd 02e9 be3e
00000260: 7912 abbe 763c a53e 5e8f c2be d0be 06bf
00000270: cf05 69be ff76 72be 9355 febe 0690 0dbe
00000280: 2a4a 8bbf 49c6 cbbe 031c 56be e91e dabe
00000290: 7438 b3be cfb5 bbbe fc04 1bbf 6420 08be
000002a0: 0ee5 003e 03b7 003f f15d 5a3d dcf5 5d3f
000002b0: 7ca7 49be aa80 1abe a566 383e dd73 913e
000002c0: 657f b7be ca5e 0ebe 57b2 61be f8be 99be
000002d0: 7696 babe 9e69 e5bd 9847 dc3e 6300 92bb
000002e0: b543 99be 271c 62be 0442 6abe e665 9b3d
000002f0: 83d0 243f bec6 e53e 37e7 0ebf 330e d1bb
00000300: 1f7d febe 554e 81bd 8c2a 37bf 35e8 f4be
00000310: 8fa2 cfbe ebb8 ccbe fc45 bfbd c293 b5be
00000320: e653 8cbd efc1 2cbe 2b75 cdbe 0e93 babe
00000330: bd3c 23bf c531 ebbc a288 b5be 343b 87be
00000340: fe77 bfbd 8db6 80bf dd90 5ebe 8c56 c4be
00000350: b896 09bc b7ca 713e a942 f83e 2924 81bc
00000360: 76af f6be d349 a9be d4a3 5dbe 7f3c ecbe
00000370: 2097 acbe 3c46 ccbe bf4e 73be 19dd 2fbe
00000380: 6891 d7be 1ea4 d43e 18fe fdbe e7ee 0abf
00000390: ff16 b8be 30a9 8dbd 9c59 b2bd 07a6 fabe
000003a0: a5b0 91be 049d 26bf f093 94be 2d10 a1be
000003b0: 26c6 9abd 2671 d6be c926 0e3e 32d9 90be
000003c0: eb06 dbbd 6548 27bb a9f3 68bf 3413 a13d
000003d0: 2aa5 77be bec3 31bf f301 87be c208 56be
000003e0: 394e b63e 08e1 d93c f88c c13e 0edf 19bf
000003f0: 02f4 b3be 0d6c 4cbe a143 afbe 4c04 d6be

bias f4 [64]
-1.3942511 -0.3573729 -0.36620012 -0.6025667 0.05178885 -1.3540795 -0.41671863 -0.62696016
-0.4321217 0.20615499 -1.4535916 -1.2095083 -0.1784989 -0.6787667 -0.78294045 -0.13035637
-1.4287556 -0.66087747 -0.49118543 -0.5284069 -0.31648356 0.03099729 -0.89554256 0.1907365
1.0518848 1.0851692 -0.5460762 2.076967 -0.56204534 -0.45415106 -0.19102526 0.43589568
-0.3677428 1.1496084 -0.38945302 -0.4489149 -0.44855502 -0.6035497 -0.17353982 -0.62686884
-0.4603833 -0.32587466 -0.19237748 -0.122417726 -0.61821836 -0.7312239 -1.4036674 -2.0136037
-0.8514471 -0.76348865 -1.0267812 -0.83535886 -0.54346526 -0.45431107 -0.25603628 -0.6007874
-0.3628549 -0.382027 -0.5115429 -0.68130183 0.6269899 -0.49439776 -0.21038073 -0.7023704
00000000: d276 b2bf 95f9 b6be 957e bbbe d041 1abf
00000010: 8c20 543d 7a52 adbf 255c d5be 7680 20bf
00000020: 0e3f ddbe 4b1a 533e 4a0f babf 2bd1 9abf
00000030: 6ac8 36be a8c3 2dbf c96e 48bf 247c 05be
00000040: 77e1 b6bf 442f 29bf a87c fbbe ad45 07bf
00000050: 220a a2be 07ee fd3c 4742 65bf 6e50 433e
00000060: 29a4 863f d3e6 8a3f a6cb 0bbf 07ed 0440
00000070: 34e2 0fbf 7d86 e8be 209c 43be b82d df3e
00000080: c948 bcbe 5e26 933f 6366 c7be 2cd8 e5be
00000090: 01a9 e5be 3c82 1abf 6cb4 31be 7a7a 20bf
000000a0: 5cb7 ebbe 0bd9 a6be 9afe 44be 25b6 fabd
000000b0: 8f43 1ebf 7d31 3bbf 60ab b3bf e2de 00c0
000000c0: 70f8 59bf fe73 43bf 916d 83bf 14da 55bf
000000d0: 8a20 0bbf 769b e8be 3017 83be 34cd 19bf
000000e0: 1ec8 b9be 0b99 c3be 7af4 02bf cc69 2ebf
000000f0: 6982 203f b421 fdbe 0c6e 57be 8cce 33bf
