weights/prun_SUB_model_path.pth (torch, 251565 bytes, 8 tensors)

weight f4 [64, 1, 5, 5]
00000000: 0b27 fabd 7f19 9fbd 40cf d03d 40a4 edbd
00000010: ec51 e53e ac2d 6abe 4d1a 29be 6a60 933e
00000020: faec c83e 4650 69bc 7bd3 a3be 4f83 233e
00000030: b635 c03d 8ecd e8bd 19cb afbc d9c4 d3be
00000040: 669c 3abe 1871 2bbe dbd5 d13b 9c80 043e
00000050: 4793 053c 7c2e 3b3e ee12 6b3e 0255 223e
00000060: 8ef0 6bbd b3e3 a6be 6e74 ba3e ecef bf3d
00000070: fc7f 0cbc cf65 623d 178d 6f3e ff45 903e
00000080: 68ae 57be 14e3 c33d 9215 7ebd a8e6 c53d
00000090: 067c 5abe 9ea2 783d 66b1 bb3e 9059 0dbe
000000a0: 069c 72be c92c cf3e be77 dcbd 5ad9 cdbd
000000b0: 0672 bb3d 9872 93bd 25e4 5dbe b930 9ebe
000000c0: a58e 803e 2602 bbbd 0581 1f3e d941 fe3d
000000d0: 65a6 16bd dd74 a83e 20c9 b7bd 00ff 0c3e
000000e0: 3dc6 d73d ab9b 373e 64f3 893c 1b35 ab3c
000000f0: 2954 76be 008d 10be 1227 133d 3ca9 5abe
00000100: a04e a0bd efd5 163e 1c2f 54be 0aa3 d63d
00000110: 7582 893c 4603 513e 6401 9abc 2684 92be
00000120: 9c5b 33bb 06d0 a13e 9dbf 1cbe 4001 7e3d
00000130: e423 bdbd 5d08 643d 5442 c4ba 2af6 3ebe
00000140: 0399 153e 2317 913d ca4d dbbd 5736 ac3e
00000150: c08b 063e 80df 033d a6bd 143e ab16 473e
00000160: b30d a2bd 0238 97be 8f1e 883e 9454 d83d
00000170: 2beb 913d 26cc e73c d283 18be 0385 cf3e
00000180: 6c96 a03e edda 22be 9ae1 4dbd be16 edbd
00000190: d96b 3abb f637 46be 2d02 fcbb fee8 c63d
000001a0: 216d 06be 12b8 7ebe 4ef5 8f3d ca48 a63d
000001b0: 5e4a de3c 12ff 8cbd 4805 c8bb db6c d83c
000001c0: 54d6 03bf 09e0 f03e d555 f13d a146 cabb
000001d0: 4686 ae3d dd3a 1abd 3694 6abe 3ba2 293d
000001e0: 1310 283e 4d46 0dbb b7ff b43d f2c7 5e3c
000001f0: e99b 5d3d 1f7d f03d fa4e 9bbe f22c 8b3d
00000200: 1cc7 263d 2710 6b3d 3d3e a1bd 3738 2e3e
00000210: 569f 053d 372d 47bd bb6e cb3e a164 733e
00000220: 82bd 873e 2bfd acba 7cc1 bebd b828 c5be
00000230: bfb5 19be 9de4 1c3d b198 83be 0da9 703e
00000240: 6b26 58be ed8d 7ebd f55e acbc d126 a0bd
00000250: 5555 493d 491e fdbc 917f 3cbe 0a73 c13c
00000260: 4fc5 d6be 40b5 c73d 4792 053e 1e77 58be
00000270: c4da ae3c c6e9 98be 3dd1 033e aaf1 01be
00000280: 7b75 d1bc eb74 a93d dba3 debd ecf2 1abd
00000290: b347 c4bd ae0a b23d 0250 1f3e 2b80 5bbe
000002a0: fcf4 c83e 18f3 b13d 7cb4 ff3d eeb4 4a3e
000002b0: 4c33 083c f7ec d33d 4e8b 1a3e 2510 2cbe
000002c0: 95cf 5bbe f6b4 dbbd 5baf 6e3e 27e9 773b
000002d0: e1ac 093e 7822 e1bd 046d 2a3e 1c60 3c3e
000002e0: 7513 01be b8db fb3d eb3b cb3d f70c 8abe
000002f0: 7307 bbbd 43db 093e bac3 373e 0e11 41be
00000300: 001f 50bd 7ebd 3a3e b7be 53be 431f 33be
00000310: 49cf e2bd f1ab 043e ea47 723d 2b1c 9b3d
00000320: 9d51 403d f386 acbd 645d 743e e035 46be
00000330: a814 02bc c283 8d3c f82b 093e 1879 50bd
00000340: cf19 4dbe 3ac0 1f3e 7c7f f6bd 2826 dc3d
00000350: d640 283e b5d1 763e cff8 fabd b34f 57bd
00000360: 38e2 7cbe c584 8fbd 9bd1 783d ae2d 0fbe
00000370: 6eab 983d 864c ed3d 703d 9dbd f478 793e
00000380: e0ff de3e 58c2 cebc 6750 7c3e 73de 0c3d
00000390: 7c20 e2bd dc03 303e 4385 8c3c 2827 1a3c
000003a0: ddcb c13e 0901 d23c d742 91bd 5cb6 f43e
000003b0: ca86 7cbe 0283 333e a915 b93d 7d00 44bd
000003c0: 95be db3d e8ce 3ebb 513d 52be 20f3 203e
000003d0: 5776 77be fbe5 b6bd 270b b23a 8b67 913e
000003e0: 955d 33be 42b0 063b 6f31 3fbd 6a7c 96be
000003f0: 8328 09be 6472 933d 8104 703e cc1c 4bbe
-0.12214478 -0.07768535 0.1019578 -0.11603594 0.44789064 -0.22868985 -0.16513939 0.28784496
0.392433 -0.01424033 -0.31997284 0.15968059 0.093852445 -0.113673314 -0.02145915 -0.4136112
-0.18223724 -0.1674236 0.0064036674 0.12939686 0.008152789 0.18279451 0.2295644 0.1585274
-0.057602458 -0.32595596 0.36416954 0.09371933 -0.008575436 0.055272873 0.23393665 0.28178403
-0.21062624 0.09564796 -0.06203229 0.09663135 -0.21336374 0.06070196 0.36658782 -0.13803697
-0.2369233 0.40463856 -0.107650265 -0.10051222 0.091526076 -0.071995914 -0.21669061 -0.30896547
0.2510883 -0.09131269 0.15576561 0.12414903 -0.03677978 0.3290166 -0.089739084 0.1376915
0.10535858 0.17930476 0.01683969 0.020899346 -0.24055542 -0.14116287 0.035925932 -0.2135362
-0.078274965 0.14730047 -0.20721096 0.10480316 0.01678584 0.20411405 -0.018799491 -0.28616446
-0.0027367836 0.31604022 -0.1530747 0.06201291 -0.09235361 0.05567204 -0.0014973381 -0.18648592
0.1460915 0.07084491 -0.107081965 0.33635208 0.13139248 0.032195568 0.1452547 0.19442241
-0.07912769 -0.29534918 0.26585814 0.10563007 0.07124933 0.028295588 -0.14894035 0.40531167
0.31364763 -0.15903826 -0.05026398 -0.11576603 -0.002844563 -0.19357285 -0.007690689 0.097124085
-0.13127567 -0.24874905 0.0702921 0.08119352 0.02713507 -0.06884588 -0.006104145 0.026419094
-0.51498914 0.47045925 0.11783949 -0.0061729704 0.085217044 -0.037653793 -0.229081 0.04141448
0.16412382 -0.0021556795 0.08837836 0.013597475 0.054103766 0.11742615 -0.30333692 0.06795682
0.04071723 0.05738845 -0.07873199 0.17013632 0.032622658 -0.048627105 0.39732918 0.23768856
0.2651177 -0.0013198009 -0.09314248 -0.38507628 -0.15010737 0.03830396 -0.25702432 0.23501988
-0.21108405 -0.06214707 -0.021041373 -0.07819904 0.049153645 -0.03089823 -0.18408038 0.023614425
-0.4194741 0.097513676 0.13044082 -0.2113919 0.02134455 -0.29865855 0.12872787 -0.12689844
-0.025568714 0.082742535 -0.10871097 -0.037829325 -0.09583988 0.08693443 0.15557864 -0.21435611
0.39249408 0.086889446 0.124855965 0.19795582 0.008313011 0.10347932 0.15092203 -0.16803034
-0.21465905 -0.10727875 0.2330908 0.0037828179 0.13444854 -0.109929025 0.16643149 0.18396038
-0.12605079 0.122977674 0.09923538 -0.26963016 -0.0913228 0.13462548 0.17945758 -0.18854162
-0.050810814 0.18236348 -0.2067822 -0.17492394 -0.11074693 0.12956215 0.059150614 0.07573732
0.046952832 -0.08424177 0.2386375 -0.19356489 -0.007939495 0.017274741 0.13395679 -0.050896734
-0.20029376 0.15600672 -0.120360345 0.10749465 0.16430983 0.24103434 -0.12254488 -0.05256624
-0.2469567 -0.07007746 0.06074677 -0.13982269 0.074545726 0.11586861 -0.07677734 0.24362546
0.43554592 -0.025239155 0.24640046 0.03439183 -0.11041352 0.17188972 0.017153388 0.00940875
0.37850848 0.02563526 -0.07092827 0.4779538 -0.24660793 0.17530444 0.090373345 -0.04785203
0.1072971 -0.0029115025 -0.20531203 0.15717745 -0.24166237 -0.08930584 0.0013583646 0.2839931
-0.17516167 0.0020551835 -0.046678003 -0.29391795 -0.1339436 0.07199553 0.23439218 -0.19835204

bias f4 [64]
00000000: dddf 17be 225d a5bd 7900 24be 0946 41bc
00000010: 1b53 b7bc ad66 483d da2a 7e3d 3e62 8dbc
00000020: 554f 5abd 4fa6 13be 423f d73d a8ff ddbc
00000030: 32d5 97bd 85d6 fa3d a488 0dbe dd6e 373e
00000040: 9d60 84bd 7dcd 463c 2977 7b3d 6ef1 ccbc
00000050: f391 e9bd cfb0 233e 39ca b8bd f9dc 8dbd
00000060: 1819 c53d 3edb 893d 7b43 a53d d68f ffbd
00000070: 4ec2 1e3e d108 7b3b 08ec 10be 7ae6 38be
00000080: 4870 70bd 2c14 023e 0233 393e dbb1 273c
00000090: da68 25be 8c08 b53d 7324 c53c aa35 a33d
000000a0: 28da 2cbc 73dc 24be b7b0 453e f23c f63c
000000b0: 1ee0 21be 82ad b8bd 4ddc 4c3d 986e bdbd
000000c0: 91fc 7bbc e6b3 f93c 4d1d 0b3d 76df 13be
000000d0: 258d eabd d576 babd fa1b 073d 04df d1bd
000000e0: 4832 093e e82a ea3a 0e26 a3bd d5b0 14bd
000000f0: cc8b eabc 0191 253e 57d4 b8bd c772 2bbe
-0.14831491 -0.08074404 -0.16015805 -0.011796483 -0.022378495 0.048926044 0.062052585 -0.01725876
-0.053298313 -0.1441891 0.10510112 -0.027099445 -0.07413711 0.122479476 -0.13821656 0.17913385
-0.0646374 0.012133953 0.061392937 -0.025017466 -0.11404791 0.15985416 -0.09022946 -0.06926913
0.09623927 0.0673127 0.080695115 -0.124786064 0.15503809 0.0038304816 -0.14152539 -0.1805667
-0.05870083 0.12703007 0.18085864 0.010235275 -0.16153279 0.08839521 0.024065232 0.0796922
-0.010550059 -0.1609972 0.19305693 0.030058358 -0.1580815 -0.09017469 0.050014783 -0.0924961
-0.015380041 0.03048129 0.03396349 -0.14440712 -0.114527024 -0.09104697 0.032985665 -0.10247615
0.13398087 0.001786557 -0.07966243 -0.036301453 -0.028631113 0.16168596 -0.090248756 -0.16743003

weight f4 [64, 64, 3, 3]
00000000: 4792 803d 3a98 a6bc 5ca2 88be dcf7 dbbd
00000010: 6826 9ebe 2f0b aabb 37a9 e4bd eef2 98bd
00000020: e151 03bc d003 55bd b44d 043d 3e45 11bd
00000030: 20ba d7bd 38dc b83c cb31 51bc 420b 993a
00000040: d4bb 16be e8d1 24bd 5445 4ebd cf0a adbc
00000050: fb79 cb3c 6a4c ba3c f7a1 c5bd 45e4 b3bd
00000060: f0b8 99bd 993a fbbc 1cc9 82bd 7a16 19bd
00000070: 1a14 a2bd 93ee 9cbd f7fa 26be 1c09 6bbd
00000080: 43c7 fe3b ed05 6f3c cec8 63bd 0443 c9bc
00000090: be09 99bd 0c76 ef3d 1cee ac3c 18cb 743d
000000a0: d2cd 813d 3066 8abc 36fa c03c 20d7 973d
000000b0: 38c8 173e be3e 8fbb 9467 28bd 5daa a1bd
000000c0: f97c bfbd e0cd 673c b653 c0bd 8baf b43d
000000d0: 4a40 7bbb c62f 323d 2cfb 373d 7039 e0bc
000000e0: fb18 54bd e2ba 8fbd 3206 1dbe ec87 933c
000000f0: 1558 ecbc f842 a83d 61cc a5bd 8daa e53c
00000100: 181e 8abd 1e23 c9bd b5ef 81bd e45a 0abe
00000110: cb07 a6bd e548 903d f520 1abd 02b0 ae3d
00000120: 00a7 52bd 9983 ecbd bb9b 64bc bc92 29bc
00000130: 7771 ec3d 41ef dc3b ca53 d3bc fd25 1ebd
00000140: 76c2 d5bd 7328 0cbe c978 46be b68e 1fbe
00000150: 7125 9fbd 9ea7 c2bd 8ae3 6fbd 065a f5bd
00000160: 862b f3bd b4d5 ebbd e450 69bd f0bd ba3d
00000170: 6183 783c ac7d cd3d d6fa 8fbd 4697 abbc
00000180: 574a e13d a7c9 593d 6acf 003c bb4e 093d
00000190: 5be3 8dbd 1a0a d6bb 8d60 91bd 043e 43bd
000001a0: 22d5 4fbd 90fe c4bd 3501 403d ff01 fabd
000001b0: b6f7 d0bc 7e81 4e3d 99ca 863c 9407 5f3d
000001c0: f59c 17be 4dfc aabd 547b 35bb 1b66 533d
000001d0: 4c0b c8ba d296 8cbd 1713 be3d ac72 263e
000001e0: 600b 373c 5b3c 3539 eb98 d53c 02b6 853b
000001f0: f1b1 20bd a119 143e 6fc1 a33c 6ebd 8abd
00000200: 7f06 99bd 8f8d 18bd 8003 23bd b733 c7bd
00000210: 0458 823d 68ed 943d fe21 a03d ab24 a3bd
00000220: 0edf 87bd 3502 dcbd 1796 babd 2e32 c9bc
00000230: 5ea8 493d c316 0c3d 6425 8fbd 75fa 3d3d
00000240: 1677 d1bd 9a94 b5bd 8deb 2e3d edbf 26bd
00000250: 44db 1d3d b965 25bd d0f5 7e3d 8e82 c5bc
00000260: 3747 6cbd 0a5b 793c 789a 413e d830 953d
00000270: fe13 e5bc dcf2 83bd eebb ce3d 792b 15bd
00000280: c36f 4a3d 6fea cf3d 8e4b bb3d c567 ce3b
00000290: cd84 f13d 58c4 7e3d ee11 6b3d de97 da3d
000002a0: b5ba a13d d4cf a53d 021e 0d3e 7dc7 71bd
000002b0: 891f 93bd 25a3 5ebd bc9b a2bc 3bf1 b3bd
000002c0: 5e30 0abe d270 99bd 7971 95bd 541c 57be
000002d0: fa6f 0bbe bd94 68bd 97d4 d73b 6073 dcbc
000002e0: a7a5 75bc 4738 2e3c c36f 36bd 54a1 47bd
000002f0: 9dff d03c 5ca8 843b 0233 183e 0aef c83d
00000300: 03f6 8f3d c540 693d 7b7b a23d dfb4 c93b
00000310: 0807 2f3d e6cf b23d b57c 9bbd 5b23 8cbd
00000320: 0109 b5bd 4373 71bd 8c8c f0bd 285f 53be
00000330: 2e63 91bd 0423 10be 54d4 aebd 68ba 2a3c
00000340: 9c88 72bd b5a9 91bc f1cc 4f3d 7f35 fbbd
00000350: cc13 ebbd 9c88 85bd 7b5d 88bd 319f aebd
00000360: 273b 0bbd e0df 083e 17a0 3bbd d636 e03d
00000370: 6420 39bb 18dd 113e b03f 253d c672 bd3c
00000380: 4c68 0f3e 80b4 1c3e 4a93 d5bd e960 513d
00000390: 2b49 e6bc 4f38 023d ad0d 233d a36b 4a3d
000003a0: eb83 743b 15d8 a43c 6eed 713d 6865 d3bc
000003b0: cab4 debc abf5 c0bc a430 bd3c ff6e 8dbc
000003c0: 9872 203d 4796 ab3d 84ad b2bc a6c7 40be
000003d0: 41fd 03be 3605 62bd 7328 90bd a9f0 2a3e
000003e0: dd25 f1bd 12ea 163e 3ecf 2dbd 090b ffba
000003f0: 1c8b 5c3d e6af 9abc 0c35 133e f86f a73c
0.062779 -0.02033626 -0.2668637 -0.10740635 -0.30888677 -0.0051893215 -0.11165088 -0.0746821
-0.008015127 -0.05200559 0.032300666 -0.035466425 -0.105335474 0.022565946 -0.012768219 0.0011676329
-0.14720088 -0.040239245 -0.050359085 -0.021123318 0.024838438 0.022741515 -0.09650033 -0.08783773
-0.07505977 -0.03066759 -0.06386015 -0.03737495 -0.0791399 -0.07662692 -0.16306673 -0.057381734
0.0077752187 0.014588815 -0.055611424 -0.024568088 -0.07472561 0.116924375 0.021109633 0.059763998
0.06338085 -0.01689443 0.02355681 0.07414079 0.14822471 -0.004371493 -0.041114405 -0.07893822
-0.093500085 0.0141482055 -0.093909666 0.08822545 -0.003833788 0.04350259 0.04491727 -0.027371138
-0.051781636 -0.07018067 -0.15334395 0.018009149 -0.028850595 0.08215898 -0.08095623 0.028035427
-0.06744021 -0.09821151 -0.063445486 -0.13511235 -0.08106955 0.070451535 -0.037629087 0.085296646
-0.051428795 -0.11548538 -0.013953145 -0.010349926 0.11545079 0.0067423885 -0.02579679 -0.038610447
-0.10437481 -0.13687305 -0.19382013 -0.15581784 -0.07770813 -0.09504627 -0.058566608 -0.11980061
-0.11873536 -0.1151537 -0.05696191 0.09118259 0.015168042 0.10033736 -0.07030265 -0.020946156
0.11000507 0.053170826 0.007861951 0.03352235 -0.0692813 -0.006531966 -0.07098494 -0.047666565
-0.05074037 -0.096188664 0.04687615 -0.12207412 -0.025508743 0.050416462 0.016454028 0.054450586
-0.14805968 -0.08348904 -0.0027691917 0.051611047 -0.0015262156 -0.06864704 0.09280985 0.16254681
0.011172146 0.0001728399 0.026073894 0.004080535 -0.0392322 0.14462902 0.019989697 -0.06774412
-0.07471942 -0.037244376 -0.03979826 -0.09726661 0.06364444 0.07271844 0.078189835 -0.07965978
-0.06634341 -0.107426085 -0.091106586 -0.02456006 0.049232833 0.034201395 -0.069895536 0.046381433
-0.10227792 -0.08866234 0.042705107 -0.04071038 0.038539186 -0.040380213 0.062246144 -0.024110105
-0.057685103 0.015219459 0.18906581 0.07284707 -0.027963635 -0.06442806 0.100944385 -0.036418412
0.04942299 0.101521365 0.0914527 0.0062989914 0.11792908 0.062198967 0.057390146 0.106734976
0.0789694 0.08096281 0.13780978 -0.059028137 -0.07183749 -0.054354805 -0.01984965 -0.087862454
-0.13495013 -0.07492222 -0.07297034 -0.210069 -0.13616934 -0.056782473 0.006586622 -0.026910484
-0.014993108 0.010633535 -0.044540178 -0.04873784 0.02551251 0.0040483903 0.14863208 0.09811218
0.07029345 0.056946535 0.07933708 0.0061555947 0.042731315 0.0873106 -0.07592145 -0.06842681
-0.08839608 -0.058947813 -0.11745557 -0.20641768 -0.07098995 -0.14075857 -0.08536592 0.010420419
-0.059212312 -0.017781118 0.050732557 -0.12266063 -0.11478385 -0.06520197 -0.06658455 -0.08526457
-0.03399196 0.13366652 -0.04580697 0.10947959 -0.0028248066 0.14244497 0.04034394 0.023126017
0.1400463 0.1530323 -0.10428484 0.05111781 -0.028111061 0.03179198 0.039807964 0.049419057
0.0037310075 0.020122567 0.05906432 -0.02580519 -0.027185816 -0.023554644 0.023094483 -0.017264841
0.039171785 0.083782725 -0.021811254 -0.1882616 -0.12889577 -0.05518075 -0.07038965 0.16693367
-0.117748 0.14737728 -0.04243397 -0.0019458245 0.053843603 -0.018882703 0.14375705 0.020439133

bias f4 [64]
00000000: 8c81 193d dd7e 45bd d223 c3bd 52eb 833d
00000010: 0df6 843d ef21 b03d b785 27bd d005 d93c
00000020: db40 28bd 3188 f1bc 2d92 db3d 129f a0bd
00000030: 5694 95bc d77c d0bd 60ec a1bd 479e b53c
00000040: bd28 6ebc e3bb 0ebd f3a0 e8bd 69af 17be
00000050: 7381 b7bc 91af d93c 8898 9abd ce0a 0a3e
00000060: 130a 9bbd b2e6 a43d 6785 9bbd 60fa b4bd
00000070: 9e2f 67bc 979a 4bbd 5375 cf3c a887 efbc
00000080: e6b8 b43d 4ba4 22be 303e fa3c 9eaa 9abc
00000090: 5845 0e3d f929 8abd 37cf bd3d e944 1dbe
000000a0: 4e82 d2bd d55f 4ebc 520a b13a 423c 7c3d
000000b0: bbb7 bebd 79b0 98bd d9d3 2abd ab72 61bc
000000c0: 80aa 68b9 b14a 32bd 9b4a fdbc 6755 b2bd
000000d0: e09c a33c 0dda 04bd 3b01 58bc 0f91 a83c
000000e0: 98c7 b5bd 4846 63bd e263 e6bd 5639 83bd
000000f0: edd4 65bd a045 aebd a0b4 763d 2cd2 bdbd
0.03747706 -0.04821669 -0.095283166 0.06441368 0.06492243 0.08600222 -0.040899005 0.02649203
-0.041077476 -0.029483886 0.1072124 -0.0784284 -0.018259209 -0.10180061 -0.07906413 0.0221702
-0.01453608 -0.03484715 -0.113588236 -0.14813007 -0.022400593 0.026572974 -0.07548624 0.13480684
-0.07570281 0.08051814 -0.07593804 -0.08836818 -0.014110474 -0.049707975 0.0253245 -0.02923949
0.08824329 -0.15882985 0.030547231 -0.018880185 0.0347341 -0.06746287 0.09268039 -0.15358318
-0.1027876 -0.01259609 0.0013507104 0.061580904 -0.093123876 -0.074555345 -0.04170594 -0.013760249
-0.0002218876 -0.043528263 -0.030919364 -0.087076955 0.019972265 -0.032434512 -0.013183887 0.020576982
-0.0887596 -0.055486947 -0.1124952 -0.0640742 -0.056111265 -0.08509374 0.06023085 -0.09268603

weight f4 [32, 64, 3, 3]
00000000: 31ca b03d ca8c 2cbd 66d6 af3d b1f4 a0bb
00000010: 5dcb cebd b773 67bd c0b8 e4bc ee1d 42bd
00000020: 6ddb ffbc 11d1 54bd d6f2 53bd 01a3 57bd
00000030: 6b07 eebc e130 863d 4854 90bc 7ce3 cdbc
00000040: c7e6 df3c 11a0 073b f6d3 fa3d 8969 fd3d
00000050: 6dc5 0d3d fd19 963c ffb1 453e 0457 2e3e
00000060: 5d95 d13d 5632 2b3e 7225 323e 46ed c2bd
00000070: 0d37 7ebd 0269 ccbd a9b1 b7bd 697a abbd
00000080: ee48 0bbe 1b49 b8bd c920 b1bd 1c9a b5bd
00000090: 28e6 d8bd 7c53 e6bc d39a 81bb 4ff8 0b3d
000000a0: 6602 44bd f9aa f3bb 7e60 84bd 7286 dfba
000000b0: 8a9d 0a3d 8014 19bd c44e 49bd 07e2 2bbd
000000c0: f8e2 eebd c2ae 61bd 2c67 83bc fd85 9b3b
000000d0: 2bd6 21bd 2b2c 913d 4f36 0f3d 12f0 0e3c
000000e0: 5a77 3b3d 2672 42bb 5031 dc3c b93c 7e3d
000000f0: 1de1 f13b aef0 ea3b 8024 10bd 5977 193e
00000100: 2da7 f63b 07e1 413e bed5 01bd 7e9d 31bd
00000110: 76a6 483d 0cd3 053e e4be a93d 20a8 37bd
00000120: 9033 a1bc a802 b8bd 528d 5fbd 011f 8cbd
00000130: 8606 c83d 1d2e 53bc 1b29 5cbc f5d6 08bc
00000140: 5e6d a4bd a478 9c3d 509a 993c a0a1 e93d
00000150: 6981 a33d 194d 0b3e 5d0a 593d a681 cd3d
00000160: 08f8 953d 2114 d63d 2ac2 8dbd 85ae d4bd
00000170: 0b00 0dbe f943 ecbd 0681 bebd 9659 63bd
00000180: 2b38 6fbb 9a88 f2bd c61b 8fbd a461 313d
00000190: 5351 163d 6fd5 e03c 7b7c 533d 7b2a 513e
000001a0: 63f6 523c 7596 2f3d a6a9 843d 1fed 6abc
000001b0: 233e 20bd f2c1 9eb9 adbe 05be 217b fabd
000001c0: 6594 55bd c62f 94bd 5833 e03c 20ae 273d
000001d0: 0d32 30bc 1605 593e 62f0 e83c 360d a53d
000001e0: 30a1 9d3d 268c b73c 63e1 123d 6ea8 583d
000001f0: 9c30 d93d fa46 523d 39f0 073d b74a ea3c
00000200: 422d 0abc be6e 163d b218 debb 764b be3d
00000210: 9e97 d63d 221f 40bd 04d0 973b 2b90 90bd
00000220: 09f1 3abd d3d9 403d 09c2 9dbd 2dfd 27bc
00000230: 5c51 0aba 84dd 8a3d 9bf6 7ebd a307 183d
00000240: 7cbc 8dbd 548e 7fbd d2ee 16bd 2a12 b9bd
00000250: ef22 86bd 2c36 61bd 0177 07bd 1531 f93a
00000260: c653 f6bd 3c66 2b3d ca08 a8bc a2b9 00bd
00000270: f3a0 33bd 0cd8 90bc c7bc 553d 85f1 f43c
00000280: 3855 f8bc bb8e a5bd b08a 113e 1142 b53d
00000290: b428 a73d f2d8 fa3d 456f 903d fe38 f03c
000002a0: 7712 943d 5043 423e 96c2 1c3e 0a11 243e
000002b0: f4c9 a33d 8270 eb3d 65c2 243e 6198 5b3d
000002c0: ee67 213d e878 163e e648 4f3d b62b 2e3d
000002d0: 4d0b 7bbb 3158 eabc edaa 08be 0ff1 6a3d
000002e0: 3393 ebbc 8bdd a13c 41ea b23c c8c7 2a3d
000002f0: 25a0 853c f182 b1bc 03af d4bc 443b 813d
00000300: 42c8 0d3d 6e09 cc3d 7e3f 9c3d 0409 b23c
00000310: b96d 033d bb67 30bd 568d 693d c821 acbc
00000320: f74f 433d b53a 96bb 5f82 f03c 9d0a 3ebc
00000330: 10c8 f23c 2d92 90bc 21d4 d4bd 222d ddbd
00000340: 15e4 edbd aed2 68bd 1b7b 24be 06f8 d4bb
00000350: 1b9f 18bd 361f cdbd 67d7 42bd eb2e 813c
00000360: 0e90 7a3d cb3f b43d 06e2 abbd 839d 7e3d
00000370: b1e2 0d3e 9e2f db3c f440 d5bb 9a1e 3f3d
00000380: 726c 3fbd a2a4 393d 8d9b aebd e052 8b3d
00000390: b6dd ec3d c718 323d f830 6a3d 64f6 273d
000003a0: b3f7 d33d 7a00 f73b 9192 543d 2d49 f93b
000003b0: b983 2ebd c60a d1bb 4833 40bd f5c2 853d
000003c0: f235 a3bc 2c17 263c 5fc9 48bc c09e 133d
000003d0: b0c3 11bd 5742 44bd fbec c23c 7b2e b93d
000003e0: 25a8 0c3e 48d6 dabd d9d3 24bd 41a8 1abd
000003f0: ae6d 95bd 9b2d bf3d 188d d73b bdb3 23bc
0.08632315 -0.042126454 0.08585815 -0.004911982 -0.10097382 -0.05650684 -0.027920127 -0.047391824
-0.03123256 -0.051957194 -0.05174526 -0.052645687 -0.029056272 0.06552292 -0.017618313 -0.025132887
0.027331723 0.0020694772 0.122474596 0.12373645 0.034612108 0.018322939 0.19306181 0.17025381
0.10233567 0.1671842 0.17397097 -0.095179126 -0.06206422 -0.09980966 -0.08969433 -0.08372957
-0.13602039 -0.08998319 -0.086488314 -0.08867285 -0.10590774 -0.02811598 -0.003955224 0.034172352
-0.04785385 -0.007436153 -0.06463717 -0.0017053618 0.033841647 -0.037373066 -0.049147382 -0.041963603
-0.116643846 -0.055098303 -0.016040407 0.0047461973 -0.039510887 0.070885025 0.034963902 0.008724229
0.04576812 -0.0029670089 0.026878983 0.06206963 0.007381572 0.0071698045 -0.03519106 0.14986934
0.007527253 0.18933497 -0.03169798 -0.043363087 0.048986875 0.13068789 0.082883626 -0.04483807
-0.019677907 -0.08984882 -0.054578133 -0.06841851 0.09766869 -0.012889412 -0.013437535 -0.008352031
-0.08028673 0.07640198 0.01875034 0.11407781 0.079836674 0.13603629 0.0529884 0.10034494
0.07322699 0.10453058 -0.069217995 -0.103848495 -0.13769548 -0.11536402 -0.09301953 -0.055505358
-0.0036501985 -0.11842461 -0.06987719 0.043306008 0.03669865 0.027445523 0.051632386 0.20426361
0.012876126 0.042868096 0.0647767 -0.014338761 -0.03912176 -0.0003028061 -0.13061018 -0.12230516
-0.052143473 -0.072356746 0.027368233 0.040937543 -0.010754121 0.21193346 0.028434936 0.080591604
0.0769676 0.022405695 0.035859477 0.052895002 0.10604975 0.05133722 0.03318808 0.02860008
-0.008433642 0.036726706 -0.0067778463 0.09291737 0.104781374 -0.04690469 0.0046329517 -0.07058748
-0.045640025 0.047082733 -0.07703025 -0.010253233 -0.0005276406 0.06780532 -0.0622469 0.037116658
-0.06920716 -0.062391594 -0.03684885 -0.09036668 -0.06549632 -0.054983303 -0.033072475 0.001901182
-0.12027697 0.041845545 -0.020512003 -0.031427033 -0.043854665 -0.017681144 0.052181985 0.029900322
-0.030314073 -0.08083864 0.14213061 0.08850492 0.081620604 0.1224841 0.07052473 0.029324051
0.072300844 0.1897099 0.15308604 0.16022125 0.07997504 0.114960685 0.1608978 0.053612117
0.039405756 0.1469456 0.05060663 0.042522155 -0.0038306296 -0.028606506 -0.13346453 0.057358798
-0.028756713 0.01975896 0.021840217 0.041694432 0.016311714 -0.021668883 -0.025962358 0.06310132
0.03461481 0.09962736 0.07629298 0.021732815 0.03208706 -0.043067675 0.057019554 -0.021012202
0.047683682 -0.004584635 0.02935904 -0.01159921 0.029636413 -0.017647827 -0.10392023 -0.10799624
-0.11615769 -0.056841545 -0.16062586 -0.0064992933 -0.03726111 -0.10015719 -0.047568705 0.015769443
0.061172538 0.0880123 -0.0839272 0.062161934 0.13856007 0.026756104 -0.006507987 0.046660043
-0.04673428 0.04532302 -0.08525763 0.068029165 0.115657255 0.04348066 0.057175606 0.04100646
0.10349979 0.0075378986 0.05189759 0.0076076 -0.04260609 -0.006379458 -0.046923906 0.06531326
-0.019923184 0.010137361 -0.012255042 0.036040068 -0.035587013 -0.04791483 0.023794642 0.090420686
0.13736017 -0.10685402 -0.040241096 -0.037758116 -0.0729631 0.093348704 0.006578099 -0.009991583

bias f4 [32]
00000000: 500d c6bd c2a8 d2bd 6b4b 20bd 9593 8dbc
00000010: a073 5ebd 546f 13bd 24a5 c5bd b59b cfbc
00000020: 3828 91bd ee7b 91bd 20e6 b5be 68c5 f9bd
00000030: ff9f 93bd 4e56 8cbd a87a 4dbd bfd4 d8bd
00000040: e851 9bbd c6ce f2bd b44c 8cbd 719d 00bd
00000050: cddc b3bd b38a 82bd 3dcb 943c dd6b 95bd
00000060: b3fe eebc cdc1 6cbd ebc5 d6bb 314c 0cbe
00000070: a597 91bd 9cd5 923c 7530 e0bb fc0a c2bd
-0.09670508 -0.10286094 -0.039134424 -0.017282287 -0.054309487 -0.035994843 -0.09650639 -0.025342802
-0.07087749 -0.07103716 -0.35527134 -0.121958554 -0.07208251 -0.06852399 -0.050165802 -0.10587453
-0.07583982 -0.11855845 -0.068505675 -0.031400148 -0.08782349 -0.06374111 0.018163318 -0.07295964
-0.029174184 -0.05780201 -0.0065543554 -0.1370094 -0.07109002 0.017924123 -0.006841714 -0.09474751

weight f4 [16, 32, 3, 3]
00000000: c48f bfbd d85d 1dbd cd68 bdbd 17db ce3b
00000010: 1466 603b fac9 813d a0a3 b6bc 4433 db3b
00000020: bd41 053d 1965 713d f72a 863d 4090 b0bc
00000030: b4fe 1c3b dba0 b0bd 9ef4 0ebe ef95 a0bd
00000040: 08f1 adbb 0b0e a8bd 5c9f e4ba d942 c3bb
00000050: f906 c13c 8b03 7b3d b46f 4fbd 00bd 443d
00000060: 5ecc 5cbd cad9 88bd 139b 09bd 5ab3 01bd
00000070: 52d3 5cbc 61e0 a83d 7b0e 823d 686e 34bc
00000080: 9d72 97bd 7c7a d5bc 2711 9cbd fff9 20bd
00000090: 2736 fd3d 2e36 61bd 7263 1b3d 9636 3b3d
000000a0: 6331 03bc 6235 003e 0503 15bd e769 8d3c
000000b0: 3b94 953d 77fe b2bd 6661 ffbd 8a45 83bd
000000c0: 0808 06be 2ef2 21be f846 a1bc b8fe b2bc
000000d0: 9917 b9bd bb57 563c f904 fa3c 3bc4 163e
000000e0: 1571 383b 4dd1 afbd 68c9 57bc 5857 bd3c
000000f0: 48b1 0bbd c672 b8bd c2ad 813d 0690 58bb
00000100: 13e5 97bd 7d94 383d b76e 083d 4f08 bc3d
00000110: e060 a1bb 016d be3d 9d63 113e 3583 da3d
00000120: 0977 1ebe 4fd9 67bd 3b3d 18be 5b3d 6cbd
00000130: 59e4 dbbd 9e5c c3bd ce55 e6bd c152 bdbd
00000140: 2706 81bd ddcd 8ebd 00ba 2ebd 1a68 3cbd
00000150: 20a8 03bd 0b2e bfbc 6446 483d 8370 39bd
00000160: d63c 2c3c 2510 153c ccfa 213c 9d07 47be
00000170: 18cb 72bd 6052 38bd 83b4 c8bd a6e6 9abd
00000180: 9d6a f3bb e51d 9dbd 98d7 f3bd e1b2 87bd
00000190: 2c51 00bd 181c bd3c 2eec 18bd eac5 dbbd
000001a0: b5f4 3ebe 2ff3 753d f9cc eabd 6f69 95bc
000001b0: 78a9 893c 3034 3dbc 9428 0d3d bc8e 20bd
000001c0: 3b79 7cbc 1555 4cbb c813 01bc 622a 46bb
000001d0: a139 5a3d de8b 73bd ab43 b6bd 98e3 92bd
000001e0: ed09 80bc a05c a8bc 2ef5 0cbe 077a 87bc
000001f0: 8c29 a1bd 6885 a6bd 7bbb a13d 3744 0a3e
00000200: fc0c 0f3d 06a4 643d 33bc fd3d 5bb7 2f3e
00000210: 8709 10bd f5b4 64bc 1f17 953c 3a73 543d
00000220: 65d3 ec3d baba 173c d2c0 9d3d 5b11 b33d
00000230: 0776 393c 380f bf3b ba4c 783b 7813 da3c
00000240: fff6 8ebd 80e2 98bd aefa 99bd 7c33 06be
00000250: 8b5a 9fbd a438 43bc a878 6cbd 95c7 68bd
00000260: f4e6 1abe 9fbf 5d3d 3397 2fbd 6531 b5ba
00000270: b25f 4dbc d8a0 463c ba94 eabc 643e e63b
00000280: 165c b73c 1c63 b03c 1693 db3a 2f18 8b3c
00000290: 1612 243b 847c d43d 96d2 f23c 571b 063e
000002a0: 735d ceba c94a 87bd 9086 84bd 3cd1 ef3c
000002b0: ada8 88bd a78b 4abd deb6 dbbd f0c3 943b
000002c0: 7f8c a83d 25e8 3a3d 54ff aa3d 3d1b dabd
000002d0: deb7 f53d ca27 f63d a88c ef3d b125 073e
000002e0: 7e9d 1dbd efab ac3d b3b0 b03d b450 123d
000002f0: 7e33 d63c c0cd 313d dd33 0d3d 103d b3bc
00000300: 1677 53bd e782 c83d 6871 a4bc cb3f d43c
00000310: 5074 57bd af0d ad3d e62e 4abd 521f f03d
00000320: 0588 e03c 931a 81bd 27f1 dd3d dc4d bb3b
00000330: 5a6c ea3b b3d5 393d 5639 063d 26ea 4f3d
00000340: 0263 923d cf5e 8c3d 1c47 c43d 843c 803d
00000350: 574e 4cbd d1a8 5a3d 271d 8a3d 14b7 343e
00000360: d532 4b3d 75d7 073e eb1e 5b3c 5056 323d
00000370: c34c 883c 6075 73bd d924 47bd b54e b03d
00000380: ece4 f73c 5641 bf3d 12d6 c53d 41ed 85bc
00000390: 14e4 9d3d babb d23d 4787 af3d 1224 83bc
000003a0: dbe5 d2bd a139 1c3e b8aa bfbd 1e48 7f3d
000003b0: 6a42 e53d 2295 e2bc 4ea3 2d3d bd17 983d
000003c0: 8ba2 d83c 8d8b 3f3d 516c 723d 6f05 0abe
000003d0: 6fcc 1bbe d937 e9bc 4feb 0dbd 5707 9abb
000003e0: 08f1 f5bd 012d 93bc 3b21 0cbc a0de c8ba
000003f0: 0130 3b3d 4d83 adbd aa67 33bc ecac 50bd
-0.09353593 -0.038419574 -0.09248505 0.0063127386 0.003424053 0.06337352 -0.02229482 0.006689461
0.032533396 0.058934305 0.06551164 -0.021553159 0.0023955526 -0.08624431 -0.13960502 -0.078410976
-0.005308274 -0.082058035 -0.0017442512 -0.0059588966 0.023562895 0.061282676 -0.050643638 0.048031807
-0.053905837 -0.06682165 -0.033595156 -0.031665184 -0.013478117 0.08245922 0.06350418 -0.011012651
-0.073949076 -0.026059382 -0.07620459 -0.039300915 0.12363844 -0.05498331 0.037936635 0.045706354
-0.00800738 0.12520364 -0.036379833 0.017262412 0.07303663 -0.087399416 -0.12469749 -0.06409748
-0.13089001 -0.1581504 -0.01968716 -0.021849975 -0.09037704 0.01308244 0.03051995 0.14723293
0.0028143574 -0.08584843 -0.013170578 0.023112938 -0.034104615 -0.09006266 0.0633197 -0.003304483
-0.07416739 0.045063484 0.03330871 0.09181272 -0.0049248785 0.092981346 0.14198156 0.10669557
-0.15475096 -0.056603726 -0.14867108 -0.0576757 -0.10736913 -0.0953915 -0.11246835 -0.092443
-0.063000016 -0.06972859 -0.042657852 -0.045997716 -0.03214276 -0.023337385 0.048895255 -0.045273315
0.010512551 0.009098087 0.009886455 -0.19436498 -0.059275717 -0.045000434 -0.09800055 -0.07563524
-0.007428481 -0.076717176 -0.119063556 -0.06625915 -0.03132741 0.023084685 -0.037334614 -0.107311085
-0.18648036 0.06004637 -0.11464877 -0.018238751 0.016804442 -0.011548087 0.034462526 -0.039198622
-0.015409763 -0.0031178643 -0.007878251 -0.0030237664 0.053277615 -0.05945956 -0.088996254 -0.07172316
-0.015629733 -0.02055198 -0.13765404 -0.01653768 -0.078692526 -0.08130914 0.07897087 0.13502584
0.034924492 0.055820487 0.12389412 0.17159788 -0.035165336 -0.013959159 0.018199502 0.0518677
0.11563758 0.009260828 0.07702793 0.08743545 0.011319644 0.0058306716 0.003788753 0.026620612
-0.069807045 -0.074650764 -0.075185165 -0.13105577 -0.077809416 -0.01191536 -0.057732254 -0.05683096
-0.15127164 0.054137822 -0.042868804 -0.0013823925 -0.012535023 0.012123309 -0.028635371 0.0070264805
0.022382777 0.021531634 0.0016752209 0.016979305 0.0025035194 0.10375312 0.02964143 0.13096367
-0.0015744403 -0.06606061 -0.06470978 0.029274575 -0.06672797 -0.04944959 -0.107282385 0.004539959
0.082299225 0.045631547 0.08349481 -0.106497265 0.119979605 0.12019308 0.1169675 0.13197972
-0.038480274 0.08431231 0.08627453 0.035721496 0.0261476 0.04340911 0.03447329 -0.021879703
-0.05162724 0.09790593 -0.020073608 0.025909325 -0.05260116 0.084498756 -0.049361132 0.11724724
0.02740861 -0.06303897 0.10837012 0.0057160687 0.00715403 0.045369815 0.032769524 0.05076041
0.071477905 0.06854021 0.095838755 0.062615424 -0.0498794 0.053383652 0.067438416 0.17647964
0.049609024 0.13265784 0.013374071 0.043539345 0.016638165 -0.05943811 -0.048619125 0.08608762
0.030260526 0.09338634 0.09659971 -0.016348483 0.07709518 0.10289712 0.08570724 -0.01600841
-0.10297748 0.15256359 -0.09358734 0.062324636 0.11194308 -0.027659003 0.042392068 0.07426403
0.026444694 0.046763945 0.05918533 -0.13478635 -0.15214704 -0.028469013 -0.034648236 -0.004700582
-0.12008864 -0.017965795 -0.008552845 -0.0015325136 0.045700077 -0.08472309 -0.010950008 -0.05094616

bias f4 [16]
00000000: 3fcc bd3c 6a8e 2e3c a6ac 853d a4e8 413d
00000010: ddb7 123d 594e 1bbc ab99 9e3c 8e0a f9bb
00000020: 1ad0 803d c336 053e 9bd6 133e 077f ee3d
00000030: 3911 513d bde8 143d 46d6 afbc fbd4 a43d
0.023168681 0.010654071 0.06527071 0.047341004 0.035819877 -0.009479129 0.019360384 -0.007600135
0.06289692 0.13009171 0.14437334 0.11645322 0.051041815 0.03635477 -0.021464478 0.08048435
