Models/DRCN_model_path.pth (torch, 453444 bytes, 10 tensors)

weight f4 [64, 1, 3, 3]
-39.418663 -39.441513 -39.800293 -39.368683 -39.73872 -39.835037 -39.503693 -39.561295
-39.329353 -39.404655 -39.2132 -39.36575 -39.13546 -39.228497 -39.07366 -39.22079
-39.224453 -39.29966 -37.45656 -37.03718 -37.482296 -37.14165 -37.444054 -37.29043
-37.473465 -37.29773 -37.099537 -40.199406 -40.264534 -40.39262 -40.197586 -40.180058
-40.36494 -40.10881 -40.261314 -40.339104 0.85894215 0.39349312 0.5562427 0.61413443
0.514815 0.5186383 0.6346476 0.4025635 0.46310484 -39.429897 -39.62277 -39.429176
-39.408997 -39.634544 -39.727444 -39.53252 -39.612095 -39.432365 -39.61027 -39.417896
-39.541126 -39.321907 -39.530758 -39.62677 -39.382225 -39.870796 -39.545334 -39.60071
-39.47038 -39.44758 -39.746758 -39.93974 -39.72705 -39.333347 -39.64543 -39.380424
-39.2391 -39.12156 -39.29282 -39.427437 -39.15707 -39.08388 -39.196747 -39.137665
-39.37598 -39.4599 -39.78132 -39.593567 -39.429054 -39.824284 -39.68167 -39.344124
-39.533474 -39.328247 0.0015393142 -0.06546508 0.7687386 0.7821075 0.4199729 0.028781852
-0.35266536 -0.6768011 0.6883991 -40.889477 -40.764755 -40.8668 -39.76247 -39.532333
-39.510857 -40.0904 -39.92684 -39.852173 0.20959269 0.070657015 0.13273636 0.1995943
0.22169067 -0.1541374 0.38654682 0.40807658 0.19313006 1.439145 1.4360892 1.4922647
1.537224 1.6856433 1.4465897 1.6154356 1.6014401 1.6857266 -39.841217 -39.51845
-39.546658 -39.407383 -39.42989 -39.488327 -39.562073 -39.4198 -39.350815 -39.72257
-39.344223 -39.386005 -39.32228 -39.533062 -39.573215 -39.694275 -39.82924 -39.79173
-0.15449455 0.19883855 0.08766146 -0.13379696 0.21086498 0.2560051 -0.04592732 0.12764925
0.22850046 -39.74576 -39.543762 -39.709408 -39.49606 -39.56744 -39.666 -39.586807
-39.988373 -39.609943 0.7978777 0.7679267 0.78980327 0.7856735 0.84606373 0.6147612
0.67384255 0.75837076 0.98899126 -0.7568541 -1.8428785 -1.8482232 -0.64300144 -1.5703781
-1.1141182 -0.16833302 -0.5292175 -1.4711593 -39.783527 -39.28241 -39.755913 -39.336308
-39.521843 -39.608234 -39.317905 -39.714348 -39.625683 -40.956806 -40.92352 -41.086224
-41.153214 -41.11885 -41.149223 -41.163628 -40.578068 -40.5774 -39.323357 -39.724003
-39.384777 -39.544933 -39.716434 -39.405846 -39.32135 -39.76083 -39.617638 -39.608303
-39.32982 -39.55144 -39.686764 -39.41694 -39.565884 -39.73359 -39.36154 -39.29321
-0.516095 -0.11406309 -0.17370252 0.18776424 -0.49699086 -0.25243214 0.5776525 0.53243834
0.06620908 -39.253723 -39.12847 -39.325737 -39.651913 -39.13552 -39.54201 -39.33954
-39.09638 -39.55837 -0.17390275 -0.003245648 -0.21863313 -0.28164038 -0.14910449 -0.3003616
0.36800486 0.5160144 0.4169194 2.4081903 -40.48558 -40.44614 1.9645531 -40.19881
-40.211227 -1.0528442 -40.3301 -40.422375 -39.163235 -39.15007 -39.576405 -39.22069
00000000: b6ac 1dc2 1cc4 1dc2 8033 1fc2 8879 1dc2
00000010: 73f4 1ec2 1457 1fc2 c803 1ec2 c43e 1ec2
00000020: 4251 1dc2 5e9e 1dc2 51da 1cc2 8776 1dc2
00000030: b68a 1cc2 fbe9 1cc2 6e4b 1cc2 17e2 1cc2
00000040: d7e5 1cc2 da32 1dc2 84d3 15c2 1326 14c2
00000050: dfed 15c2 0d91 14c2 b6c6 15c2 6629 15c2
00000060: d4e4 15c2 e030 15c2 ed65 14c2 31cc 20c2
00000070: e20e 21c2 0b92 21c2 54ca 20c2 61b8 20c2
00000080: b375 21c2 6c6f 20c2 960b 21c2 3e5b 21c2
00000090: a2e3 5b3f ee77 c93e ec65 0e3f ea37 1d3f
000000a0: eaca 033f 7bc5 043f 4478 223f ce1c ce3e
000000b0: 141c ed3e 37b8 1dc2 b77d 1ec2 7ab7 1dc2
000000c0: d0a2 1dc2 c689 1ec2 e7e8 1ec2 4d21 1ec2
000000d0: c972 1ec2 beba 1dc2 eb70 1ec2 edab 1dc2
000000e0: 1d2a 1ec2 a249 1dc2 7f1f 1ec2 d081 1ec2
000000f0: 6687 1dc2 b27b 1fc2 6c2e 1ec2 2167 1ec2
00000100: abe1 1dc2 52ca 1dc2 aefc 1ec2 4bc2 1fc2
00000110: 80e8 1ec2 5955 1dc2 ec94 1ec2 8e85 1dc2
00000120: d7f4 1cc2 7a7c 1cc2 d92b 1dc2 b2b5 1dc2
00000130: d7a0 1cc2 e555 1cc2 78c9 1cc2 f88c 1cc2
00000140: 0181 1dc2 f0d6 1dc2 1220 1fc2 d05f 1ec2
00000150: 5ab7 1dc2 114c 1fc2 08ba 1ec2 6260 1dc2
00000160: 4722 1ec2 2050 1dc2 d0c2 c93a 8e12 86bd
00000170: 0ecc 443f 3238 483f b006 d73e ebc7 eb3c
00000180: 8e90 b4be d642 2dbf ec3a 303f d38e 23c2
00000190: 1c0f 23c2 9a77 23c2 c50c 1fc2 1c21 1ec2
000001a0: 1e0b 1ec2 925c 20c2 16b5 1fc2 a068 1fc2
000001b0: 779f 563e a0b4 903d 0aec 073e 7362 4c3e
000001c0: e102 633e 32d6 1dbe 77e9 c53e 6aef d03e
000001d0: e3c3 453e e735 b83f c5d1 b73f 8802 bf3f
000001e0: c2c3 c43f 29c3 d73f da29 b93f 98c6 ce3f
000001f0: fdfb cc3f e4c5 d73f 685d 1fc2 e512 1ec2
00000200: c72f 1ec2 29a1 1dc2 35b8 1dc2 0cf4 1dc2
00000210: 903f 1ec2 e0ad 1dc2 3c67 1dc2 e9e3 1ec2
00000220: 7c60 1dc2 458b 1dc2 044a 1dc2 db21 1ec2
00000230: f94a 1ec2 f0c6 1ec2 2451 1fc2 bb2a 1fc2
00000240: d233 1ebe 559c 4b3e da87 b33d 1202 09be
00000250: fdec 573e 1a13 833e 491e 3cbd 7cb6 023e
00000260: 06fc 693e a9fb 1ec2 d02c 1ec2 6fd6 1ec2
00000270: f7fb 1dc2 0f45 1ec2 fca9 1ec2 e458 1ec2
00000280: 18f4 1fc2 9570 1ec2 b741 4c3f d896 443f
00000290: 8c30 4a3f e621 493f a297 583f fd60 1d3f
000002a0: f280 2c3f 9624 423f 882e 7d3f 31c1 41bf
000002b0: 71e3 ebbf 9492 ecbf be9b 24bf 2602 c9bf
000002c0: 6d9b 8ebf 7e5f 2cbe cc7a 07bf f34e bcbf
000002d0: 5522 1fc2 3021 1dc2 0e06 1fc2 6158 1dc2
000002e0: 5e16 1ec2 d56e 1ec2 8945 1dc2 7edb 1ec2
000002f0: b380 1ec2 c5d3 23c2 afb1 23c2 4b58 24c2
00000300: e49c 24c2 b479 24c2 ce98 24c2 8ea7 24c2
00000310: f14f 22c2 424f 22c2 1e4b 1dc2 61e5 1ec2
00000320: 038a 1dc2 032e 1ec2 a1dd 1ec2 969f 1dc2
00000330: 1049 1dc2 170b 1fc2 7678 1ec2 e76e 1ec2
00000340: bc51 1dc2 ad34 1ec2 3fbf 1ec2 f2aa 1dc2
00000350: 7743 1ec2 32ef 1ec2 3872 1dc2 3f2c 1dc2
00000360: cd1e 04bf e999 e9bd 13df 31be 4545 403e
00000370: 9675 febe c93e 81be 09e1 133f e14d 083f
00000380: a098 873d d003 1dc2 8e83 1cc2 8e4d 1dc2
00000390: 8f9b 1ec2 c68a 1cc2 052b 1ec2 b05b 1dc2
000003a0: b162 1cc2 c53b 1ec2 9013 32be f0b4 54bb
000003b0: 5de1 5fbe 2b33 90be d9ae 18be ffc8 99be
000003c0: 226b bc3e 8519 043f 7676 d53e ca1f 1a40
000003d0: 3cf1 21c2 d9c8 21c2 7a76 fb3f 95cb 20c2
000003e0: 4cd8 20c2 99c3 86bf 0652 21c2 83b0 21c2
000003f0: 27a7 1cc2 ac99 1cc2 3d4e 1ec2 fde1 1cc2

bias f4 [64]
-39.582764 -39.678734 -38.880455 -40.373966 0.33207536 -39.498417 -39.590622 -39.571262
-39.659054 -39.47708 -1.1474893 -40.710457 -1.3553531 -19.461025 -39.97274 -39.591705
-0.49948442 -39.786133 -5.8197885 -7.7798014 -39.61213 0.09457734 -39.52461 -39.53966
-0.13665076 -39.755013 0.47904938 -40.744644 -39.409805 -39.922916 -39.729416 -39.696503
-39.691032 -35.87981 0.0918477 -3.7920828 -39.97078 -30.613659 -0.6054843 -39.809853
-38.808743 -39.779385 -0.26550397 -40.42327 -40.045303 -40.28119 -1.0495671 -0.57261336
-22.613937 -40.259407 -40.19108 -5.6554255 -43.124096 -39.158768 -39.543194 -39.67236
-0.5693693 -39.6807 -40.26358 -39.83865 -39.495857 -39.522392 -39.49208 -42.12599
00000000: c054 1ec2 06b7 1ec2 9685 1bc2 f17e 21c2
00000010: c805 aa3e 61fe 1dc2 cc5c 1ec2 f948 1ec2
00000020: dfa2 1ec2 88e8 1dc2 eee0 92bf 82d7 22c2
00000030: 367c adbf 2eb0 9bc1 16e4 1fc2 e85d 1ec2
00000040: 6cbc ffbe 0025 1fc2 b53b bac0 22f4 f8c0
00000050: d272 1ec2 c4b1 c13d 3319 1ec2 9d28 1ec2
00000060: 2dee 0bbe 2205 1fc2 f645 f53e 84fa 22c2
00000070: a4a3 1dc2 11b1 1fc2 ecea 1ec2 38c9 1ec2
00000080: 9ec3 1ec2 ed84 0fc2 a61a bc3d 7cb1 72c0
00000090: 14e2 1fc2 c6e8 f4c1 0501 1bbf 4a3d 1fc2
000000a0: 273c 1bc2 171e 1fc2 23f0 87be 6eb1 21c2
000000b0: 642e 20c2 f01f 21c2 3758 86bf ca96 12bf
000000c0: 58e9 b4c1 a209 21c2 aac3 20c2 3ff9 b4c0
000000d0: 137f 2cc2 94a2 1cc2 3b2c 1ec2 7fb0 1ec2
000000e0: 30c2 11bf 09b9 1ec2 e80d 21c2 c75a 1fc2
000000f0: c2fb 1dc2 ee16 1ec2 e4f7 1dc2 0481 28c2

weight f4 [64, 64, 3, 3]
-2.2871232 -2.281945 -2.3088403 -2.4138443 -2.3337998 -2.3659391 -2.4232273 -2.368748
-2.2784338 -2.1537755 -2.3990796 -2.4137924 -1.9885122 -2.0346634 -2.3431098 -2.3376062
-2.4149623 -2.386571 -2.298856 -2.2655106 -1.5892433 0.0031832028 -2.420944 -2.1623833
-2.0526202 -2.3204193 1.9761379 2.3697925 0.20377304 -2.1803174 2.4226968 -0.31145266
-1.8401003 2.3908472 0.050042644 -2.159163 -2.6342254 -2.397321 -2.3200123 -4.0600924
-5.069329 -4.8852277 -2.2913356 2.0503304 0.39368054 -2.2759068 -2.1934667 -2.4233882
-2.370878 -2.42296 -2.341152 -1.8856871 -2.1962001 -2.4189248 -2.1758022 -2.4235826
-1.6566676 -1.6976161 -2.4181914 -2.4228907 -2.4193046 -1.9109241 -1.6713908 -2.4236088
-2.3165562 -2.1130311 -2.3950577 -2.3340468 -2.1475382 -2.0935335 -2.4118435 -2.1433775
-2.4107225 -1.7920233 -2.2152889 -2.4100919 -2.2580714 -2.4153316 -2.4173295 -1.945679
-1.7908548 -2.2816856 -1.6689814 -2.3679693 -1.6132447 -1.7874825 -2.274113 -1.6098199
-2.028425 -2.0201006 -1.3371651 2.3919694 -1.3313705 2.356256 -0.9817132 -2.194967
-2.4019816 -2.384182 -2.0112424 2.1367867 -0.3543131 0.39673665 -1.9687166 -2.1433825
0.87769216 0.4820581 -2.3035758 -2.1937945 -1.9640081 -2.3380451 1.9835572 -2.2443566
0.73454994 1.3026823 -2.3682811 -0.58720857 1.1677474 -1.6205425 -0.47896177 -2.420739
-0.14847106 1.6889222 2.2345922 -0.9477168 2.3439872 -2.0346622 1.2892523 1.1574554
1.220394 0.52865976 -0.23006873 -1.21594 -1.0388434 1.1330202 1.2511872 -0.42077178
0.20226921 -0.9118371 0.46076113 0.36497852 0.43594998 -1.3604274 0.38044506 -1.7564688
-2.3622527 1.256057 1.6146737 -2.3083277 -2.1689038 1.5121337 2.3923821 -1.9517133
0.570499 -2.3347325 -2.323372 -2.3988883 -2.000276 -2.3669238 -1.9821538 -1.9160413
-1.9442863 -2.3567567 1.480643 2.1115117 -1.9092166 1.2378503 2.3479965 0.4398913
0.960823 2.0100656 1.3886621 -1.8723897 -2.3133135 -1.7537639 -2.2045572 -1.905016
-2.345711 -2.3396506 -1.8161384 -2.4209104 2.360866 2.3405528 -0.09674653 2.2958753
2.329176 -0.89739513 2.360241 1.3143332 0.19760409 0.67086375 2.2145436 2.4171515
1.0470711 1.7672905 1.5522125 1.2439771 2.0677657 -2.4237268 -1.9734924 -2.1252682
-2.1605036 -2.3643925 -2.4221253 -1.988289 -2.3894532 -2.2551687 -2.3870928 -2.016557
-2.0306926 -2.24796 -1.8883501 -2.3240445 -2.405021 -2.1274626 -2.2460473 -2.3756692
2.3461277 2.2098265 1.1165702 -1.1390616 1.8081719 2.4210844 0.92219585 1.1472495
0.7212694 2.252461 2.3986835 1.6738243 2.15729 2.2667294 2.283632 2.1500523
2.4147549 2.0655253 -41.77074 -41.75115 -41.210686 -41.55726 -41.69712 -41.074303
2.399397 1.9959608 -0.7488784 2.4179115 -2.2484128 -1.4296736 -1.5041482 2.4190512
0.7347376 -1.8688915 1.0401897 2.0240395 1.2311612 -0.5914518 0.96012866 -1.0249159
00000000: 3a60 12c0 630b 12c0 0ac4 13c0 6d7c 1ac0
00000010: fa5c 15c0 8c6b 17c0 2816 1bc0 9199 17c0
00000020: dcd1 11c0 75d7 09c0 858a 19c0 937b 1ac0
00000030: 9187 febf ed37 02c0 83f5 15c0 579b 15c0
00000040: be8e 1ac0 94bd 18c0 7520 13c0 20fe 10c0
00000050: 536c cbbf 489d 503b bff0 1ac0 7d64 0ac0
00000060: 215e 03c0 c081 14c0 16f2 fc3f aeaa 1740
00000070: e1a9 503e 528a 0bc0 770d 1b40 b976 9fbe
00000080: 6888 ebbf a403 1940 84f9 4c3d ba2f 0ac0
00000090: 2697 28c0 b56d 19c0 157b 14c0 47ec 81c0
000000a0: f137 a2c0 c953 9cc0 3ea5 12c0 9d38 0340
000000b0: 7f90 c93e 75a8 11c0 c261 0cc0 cb18 1bc0
000000c0: 77bc 17c0 c711 1bc0 6fd5 15c0 325e f1bf
000000d0: 8b8e 0cc0 aacf 1ac0 5840 0bc0 fa1b 1bc0
000000e0: af0d d4bf 7c4b d9bf a6c3 1ac0 a410 1bc0
000000f0: e3d5 1ac0 2999 f4bf 22f0 d5bf 681c 1bc0
00000100: 7542 14c0 e73b 07c0 a048 19c0 0661 15c0
00000110: 4471 09c0 74fc 05c0 a55b 1ac0 192d 09c0
00000120: 4749 1ac0 0561 e5bf 4bc7 0dc0 f23e 1ac0
00000130: 3e84 10c0 cb94 1ac0 87b5 1ac0 020c f9bf
00000140: bb3a e5bf 2307 12c0 2fa1 d5bf cf8c 17c0
00000150: cd7e cebf 3acc e4bf 118b 11c0 940e cebf
00000160: b7d1 01c0 5449 01c0 3a28 abbf 0716 1940
00000170: 596a aabf e6cc 1640 8e51 7bbf 577a 0cc0
00000180: 11ba 19c0 7096 18c0 32b8 00c0 1dc1 0840
00000190: 8768 b5be 1121 cb3e e8fe fbbf 2e2d 09c0
000001a0: 6fb0 603f 52d0 f63e c96d 13c0 2167 0cc0
000001b0: 9e64 fbbf 88a2 15c0 34e5 fd3f 8aa3 0fc0
000001c0: 770b 3c3f 4bbe a63f eb91 17c0 4d53 16bf
000001d0: bf78 953f f06d cfbf 7a3a f5be 63ed 1ac0
000001e0: cc08 18be 9a2e d83f 8f03 0f40 919d 72bf
000001f0: e303 1640 e837 02c0 3806 a53f 8027 943f
00000200: df35 9c3f 3f56 073f 2397 6bbe eca3 9bbf
00000210: d2f8 84bf ce06 913f e726 a03f 666f d7be
00000220: a91f 4f3e 286e 69bf e2e8 eb3e 77de ba3e
00000230: d634 df3e 7c22 aebf b2c9 c23e f8d3 e0bf
00000240: 262f 17c0 7ac6 a03f a1ad ce3f a4bb 13c0
00000250: 52cf 0ac0 998d c13f ca1c 1940 bed1 f9bf
00000260: 390c 123f 426c 15c0 20b2 14c0 6387 19c0
00000270: 8604 00c0 ae7b 17c0 37b7 fdbf d740 f5bf
00000280: 60de f8bf 1ad5 16c0 b685 bd3f 0223 0740
00000290: 3661 f4bf e171 9e3f 9345 1640 6f39 e13e
000002a0: 7ff8 753f eaa4 0040 aebf b13f 77aa efbf
000002b0: 540d 14c0 567b e0bf 7717 0dc0 90d7 f3bf
000002c0: 2120 16c0 d6bc 15c0 3977 e8bf 32f0 1ac0
000002d0: 6e18 1740 9ecb 1540 0b23 c6bd 9fef 1240
000002e0: 3811 1540 b0bb 65bf 300e 1740 123c a83f
000002f0: ba58 4a3e babd 2b3f 15bb 0d40 9cb2 1a40
00000300: 6d06 863f 9336 e23f e6ae c63f a43a 9f3f
00000310: 4656 0440 571e 1bc0 669b fcbf 6504 08c0
00000320: b145 0ac0 3552 17c0 1a04 1bc0 4180 febf
00000330: cdec 18c0 af54 10c0 21c6 18c0 450f 01c0
00000340: def6 01c0 94de 0fc0 75b5 f1bf 25bd 14c0
00000350: ddeb 19c0 5928 08c0 3dbf 0fc0 f70a 18c0
00000360: f526 1640 cc6d 0d40 c6eb 8e3f c5cc 91bf
00000370: 2d72 e73f 0cf3 1a40 0715 6c3f 12d9 923f
00000380: 1da5 383f 5228 1040 0884 1940 e03f d63f
00000390: 0a11 0a40 1812 1140 0727 1240 759a 0940
000003a0: 588b 1a40 9131 0440 3d15 27c2 2d01 27c2
000003b0: bed7 24c2 a23a 26c2 dac9 26c2 164c 24c2
000003c0: b88f 1940 a57b ff3f 7fb6 3fbf 10bf 1a40
000003d0: ffe5 0fc0 8bff b6bf ee87 c0bf bcd1 1a40
000003e0: c317 3c3f d637 efbf f024 853f dd89 0140
000003f0: b196 9d3f 6369 17bf feca 753f 7230 83bf

bias f4 [64]
-11.43572 -7.191598 -8.227423 -40.662987 -39.711548 -40.86389 -3.1751146 -43.850746
-13.097409 -31.737698 -30.886417 -42.346275 -40.57775 -17.420395 1.9470191 -40.04242
0.36698937 -1.9458393 -3.5719051 -42.3255 -40.638622 1.2007084 -33.660313 -40.522915
-40.638817 -40.59506 -38.902897 -28.933947 -37.624863 -36.3188 -15.027943 -40.60214
-2.5390234 -33.98402 -30.247051 -40.548393 -43.77031 -1.0620893 -39.51206 -40.870613
-9.399165 -4.8993 0.7580412 -40.46857 -7.507457 -39.195656 -25.318665 1.1989454
-34.410877 -4.807426 -30.109821 -40.62702 -39.315647 -40.630013 -40.60972 -40.613045
-40.634712 -24.43766 -3.9948726 -4.2937264 -40.60987 -14.319785 -42.20702 -32.5206
00000000: b6f8 36c1 9221 e6c0 86a3 03c1 e6a6 22c2
00000010: a0d8 1ec2 a074 23c2 1435 4bc0 2a67 2fc2
00000020: fd8e 51c1 cee6 fdc1 6217 f7c1 9662 29c2
00000030: 9e4f 22c2 f85c 8bc1 ec37 f93f 702b 20c2
00000040: 08e6 bb3e 4311 f9bf 189a 64c0 504d 29c2
00000050: f38d 22c2 d0b0 993f 29a4 06c2 7717 22c2
00000060: 268e 22c2 5761 22c2 919c 1bc2 b978 e7c1
00000070: dc7f 16c2 7446 11c2 7472 70c1 9768 22c2
00000080: 5c7f 22c0 a3ef 07c2 f6f9 f1c1 8e31 22c2
00000090: cc14 2fc2 8bf2 87bf 590c 1ec2 827b 23c2
000000a0: fb62 16c1 11c7 9cc0 fd0e 423f d1df 21c2
000000b0: 163d f0c0 5ac8 1cc2 a08c cac1 0b77 993f
000000c0: bda4 09c2 6fd6 99c0 eae0 f0c1 1282 22c2
000000d0: 3943 1dc2 2285 22c2 5a70 22c2 c273 22c2
000000e0: f289 22c2 5480 c3c1 feab 7fc0 3566 89c0
000000f0: 8270 22c2 d71d 65c1 fdd3 28c2 1815 02c2

weight f4 [64, 64, 3, 3]
0.6840038 0.15845974 0.2632531 0.6088304 0.6188918 0.5867624 0.45481154 0.7979421
0.36983624 -1.0867331 -1.4468278 -1.5066825 -0.6385403 -0.93861985 -1.0197504 -0.8939344
-1.6085393 -1.6400232 -0.65498084 1.402256 0.6839921 0.16055727 -1.0827153 -0.05231108
-7.6429195 1.1556251 0.8562827 -1.1571431 -0.27747232 -1.7611271 -1.0434428 -0.48069093
-1.2284979 0.35587454 1.716295 -1.4810588 0.13421895 0.46728107 0.92704797 0.5984856
1.9246485 1.8000097 2.1451533 2.0822556 1.2827128 0.28079915 0.21369298 -1.8081001
-0.086088106 -0.21949546 -0.46509504 -0.39034045 -0.4661423 1.2911388 1.1002706 4.7538595
-3.8250303 2.160769 3.3089032 -1.096935 5.122811 5.322837 -1.824815 -0.6795727
-2.0797539 -1.7277495 -1.3066858 -1.2446021 -2.3857145 -1.3803586 0.13971356 -1.4233974
-1.7240196 -3.5757174 0.4753149 -0.93683034 -3.4292977 -0.5126681 -0.46020472 0.05522441
0.74713236 0.9011449 0.964398 -0.31975472 -3.334699 -2.1352415 -1.6047443 -2.179721
0.9001524 -6.4921236 0.6670211 0.570991 0.6701045 0.5027733 0.66410965 0.5021686
0.6831161 0.5720116 0.661728 0.5736821 0.8366219 0.86397165 -0.56433624 -0.21146336
0.24794792 1.0723135 -0.5506591 2.2187068 0.049407434 -0.079456106 0.22354977 -0.9943917
-0.020770445 -0.60757416 -0.33072042 -0.6434518 -0.26400122 -2.0383732 -1.7992195 -0.36278826
-0.009219445 0.17443174 -0.16730122 0.33806968 0.48884103 -0.0053532906 2.1868887 -2.1861253
-2.3438544 1.4151134 1.2168775 1.774888 -5.449095 -1.1434267 1.3168583 -1.1959835
-1.8907479 -1.412349 -1.5761385 -1.9472241 -1.8302258 -1.1616545 -1.441205 -1.7831901
0.6807874 -3.5765805 0.95237696 0.38915697 -2.7473922 -2.009704 -7.8878317 0.46796843
0.60435736 -1.2685156 -2.6477442 -4.540546 -1.0190145 -0.7476088 -0.99175507 -0.82830644
-1.7923577 -3.2312026 0.88789845 -6.2406197 -4.410192 3.3845787 0.8045908 -5.3063145
-2.825312 3.4484339 -7.3840117 -1.5607285 -0.8464019 -0.05202558 -2.654814 -0.1649148
-0.085352555 -0.58341646 -0.42728302 -0.37100726 1.0953792 1.3035655 0.4181441 1.2312843
1.7835518 0.270356 -0.5998895 -0.49326652 -0.0063986555 1.4719505 1.5304942 1.579756
1.5397465 1.5006968 1.6356605 1.2177545 1.3749932 1.4362308 1.1426654 1.2268207
1.2662005 -1.9277985 -0.33216688 1.7932683 -3.0767689 -5.1427126 1.1774939 -0.2676943
-0.4926327 -4.188286 0.017294435 0.58166796 -0.6882667 -1.1485403 -1.2946926 0.83158183
1.5198025 1.4838549 0.9153984 1.5931478 1.5079575 1.38789 0.70735675 0.39802387
0.2951535 -0.35781208 -0.18197645 -0.46058846 -0.30140257 -0.95040345 -0.10359986 0.7701823
0.09425486 -1.0912529 -1.9128407 -1.843167 -2.099187 -0.865072 -1.3863946 -2.3511868
-0.13260014 1.5855343 -1.8549414 -0.80064106 -1.2424663 -1.2429363 -0.7324711 -1.9491078
-0.22297421 -0.5759453 -0.4513689 -0.4540169 3.7063382 -1.2477237 2.055643 -5.861928
00000000: df1a 2f3f 4543 223e 1cc9 863e 4fdc 1b3f
00000010: b16f 1e3f 1036 163f 0fdd e83e ef45 4c3f
00000020: 2d5b bd3e 121a 8bbf a731 b9bf f9da c0bf
00000030: 6177 23bf 6449 70bf 2e87 82bf e3d8 64bf
00000040: 9ee4 cdbf 48ec d1bf d3ac 27bf 207d b33f
00000050: 1b1a 2f3f 2069 243e 6a96 8abf 2544 56bd
00000060: cc92 f4c0 86eb 933f 5835 5b3f 441d 94bf
00000070: da10 8ebe 9d6c e1bf 898f 85bf 1f1d f6be
00000080: 6b3f 9dbf 3035 b63e 8eaf db3f 5693 bdbf
00000090: b170 093e 773f ef3e 0453 6d3f 5a36 193f
000000a0: e25a f63f b866 e63f 314a 0940 ad43 0540
000000b0: ef2f a43f e8c4 8f3e 55d2 5a3e d36f e7bf
000000c0: f64e b0bd 6bc3 60be f020 eebe b4da c7be
000000d0: 34aa eebe 0944 a53f abd5 8c3f 9e1f 9840
000000e0: 4ccd 74c0 0a4a 0a40 12c5 5340 5e68 8cbf
000000f0: 11ee a340 ae54 aa40 8a93 e9bf 7af8 2dbf
00000100: b01a 05c0 e526 ddbf 7b41 a7bf 1f4f 9fbf
00000110: 8caf 18c0 97af b0bf 1211 0f3e e331 b6bf
00000120: adac dcbf 8ed8 64c0 795c f33e 1dd4 6fbf
00000130: 9d79 5bc0 373e 03bf f49f ebbe fe32 623d
00000140: 1144 3f3f 6fb1 663f cae2 763f e4b6 a3be
00000150: b56b 55c0 cca7 08c0 4368 cdbf 8d80 0bc0
00000160: 6370 663f 7abf cfc0 e5c1 2a3f 772c 123f
00000170: f88b 2b3f c0b5 003f 1703 2a3f 1f8e 003f
00000180: b2e0 2e3f 5a6f 123f 0267 293f d5dc 123f
00000190: da2c 563f 3f2d 5d3f 5778 10bf da89 58be
000001a0: 0fe6 7d3e 9241 893f fff7 0cbf 4bff 0d40
000001b0: 735f 4a3d e2b9 a2bd 3bea 643e 7490 7ebf
000001c0: c826 aabc fb89 1bbf 3054 a9be 42b9 24bf
000001d0: 2b2b 87be b574 02c0 d34c e6bf 62bf b9be
000001e0: 280d 17bc 3c9e 323e 0351 2bbe 7817 ad3e
000001f0: 5f49 fa3e a86a afbb fcf5 0b40 7ae9 0bc0
00000200: b601 16c0 7022 b53f a4c2 9b3f 882f e33f
00000210: fc5e aec0 ce5b 92bf d08e a83f fd15 99bf
00000220: 0704 f2bf dac7 b4bf e8be c9bf a43e f9bf
00000230: d744 eabf 18b1 94bf 6879 b8bf 933f e4bf
00000240: 1548 2e3f b2e6 64c0 face 733f 953f c73e
00000250: 46d5 2fc0 fe9e 00c0 1e69 fcc0 8f99 ef3e
00000260: 2ab7 1a3f b85e a2bf a474 29c0 274c 91c0
00000270: 116f 82bf 4a63 3fbf a9e3 7dbf e40b 54bf
00000280: fa6b e5bf 06cc 4ec0 504d 633f 28b3 c7c0
00000290: 4b20 8dc0 f09c 5840 aaf9 4d3f 54cd a9c0
000002a0: e9d1 34c0 24b3 5c40 d349 ecc0 f4c5 c7bf
000002b0: cbad 58bf c618 55bd 79e8 29c0 6ddf 28be
000002c0: 52cd aebd c85a 15bf d7c4 dabe aaf4 bdbe
000002d0: 6335 8c3f 3cdb a63f fc16 d63e b99a 9d3f
000002e0: 6d4b e43f 1a6c 8a3e 5c92 19bf 6e8d fcbe
000002f0: d0ab d1bb e068 bc3f 3ce7 c33f 7235 ca3f
00000300: 6a16 c53f d516 c03f 535d d13f 61df 9b3f
00000310: c7ff af3f 69d6 b73f dc42 923f 7608 9d3f
00000320: dc12 a23f 1ac2 f6bf c711 aabe d189 e53f
00000330: c8e9 44c0 1a91 a4c0 1fb8 963f 3a0f 89be
00000340: 5a3a fcbe 7006 86c0 0fad 8d3c 31e8 143f
00000350: 3f32 30bf 5e03 93bf 7db8 a5bf 8ce2 543f
00000360: e388 c23f f5ee bd3f 8d57 6a3f 44ec cb3f
00000370: c004 c13f 61a6 b13f 5515 353f c9c9 cb3e
00000380: 5c1e 973e 2533 b7be 0958 3abe 40d2 ebbe
00000390: 7051 9abe a44d 73bf 2a2c d4bd ab2a 453f
000003a0: b108 c13d 2dae 8bbf f7d7 f4bf e5ec ebbf
000003b0: 1459 06c0 5c75 5dbf 6175 b1bf d879 16c0
000003c0: 55c8 07be caf2 ca3f b86e edbf d0f6 4cbf
000003d0: 2309 9fbf 8918 9fbf 3a83 3bbf 5d7c f9bf
000003e0: 5a53 64be 2771 13bf d319 e7be e774 e8be
000003f0: a534 6d40 69b5 9fbf a88f 0340 ea94 bbc0

bias f4 [64]
-0.69862646 0.016374443 0.3179078 -1.8752707 -1.3124093 0.13779895 -1.8172259 -1.2085866
-1.2114052 -2.2223551 -1.5887108 -1.0401182 -1.8901604 -2.0752542 -2.554911 -0.08902714
0.19783421 -1.4881287 -1.7591207 -1.6909184 0.5397791 -1.4074357 -1.3585095 -2.4418406
-1.0268501 -1.463959 0.06605694 -0.77739424 -0.7014711 -0.42015064 0.4006768 -0.062156893
0.046465337 -1.7922148 0.28529614 0.6003778 0.6503723 -1.060435 -0.1440228 0.1726998
0.31794804 -0.27707064 -0.40723646 0.002573636 0.17039241 -2.0036132 -0.33941576 -1.0288088
-0.23263457 -2.220051 -1.8892677 -0.19955818 0.38459498 -1.5279453 -1.0086523 0.15043056
-1.5872836 0.0800448 -1.2438374 0.040203758 -1.3357809 -0.42583048 -1.8625102 -1.1758661
00000000: 2fd9 32bf b223 863c d0c4 a23e df08 f0bf
00000010: 07fd a7bf 2b1b 0d3e dc9a e8bf f7b2 9abf
00000020: 530f 9bbf 113b 0ec0 e05a cbbf 9822 85bf
00000030: c7f0 f1bf f7d0 04c0 a983 23c0 dc53 b6bd
00000040: 0d95 4a3e 007b bebf de2a e1bf 0470 d8bf
00000050: f72e 0a3f da26 b4bf a4e3 adbf 1e47 1cc0
00000060: d36f 83bf 0263 bbbf dc48 873d 4f03 47bf
00000070: 9c93 33bf fc1d d7be 8225 cd3e 3a98 7ebd
00000080: 7052 3e3d 4b67 e5bf 5612 923e 5cb2 193f
00000090: cd7e 263f 56bc 87bf b67a 13be 37d8 303e
000000a0: 16ca a23e 34dc 8dbe 4c81 d0be 72aa 283b
000000b0: 597b 2e3e 333b 00c0 e7c7 adbe 02b0 83bf
000000c0: c237 6ebe 5115 0ec0 86d3 f1bf fb58 4cbe
000000d0: a2e9 c43e b693 c3bf 851b 81bf 780a 1a3e
000000e0: 1c2c cbbf 87ee a33d 1036 9fbf b2ac 243d
000000f0: defa aabf 7406 dabe bc66 eebf c882 96bf

weight f4 [64, 64, 3, 3]
0.5937343 0.40006566 0.5506092 1.0790434 0.41539016 0.36616772 0.7317422 0.98486805
0.890705 0.24974078 0.12781394 0.055205226 0.16574335 0.061441194 0.010332513 0.26941332
0.15605947 0.10417251 -6.5479083 -10.049497 10.05539 -1.0011787 -1.1404382 -7.657426
-1.4356949 -0.98269796 -0.93004733 2.4308543 0.8012303 -0.04786219 2.7200053 -0.8987998
3.834999 2.8667424 -1.3852142 3.075825 1.7164578 3.4546914 2.7155678 2.7726345
2.0578933 1.761146 2.217249 1.5751976 1.2554938 5.211065 3.368549 2.2708101
3.5394638 1.0418482 0.82029307 1.5425366 0.38958398 0.93196774 -10.809316 5.69571
13.668182 2.6344564 2.1132128 -5.7609644 15.569319 -3.999662 -9.568191 -0.3458224
-0.30420122 -0.29646072 -0.33243823 -0.30602396 -0.2994349 -0.31536487 -0.2892243 -0.2961329
-0.77423996 -1.0026866 -0.46019435 -0.71709424 -0.97604567 0.26680705 -0.5686597 -0.8238494
0.42506003 -2.8705401 -1.2341214 1.7460699 -2.6588132 -1.3146434 2.7381232 -1.2808127
0.30700707 4.1884966 0.07139546 0.10936308 0.15294924 0.06375231 0.07799408 0.15829061
-0.05099167 0.08147051 0.042152643 4.2847567 -6.117209 -4.762918 5.7181892 -4.3113656
-0.124966696 5.9740157 -4.82788 0.9035301 -1.4025328 -1.5299886 -1.5122662 -1.1652546
-1.2191027 -1.2800531 -0.7165139 -0.7371005 -0.74928164 1.4639484 1.5654936 1.2248182
1.459492 1.6831195 1.8110644 0.9529482 1.1985441 1.3395703 7.088389 -19.686995
-22.45793 -3.4057965 3.6197412 5.9906497 -17.667234 -3.5926566 7.3072715 -0.7723733
-0.83158374 -0.8697734 -0.7910746 -0.8079694 -0.81964827 -0.7796118 -0.83422863 -0.8287824
16.234543 6.30361 -6.800729 2.5330076 -1.2642089 -4.9673676 0.8320941 -4.5842614
-6.3869476 -2.2267377 -3.0914578 -4.598768 -4.4325614 -2.2827718 0.6614571 -5.3745575
-0.5874945 3.0961037 0.17987253 -3.720028 -7.4064846 1.2630712 -2.469488 -4.633983
-0.46980906 -1.1736273 -3.360776 -0.8623611 -1.6210372 -1.8838847 -2.854315 -2.9875374
-2.8578336 -3.187505 -3.235516 -3.1557038 2.3130677 3.400479 3.837951 0.73772556
2.5663118 3.8113413 -1.199638 1.4232912 3.1949432 -0.7136763 -2.1907039 -7.813975
2.3557405 1.0024601 -13.036676 13.492159 15.223673 6.2242146 0.17269674 -0.19518538
-0.56286246 -0.37475845 -0.37400305 -0.13138413 -0.5336195 -0.5808287 -0.41682518 3.2335348
1.7900412 0.98259985 1.2313957 -0.86969936 -1.6153469 1.1087188 0.039487716 -0.91185325
0.1525405 0.117066 0.1325506 0.074746236 0.08399116 0.05501099 -0.11920576 -0.07422823
-0.045528553 -1.215262 -1.6637644 -2.7379308 2.6201122 -1.5471839 -2.5150092 4.9636755
-2.4096034 -5.0585732 0.35099834 0.14846496 -0.24456927 0.11252509 0.19104819 0.03207647
-0.38139933 -0.3725004 -0.38905457 3.1731117 -8.471151 9.558514 10.546694 6.907142
5.4961133 3.09236 -2.7278705 -2.1833005 14.848436 13.291297 11.677154 15.0080805
00000000: f9fe 173f 68d5 cc3e b9f4 0c3f 181e 8a3f
00000010: 05ae d43e 567a bb3e 7553 3b3f 5020 7c3f
00000020: 3e05 643f 0cbc 7f3e a8e1 023e e01e 623d
00000030: a0b8 293e c3a9 7b3d b349 293c 8bf0 893e
00000040: 0ece 1f3e 6658 d53d 7788 d1c0 bdca 20c1
00000050: e1e2 2041 a026 80bf e1f9 91bf a209 f5c0
00000060: dac4 b7bf 1892 7bbf 9517 6ebf 1e93 1b40
00000070: 6e1d 4d3f 250b 44bd 9114 2e40 be17 66bf
00000080: a070 7540 b578 3740 b34e b1bf 51da 4440
00000090: e4b4 db3f aa19 5d40 ddcb 2d40 d872 3140
000000a0: 86b4 0340 3b6d e13f 68e7 0d40 13a0 c93f
000000b0: 05b4 a03f 0bc1 a640 4f96 5740 f454 1140
000000c0: 9386 6240 485b 853f bafe 513f d771 c53f
000000d0: 8d77 c73e 7095 6e3f f5f2 2cc1 4243 b640
000000e0: e0b0 5a41 ef9a 2840 e13e 0740 d259 b8c0
000000f0: ee1b 7941 76fa 7fc0 4f17 19c1 a20f b1be
00000100: 43c0 9bbe b3c9 97be 5835 aabe 2caf 9cbe
00000110: 884f 99be 8177 a1be 3515 94be bb9e 97be
00000120: 9734 46bf 0958 80bf 989e ebbe 7d93 37bf
00000130: 21de 79bf ef9a 883e af93 11bf cbe7 52bf
00000140: 78a1 d93e eeb6 37c0 b1f7 9dbf 387f df3f
00000150: ff29 2ac0 3c46 a8bf 693d 2f40 acf1 a3bf
00000160: 0830 9d3e 2a08 8640 c837 923d c0f9 df3d
00000170: ba9e 1c3e 9290 823d 5cbb 9f3d ef16 223e
00000180: a4dc 50bd 03da a63d 40a8 2c3d ba1c 8940
00000190: 2dc0 c3c0 d369 98c0 68fb b640 b5f6 89c0
000001a0: 8aee ffbd 232b bf40 fe7d 9ac0 c04d 673f
000001b0: 3286 b3bf abd6 c3bf f091 c1bf 1027 95bf
000001c0: 8f0b 9cbf c8d8 a3bf 746d 37bf 9eb2 3cbf
000001d0: ecd0 3fbf a962 bb3f 1862 c83f d8c6 9c3f
000001e0: a2d0 ba3f 7670 d73f f5d0 e73f 6af4 733f
000001f0: e569 993f 0a77 ab3f 15d4 e240 f77e 9dc1
00000200: d7a9 b3c1 92f8 59c0 d7a9 6740 67b3 bf40
00000210: 7f56 8dc1 16ee 65c0 2bd5 e940 42ba 45bf
00000220: ace2 54bf 78a9 5ebf dd83 4abf 15d7 4ebf
00000230: 78d4 51bf a494 47bf 0290 55bf 152b 54bf
00000240: 58e0 8141 2cb7 c940 929f d9c0 cc1c 2240
00000250: 99d1 a1bf adf4 9ec0 1e04 553f 45b2 92c0
00000260: e061 ccc0 df82 0ec0 72da 45c0 1c29 93c0
00000270: 8bd7 8dc0 ef18 12c0 4155 293f 60fc abc0
00000280: 0a66 16bf 9026 4640 8130 383e f014 6ec0
00000290: ec01 edc0 51ac a13f 170c 1ec0 9749 94c0
000002a0: d08a f0be 6b39 96bf f416 57c0 b2c3 5cbf
000002b0: 267e cfbf 2223 f1bf 19ad 36c0 d033 3fc0
000002c0: bfe6 36c0 1500 4cc0 b212 4fc0 0df7 49c0
000002d0: 4d09 1440 73a1 5940 fda0 7540 95db 3c3f
000002e0: 743e 2440 04ed 7340 bd8d 99bf 682e b63f
000002f0: f379 4c40 7db3 36bf 7e34 0cc0 150c fac0
00000300: 74c4 1640 9d50 803f 3a96 50c1 e2df 5741
00000310: 2a94 7341 c42c c740 6ad7 303e adde 47be
00000320: c117 10bf 57e0 bfbe 547d bfbe 9089 06be
00000330: 4a9b 08bf 31b1 14bf 1c6a d5be 3cf2 4e40
00000340: 1220 e53f aa8b 7b3f 609e 9d3f 9ea4 5ebf
00000350: b0c3 cebf 7fea 8d3f dfbd 213d 376f 69bf
00000360: 9433 1c3e 4dc0 ef3d 58bb 073e 8e14 993d
00000370: 8f03 ac3d 3453 613d 2622 f4bd f804 98bd
00000380: 267c 3abd b58d 9bbf 3bf6 d4bf 423a 2fc0
00000390: ebaf 2740 1f0a c6bf e9f5 20c0 6ed6 9e40
000003a0: f136 1ac0 d5df a1c0 0eb6 b33e 3307 183e
000003b0: 5e70 7abe 8e73 e63d 23a2 433e 9e62 033d
000003c0: c646 c3be 5fb8 bebe 2932 c7be 4314 4b40
000003d0: d689 07c1 acef 1841 42bf 2841 4f07 dd40
000003e0: 29e0 af40 3ae9 4540 6e95 2ec0 32bb 0bc0
000003f0: 3293 6d41 27a9 5441 9fd5 3a41 1921 7041

bias f4 [64]
-41.52915 -41.942215 -42.315174 41.836273 -42.33134 -41.439037 42.316353 42.318592
-42.1658 42.36207 42.09665 -42.195023 -42.287144 -41.800236 -41.969273 41.917103
42.479046 41.79593 41.83245 -41.7723 41.57037 42.354015 -42.27829 41.976357
-42.10511 42.27693 42.2387 -42.290535 41.9916 -42.29062 -42.338467 -41.816807
-42.18981 -42.04571 -41.994194 41.801292 42.242943 -42.10174 41.74974 -41.679012
42.050636 41.77486 -41.70678 -42.236504 41.64685 41.975956 41.706078 -41.805763
-42.325726 41.707733 41.707684 -42.17607 42.335495 -42.28217 41.6436 41.70517
41.50382 -42.36433 -41.85913 41.79517 42.341 -41.811405 -42.2478 42.30237
00000000: d91d 26c2 d4c4 27c2 bd42 29c2 5858 2742
00000010: 4b53 29c2 93c1 25c2 f243 2942 3d46 2942
00000020: c7a9 28c2 c272 2942 f862 2842 b4c7 28c2
00000030: 0926 29c2 7133 27c2 89e0 27c2 1dab 2742
00000040: 8bea 2942 082f 2742 6e54 2742 d616 27c2
00000050: 0f48 2642 836a 2942 f81c 29c2 cae7 2742
00000060: a26b 28c2 941b 2942 6ef4 2842 8229 29c2
00000070: 66f7 2742 9829 29c2 975a 29c2 6944 27c2
00000080: 5ec2 28c2 cf2e 28c2 0efa 27c2 8634 2742
00000090: c6f8 2842 2f68 28c2 bcff 2642 4fb7 26c2
000000a0: da33 2842 7519 2742 bed3 26c2 2ef2 28c2
000000b0: 6096 2642 61e7 2742 06d3 2642 1a39 27c2
000000c0: 8b4d 29c2 b8d4 2642 abd4 2642 4cb4 28c2
000000d0: 8c57 2942 f120 29c2 0c93 2642 18d2 2642
000000e0: e903 2642 1375 29c2 c06f 27c2 412e 2742
000000f0: 2f5d 2942 e13e 27c2 bffd 28c2 a035 2942

weight f4 [1, 64, 3, 3]
0.5453673 0.5606464 0.57812876 0.5726868 0.56458 0.58689564 0.53472835 0.6078388
0.56824815 0.607419 0.581207 0.66318613 0.59133524 0.6061685 0.6546508 0.62893015
0.61171156 0.5899347 0.775118 0.7201375 0.7361776 0.73590463 0.7268762 0.70335627
0.727707 0.7192768 0.6962847 -0.68510616 -0.64420396 -0.6435041 -0.64921194 -0.6513311
-0.65505683 -0.666073 -0.6472559 -0.6420872 0.7959203 0.7297511 0.7797749 0.73096234
0.78974545 0.7107229 0.7416793 0.78349227 0.7296368 0.56145805 0.5598786 0.59149534
0.53854066 0.57846737 0.5246399 0.52602786 0.5193245 0.5367607 -0.7306063 -0.696912
-0.71251196 -0.684361 -0.722469 -0.6987217 -0.720883 -0.7057967 -0.6893666 -0.7467718
-0.7209055 -0.7804686 -0.74263966 -0.71860296 -0.7600907 -0.73272514 -0.76013786 -0.7204644
0.7129748 0.69904983 0.6930564 0.710854 0.6679095 0.66053504 0.67964745 0.69681776
0.6878233 -0.74659234 -0.75626963 -0.7488474 -0.7417357 -0.7427157 -0.74401706 -0.76934934
-0.7729358 -0.7328246 -0.6451254 -0.67381763 -0.6509994 -0.6540539 -0.6278855 -0.6170781
-0.64076954 -0.6019019 -0.61449313 0.7020773 0.70491284 0.6841148 0.74350417 0.71721435
0.72974694 0.7003178 0.7139743 0.68228376 0.7266414 0.7189594 0.74478084 0.7008936
0.72611034 0.7444798 0.76570517 0.7392856 0.7043697 0.55736905 0.546499 0.5871581
0.577217 0.550367 0.6054368 0.58426785 0.58987194 0.61785156 0.59746253 0.5835384
0.5853247 0.6311359 0.6533457 0.6109487 0.6506643 0.5745606 0.6008858 -0.7215076
-0.69695395 -0.7953507 -0.62769717 -0.6360328 -0.7275277 -0.6887436 -0.6131826 -0.670113
-0.7910083 -0.83763355 -0.77356225 -0.89281446 -0.76188946 -0.7907248 -0.7799305 -0.8342793
-0.8368867 -0.606269 -0.56651145 -0.5479201 -0.5803644 -0.5993961 -0.6127467 -0.5410134
-0.5310405 -0.5998138 -0.6038792 -0.59365916 -0.57610327 -0.5940302 -0.5817618 -0.5850664
-0.5920144 -0.61681545 -0.6460185 0.5370031 0.58877647 0.54390705 0.5876485 0.5749526
0.5462374 0.5943182 0.552069 0.5762849 -0.5377702 -0.6085536 -0.5524661 -0.54671085
-0.60659784 -0.5630941 -0.5500933 -0.54652655 -0.543463 -0.78038967 -0.7016856 -0.7244439
-0.7444909 -0.7400398 -0.7099393 -0.7407201 -0.74236506 -0.70947456 0.7343706 0.7139806
0.71329457 0.72180724 0.72872126 0.6956207 0.7586341 0.74986964 0.69617176 -0.684943
-0.6724648 -0.695658 -0.67112184 -0.6381619 -0.6476898 -0.6753448 -0.65960383 -0.662446
0.6688087 0.6570281 0.718761 0.6360675 0.67395294 0.7081187 0.6372639 0.6582956
0.70924014 -0.73730725 -0.6954037 -0.73566914 -0.69616044 -0.69971514 -0.69953644 -0.76311314
-0.74592614 -0.73441935 -0.69021636 -0.7141044 -0.7380732 -0.6910081 -0.66623056 -0.71877146
-0.68035614 -0.7394251 -0.7058029 0.7215587 0.7269427 0.738532 0.77304983 0.74055487
0.71674526 0.6993606 0.7197084 0.7083776 -0.6450385 -0.6245002 -0.6560889 -0.61869663
00000000: 319d 0b3f 8686 0f3f 3f00 143f 9a9b 123f
00000010: 5188 103f cb3e 163f f5e3 083f 539b 1b3f
00000020: b678 113f d07f 1b3f fbc9 143f 91c6 293f
00000030: bf61 173f dc2d 1b3f 3297 273f 9101 213f
00000040: 2199 1c3f f605 173f 226e 463f ee5a 383f
00000050: 2376 3c3f 3f64 3c3f 8f14 3a3f 280f 343f
00000060: 024b 3a3f 8622 383f b73f 323f 1e63 2fbf
00000070: 8dea 24bf afbc 24bf c132 26bf a3bd 26bf
00000080: ceb1 27bf c383 2abf 90b2 25bf d45f 24bf
00000090: 6fc1 4b3f f8d0 3a3f 549f 473f 5920 3b3f
000000a0: c22c 4a3f f0f1 353f b2de 3d3f f392 483f
000000b0: 7ac9 3a3f b7bb 0f3f 3454 0f3f 3d6c 173f
000000c0: cddd 093f 7016 143f cd4e 063f c3a9 063f
000000d0: 73f2 043f 2669 093f 0409 3bbf d368 32bf
000000e0: 2f67 36bf 4832 2fbf baf3 38bf 6ddf 32bf
000000f0: ca8b 38bf 18af 34bf 547a 30bf 702c 3fbf
00000100: 438d 38bf cacc 47bf a21d 3ebf 5df6 37bf
00000110: 4e95 42bf e093 3bbf 6598 42bf 5b70 38bf
00000120: 8485 363f eef4 323f 256c 313f 87fa 353f
00000130: 1efc 2a3f d318 293f 60fd 2d3f a662 323f
00000140: 3015 303f ad20 3fbf e39a 41bf 77b4 3fbf
00000150: 64e2 3dbf 9e22 3ebf e777 3ebf 14f4 44bf
00000160: 1fdf 45bf 659a 3bbf f026 25bf 507f 2cbf
00000170: e6a7 26bf 1470 27bf 1bbd 20bf d5f8 1dbf
00000180: 7909 24bf 3e16 1abf 6c4f 1dbf 57bb 333f
00000190: 2b75 343f 2622 2f3f 4a56 3e3f 5c9b 373f
000001a0: b2d0 3a3f 0748 333f 05c7 363f 26aa 2e3f
000001b0: 2c05 3a3f b90d 383f f5a9 3e3f c36d 333f
000001c0: 5ee2 393f 3a96 3e3f 4105 443f d241 3d3f
000001d0: 9351 343f bdaf 0e3f 5ce7 0b3f fe4f 163f
000001e0: 7ec4 133f dae4 0c3f e8fd 1a3f 9492 153f
000001f0: d901 173f 852b 1e3f 4ef3 183f c662 153f
00000200: d7d7 153f 1f92 213f aa41 273f 2267 1c3f
00000210: f091 263f 6716 133f a7d3 193f b9b4 38bf
00000220: 936b 32bf 1a9c 4bbf c3b0 20bf 0cd3 22bf
00000230: 413f 3abf 8051 30bf 89f9 1cbf 878c 2bbf
00000240: 857f 4abf 276f 56bf 2d08 46bf 7d8f 64bf
00000250: 300b 43bf f16c 4abf 86a9 47bf 5493 55bf
00000260: 353e 56bf 7234 1bbf e506 11bf 7e44 0cbf
00000270: c392 14bf 0672 19bf f8dc 1cbf db7f 0abf
00000280: 45f2 07bf 668d 19bf d497 1abf 0cfa 17bf
00000290: 817b 13bf 5d12 18bf 57ee 14bf e9c6 15bf
000002a0: 418e 17bf 9ee7 1dbf 7861 25bf 0979 093f
000002b0: 0eba 163f 7e3d 0b3f 2270 163f 1830 133f
000002c0: 37d6 0b3f 3d25 183f 6554 0d3f 6887 133f
000002d0: 4fab 09bf 2bca 1bbf 6b6e 0dbf 3ef5 0bbf
000002e0: ff49 1bbf ef26 10bf ead2 0cbf 2ae9 0bbf
000002f0: 6420 0bbf 9ec7 47bf aba1 33bf 2875 39bf
00000300: f596 3ebf 4073 3dbf 95be 35bf d59f 3dbf
00000310: a30b 3ebf 20a0 35bf b6ff 3b3f 6fc7 363f
00000320: 799a 363f 5cc8 383f 7a8d 3a3f 3314 323f
00000330: d835 423f 75f7 3f3f 5038 323f 6d58 2fbf
00000340: a726 2cbf a516 32bf a4ce 2bbf 945e 23bf
00000350: 00cf 25bf 66e3 2cbf ccdb 28bf 1096 29bf
00000360: 0c37 2b3f fe32 283f b900 383f 52d5 223f
00000370: 2e88 2c3f 4447 353f ba23 233f 0f86 283f
00000380: c390 353f 2bc0 3cbf fa05 32bf d054 3cbf
00000390: 9237 32bf 8820 33bf d214 33bf 625b 43bf
000003a0: 04f5 3ebf e802 3cbf 05b2 30bf 8ccf 36bf
000003b0: 5ef2 3cbf e8e5 30bf 168e 2abf 6801 38bf
000003c0: d22b 2ebf f74a 3dbf 80af 34bf 12b8 383f
000003d0: eb18 3a3f 6f10 3d3f 98e6 453f 0195 3d3f
000003e0: 9e7c 373f 4c09 333f cf3e 383f 3c58 353f
000003f0: 3e21 25bf 3fdf 1fbf 71f5 27bf e762 1ebf

w_init f4 [16]
0.0625 0.0625 0.0625 0.0625 0.0625 0.0625 0.0625 0.0625
0.0625 0.0625 0.0625 0.0625 0.0625 0.0625 0.0625 0.0625
00000000: 0000 803d 0000 803d 0000 803d 0000 803d
00000010: 0000 803d 0000 803d 0000 803d 0000 803d
00000020: 0000 803d 0000 803d 0000 803d 0000 803d
00000030: 0000 803d 0000 803d 0000 803d 0000 803d
