Models/SUB_model_path.pth (torch, 250575 bytes, 8 tensors)

weight f4 [64, 1, 5, 5]
0	0xbe8298b2	-0.25507122
1	0xbeea6cd5	-0.45786157
2	0x3db3b5cf	0.087749116
3	0xbde68497	-0.11255758
4	0x3e12e867	0.14346467
5	0x3d1912d3	0.037371468
6	0x3d4c0af4	0.049815133
7	0xbdc3f9a6	-0.09569101
8	0xbe315571	-0.1731775
9	0x3d8b3add	0.06798337
10	0xbdaabbd0	-0.08336604
11	0xbb77c1af	-0.0037804653
12	0xbe6cd880	-0.23129463
13	0xbec265bb	-0.3796824
14	0xbdfea9bb	-0.12434717
15	0xbe9fe966	-0.31232756
16	0x3da75c71	0.08171929
17	0xbeb242ae	-0.34816498
18	0xbea522a7	-0.32253
19	0xbe053754	-0.13009387
20	0xbec3b273	-0.38222083
21	0xbe63c360	-0.22242498
22	0x3e5ef260	0.21772146
23	0x3e291c04	0.16514593
24	0x3ad92310	0.0016566236
25	0xbe6ae665	-0.22939451
26	0xbec8870e	-0.3916554
27	0xbebe4412	-0.3716131
28	0xbe3ef8e9	-0.18649639
29	0xbd47cf90	-0.04878193
30	0xbefffaa3	-0.49995908
31	0xbe98156f	-0.29703853
32	0xbecbf33d	-0.39834014
33	0xbe857bff	-0.26071164
34	0xbe73031b	-0.23731653
35	0xbe9816b1	-0.29704812
36	0xbe16a2d3	-0.1471055
37	0xbeb4986b	-0.35272536
38	0xbe9fc3ab	-0.3120397
39	0x3c70066b	0.014649968
40	0xbe08c8c1	-0.13357832
41	0xbdd2f5f6	-0.103008196
42	0x3e3debc1	0.18546964
43	0xbeec7cac	-0.46188867
44	0xbe05ad33	-0.13054352
45	0xbe8d5e94	-0.2761122
46	0xbca05a4d	-0.019574309
47	0xbe3c820b	-0.18408982
48	0xbe88fa8e	-0.26753658
49	0xbd8ad022	-0.067779794
50	0x3ecde411	0.40213063
51	0x3e251deb	0.16124694
52	0x3e608dac	0.21929044
53	0x3ea30bf4	0.31845057
54	0x3f0703d8	0.5274024
55	0x3dd23887	0.10264688
56	0x3e41226f	0.18860792
57	0x3db3a083	0.087708496
58	0x3ec2d725	0.38054767
59	0x3ea8c7c4	0.3296491
60	0x3da69dd2	0.081355706
61	0x3de48970	0.111590266
62	0x3e0ceee2	0.13763002
63	0x3e93df98	0.28881526
64	0x3e6937d8	0.22775209
65	0x3e0144c6	0.12623891
66	0x3d806f7d	0.06271265
67	0x3d56376f	0.05229896
68	0x3ab640e7	0.001390484
69	0x3e243983	0.16037564
70	0x3e1d2152	0.15344742
71	0x3e690fa5	0.22759874
72	0x3e0c34e4	0.13692051
73	0xbda41208	-0.08011252
74	0x3ecb4c79	0.39706782
75	0x3df6cb45	0.12050489
76	0x3e186b07	0.14884578
77	0x3d906ff7	0.070526056
78	0x3e0b2fb6	0.13592419
79	0xbe77d8a6	-0.24203739
80	0x3e5a577a	0.21322432
81	0xbe123247	-0.14276992
82	0x3e0c972b	0.13729541
83	0xbd2100de	-0.039307468
84	0xbde1020c	-0.109867185
85	0xbcdaf17b	-0.026726475
86	0x3b473a09	0.0030399582
87	0x3bea5c00	0.0071520805
88	0x3d0effc3	0.034911882
89	0xbd828ff9	-0.06375117
90	0x3e04a828	0.12954772
91	0xbe43945d	-0.19099565
92	0xbeaa7ae4	-0.33296883
93	0xbd1a8394	-0.03772314
94	0x3d884b03	0.06654932
95	0x3ebd707b	0.36999878
96	0x3e49bcaf	0.19700883
97	0xbd3570b2	-0.044296928
98	0x3e6a389f	0.22873162
99	0x3dd0506f	0.101715915
100	0x3f263274	0.64920735
101	0x3f01c408	0.50689745
102	0x3e9fc8a1	0.31207755
103	0x3ec5c545	0.38627067
104	0x3f2c71ec	0.6736133
105	0x3eab0c7d	0.33407965
106	0x3eb8fb24	0.36129105
107	0x3ec20d04	0.37900555
108	0xbcd46652	-0.025927696
109	0x3f1b2af9	0.60612446
110	0x3ee75cd4	0.4518801
111	0x3e3ff708	0.18746579
112	0x3edbe86d	0.42950764
113	0x3f1e59a4	0.6185553
114	0x3e3dabc2	0.18522552
115	0x3e621d59	0.22081508
116	0x3f2f66b2	0.68516076
117	0x3ebd98f7	0.37030765
118	0x3e3b30ee	0.18280384
119	0x3d50e3e1	0.050998572
120	0x3ea610c5	0.3243467
121	0x3e1da8ad	0.15396376
122	0x3ecb5554	0.39713538
123	0x3e64d8a2	0.22348264
124	0x3e9b8f4d	0.30382767
125	0xbf11a944	-0.56898904
126	0xbcd633a4	-0.026147671
127	0xbd72c1eb	-0.059266966
128	0xbdfd6946	-0.12373595
129	0xbf16f71c	-0.5897081
130	0xbe9881ce	-0.29786533
131	0xbe84996f	-0.2589831
132	0xbf02ad72	-0.51045907
133	0xbf0be99e	-0.54653347
134	0xbec3fcee	-0.38278908
135	0xbf2ba253	-0.6704456
136	0xbea8fc4b	-0.33004984
137	0xbf0f4e15	-0.5597852
138	0xbe852478	-0.26004386
139	0xbe9d8b03	-0.3077012
140	0xbefe3f57	-0.496577
141	0xbe6018a8	-0.21884406
142	0xbe7952da	-0.24348012
143	0xbe538685	-0.20656784
144	0xbebf6db1	-0.37388375
145	0xbea0bfeb	-0.31396422
146	0xbeafb05c	-0.3431424
147	0xbe8f8e6c	-0.28038347
148	0xbea6e1fe	-0.32594293
149	0xbe650c52	-0.22367981
150	0xbee9c4f6	-0.45658082
151	0xbe2e42d8	-0.17017686
152	0xbd530fb4	-0.051528648
153	0xbd8d8b20	-0.069113016
154	0xbe64133d	-0.22272964
155	0xbe9654b1	-0.2936149
156	0xbe9472dd	-0.28993884
157	0xbe8f8b60	-0.28036022
158	0x3d9c2c50	0.076256394
159	0x3ddd1f34	0.10796967
160	0xbde1c747	-0.11024337
161	0xbef2016b	-0.47266707
162	0xbe433a2e	-0.19065163
163	0xbd7e7de9	-0.062131796
164	0x3e22fa6a	0.15915838
165	0x3ceb630c	0.028733753
166	0xbea9a257	-0.33131668
167	0xbd85e595	-0.0653793
168	0xbe15207f	-0.14563178
169	0xbe8d98d0	-0.2765565
170	0xbe201f68	-0.1563698
171	0xbe9d68e7	-0.30744097
172	0xbe5e41e0	-0.21704817
173	0xbda34666	-0.07972412
174	0xbe98abc6	-0.29818553
175	0xbe183b17	-0.14866291
176	0xbf18e6fc	-0.59727454
177	0xbd93d8d6	-0.072190925
178	0xbe415f9a	-0.18884125
179	0xbe85b86b	-0.26117262
180	0xbe9476c5	-0.28996864
181	0xbf076864	-0.5289366
182	0xbe93a751	-0.2883859
183	0xbe5db1a2	-0.21649793
184	0xbe98ef9d	-0.2987031
185	0xbf01c00e	-0.5068368
186	0xbeb2e7df	-0.3494253
187	0xbed6fe37	-0.41990826
188	0xbef8d3ce	-0.48599094
189	0xbf3ae68a	-0.73008025
190	0xbeadb236	-0.33925027
191	0xbeb51ed2	-0.35375077
192	0xbde6120d	-0.11233912
193	0xbe9a3743	-0.30120286
194	0xbeaf5515	-0.342446
195	0xbe561343	-0.20905785
196	0xbef0b8ec	-0.47016084
197	0xbe9ba1b6	-0.30396813
198	0xbeb831ae	-0.35975403
199	0xbe6cee9f	-0.23137902
200	0xbe44cbbd	-0.19218345
201	0xbe1c98df	-0.1529269
202	0xbe9242ba	-0.28566533
203	0xbdad69e3	-0.08467462
204	0xbed710f5	-0.42005125
205	0xbe04e2bc	-0.12977117
206	0xbe6ab20e	-0.22919485
207	0xbda72772	-0.081618205
208	0xbec90f9b	-0.3926972
209	0xbe909f89	-0.28246716
210	0xbe471662	-0.19442132
211	0xbeda9324	-0.42690384
212	0xbe204b89	-0.15653814
213	0xbe98905f	-0.29797646
214	0xbe15f53e	-0.14644334
215	0xbe6837df	-0.22677563
216	0xbe8ad2ae	-0.2711386
217	0xbedfd993	-0.43720683
218	0xbed8d7c9	-0.4235213
219	0xbeb2f2e2	-0.3495093
220	0xbea28673	-0.31743202
221	0xbe84eb45	-0.25960746
222	0xbe5d7bbf	-0.21629237
223	0xbe1b13eb	-0.15144317
224	0xbec42459	-0.3830898
225	0xbeaea3c1	-0.3410931
226	0xbee904db	-0.45511517
227	0xbe80e7df	-0.25176904
228	0xbedb96bf	-0.42888448
229	0xbed2eb34	-0.4119507
230	0xbe8145d8	-0.252486
231	0xbe9d3eab	-0.30711874
232	0xbe2e32aa	-0.17011514
233	0xbe032443	-0.12806801
234	0xbe94fcc6	-0.290991
235	0xbe45ac06	-0.19303903
236	0xbec2896f	-0.3799548
237	0xbdc72b9c	-0.09725115
238	0xbe36cedf	-0.17852353
239	0xbe94c25b	-0.2905453
240	0xbede7601	-0.43449405
241	0xbe733e61	-0.23754264
242	0xbe52bb16	-0.2057918
243	0xbe9099cc	-0.28242338
244	0xbe817c9d	-0.25290385
245	0xbf0054b7	-0.50129265
246	0x3daa4c96	0.08315389
247	0xbd6f9644	-0.058492914
248	0xbf0d23e3	-0.55132884
249	0xbeaad9c3	-0.33369264
250	0x3dc384d5	0.0954682
251	0x3e493b0b	0.1965143
252	0x3b4f1938	0.0031600725
253	0x3e8c2372	0.27370793
254	0xbd1ee744	-0.03879477
255	0x3c0ffea5	0.008788739

bias f4 [64]
0	0xbd6a7498	-0.0572401
1	0x3aa9cdc1	0.0012954996
2	0x3eb47a5f	0.35249612
3	0x3dcdf996	0.1005737
4	0x3e4d7bcd	0.20066758
5	0xbe292ae0	-0.16520262
6	0xbd560d0f	-0.052258547
7	0xbcc5f319	-0.02416377
8	0xbee6f4bc	-0.45108593
9	0xbeb8d41d	-0.3609933
10	0x3e8b07ac	0.2715429
11	0x3e8128b6	0.25226372
12	0x3e155130	0.14581752
13	0x3cc850f3	0.024452662
14	0xbe09454e	-0.13405344
15	0x3de13e8c	0.10998258
16	0xbe19629b	-0.14979021
17	0xbe49c9bf	-0.19705866
18	0xbe6c4572	-0.23073366
19	0x3ea59bea	0.32345515
20	0x3e636b9d	0.2220902
21	0xbec9ba89	-0.39400128
22	0x3daf9dde	0.08575033
23	0xbe29908b	-0.16559045
24	0xbee4f221	-0.4471598
25	0xbe6736c2	-0.22579482
26	0x3e7ec43c	0.24879545
27	0x3b41263b	0.002947225
28	0x3ddbd20e	0.10733424
29	0xbe52a2e2	-0.20569947
30	0x3e56b558	0.20967615
31	0xbd22b1df	-0.039720412
32	0xbe9aa0a8	-0.30200696
33	0xbd1d3c4d	-0.038387585
34	0x3e2e75fe	0.17037198
35	0x3db5ba67	0.08873444
36	0xbe7239ad	-0.23654814
37	0xbe483415	-0.19551118
38	0x3e0bca8c	0.13651484
39	0xbe2f1cfe	-0.17100903
40	0xbe92d02f	-0.28674456
41	0x3e8c3a0f	0.27388045
42	0xbdfbaec3	-0.122891925
43	0x3cdfa76a	0.027301509
44	0x3d4262c8	0.047457486
45	0xbe31fe0c	-0.17382067
46	0xbdf2635d	-0.11835358
47	0xbecac172	-0.39600712
48	0xbe47765f	-0.19478749
49	0xbdf2f5e5	-0.11863307
50	0xbea1dafa	-0.31612378
51	0x3f0e45cc	0.5557525
52	0xbf291378	-0.6604533
53	0xbec9e32c	-0.3943113
54	0x3ea0ecfa	0.314308
55	0xbdc19528	-0.094522774
56	0xbe9ca227	-0.30592462
57	0xbe48fa2a	-0.1962668
58	0x3eb85670	0.36003447
59	0x3df23512	0.118265286
60	0x3e9deea6	0.30846137
61	0x3e57e234	0.21082383
62	0xbe4da9fc	-0.20084375
63	0xbe13c580	-0.14430809

weight f4 [64, 64, 3, 3]
0	0x3c83c0e4	0.016083188
1	0x3d985cad	0.074395515
2	0xbd936b84	-0.07198241
3	0x3d00f5ba	0.031484343
4	0xbccf04ca	-0.025270838
5	0x3dcfb508	0.10141951
6	0x3b5199e0	0.0031982586
7	0xbd797fb4	-0.060912803
8	0xbda83e33	-0.082149886
9	0x3e1cb841	0.15304662
10	0xbbd0070f	-0.0063484977
11	0x3d4a6327	0.049410965
12	0x3e87d689	0.26530865
13	0xbbfbdf68	-0.007686544
14	0xbd4df8ee	-0.050286226
15	0x3e6227a8	0.2208544
16	0x3cecffe8	0.02893062
17	0xbbafb400	-0.005362034
18	0xbe89de20	-0.2692728
19	0xbe81f9b0	-0.2538581
20	0xbd49bca6	-0.049252175
21	0xbe56e1b6	-0.2098454
22	0xbe093c2e	-0.13401863
23	0xbe3836bc	-0.1798963
24	0xbe388f7a	-0.18023482
25	0xbe3c00fe	-0.18359753
26	0xbe2759b8	-0.16342819
27	0xbdc7edd5	-0.0976216
28	0xbd9d758a	-0.076884344
29	0x3d748383	0.05969573
30	0x3d482e9b	0.04887257
31	0x3c09d7e6	0.008413291
32	0xbd41cae7	-0.047312643
33	0xbd68cd66	-0.05683651
34	0x3d7dcf2c	0.061965153
35	0xbd5c6a96	-0.053812586
36	0xbe8db390	-0.27676058
37	0xbe2ab42d	-0.16670294
38	0xbe253093	-0.16131811
39	0xbe886037	-0.26635906
40	0xbe002993	-0.1251586
41	0xbe8a3d70	-0.26999998
42	0xbe9fbd7f	-0.31199262
43	0xbe4b4029	-0.19848694
44	0xbe5be672	-0.21474627
45	0x3de39cc9	0.11113889
46	0x3e96d062	0.29455858
47	0x3e8f60f2	0.2800365
48	0x3e806f2e	0.25084823
49	0x3e431d3e	0.19054124
50	0x3e99087c	0.29889286
51	0x3e6a5682	0.22884563
52	0x3ea69040	0.3253193
53	0x3db06722	0.08613421
54	0xbdce804e	-0.10083066
55	0x3d71f3bd	0.059070338
56	0x3db10d15	0.08645073
57	0xbd2b8dd5	-0.04188331
58	0x3b5e32d1	0.00339048
59	0xbd6296b8	-0.055319518
60	0x3cbbeb34	0.022939302
61	0x3c0b58e0	0.008505076
62	0x3d832e46	0.0640531
63	0x3de46515	0.11152092
64	0x3dea5846	0.11442618
65	0x3e5b6ee6	0.21429023
66	0x3e9c3c51	0.30514768
67	0x3e81f2c6	0.25380534
68	0x3e90f06d	0.2830843
69	0x3e26b47a	0.16279784
70	0x3e8d95e7	0.2765343
71	0x3e5f706e	0.21820232
72	0x3df00025	0.117187776
73	0x3e76420a	0.2404863
74	0x3e9dd5e4	0.30827248
75	0x3e323ad7	0.17405258
76	0x3e454134	0.19263154
77	0x3df21492	0.1182033
78	0x3e8c0031	0.27343896
79	0x3e186c79	0.14885129
80	0x3e361e64	0.1778503
81	0x3defd005	0.117095985
82	0x3e7ea2fd	0.24866863
83	0x3e8d5f3c	0.2761172
84	0x3e21259d	0.15737005
85	0x3e8065b2	0.25077587
86	0x3e6bc3aa	0.23023859
87	0x3e2f7672	0.17135027
88	0x3e32c438	0.17457664
89	0x3e49517e	0.19659993
90	0xbd38cf44	-0.04511954
91	0x3d5a78b6	0.053337775
92	0x3d47c891	0.04877526
93	0xbdb91858	-0.09037846
94	0x3d01a199	0.031648252
95	0xbc4fc108	-0.0126803
96	0xbda8488d	-0.08216963
97	0xbce15b5c	-0.027509384
98	0xbd1d4a5e	-0.038401
99	0x3d87223a	0.06598325
100	0x3dc480c7	0.09594875
101	0xbde35248	-0.11099678
102	0x3d1dc071	0.038513605
103	0xbcc1358c	-0.023585103
104	0x3daa5637	0.083172254
105	0x3d766013	0.060150217
106	0xbc93c78c	-0.018039487
107	0x3e157df3	0.14598827
108	0xbe2dbe40	-0.16967106
109	0xbe1f6bdc	-0.15568489
110	0xbe61e501	-0.22060014
111	0xbe047678	-0.12935817
112	0xbe88a081	-0.26684955
113	0xbe948668	-0.29008794
114	0xbe676a0a	-0.22599044
115	0xbe9376ca	-0.28801566
116	0xbe82b4d9	-0.255286
117	0xbd96de18	-0.0736658
118	0x3c553294	0.013012547
119	0xbe09e194	-0.13464957
120	0x3d6c1f1b	0.057646852
121	0xbc08e35c	-0.008354988
122	0xbcb2c9ac	-0.02182468
123	0x3dc2c155	0.095095314
124	0x3d285854	0.04109986
125	0x3ce30f2c	0.027717195
126	0xbc9e39d4	-0.019314684
127	0x3dcd255a	0.1001689
128	0xbd185fba	-0.037200667
129	0x3c03efd0	0.008052781
130	0xbd6f83b3	-0.058475208
131	0xbd5ec45e	-0.05438649
132	0xbacc8c00	-0.0015605688
133	0xbadb5880	-0.0016734749
134	0xbcf8bf20	-0.030364573
135	0xbda7abfc	-0.081871
136	0xbe01c4d0	-0.12672734
137	0xbe5b034f	-0.21387981
138	0xbe202ac3	-0.15641312
139	0xbe2857d7	-0.16439758
140	0xbe5d3b20	-0.21604586
141	0xbe82c02a	-0.25537235
142	0xbe500ef6	-0.20318207
143	0xbe184ee4	-0.14873844
144	0x3da597f1	0.08085621
145	0xbdb7bde8	-0.089717686
146	0x3c4d9299	0.012547159
147	0xbcb53eb4	-0.022124626
148	0xbdf28aad	-0.118428566
149	0x3b63e10b	0.0034771587
150	0x3b0c87a0	0.0021443143
151	0x3cc10c08	0.023565307
152	0xbcf8f4d4	-0.03039018
153	0xbd5f1055	-0.054458935
154	0x3ab61097	0.0013890442
155	0xbd8ba01e	-0.06817649
156	0x3c0199f0	0.007910237
157	0x3d8f43c4	0.06995347
158	0xbd9a34e4	-0.07529619
159	0x3d0c6d30	0.034283817
160	0x3d48d124	0.049027577
161	0xbceb0ed4	-0.028693594
162	0x3d2d0084	0.04223682
163	0xbcc841e4	-0.024445482
164	0x3d692424	0.056919232
165	0xbd8927b8	-0.06697029
166	0x3cc02278	0.023453936
167	0x3bb4513c	0.005502848
168	0xbcd9fd50	-0.026610047
169	0xbd23c9aa	-0.039987244
170	0x39e5ef00	0.00043856353
171	0xbe5a90ca	-0.21344295
172	0xbe4f5df5	-0.20250686
173	0xbe5dadcd	-0.21648331
174	0xbe611df6	-0.21984085
175	0xbe98b0d4	-0.2982241
176	0xbe2c5a60	-0.1683135
177	0xbe523a5c	-0.20530075
178	0xbe29e326	-0.16590557
179	0xbe8b9e6d	-0.27269307
180	0x3ca06c8c	0.01958301
181	0xbd38acd5	-0.0450867
182	0x3d20cfa3	0.039260518
183	0xbd2cc87a	-0.042183377
184	0x3e0757ba	0.13217059
185	0x3c15f849	0.009153434
186	0x3db0d717	0.08634775
187	0xbdcb77f7	-0.09934991
188	0x3da4a2e4	0.080388814
189	0x3d91c957	0.07118481
190	0x3e1e9bd4	0.15489131
191	0x3e6b08ef	0.22952627
192	0x3e230584	0.15920073
193	0x3e82b0d0	0.25525522
194	0x3df9f270	0.122044444
195	0x3e0fa250	0.14026761
196	0x3e539560	0.20662451
197	0x3e7df9cc	0.24802321
198	0x3d8d5a91	0.0690204
199	0x3b45cd4e	0.0030182186
200	0xbc00c622	-0.007859739
201	0x3b3e2f00	0.0029019713
202	0xbd77b937	-0.06047937
203	0x3b6e89da	0.0036398084
204	0xbce84028	-0.028350905
205	0x3d2ad04c	0.041702554
206	0xbc2b8800	-0.010469437
207	0xbca0cd88	-0.019629255
208	0xbd7f187c	-0.06227921
209	0x3dbcd601	0.092205055
210	0x3c691270	0.014225587
211	0x3bf45e55	0.0074575343
212	0xbb0c781b	-0.0021433893
213	0xbd105d22	-0.03524507
214	0xbd1fc663	-0.039007556
215	0x3daaff16	0.08349435
216	0x3e5af2c6	0.21381673
217	0x3eafb04f	0.343142
218	0x3e2b9112	0.16754559
219	0x3e8cccb0	0.27499914
220	0x3e64ff21	0.22362949
221	0x3ea33b5b	0.31881222
222	0x3e43d5ec	0.19124573
223	0x3e6f1be6	0.23350486
224	0x3e42e094	0.19030982
225	0x3e664e20	0.2249074
226	0x3e38d10f	0.180485
227	0x3e465159	0.19366969
228	0x3e9a267b	0.30107483
229	0x3e0efeb8	0.13964355
230	0x3e70701f	0.23480271
231	0x3e460d78	0.19341075
232	0x3e46cfb9	0.19415177
233	0x3e3aa534	0.18227082
234	0xbe33ed19	-0.17570914
235	0xbe28780f	-0.16452049
236	0xbe863f63	-0.26220235
237	0xbe4cbd8e	-0.19994184
238	0xbdef1bcc	-0.11675224
239	0xbe980ff2	-0.29699665
240	0xbe4d6cb3	-0.20060997
241	0xbe0b09ca	-0.13577953
242	0xbe3884d5	-0.18019421
243	0x3da422f7	0.080144815
244	0xbc2fba3c	-0.010725554
245	0x3ade6756	0.0016968052
246	0xbd1a4266	-0.03766098
247	0x3d820677	0.06348889
248	0x3c367098	0.011135243
249	0xbd179bc0	-0.03701377
250	0xbd4da400	-0.05020523
251	0xbc5f4a08	-0.01362849
252	0xbe4a3fb2	-0.1975086
253	0xbd8cdf78	-0.06878561
254	0xbd0a78bf	-0.03380656
255	0xbe90cb67	-0.28280184

bias f4 [64]
0	0xbe3c1731	-0.18368222
1	0xbe13c23d	-0.14429565
2	0xbe47b3ac	-0.19502133
3	0x3e3d60c2	0.18493941
4	0x3e668b5e	0.22514102
5	0x3db8af6f	0.09017836
6	0x3e5b5c87	0.21422015
7	0x3e6558da	0.22397175
8	0xbe642186	-0.22278413
9	0xbe43d3d6	-0.19123778
10	0x3e43dd9f	0.1912751
11	0xbe8a63c3	-0.27029237
12	0x3e284904	0.16434103
13	0xbdb52054	-0.08844057
14	0xbe3608f3	-0.17776851
15	0xbe552519	-0.20814933
16	0x3de37a26	0.11107282
17	0xbe77a058	-0.2418226
18	0x3e657f52	0.2241185
19	0x3e4bf73c	0.19918531
20	0xbe187550	-0.14888501
21	0x3d21ad79	0.039472077
22	0xbe11a192	-0.1422179
23	0x3d8bac08	0.06819922
24	0xbda00a66	-0.07814483
25	0xbe2f5c09	-0.17124952
26	0xbe272a21	-0.16324665
27	0xbd89b9ce	-0.067248926
28	0xbe14cd6b	-0.14531486
29	0x3e31ed7d	0.17375751
30	0x3e48460c	0.19557971
31	0x3d9880c0	0.07446432
32	0xbe33e6e6	-0.1756855
33	0x3dd7ac13	0.105308674
34	0x3e47b72f	0.19503473
35	0xbe2f5973	-0.17123966
36	0xbe35fad6	-0.17771468
37	0x3e0d8e2a	0.13823763
38	0x3ddb3202	0.107028976
39	0xbd9954a5	-0.07486848
40	0x3de9bb6c	0.11412701
41	0xbe29d05a	-0.16583386
42	0xbe499613	-0.19686155
43	0x3e322020	0.17395067
44	0x3e385af2	0.18003443
45	0xbdd31141	-0.10306025
46	0x3e30edc5	0.17278202
47	0x3e077454	0.1322797
48	0x3e53ba86	0.20676622
49	0x3e5f8c7c	0.21830934
50	0x3e723938	0.2365464
51	0x3e219a3a	0.15781489
52	0xbe706b3c	-0.23478407
53	0xbe5442fe	-0.2072868
54	0x3d99e639	0.075146146
55	0xbc800d76	-0.015631419
56	0x3e2fb6c0	0.17159557
57	0x3e439604	0.19100195
58	0xba9166ca	-0.0011093256
59	0x3e59b214	0.21259338
60	0x3e5bcf17	0.21465717
61	0x3db2d6da	0.08732386
62	0x3e6d251e	0.2315869
63	0xbe44ecd0	-0.19230962

weight f4 [32, 64, 3, 3]
0	0xbcff63b8	-0.03117548
1	0x3c909024	0.017646857
2	0x3d17aba9	0.037028942
3	0x3cb61228	0.022225454
4	0xbc1ca273	-0.009560215
5	0x3d85086f	0.06495749
6	0xbe1e9fd6	-0.1549066
7	0xbdbabe1a	-0.0911829
8	0x3de025b0	0.10944688
9	0xbe8934c7	-0.26798078
10	0x3d69fce7	0.057125952
11	0x3db74842	0.08949329
12	0xbdfe5af5	-0.124196924
13	0x3df4cc54	0.11953035
14	0xbc3d87ce	-0.011568023
15	0x3d5ac41a	0.053409673
16	0xbd36cc6e	-0.044628553
17	0xbdae00b8	-0.08496231
18	0x3e28b6ad	0.16475935
19	0x3e1b8ee9	0.15191235
20	0x3dd4bb23	0.10387256
21	0x3d7fa721	0.062415246
22	0x3d78619c	0.060639963
23	0x3dd3a718	0.10334605
24	0x3c1a16dc	0.009404864
25	0x3c20cc63	0.009814355
26	0x3e9c877e	0.30572122
27	0xbe24f24e	-0.16108057
28	0xbdf811b1	-0.12112749
29	0xbe0b7984	-0.13620573
30	0xbdf07496	-0.11740987
31	0xbe52dba2	-0.20591596
32	0xbe7934fb	-0.24336617
33	0xbdafbc27	-0.08580809
34	0xbdd9de1e	-0.106380686
35	0xbe564bf9	-0.20927419
36	0x3e1331e2	0.14374498
37	0x3c8cf2d7	0.017205639
38	0xbd91dded	-0.07122407
39	0x3d234c4a	0.039867677
40	0x3ca770d0	0.020439535
41	0x3c3b5000	0.011432648
42	0xbd39f340	-0.045397997
43	0x3b921408	0.0044579543
44	0xbd9e2e3a	-0.07723661
45	0xbe3e9a84	-0.1861363
46	0xbe6e9fff	-0.23303221
47	0xbe74d609	-0.23909773
48	0xbdeeca40	-0.1165967
49	0xbd75e55c	-0.060033187
50	0xbe6cca35	-0.23124011
51	0xbe1794f4	-0.14802915
52	0xbe2e4cbf	-0.17021464
53	0xbe59462b	-0.21218173
54	0xbe31be59	-0.17357768
55	0xbe63cbcd	-0.22245713
56	0xbe26b748	-0.16280854
57	0xbe21bfba	-0.15795794
58	0xbe297073	-0.16546802
59	0xbe935a6f	-0.28779933
60	0xbdd4e6ed	-0.10395608
61	0xbe0c4110	-0.13696694
62	0xbe953753	-0.29143772
63	0x3bf24fae	0.0073947525
64	0xbcf3cf3e	-0.029761907
65	0xbd93f9c4	-0.072253734
66	0x3e094419	0.13404883
67	0x3e5d1367	0.21589433
68	0xbd3a84e9	-0.04553691
69	0x3e0b50b2	0.13605002
70	0x3e2298fb	0.1587867
71	0x3d6b9d73	0.057523202
72	0x3e3f8f95	0.18707116
73	0x3e0f6ac5	0.14005573
74	0x3e4addc5	0.19811161
75	0x3e194f9b	0.14971773
76	0x3d86afd4	0.06576505
77	0x3e327661	0.1742797
78	0x3e343aca	0.17600551
79	0x3e240706	0.16018304
80	0x3e766366	0.24061355
81	0x3e4b8103	0.19873433
82	0x3dcb17e2	0.09916665
83	0x3e27ef21	0.16399814
84	0x3ddc1770	0.10746658
85	0x3bb10c5a	0.0054030837
86	0x3e70aed2	0.23504189
87	0x3d5d1bfa	0.05398176
88	0x3e5badfe	0.21453092
89	0x3e706866	0.23477325
90	0xbe6dc888	-0.23221028
91	0xbe2fdf85	-0.1717511
92	0xbe94e122	-0.29078013
93	0xbd8dc8fd	-0.06923101
94	0xbdb2aecb	-0.08724745
95	0xbe91fe34	-0.28514254
96	0xbdbd55c0	-0.09244871
97	0xbe9938fe	-0.29926294
98	0xbd9ec57d	-0.07752512
99	0x3e97a640	0.29619026
100	0x3e3cb20d	0.18427296
101	0x3e508580	0.20363426
102	0x3db56505	0.088571586
103	0x3e63d6ae	0.22249863
104	0x3dfecee9	0.12441809
105	0x3e6b035b	0.22950499
106	0x3d99be17	0.0750696
107	0x3e0f77f6	0.14010605
108	0x3d4c285c	0.049843177
109	0xbda81731	-0.082075484
110	0x3d8ec398	0.069709
111	0xbdcd8074	-0.10034266
112	0xbd694426	-0.056949757
113	0x3d80381d	0.06260703
114	0xbe4bfce5	-0.1992069
115	0xbe09023d	-0.1337976
116	0xbc86e78b	-0.01646783
117	0x3de31af3	0.110891245
118	0x3e25c190	0.1618712
119	0x3de0c6c8	0.109754145
120	0x3e2e6bbf	0.1703329
121	0x3e100ff8	0.14068592
122	0x3e2b4523	0.16725592
123	0x3d381f14	0.044951513
124	0x3d2ce50e	0.04221063
125	0x3e926549	0.285929
126	0x3e0e05b5	0.13869365
127	0x3c738ae1	0.014864654
128	0x3c6e2625	0.014535462
129	0x3d291a13	0.041284632
130	0xbe00dec5	-0.1258498
131	0x3cf58e97	0.029975219
132	0xbdb96ea2	-0.09054305
133	0xbd8e2f85	-0.069426574
134	0x3dccccdd	0.10000012
135	0x3e3210f6	0.17389283
136	0x3e4469c0	0.19180965
137	0x3e146551	0.14491774
138	0x3dc0e1e9	0.09418089
139	0x3de7039a	0.11279984
140	0x3e47594a	0.19467655
141	0x3cfba97c	0.030720465
142	0x3e1e3085	0.15448196
143	0x3e9bf7b8	0.30462432
144	0xbe493067	-0.1964737
145	0xbe5ffa83	-0.21872906
146	0xbe7821f7	-0.24231707
147	0xbd9c0536	-0.076181814
148	0xbda6cebc	-0.081449
149	0xbe503b01	-0.20335008
150	0x3d78b659	0.060720775
151	0xbe2c9b0d	-0.16856022
152	0xbe7ced48	-0.2469989
153	0x3e784ffb	0.2424926
154	0x3e1d093a	0.15335551
155	0x3e2fd134	0.17169648
156	0x3e13ce2a	0.14434114
157	0x3d45833a	0.04822085
158	0x3e56e18e	0.2098448
159	0x3e1d9239	0.15387811
160	0x3e346efb	0.1762046
161	0x3e99b937	0.3002412
162	0xbe9079b2	-0.28217846
163	0xbe3ed58d	-0.1863615
164	0xbeb576fe	-0.35442346
165	0xbd4fa7da	-0.050697185
166	0xbe12197a	-0.14267531
167	0xbe8a1ba9	-0.26974228
168	0xbe44c412	-0.1921542
169	0xbd9601a2	-0.0732453
170	0xbe7118c1	-0.23544599
171	0xbe6449e0	-0.22293806
172	0xbe3e6bb4	-0.18595773
173	0xbe6523f1	-0.22376992
174	0xbdc62183	-0.096743606
175	0xbe2fbf6d	-0.17162867
176	0xbe0983ca	-0.1342918
177	0xbe236340	-0.1595583
178	0xbe68795d	-0.22702546
179	0xbe69b646	-0.22823438
180	0x3bea5e36	0.007152344
181	0xbce3602e	-0.027755823
182	0xbcb3d627	-0.021952702
183	0xbd9547f7	-0.07289117
184	0xbe25553f	-0.161458
185	0xbd544cbd	-0.051830996
186	0xbe4bfb43	-0.19920067
187	0x3c26480e	0.010149015
188	0x3d0817f9	0.033225987
189	0xbd9d3451	-0.07675994
190	0xbd9dfcb1	-0.07714213
191	0xbcfb77ed	-0.030696834
192	0xbd7c5b8b	-0.06161074
193	0xbdf541ec	-0.11975464
194	0xbddbd1fd	-0.107334115
195	0xbe2f8334	-0.17139894
196	0xbe06030d	-0.13087101
197	0xbbb3940e	-0.005480296
198	0x3e04d73b	0.12972729
199	0x3dffe58a	0.12494953
200	0x3e650948	0.22366822
201	0x3e130a2f	0.14359353
202	0x3db62bdc	0.08895084
203	0x3e8980d5	0.26856104
204	0x3db63ce9	0.088983364
205	0x3db89a29	0.09013779
206	0x3e67f890	0.22653413
207	0xbd4ae216	-0.04953202
208	0xbe423a5e	-0.18967578
209	0xbe8b2ae7	-0.2718117
210	0xbe2f8d4b	-0.17143743
211	0xbddb8056	-0.107178375
212	0xbe89cc67	-0.2691376
213	0xbd3b9f82	-0.045806415
214	0xbd9c6baf	-0.076377265
215	0xbe611419	-0.21980323
216	0xbc171db5	-0.009223391
217	0x3d11526e	0.035479
218	0xbddbbe17	-0.10729616
219	0xbe07a80b	-0.13247697
220	0xbc422673	-0.011849987
221	0xbda8d00c	-0.08242807
222	0xbe30893b	-0.1723985
223	0xbd74da34	-0.059778407
224	0xbdc21bfe	-0.09477995
225	0x3cd111dd	0.025521213
226	0x3c90e0ee	0.01768538
227	0x3d2d9d21	0.042386178
228	0x3c647a2e	0.0139451455
229	0xbdd3f906	-0.10350232
230	0x3d2bc102	0.041932113
231	0xbdf29b83	-0.11846068
232	0xbd6bab46	-0.057536386
233	0xbd4f428a	-0.050600566
234	0x3e550d7c	0.20805925
235	0x3e574f0f	0.21026252
236	0x3e77c53c	0.24196333
237	0x3e356a90	0.17716432
238	0x3e4f8d34	0.20268708
239	0x3e9246c0	0.28569603
240	0x3ea465b4	0.32108843
241	0x3dfc850c	0.12330064
242	0x3e7bf591	0.24605395
243	0x3dd66aaf	0.10469567
244	0x3e252cb9	0.16130342
245	0x3e394f22	0.18096593
246	0x3e1d5595	0.15364678
247	0x3dbeee24	0.093227655
248	0x3e3e3154	0.18573505
249	0x3df651d2	0.12027325
250	0x3e533fc5	0.20629795
251	0x3dff834f	0.12476217
252	0xbc3b1716	-0.011419078
253	0xbd1161c8	-0.035493642
254	0x3d20f3f5	0.039295156
255	0x3de5ec23	0.1122668

bias f4 [32]
0	0x3d2df7ea	0.042472757
1	0xbebef708	-0.37297845
2	0x3db55d32	0.08855666
3	0x3d458139	0.04821894
4	0x3dcb342d	0.09922061
5	0xbcaeed90	-0.021353513
6	0xbe1ef969	-0.1552483
7	0xbd7fa1fe	-0.062410347
8	0xbdb51b4c	-0.08843097
9	0x3c83f675	0.01610873
10	0x3da08873	0.078385256
11	0x3d1fd77a	0.039023854
12	0xbdcecf3d	-0.10098121
13	0x3dcd5ae5	0.100271024
14	0x3df2f8b3	0.11863842
15	0x3e0c5605	0.13704689
16	0xbd39046b	-0.04517023
17	0xbbbe0130	-0.0057984814
18	0xbdeea7d6	-0.11653106
19	0xbdd42f17	-0.10360544
20	0xbc228964	-0.009920452
21	0x3cc4203c	0.023941152
22	0x3d86abdb	0.065757476
23	0xbd84adbc	-0.0647845
24	0xbdb72e21	-0.08944345
25	0x3d929902	0.0715809
26	0x3e02f98a	0.12790504
27	0xbc4f96d8	-0.012670241
28	0x3cec1043	0.028816348
29	0x3da4667f	0.08027362
30	0x3da3bed7	0.07995384
31	0xbe99a3b6	-0.30007714

weight f4 [16, 32, 3, 3]
0	0x3d3ac1e0	0.04559505
1	0xbca165a6	-0.01970179
2	0x3dbf67f0	0.093459964
3	0xbd701bbe	-0.058620207
4	0x3d938fce	0.07205163
5	0x3d0fa687	0.035070922
6	0x3db9b9a2	0.0906861
7	0x3d06a2de	0.032870166
8	0xbcf1b6d2	-0.02950612
9	0x3d32169c	0.043478593
10	0x3e004344	0.1252566
11	0x3d903034	0.07040444
12	0x3dcee4e2	0.1010225
13	0x3db59dfc	0.08868024
14	0xbd53cb13	-0.05170734
15	0x3da5661c	0.080761164
16	0x3d27c5de	0.040960185
17	0x3d9f2a04	0.07771686
18	0xbd813a85	-0.0630999
19	0x3d424b80	0.047435284
20	0x3d994e14	0.07485595
21	0xbdd9b0f0	-0.10629451
22	0xbdd06080	-0.10174656
23	0xbd4c24c5	-0.049839754
24	0x3d0491e7	0.032365706
25	0xbd5c423c	-0.053774104
26	0xbd2f48a0	-0.04279387
27	0x3cefd338	0.029275522
28	0xbd6b1bf8	-0.05739972
29	0xbcf79d38	-0.030226335
30	0x3c2eafff	0.010662078
31	0x3c86455a	0.016390491
32	0xbd71f119	-0.05906782
33	0xbd03ef81	-0.03221083
34	0xbcc49b0f	-0.023999719
35	0xbbab060c	-0.0052192267
36	0x3d52a7ce	0.051429562
37	0xbd7a9230	-0.06117457
38	0xbcb1a37d	-0.021684403
39	0x3ceab774	0.02865193
40	0xbd3bc163	-0.045838725
41	0x3da652e2	0.081212774
42	0x3dbcba86	0.09215264
43	0xbc9e7355	-0.019342104
44	0x3cbee768	0.023303702
45	0x3b061a9b	0.0020462635
46	0xbd86e5ae	-0.06586777
47	0xbd8ca788	-0.068678916
48	0x3d73f361	0.059558276
49	0x3d25b701	0.04045773
50	0xbd3094e1	-0.043110732
51	0x3e2942e9	0.1652943
52	0xbd6f9f22	-0.05850137
53	0x3d38928e	0.04506164
54	0xbd7988e7	-0.060921576
55	0xbdcad9b6	-0.09904806
56	0xbb59acea	-0.0033214637
57	0x3c4f53f5	0.012654294
58	0xbb6474ca	-0.003485965
59	0x3c886f2e	0.016654577
60	0xbde40e52	-0.11135544
61	0x3d9d9e20	0.076961756
62	0x3e194617	0.14968143
63	0x3ceb7124	0.028740473
64	0x3d650a5e	0.05591809
65	0x3c42d916	0.011892578
66	0x3a51e934	0.0008007467
67	0x3d35f4f5	0.044423062
68	0x3ca24cac	0.01981195
69	0x3ce76860	0.028248012
70	0x3d51cf5e	0.05122315
71	0x3d7d8da6	0.061902665
72	0xbe05c575	-0.13063605
73	0xbe0226df	-0.1271014
74	0xbe3306cb	-0.1748306
75	0xbe00ba8b	-0.1257116
76	0xbe24cc28	-0.16093504
77	0xbe2bcb02	-0.1677666
78	0xbe621f3b	-0.22082226
79	0xbe16a2a9	-0.14710487
80	0xbe427dae	-0.18993255
81	0xbd5dcb76	-0.054149114
82	0xbc13bc1a	-0.009017015
83	0xbe011c0d	-0.12608357
84	0xbdf41a3e	-0.11919068
85	0x3ca05c3c	0.01957523
86	0x3cf99c26	0.030469965
87	0xbe117055	-0.14203008
88	0xbd844985	-0.06459335
89	0x3c1f4b7e	0.009722589
90	0x3e6960db	0.22790854
91	0x3de40256	0.11133258
92	0xbd3f489f	-0.046700116
93	0x3e144516	0.14479479
94	0xbcafb87e	-0.021450277
95	0xbd4177fb	-0.047233563
96	0xbdee56eb	-0.11637672
97	0xbd63afec	-0.055587694
98	0x3b15a010	0.0022831
99	0x3d03bc82	0.032162197
100	0x3e242524	0.16029793
101	0x3de86416	0.11347215
102	0x3e2c716c	0.16840142
103	0x3e29901a	0.16558877
104	0x3dc7daf3	0.09758558
105	0x3e826f72	0.2547565
106	0x3e628c1f	0.22123764
107	0x3e7d4e8a	0.24736992
108	0xbca71835	-0.020397285
109	0x3dfb361c	0.1226618
110	0x3dc7afae	0.09750305
111	0x3d5b165d	0.053488124
112	0xbc0ce724	-0.00860003
113	0xbcf98866	-0.030460548
114	0x3dbb88c6	0.09156947
115	0x3d9512d4	0.07278982
116	0xbd78c4c0	-0.06073451
117	0x3dc6b66b	0.09702762
118	0x3d43018c	0.047608897
119	0x3cc4525c	0.023965053
120	0x3dca8d0e	0.09890185
121	0x3c090d24	0.008364949
122	0x3d02f7a5	0.031974453
123	0xbb239a69	-0.0024963862
124	0xbd597e3e	-0.05309891
125	0x3d1c899c	0.038217172
126	0xbd9b9f5d	-0.075987555
127	0xbcc6130c	-0.024179004
128	0xbd30b929	-0.043145332
129	0xbcb16eac	-0.021659218
130	0xbdd50696	-0.10401647
131	0xbd8f3c85	-0.06993965
132	0xbd7cf777	-0.06175944
133	0x3da2ba0e	0.07945643
134	0xbdd062ce	-0.101750955
135	0x3e153501	0.14571
136	0x3e0ea8a0	0.13931513
137	0x3ba3d788	0.0050000586
138	0x3e1489c8	0.14505684
139	0x3da8c00e	0.082397565
140	0x3e2fb0cc	0.17157286
141	0x3e12cd87	0.14336215
142	0x3e0ce00d	0.13757344
143	0x3d5e1866	0.054222487
144	0x3c45a88c	0.0120641105
145	0xbd777868	-0.060417563
146	0x3d80a700	0.06281853
147	0xbd4d1e67	-0.050077822
148	0xbd8f6a5e	-0.0700271
149	0x3e0eaf66	0.13934097
150	0xbd4ec2a1	-0.05047858
151	0xbd4dee0a	-0.05027584
152	0x3caecae0	0.021336973
153	0x3e9f4e8e	0.3111462
154	0x3e6022ea	0.21888319
155	0x3de95b16	0.113943264
156	0x3e3ab140	0.18231678
157	0x3d24f021	0.040268067
158	0x3ea536c5	0.32268348
159	0x3e2b2323	0.16712622
160	0x3e7580b9	0.23974885
161	0x3e01b88a	0.12668052
162	0x3e0e4b3d	0.13895889
163	0x3ddab16a	0.1067837
164	0x3e06c331	0.13160397
165	0x3da2587a	0.07927032
166	0x3e0b68b8	0.13614166
167	0x3e0eb194	0.13934928
168	0x3e1d22ef	0.15345357
169	0x3dff3410	0.12461102
170	0x3e364c0e	0.1780245
171	0xbdf3cb3f	-0.119040005
172	0xbdad0ec2	-0.084500805
173	0xbd954af0	-0.07289684
174	0xbd157f83	-0.036498558
175	0xbe4791ac	-0.19489163
176	0xbe401a8c	-0.18760127
177	0xbd9339a2	-0.07188727
178	0xbd5cb11c	-0.053879842
179	0xbd2c976a	-0.042136587
180	0x3c9b017d	0.018921608
181	0x3d80ad22	0.062830225
182	0xbd0176e8	-0.03160754
183	0x3c3aa377	0.011391512
184	0x3c8411f8	0.01612185
185	0x3d191d8f	0.037381705
186	0x3d1fcfff	0.03901672
187	0xbd6fcbd4	-0.058543995
188	0x3d0dee2a	0.03465096
189	0x3da271fd	0.07931898
190	0x3c85b31c	0.016320758
191	0x3d87a7db	0.06623813
192	0xbc00896b	-0.007845263
193	0x3cd7859d	0.026308829
194	0xbd27a09b	-0.04092465
195	0xbda1d8aa	-0.079026535
196	0x3d7ea8d0	0.06217271
197	0xbd7e0176	-0.062013112
198	0x3d3ed350	0.046588242
199	0x3d138064	0.036011115
200	0xbd9bbc4c	-0.07604274
201	0x3cd0c164	0.02548284
202	0xbdd59ee0	-0.104306936
203	0x3d90427d	0.07043932
204	0x3d4212df	0.047381278
205	0x3da3e114	0.080019146
206	0xbcf90382	-0.03039718
207	0x3dc43561	0.09580494
208	0x3de853fc	0.11344144
209	0x3dab74ec	0.083719105
210	0x3db0dfac	0.08636412
211	0x3de781ac	0.1130403
212	0xbc2c8852	-0.010530548
213	0xbc8b87e2	-0.017032567
214	0x3d75daea	0.060023226
215	0x3ca33cee	0.019926514
216	0xbd230c52	-0.03980667
217	0x3d7940e0	0.060852885
218	0x3e487c8d	0.19578762
219	0x3d766dd5	0.060163338
220	0xbbe5a02e	-0.0070076203
221	0xbd8249fe	-0.06361769
222	0xbda7c266	-0.081913754
223	0xbaec9366	-0.0018049299
224	0x3cf2bf1a	0.02963214
225	0x3cc4628f	0.023972778
226	0xbcc5c994	-0.024143972
227	0x3d42bfeb	0.04754631
228	0x3c877f14	0.016540088
229	0x3c0275f8	0.007962696
230	0x3d97da05	0.07414631
231	0x3ca63329	0.020288067
232	0x3c9a8f3b	0.018867126
233	0xbd2a244c	-0.04153852
234	0xbc32b068	-0.010906316
235	0xbd7bea9c	-0.061503038
236	0xbd1b346f	-0.0378918
237	0xbdb02df8	-0.08602518
238	0xbc088934	-0.008333493
239	0xbd16cb39	-0.036814902
240	0xbbf0b77a	-0.007346091
241	0xbdb30c9a	-0.08742638
242	0xbda81660	-0.08207393
243	0xbe583023	-0.21112113
244	0xbe2276f4	-0.1586569
245	0xbe567707	-0.20943843
246	0xbe41b4b4	-0.18916589
247	0xbe293996	-0.16525874
248	0xbe77a404	-0.24183661
249	0xbe2be72b	-0.16787402
250	0xbe07582f	-0.13217233
251	0xbe27c7fe	-0.16384885
252	0xbd048114	-0.03234966
253	0x3d9411e6	0.07229976
254	0x3d1f8181	0.038941864
255	0xbc1be046	-0.00951392

bias f4 [16]
0	0x3b8375e8	0.0040118583
1	0x3dddd7b5	0.108321585
2	0x3d39ceac	0.045363113
3	0x3d305cdc	0.043057308
4	0x3da15200	0.078769684
5	0x3d978d9f	0.07400059
6	0x3cb0f827	0.021602703
7	0x3cc04583	0.023470646
8	0x3ddc9f64	0.10772589
9	0x3de3dcde	0.111261114
10	0x3d109ce0	0.035305858
11	0x3d2a89fb	0.041635495
12	0x3dd6e50d	0.10492907
13	0x3e069adb	0.1314501
14	0x3dfa087f	0.12208652
15	0x3dbf99ec	0.0935553
