Models/VDSR_model_path.pth (torch, 599639 bytes, 6 tensors)

weight f4 [64, 1, 3, 3]
0	0x3db7189a	0.08940239
1	0xbe8e3be3	-0.27780065
2	0x3d90f975	0.0707883
3	0xbebab300	-0.3646469
4	0x3ddfc640	0.10926485
5	0x3d8db986	0.069201514
6	0xbe7e1e26	-0.24816188
7	0xbe3ee146	-0.18640622
8	0xbe9f0153	-0.31055698
9	0xbe6cdbf3	-0.23130779
10	0x3d47144b	0.048603337
11	0xbe3e7e2e	-0.18602821
12	0xbdcecdf5	-0.10097877
13	0xbdc1abdc	-0.09456608
14	0xbe03ebb0	-0.12882876
15	0xbdbed44f	-0.093178384
16	0x3e045a95	0.1292518
17	0xbe522b4b	-0.20524327
18	0xbea212f6	-0.3165509
19	0xbe77855a	-0.24171963
20	0x3e61c618	0.22048223
21	0x3e80e956	0.2517802
22	0x3e8d7b80	0.27633286
23	0xbea1c5c5	-0.315962
24	0xbdfcf735	-0.123518385
25	0xbe62c595	-0.22145684
26	0x3dc70741	0.097181804
27	0xbea385ce	-0.31938022
28	0xbd922ac0	-0.0713706
29	0xbe49872e	-0.19680473
30	0xbe00cb08	-0.1257745
31	0xbe667d30	-0.22508693
32	0x3de14edc	0.11001369
33	0x3c66eb60	0.014094204
34	0x3e9bbb7b	0.30416474
35	0xbe7161c0	-0.23572445
36	0x3da74214	0.081669
37	0xbea4dd5e	-0.3220014
38	0xbe805ed8	-0.2507236
39	0x3e6f0b02	0.23344043
40	0xbe88c42a	-0.2671216
41	0x3d9ae12c	0.075624794
42	0xbe9a6a4b	-0.3015922
43	0xbe65c068	-0.22436678
44	0xbdfe40c0	-0.12414694
45	0xbd049231	-0.03236598
46	0x3d6b9b61	0.057521228
47	0xbf15bce7	-0.5849137
48	0x3e1857d2	0.14877251
49	0x3e816aa1	0.25276664
50	0xbf17c87f	-0.5929031
51	0xbe64c7ef	-0.22341894
52	0xbe7a109e	-0.24420401
53	0xbe668223	-0.2251058
54	0xbcf90c20	-0.03040129
55	0x3a074572	0.00051601895
56	0x3e43fcac	0.19139355
57	0x3e784336	0.24244389
58	0xbde12aa8	-0.10994464
59	0xbe50cf90	-0.20391679
60	0x3e8509f5	0.2598416
61	0x3e846951	0.258616
62	0xbd81f03b	-0.063446485
63	0xbe2b0456	-0.16700873
64	0xbe837336	-0.25673836
65	0xbe725e7b	-0.23668854
66	0x3e894941	0.268137
67	0xbdb21776	-0.08695881
68	0xbe481a10	-0.19541192
69	0xbe057768	-0.13033831
70	0xbe99198b	-0.299023
71	0xbe9b26ca	-0.3030303
72	0x3e7959a0	0.24350595
73	0xbc0ff84b	-0.008787225
74	0x3e20060b	0.15627305
75	0x3e065dd9	0.13121738
76	0xbe198a4e	-0.14994165
77	0xbe077e14	-0.13231689
78	0xbe735fda	-0.23767033
79	0x3d5218f4	0.05129333
80	0xbd951598	-0.07279509
81	0x3e3489e6	0.17630729
82	0x3e78de74	0.24303609
83	0x3de48875	0.111588396
84	0xbe8056aa	-0.2506612
85	0x3e128830	0.14309764
86	0xbea85a33	-0.32881317
87	0x3cb6c57b	0.022310963
88	0xbeb5c2a0	-0.3550005
89	0x3e478dd0	0.19487691
90	0x3d2456e4	0.040121928
91	0x3e5aae76	0.21355614
92	0x3e4c29d0	0.19937825
93	0xbe471292	-0.19440678
94	0xbe72663a	-0.23671809
95	0x3d5b7038	0.053573817
96	0xbe5ec0a2	-0.21753171
97	0xbdbe632e	-0.09296261
98	0x3e5c7a49	0.21531023
99	0xbe9fbb42	-0.31197554
100	0x3e921f3a	0.2853945
101	0xbe5eebbc	-0.21769613
102	0x3d820d84	0.06350234
103	0xbe16c845	-0.14724834
104	0x3c6b74d7	0.0143711185
105	0xbe8e8be2	-0.27841097
106	0xbdae5d1b	-0.08513852
107	0xbe1484a7	-0.14503728
108	0x3e31c7df	0.17361401
109	0xbe8da178	-0.27662253
110	0xbc8ddbbe	-0.017316695
111	0xbd635b9a	-0.05550728
112	0x3e17085c	0.14749283
113	0xbea8e89c	-0.32989967
114	0xbe5acd1b	-0.21367304
115	0xbe8de352	-0.27712494
116	0x3cba0900	0.02270937
117	0xbe27239d	-0.16322179
118	0xbe36b2c4	-0.17841631
119	0x3eb150eb	0.34632048
120	0x3e5a754d	0.21333809
121	0xbcc60815	-0.024173776
122	0x3e1aa809	0.15103163
123	0xbde20e06	-0.11037831
124	0x3eacab1f	0.33724305
125	0x3ea102f7	0.31447574
126	0xbea758c7	-0.3268492
127	0xbe3720a3	-0.17883544
128	0xbcbff990	-0.02343443
129	0xbe6f4c2e	-0.23368904
130	0xbe4152a3	-0.1887918
131	0xbc993d2c	-0.018705927
132	0xbe985367	-0.2975113
133	0xbd10bc01	-0.035335544
134	0x3e6290e0	0.22125578
135	0x3eb02591	0.3440366
136	0xbe1d3b54	-0.15354663
137	0x3db3b8f5	0.08775512
138	0x3df03505	0.11728863
139	0xbcb9d570	-0.022684783
140	0xbdf0624e	-0.117375
141	0x3dbb1861	0.09135509
142	0x3d33e90c	0.043923423
143	0xbdf7ff1d	-0.12109206
144	0x3d0ae98c	0.033914134
145	0xbca6f2ea	-0.020379502
146	0x3e4938b8	0.19650543
147	0x3cf46cf3	0.029837107
148	0xbdd8ce86	-0.10586266
149	0xbeb1ecf5	-0.34751096
150	0xbdac7fc6	-0.08422808
151	0x3e583fb9	0.21118058
152	0xbe88e004	-0.2673341
153	0x3d90c116	0.07068078
154	0x3dcb48f2	0.099260226
155	0x3e13f869	0.1445023
156	0xbc31b407	-0.0108461445
157	0x3e03e571	0.12880494
158	0xbded8942	-0.115984455
159	0x3d2bef15	0.041976053
160	0xbdbfd5fe	-0.09366988
161	0xbdb448c7	-0.08802944
162	0x3e85110c	0.25989568
163	0x3e8be8a2	0.27325922
164	0xbe32245a	-0.1739668
165	0x3df2d953	0.118578576
166	0xbe2ac2cf	-0.16675876
167	0xbe60dd18	-0.2195934
168	0xbdf02dce	-0.117274866
169	0x3e6ffce5	0.23436315
170	0x3e0c5e5a	0.13707867
171	0x3cf3ce10	0.029761344
172	0xbe983514	-0.29727995
173	0xbe8783c2	-0.2646771
174	0xbe95c800	-0.2925415
175	0xbe2c6bc8	-0.1683799
176	0xbea2f90e	-0.3183064
177	0x3e4113f6	0.1885527
178	0xbe8af256	-0.27138013
179	0x3e95af69	0.2923539
180	0xbe9dcf9c	-0.30822456
181	0xbe7a061d	-0.24416395
182	0x3e6be13b	0.23035137
183	0x3e5d3304	0.21601492
184	0x3e1bdbcd	0.15220566
185	0x3df5358b	0.11973103
186	0x3c6876a8	0.014188446
187	0xbd8f2fcd	-0.06991539
188	0xbe311735	-0.17294009
189	0x3e71e00e	0.23620626
190	0xbc462bfd	-0.012095449
191	0xbdc3562a	-0.09537919
192	0xbe6470e7	-0.22308694
193	0xbdad6542	-0.08466579
194	0x3df82129	0.121157
195	0x3c17e1f6	0.009270182
196	0xbe9bd8b0	-0.30438757
197	0xbe4ec66b	-0.20192878
198	0x3e811a0c	0.25215185
199	0xbec78be3	-0.38973913
200	0xbe46b799	-0.19405974
201	0xbe88edf6	-0.2674405
202	0x3e1120ff	0.14172743
203	0x3e17cce2	0.1482425
204	0xbdf0b560	-0.117533445
205	0xbe823693	-0.25432262
206	0xbe4ae190	-0.19812608
207	0xbddd4aa6	-0.10805254
208	0xbe760c66	-0.24028167
209	0xbde71620	-0.11283517
210	0xbe5e0436	-0.21681294
211	0x3d088f33	0.03333969
212	0x3e6868cb	0.22696225
213	0x3cea0970	0.028568953
214	0xbdc21f22	-0.09478594
215	0xbe2a1d1b	-0.16612665
216	0xbe1e7546	-0.15474424
217	0x3b369c80	0.0027864277
218	0x3d1eb358	0.038745254
219	0xbddd7e30	-0.10815084
220	0xbe8fefce	-0.28112644
221	0xbd5ad478	-0.053425282
222	0xbe85baa2	-0.26118952
223	0x3c863680	0.01638341
224	0x3d548008	0.051879913
225	0xbdb43605	-0.08799366
226	0x3dfb4cdd	0.1227052
227	0x3e8daeef	0.27672526
228	0x3d9df0e5	0.077119626
229	0xbde63d04	-0.112421066
230	0x3e81b4dc	0.25333297
231	0xbea4c82e	-0.32183975
232	0xbe61f700	-0.2206688
233	0xbe1f9ea8	-0.15587866
234	0xbebd4008	-0.36962914
235	0x3cacd84e	0.021099236
236	0xbd3590af	-0.044327434
237	0xbdda7df1	-0.10668553
238	0x3de0442a	0.10950501
239	0x3e12c34b	0.14332311
240	0xbe63a9e0	-0.22232771
241	0xbdf3ce69	-0.11904604
242	0x3e057448	0.13032639
243	0xbe250129	-0.16113724
244	0x3d4e414e	0.05035525
245	0x3e2f3b48	0.17112458
246	0xbe294919	-0.16531791
247	0x3e5869d4	0.2113412
248	0x3d3da97f	0.046304222
249	0xbe5adcfa	-0.21373358
250	0xbe4d4309	-0.20045103
251	0xbd7bc917	-0.06147107
252	0x3e1919f4	0.14951307
253	0xbe0dc4e9	-0.13844647
254	0xbd037a14	-0.032098845
255	0xbebf5af9	-0.37374094

weight f4 [64, 64, 3, 3]
0	0x3d0829b9	0.033242915
1	0xbc56d8fc	-0.013113257
2	0x3cdf4252	0.027253304
3	0x3a273d00	0.0006379634
4	0xbcd63df3	-0.026152587
5	0xbbcfb738	-0.00633898
6	0x3cc27d66	0.023741435
7	0xbcc09cb8	-0.02351223
8	0x3d0a259f	0.033727285
9	0x3d1682ab	0.03674571
10	0xbcaa94a2	-0.020822827
11	0x3c587324	0.013211045
12	0xbcae7d56	-0.0213
13	0xbbdf0d63	-0.0068070157
14	0xbbbc7460	-0.0057511777
15	0xbcdc6826	-0.02690513
16	0x3c4de93a	0.012567813
17	0x3c9da356	0.019242924
18	0xbd17b08b	-0.0370336
19	0x3d1d5408	0.038410217
20	0x3c936a40	0.017995
21	0xbd2ba161	-0.04190195
22	0xbca395b7	-0.01996885
23	0x3af1631e	0.001841638
24	0x3adeddb3	0.0017003327
25	0x3c8ae6b9	0.01695572
26	0xbc740394	-0.014893431
27	0x3c70d3d0	0.014698938
28	0xbd19a69e	-0.037512414
29	0x3d115c11	0.035488192
30	0x3cb2f916	0.021847289
31	0x3c8ae2f8	0.01695393
32	0xbc3844e0	-0.01124689
33	0xba805400	-0.0009790659
34	0x3caf838e	0.021425035
35	0xbc912156	-0.017716091
36	0x3cb6823a	0.022278894
37	0x3d240569	0.040044222
38	0x3bb09948	0.0053893663
39	0x3ce10962	0.027470294
40	0xbcafcfa0	-0.021461308
41	0xbc8c9423	-0.01716048
42	0x3d16b0ef	0.03678983
43	0x3d24e565	0.04025783
44	0x3cd33b4e	0.025785115
45	0xbc580c66	-0.01318655
46	0x3c9035e0	0.017603815
47	0x3c7f0460	0.015565008
48	0xbce30563	-0.02771253
49	0x3d363668	0.04448548
50	0x3bf83628	0.0075748153
51	0x3aa64097	0.0012684044
52	0x3d19caa0	0.037546754
53	0x3b4a4332	0.0030862805
54	0xbdb3e795	-0.08784405
55	0xbd8f1f92	-0.069884434
56	0xbdba39e8	-0.09093076
57	0xbdb45f23	-0.088072084
58	0xbd163245	-0.036669035
59	0xbdb779fe	-0.08958815
60	0xbd9fc53c	-0.07801291
61	0xbc96209e	-0.0183261
62	0xbdafd619	-0.08585758
63	0xb8d47e00	-0.00010132417
64	0xbc6f2f66	-0.014598703
65	0xbcc15c00	-0.02360344
66	0x3cd3819e	0.025818642
67	0x3b825438	0.003977325
68	0xbd10517b	-0.035233956
69	0xbc4933f0	-0.012280449
70	0xbcd223fb	-0.025651922
71	0x3d2932ab	0.041308086
72	0xbd83e33d	-0.06439827
73	0xbd1dd803	-0.038536083
74	0xbccf06e5	-0.025271842
75	0xbd3e3d25	-0.04644503
76	0xbcfda7f1	-0.03096387
77	0xbc5e758a	-0.013577828
78	0xbd258686	-0.040411495
79	0xbd874046	-0.06604056
80	0xbd8bf807	-0.06834417
81	0xbd1e3bc6	-0.038631223
82	0xbd981013	-0.07424941
83	0xbc09fc88	-0.008422025
84	0xbd0c4da4	-0.03425373
85	0xbdb405b1	-0.08790148
86	0xbd2d7ee2	-0.042357333
87	0xbcd0c2bf	-0.025483487
88	0xbdaf3290	-0.08554566
89	0xbd9eb752	-0.07749809
90	0xbd753ca4	-0.059872285
91	0xbd5a7c51	-0.053341214
92	0xbd48c1a8	-0.04901281
93	0xbcf34d7f	-0.029700039
94	0xbdaea747	-0.08527999
95	0xbd8fcec3	-0.070218585
96	0xbd732e28	-0.05937019
97	0xbc194481	-0.0093547115
98	0xbce37ad4	-0.02776853
99	0xbd17b836	-0.03704091
100	0xbd0d7293	-0.034533095
101	0xbb534c10	-0.0032241382
102	0x3d1ad427	0.03779998
103	0xbb0af9c0	-0.0021205992
104	0xbc6fc0ac	-0.014633339
105	0xbc0a835c	-0.00845417
106	0x3cf4544e	0.029825356
107	0x3d26361d	0.04057895
108	0x3cc027a2	0.023456398
109	0xbce958e3	-0.028484767
110	0x3d08a8e3	0.033364188
111	0x3d2101ed	0.039308477
112	0x3cfc0cb8	0.030767784
113	0x3c13fb6c	0.009032112
114	0xbd1d7a44	-0.03844668
115	0xbcbd8737	-0.023135765
116	0x3d23b3d5	0.039966423
117	0xbd0e2513	-0.034703325
118	0x3d021597	0.03175887
119	0xbcb2437e	-0.021760698
120	0x3cf77da5	0.03021128
121	0x3c3c197c	0.011480685
122	0xbc9b9cfb	-0.018995753
123	0x3c712e24	0.014720473
124	0xbd0e972f	-0.03481215
125	0x3c121abc	0.008917507
126	0x3cdc6816	0.0269051
127	0x3d23cc89	0.03998998
128	0x3d0d885d	0.034553874
129	0x3a186800	0.0005813837
130	0x3c8ee04e	0.017440941
131	0x3d0489cd	0.03235798
132	0x3c8d7e7a	0.017272223
133	0xbd24a950	-0.04020053
134	0x3c685974	0.014181484
135	0x3d5d4fb6	0.054031096
136	0x3c26596e	0.010153158
137	0x3c9208eb	0.017826518
138	0x3d5dc905	0.054146785
139	0x3bbc4240	0.0057452023
140	0x3aab1c61	0.0013054722
141	0x3d817bd1	0.06322444
142	0x3d736e21	0.0594312
143	0x3c28fc22	0.010314019
144	0xbc94bed3	-0.018157398
145	0xbd1761d8	-0.036958545
146	0xbc0bb46d	-0.008526904
147	0xbd519b2c	-0.051173374
148	0xbd30be87	-0.04315045
149	0xbd34a6ee	-0.04410451
150	0xbd31af54	-0.043380097
151	0x3c9d6fe4	0.019218393
152	0xbd953bfc	-0.07286832
153	0xbda6c95c	-0.08143875
154	0xbd7f260a	-0.062292136
155	0xbd5e4496	-0.054264627
156	0xbd855cd2	-0.06511845
157	0xbce0dd12	-0.027449165
158	0xbd7a149a	-0.061054803
159	0xbd0b4239	-0.0339987
160	0xbd9de97a	-0.07710548
161	0xbdb42bb0	-0.08797395
162	0xbd38e9e4	-0.04514493
163	0xbc893a34	-0.016751386
164	0xbd972d99	-0.07381744
165	0xbdaee379	-0.08539481
166	0xbd3c0797	-0.045905676
167	0xbdb36c05	-0.087608375
168	0xbd6244b7	-0.055241313
169	0xbc8c545f	-0.017130075
170	0xbd832c4d	-0.06404934
171	0x3cf5d59e	0.030009087
172	0xbd1fa760	-0.03897798
173	0xbcd2345e	-0.025659736
174	0xbbf16ba8	-0.00736757
175	0xbc0e4910	-0.008684412
176	0x3c5e7b10	0.013579145
177	0xbcf99dc0	-0.030470729
178	0x3c4b0ff4	0.01239394
179	0xbcc4b18e	-0.024010446
180	0xbd905b78	-0.07048696
181	0xbdb10ce9	-0.086450405
182	0xbcbdf41e	-0.023187693
183	0xbd8d4f6d	-0.06899915
184	0xbd89781c	-0.06712362
185	0xbd492b65	-0.04911365
186	0xbdb024f3	-0.086007975
187	0xbd50b788	-0.05095628
188	0xbd916edb	-0.07101222
189	0x3c48fc80	0.012267232
190	0x3c03875f	0.00802788
191	0xbd1e1b6a	-0.038600363
192	0x3c6b467e	0.014360068
193	0xbd13702d	-0.03599565
194	0xbb787ed7	-0.00379174
195	0xbb30f220	-0.0026999786
196	0x3bce75f6	0.006300683
197	0x3b627057	0.0034551823
198	0x3c951096	0.018196385
199	0x3c2d3920	0.010572702
200	0xbbb96228	-0.005657453
201	0x3ce052ba	0.027383197
202	0x3d108340	0.03528142
203	0xbd14a72b	-0.036292236
204	0xb984b43e	-0.00025311293
205	0xbc5ffedc	-0.013671603
206	0x3c0437cb	0.008069943
207	0x3d0e521d	0.034746278
208	0x3c8a7056	0.01689927
209	0xbd11e132	-0.035615154
210	0xbc948b26	-0.018132757
211	0x3d05ac2f	0.03263491
212	0x3ccfb22e	0.025353517
213	0x3cc57712	0.024104629
214	0xbcabc276	-0.02096675
215	0xbab06aa0	-0.0013459511
216	0x3b5442b0	0.0032388382
217	0x3c85aaa0	0.016316712
218	0x3bdd7098	0.006757807
219	0x3cfee262	0.031113807
220	0x3c1b415c	0.009476032
221	0x3c9ca7c8	0.019122973
222	0x3b6ea100	0.0036411881
223	0x3c9a8918	0.0188642
224	0x3c511b20	0.012762815
225	0xbcda058b	-0.026613971
226	0xbb8b46e8	-0.004250396
227	0x3cde0baa	0.027105171
228	0xbbdf1a47	-0.0068085524
229	0xbc31bcbc	-0.01084822
230	0xbbf84658	-0.007576745
231	0xbd07dbd6	-0.033168636
232	0xbd0a3116	-0.03373822
233	0x3ce7419a	0.028229523
234	0xbbf395b5	-0.007433618
235	0x3b991358	0.0046714954
236	0x3c3d21a4	0.011543665
237	0xbd16fdce	-0.03686314
238	0xbc823d63	-0.015898412
239	0xbd0aa7dc	-0.03385149
240	0x3c23ee00	0.010005474
241	0xbd21df47	-0.039519574
242	0x3d20e949	0.039284978
243	0xbda90521	-0.082529314
244	0xbd8ba04c	-0.068176836
245	0xbc6ad38a	-0.014332661
246	0xbd6f0be2	-0.05836094
247	0xbd8dc919	-0.06923122
248	0xbd3945d9	-0.045232628
249	0xbc26980f	-0.0101680895
250	0xbd4d8ca0	-0.05018294
251	0xbb887b20	-0.0041650683
252	0xbd899600	-0.06718063
253	0xbd59e314	-0.053195074
254	0xbd1ea570	-0.038731992
255	0xbd4f4564	-0.050603285

weight f4 [64, 64, 3, 3]
0	0xbcd93a5f	-0.026517091
1	0xbce93958	-0.028469726
2	0x3cc534b2	0.024072979
3	0xbd17aedc	-0.037031993
4	0xbcae261b	-0.021258404
5	0x3c97c88e	0.01852825
6	0xbb227ef0	-0.00247949
7	0xbcce8eb6	-0.025214534
8	0x3b2307b0	0.0024876408
9	0x3d77044b	0.06030683
10	0x3d9cf4ef	0.07663905
11	0x3d30388a	0.04302267
12	0x3d53dca5	0.051724095
13	0x3d97f0b6	0.07418959
14	0x3c433582	0.011914613
15	0x3d8d46f0	0.06898296
16	0x3d872f7f	0.06600856
17	0x3cd67978	0.026180968
18	0x3da60e18	0.08108157
19	0x3db3191b	0.08745023
20	0x3cd202ee	0.025636163
21	0x3d918728	0.07105857
22	0x3ccf5bb9	0.025312291
23	0x3d1929d6	0.037393413
24	0x3d6d7c6f	0.057979997
25	0x3d1cb930	0.038262546
26	0x3c944739	0.018100368
27	0x3cb59233	0.02216444
28	0x3d1b5a22	0.037927754
29	0x3d92b14c	0.07162723
30	0x3da2ec74	0.07955256
31	0x3cb18e70	0.021674365
32	0x3ca318d6	0.019909304
33	0x3d1c6415	0.038181383
34	0x3d94c835	0.07264749
35	0x3c6612e8	0.014042594
36	0x3ceeb5bd	0.029139394
37	0x3d2003bd	0.039066065
38	0xbbadfbea	-0.0053095715
39	0xbce5b5de	-0.028040823
40	0x3c5cfc1a	0.01348784
41	0xbbbe3fc5	-0.0058059418
42	0x3a65dc40	0.00087684765
43	0xbca74d7e	-0.020422693
44	0xbcd69afb	-0.026196947
45	0x3c8870d3	0.016655361
46	0x3c84d3dd	0.016214306
47	0x3d88536a	0.06656535
48	0x3dab2f5a	0.08358641
49	0x3c67924f	0.014134004
50	0x3c9a04e7	0.018801166
51	0x3d89329d	0.06699107
52	0x3ce52c3c	0.027975194
53	0x3d709365	0.058734316
54	0x3d36d570	0.044637144
55	0xbcd66fdf	-0.026176391
56	0x3d10f4ba	0.03538964
57	0xbcb28a27	-0.021794392
58	0xbcca63c2	-0.024705771
59	0xba4996e9	-0.0007690029
60	0x3d29f7cb	0.04149608
61	0x3b88a8c8	0.004170511
62	0x3d1d1e39	0.0383589
63	0x3d6a1383	0.057147514
64	0x3b4f5983	0.0031639047
65	0xbc85cced	-0.016333068
66	0x3d7303e1	0.05932987
67	0x3ce084b2	0.027407024
68	0xbbf51758	-0.0074795894
69	0x3cb0d9a5	0.021588156
70	0x3b58d470	0.0033085607
71	0x3ae870e0	0.0017733835
72	0x3c2200a0	0.009887844
73	0xbc23fc60	-0.010008901
74	0x3d139860	0.036033988
75	0xbce75d2b	-0.028242668
76	0x3d0eebed	0.034892965
77	0x3d006a89	0.0313516
78	0x3c5150cc	0.012775611
79	0xbd029a42	-0.031885393
80	0xbc0c1450	-0.008549765
81	0x3d67695b	0.05649696
82	0x3d406f3e	0.04698109
83	0x3cf8462c	0.030306898
84	0x3c8ea434	0.017412283
85	0x3c817459	0.01580255
86	0x3d5f32c6	0.05449178
87	0x3d0717c5	0.032981653
88	0x3c9b89d4	0.01898662
89	0x3d960478	0.07325071
90	0x3d8a5483	0.067544006
91	0x3da0e224	0.07855633
92	0x3dac438e	0.084113225
93	0x3cdc2c48	0.026876584
94	0x3d506a5a	0.050882675
95	0x3d875b5d	0.06609223
96	0x3c7e47ea	0.015520075
97	0x3d284972	0.041085668
98	0x3d43c8aa	0.04779879
99	0x3c83c322	0.016084258
100	0xbb508c80	-0.0031822026
101	0x391b7c00	0.00014828146
102	0xbc817526	-0.015802931
103	0xbd02c110	-0.0319224
104	0xbc201dfe	-0.009772776
105	0xbd1bf8bc	-0.03807901
106	0xbce8fe90	-0.028441697
107	0xbca8578e	-0.020549562
108	0x3d267f4f	0.040648755
109	0x3c0a1656	0.008428177
110	0x3d0efcb6	0.034908973
111	0x3d2254e4	0.03963174
112	0x3d6b3be3	0.05743016
113	0x3cd62185	0.02613903
114	0x3dad2ca0	0.08455777
115	0x3c39199f	0.011297612
116	0x3d6fe8d1	0.05857164
117	0x3d168111	0.03674418
118	0xbcbdd4a3	-0.023172682
119	0xbbf128e6	-0.007359612
120	0xbbf269e0	-0.007397875
121	0xbd03fa82	-0.032221325
122	0x3d1c3017	0.0381318
123	0x3ba15fe8	0.004924763
124	0xbcfa78fb	-0.030575266
125	0xbc8b69be	-0.017018195
126	0x3d82d39c	0.063880175
127	0x3ce392d0	0.027779967
128	0x3d813e20	0.063106775
129	0x3d025f69	0.03182927
130	0x3da066f0	0.07832134
131	0x3da64274	0.08118144
132	0x3db4c2ee	0.088262424
133	0x3d8f234f	0.069891565
134	0x3d9178bc	0.071031064
135	0x3d99734e	0.07492696
136	0x3ca0b9f4	0.01961992
137	0x3d4792e4	0.04872407
138	0x3d82f763	0.063948415
139	0x3d76e175	0.060273606
140	0x3d1eb093	0.038742613
141	0x3d7cf3d3	0.061755966
142	0x3c7de3d9	0.015496218
143	0x3d621d23	0.05520357
144	0x3d2c1e9c	0.04202138
145	0x3d122dcc	0.035688207
146	0x3da45f16	0.08025949
147	0x3cdf46c3	0.027255422
148	0x3d90f0eb	0.070772015
149	0x3db45ab9	0.088063665
150	0x3dbfc5e9	0.0936392
151	0x3cce96b4	0.025218345
152	0x3dae186e	0.08500753
153	0xb96da500	-0.00022663549
154	0x3cbc2e2a	0.022971231
155	0x3cf94ee2	0.030433122
156	0xbd0b34c0	-0.033985853
157	0x3c7f0a44	0.015566412
158	0x3c7d76af	0.015470191
159	0x3bc1e1f8	0.00591683
160	0x3c059394	0.008152861
161	0xbc2927e0	-0.010324448
162	0x3cb74c56	0.022375267
163	0xbc875f7b	-0.01652502
164	0xbc0db534	-0.008649159
165	0x3d09c65f	0.033636447
166	0xbc3dea3f	-0.011591493
167	0xbcf1bea8	-0.029509857
168	0xbcd5f8b8	-0.026119575
169	0xbc2d1bac	-0.0105656795
170	0xbb115410	-0.002217535
171	0x3c807cb8	0.01568447
172	0x3da0483f	0.0782628
173	0x3d7fbe1d	0.062437166
174	0x3ca2127a	0.019784201
175	0x3d6add73	0.057340097
176	0x3cf426e6	0.029803704
177	0x3da74466	0.08167343
178	0x3d51ff6e	0.051268987
179	0x3ca5af14	0.020225085
180	0xbd60c3fa	-0.054874398
181	0xbd4d4c90	-0.050121844
182	0xbd29bcef	-0.041439947
183	0xbc70fbc6	-0.014708465
184	0x3cdb7cc1	0.026792886
185	0x3c6a444a	0.014298508
186	0xbcaa4baa	-0.020788033
187	0xbb7b7c79	-0.0038373752
188	0xbcaca3e0	-0.021074235
189	0x3c2b13dd	0.0104417475
190	0x3c92fbe5	0.017942378
191	0xbc817752	-0.015803967
192	0x3cd548e9	0.026035743
193	0x3b4e0dbb	0.003144129
194	0xbcc0c94c	-0.023533486
195	0x3d1d2b0d	0.038371135
196	0xbccc3e68	-0.024932101
197	0x3c83d30e	0.01609185
198	0xbd018004	-0.031616226
199	0xbaa9ef60	-0.0012965016
200	0x3cbd1d46	0.023085248
201	0x3c69fa7d	0.0142809125
202	0xbcd983b6	-0.026552062
203	0x3cbb5c98	0.0228713
204	0xbd2a3b16	-0.041560255
205	0x3d1b2d8d	0.037885237
206	0x3cc1559a	0.023600388
207	0xbbaa8c60	-0.0052047223
208	0xbd1d495f	-0.03840005
209	0xbc8b2063	-0.016983217
210	0x3cf46d3a	0.02983724
211	0x3d01489f	0.031563397
212	0xba6ae17b	-0.0008959991
213	0xbd1770bb	-0.036972743
214	0xbc061854	-0.008184511
215	0xbc8332e0	-0.01601547
216	0x3cf91ef6	0.030410271
217	0x3c342534	0.010995198
218	0x3c9b4bda	0.018957067
219	0xbc809f9e	-0.015701111
220	0x3c2a55a4	0.010396395
221	0xbafbcba0	-0.0019210465
222	0xbc237544	-0.009976689
223	0x3cf85aaa	0.03031667
224	0x3ba5ff80	0.0050658584
225	0xbc899733	-0.01679573
226	0xbccb6277	-0.024827225
227	0xbd0532a4	-0.032518998
228	0x3d1932e0	0.037402034
229	0xbcadc762	-0.021213237
230	0x3cd1a596	0.025591653
231	0x3d0a8dbf	0.033826586
232	0xbcaf7dbb	-0.021422258
233	0xbcb5589e	-0.022136983
234	0x3d94370c	0.07237062
235	0x3c95ef1c	0.018302493
236	0x3d4da904	0.050210014
237	0x3cf36b85	0.029714355
238	0x3cd845e4	0.026400514
239	0x3c4098a5	0.011755143
240	0x3d3faaf9	0.04679391
241	0x3daab186	0.08334641
242	0x3db3d030	0.08779943
243	0xbd98ef92	-0.074675694
244	0xbd761adf	-0.06008422
245	0xbccc1c26	-0.024915766
246	0xbd8dde3e	-0.06927155
247	0xbd51e5e0	-0.051244617
248	0xbd731534	-0.059346393
249	0xbd2adf10	-0.041716635
250	0xbbeecb50	-0.0072874203
251	0xbd5d0655	-0.053961117
252	0x3d1b57d9	0.037925575
253	0x3c017046	0.007900303
254	0xbc01a25c	-0.007912245
255	0x3d1f8241	0.03894258

weight f4 [64, 64, 3, 3]
0	0xbd9bdac1	-0.07610083
1	0xbd9fd90f	-0.078050725
2	0x3b8c6622	0.004284636
3	0xbd1968b9	-0.037453387
4	0xbce69ac5	-0.028149972
5	0xbcf6091a	-0.030033637
6	0xbe8437f1	-0.2582393
7	0xbe591f6b	-0.21203391
8	0xbd104188	-0.035218745
9	0xbc0361ba	-0.008018905
10	0x3cfa86bc	0.030581824
11	0xbd1cdac6	-0.038294576
12	0xbcf3180b	-0.02967455
13	0xbcd8e8b6	-0.026478153
14	0xbcfa9e6b	-0.030593118
15	0x3cd14132	0.025543783
16	0x3d28ec91	0.041241232
17	0x3cd5e9f2	0.02611253
18	0xbc8d674e	-0.017261174
19	0xbca92f39	-0.0206524
20	0xbc1999fb	-0.009375091
21	0xbd8588e9	-0.06520254
22	0xbd110149	-0.035401616
23	0x3d35c361	0.04437578
24	0xbd46091f	-0.048348542
25	0xbd4af84a	-0.049553193
26	0xbbe7300d	-0.0070552886
27	0x3c705981	0.014669777
28	0x3cbb31af	0.02285084
29	0x3ccd4b60	0.025060356
30	0xbd47614d	-0.048676778
31	0xbbcd7491	-0.0062699993
32	0x3d0b1967	0.033959772
33	0x3c00fd1f	0.007872849
34	0xbc0f2a71	-0.008738146
35	0x3c089a90	0.008337632
36	0xbd000c35	-0.03126164
37	0xbd73be69	-0.05950776
38	0xbc4f9399	-0.012669467
39	0xbce8af62	-0.028403942
40	0xbda1cc1f	-0.07900261
41	0xbc5d1169	-0.01349292
42	0xbce073df	-0.027399002
43	0xbd7773a2	-0.06041301
44	0xbd270eb7	-0.040785518
45	0xbc8c20e3	-0.017105525
46	0xbc2ebd66	-0.010665273
47	0x3cecd632	0.02891073
48	0xbd4d98e5	-0.05019464
49	0x3ca3d30f	0.019998102
50	0xbbac41c6	-0.0052568642
51	0xbca27e2e	-0.019835558
52	0x3cddc914	0.02707342
53	0xbb0d653f	-0.002157524
54	0xbd2eb464	-0.042652503
55	0xbdb2764f	-0.08713972
56	0xbd7ce617	-0.06174287
57	0xbd679689	-0.056540046
58	0xbd8ed81c	-0.06974813
59	0xbd38e6b7	-0.0451419
60	0xbd9244d1	-0.07142032
61	0xbd820430	-0.06348455
62	0xbd7f3855	-0.06230958
63	0xbcbc1603	-0.022959715
64	0xbd52e643	-0.051489126
65	0x3cea35b2	0.028590057
66	0xbba1d6cc	-0.004938936
67	0xbd49e867	-0.0492939
68	0x3d0dbd8c	0.034604594
69	0xbcc70ade	-0.024297174
70	0xbd1d16de	-0.038351886
71	0x3c382bc5	0.011240904
72	0xbcb20138	-0.021729097
73	0x3caba41d	0.020952279
74	0x3cd9e6c3	0.026599294
75	0x3ca20e7f	0.019782303
76	0xbc9866dc	-0.018603735
77	0xbcab296d	-0.020893777
78	0xbca6cc46	-0.020361077
79	0xbbe8db8d	-0.0071062506
80	0xbd0ec3a5	-0.03485455
81	0xbd5fbdf8	-0.054624528
82	0xbcd13893	-0.025539672
83	0xbd067a4c	-0.032831475
84	0xbd51fc90	-0.051266253
85	0xbd4dd7f7	-0.05025479
86	0x3c308d48	0.010775872
87	0xbcb352f5	-0.021890143
88	0xbd2d1a9f	-0.042261716
89	0x3d9f62c5	0.07782511
90	0xbda140e3	-0.07873704
91	0xbdb7ab60	-0.08968234
92	0xbd9b489b	-0.07582208
93	0xbcf21bd7	-0.02955429
94	0xbd128c92	-0.03577859
95	0xbd60a415	-0.05484398
96	0xbd245690	-0.040121615
97	0xbdae4bbe	-0.085105404
98	0xbdc39278	-0.09549421
99	0xbcef68e3	-0.029224819
100	0x3b38ca6d	0.0028196827
101	0xbc84ca2b	-0.016209682
102	0x3d26cfe0	0.04072559
103	0xbcdcf2d9	-0.026971268
104	0x3b991a6f	0.0046723406
105	0x3c428364	0.011872146
106	0x3cc30329	0.023805218
107	0x3cd26e8c	0.025687478
108	0xbd1a5ef6	-0.037688218
109	0xbdab5197	-0.083651714
110	0xbdb5f146	-0.0888391
111	0xbd1b862d	-0.037969757
112	0xbd010056	-0.03149446
113	0xbd450175	-0.048097093
114	0xbd90a792	-0.070632115
115	0xbca387a2	-0.019962136
116	0xbdc319b6	-0.09526388
117	0x3ca1ad78	0.019736037
118	0x3cdf5d5f	0.027266202
119	0xbbd3b35e	-0.006460591
120	0x3c398fbb	0.011325772
121	0xbd54ae70	-0.05192417
122	0xbcbdcfea	-0.02317043
123	0x3b52cb3a	0.003216459
124	0xbc882e66	-0.016623687
125	0xbcf9b98f	-0.030483989
126	0xbd0e2e10	-0.034711897
127	0xbd21ff35	-0.039550025
128	0xbd94d02e	-0.072662696
129	0xbda78034	-0.0817875
130	0xbd4dba82	-0.050226696
131	0xbc8d439c	-0.017244153
132	0xbce6e01d	-0.028183037
133	0xbd55bb27	-0.052180436
134	0xbd6d9120	-0.05799973
135	0xbd1b8f56	-0.037978493
136	0xbdc936df	-0.09824919
137	0xbd657414	-0.056018904
138	0xbd816707	-0.06318479
139	0xbd93e344	-0.07221082
140	0xbcb42a44	-0.02199281
141	0xbcbb3537	-0.022852523
142	0xbd44989d	-0.047997106
143	0xbda2cd27	-0.07949286
144	0xbcefb122	-0.029259268
145	0x3c2baf30	0.01047878
146	0xbd100b03	-0.03516675
147	0x3c82523b	0.015908351
148	0x3d13f0ea	0.036118425
149	0xbd038dc0	-0.032117605
150	0x3a3c46dd	0.00071821903
151	0x3d169935	0.036767203
152	0x3b8f0f91	0.0043658693
153	0xbceedaef	-0.02915713
154	0xbb69004b	-0.0035553153
155	0xbcd7c00f	-0.026336698
156	0xbc5c7d3b	-0.013457592
157	0xbd6dd45e	-0.058063857
158	0xbd3754f5	-0.044758756
159	0xbd43aa0c	-0.04776959
160	0xbbd05376	-0.0063576056
161	0x3b2b93c4	0.0026180604
162	0x3cde90a6	0.027168583
163	0xbc711215	-0.014713784
164	0x3c712ffe	0.014720915
165	0xbd01f781	-0.03173018
166	0xbd50841c	-0.05090724
167	0xbd819fc9	-0.06329305
168	0xbc9abfa8	-0.018890217
169	0xbc9aedd7	-0.018912239
170	0xbcf583a3	-0.029969996
171	0xbc4ae430	-0.012383506
172	0x3d003139	0.031296942
173	0x3c412748	0.011789151
174	0xbd289b97	-0.041164007
175	0x3b3dee5c	0.0028981185
176	0xbc420f2d	-0.0118444385
177	0x3c14f0fc	0.009090658
178	0x3d26d378	0.040729016
179	0x3c45c9b9	0.01207202
180	0xbd4f1c06	-0.050563835
181	0xbb63e000	-0.0034770966
182	0xbcc21ba4	-0.02369482
183	0xbd2d7b0f	-0.042353686
184	0xbd23c908	-0.03998664
185	0xbd375f55	-0.04476865
186	0xbcd35316	-0.025796454
187	0xbcf606bc	-0.030032508
188	0xba10518a	-0.00055053143
189	0xbd3d7d52	-0.046262093
190	0xbdd0a362	-0.10187413
191	0xbdc3372a	-0.09532006
192	0xbd1a6048	-0.037689477
193	0xbd93baba	-0.0721335
194	0xbd9d335e	-0.07675813
195	0xbd39dd83	-0.045377266
196	0xbdc8c426	-0.09803037
197	0xbd300a07	-0.042978313
198	0x3ceecc12	0.029150043
199	0xbcb49c62	-0.022047225
200	0xbd5aa7f4	-0.05338283
201	0x3c9d0b4a	0.019170422
202	0xbdaa0e6a	-0.083035305
203	0xbd79c91e	-0.060982816
204	0x3c86d165	0.016457269
205	0xbcfe3ed9	-0.031035827
206	0xbd53a71d	-0.051673044
207	0xbcc6d900	-0.024273396
208	0xbd7de052	-0.061981507
209	0xbda8c25a	-0.082401946
210	0xbdaea794	-0.08528057
211	0xbdb25c04	-0.08708957
212	0xbd07e859	-0.03318057
213	0xbdba05c9	-0.09083135
214	0xbd3a6e2d	-0.045515228
215	0xbcd9a537	-0.026568038
216	0xbcff99b1	-0.031201215
217	0xbd157d89	-0.036496673
218	0xbd3fcc7b	-0.046825867
219	0xbdccbd9c	-0.099971026
220	0xbda7629a	-0.08173104
221	0xbd91fc4b	-0.07128199
222	0xbd72686a	-0.05918161
223	0xbd53ef03	-0.05174161
224	0xbd9828bb	-0.07429644
225	0x3d1e7d0f	0.038693484
226	0x3bdb78ec	0.0066977646
227	0xbd0fb80b	-0.035087626
228	0x3c4cee87	0.012508041
229	0xbc76e61b	-0.01506951
230	0x3d208467	0.03918877
231	0x3cc3e773	0.023914075
232	0xbd1b6740	-0.037940264
233	0x3d1c1bd3	0.038112473
234	0xbc91c62f	-0.017794697
235	0x3b8ebc7a	0.0043559643
236	0x3ce7689e	0.028248128
237	0x3c84d7b7	0.016216142
238	0xbc2b63fc	-0.01046085
239	0x3bb96781	0.0056580906
240	0xbc14bcb6	-0.009078195
241	0xbc856cec	-0.01628729
242	0x39f01905	0.00045795008
243	0xbcc12f45	-0.02358211
244	0xbc42541f	-0.011860876
245	0xbcb78fca	-0.022407431
246	0x3ceb9787	0.028758777
247	0x3d375c5d	0.04476582
248	0xbcba75d7	-0.022761269
249	0x3d46a7c5	0.04849984
250	0x3d147437	0.036243644
251	0xbc931526	-0.01795442
252	0xbe057b0c	-0.1303522
253	0xbe78059a	-0.24220887
254	0xbe838a3c	-0.25691402
255	0xbea54467	-0.3227875

weight f4 [64, 64, 3, 3]
0	0x3d88a538	0.06672138
1	0x3d5df73b	0.054190855
2	0x3d000c65	0.03126182
3	0x3b13bccd	0.0022542954
4	0x3d87a350	0.06622946
5	0x3d7392fe	0.059466355
6	0x3d7aed1f	0.061261293
7	0xbb9e8a89	-0.004838292
8	0x3ca15cbc	0.01969754
9	0xbcc7c489	-0.024385707
10	0x3cb0f48a	0.02160098
11	0xbaf93dc6	-0.0019015602
12	0xbd2dc331	-0.042422477
13	0xbcc917ee	-0.024547543
14	0x3c0459da	0.008078063
15	0xbd9ddeed	-0.07708535
16	0xbd8c5304	-0.068517715
17	0x3d1ce278	0.038301915
18	0xbdb94c8c	-0.09047803
19	0xbd373964	-0.044732466
20	0xbcebd4a0	-0.028787911
21	0xbdb2e08f	-0.087342374
22	0xbcda90a3	-0.026680296
23	0xbc83d28f	-0.016091613
24	0xbd3b2340	-0.045687914
25	0xbd38bb7e	-0.04510068
26	0xbd194267	-0.03741684
27	0xbbd5120a	-0.0065023946
28	0xbca5ac72	-0.02022383
29	0xbd3de591	-0.04636151
30	0xbd3515ee	-0.044210367
31	0xbc8f559c	-0.017496876
32	0xbc23eaec	-0.01000474
33	0xbd690529	-0.056889687
34	0xbd3825ce	-0.04495793
35	0xbc663d54	-0.014052708
36	0xbb3638e9	-0.0027804917
37	0x3b32602e	0.0027217972
38	0x3cca1350	0.024667412
39	0x3d4fa233	0.050691795
40	0x3c76eb91	0.015070812
41	0x3d4e31cb	0.050340455
42	0x3c92b88b	0.017910263
43	0x3d06b208	0.032884628
44	0x3d01ff72	0.031737752
45	0x3cc2101f	0.023689328
46	0xbdbe67f8	-0.09297174
47	0xbda97903	-0.08275034
48	0xbb602300	-0.003420055
49	0xbd263144	-0.040574327
50	0xbd1bd9e5	-0.038049597
51	0xbc6e5450	-0.014546469
52	0xbc598def	-0.0132784685
53	0xbdb15a66	-0.0865982
54	0xbccf8152	-0.02533022
55	0xbcb5a9ef	-0.022175757
56	0xbd8f85b7	-0.07007926
57	0xbd9fa6a2	-0.077954546
58	0xbcfe7ec7	-0.031066312
59	0xbdb3aa26	-0.087726876
60	0xbd10003e	-0.03515648
61	0xbd68e2f6	-0.05685707
62	0xbd2e2820	-0.042518735
63	0xbd3afb3a	-0.045649745
64	0xbd8a11e3	-0.06741693
65	0xbdb4d0bd	-0.08828876
66	0xbce51831	-0.027965637
67	0xbd73fb6e	-0.059565954
68	0xbc59659f	-0.013268857
69	0xbd0add15	-0.033902247
70	0xbd50f4fb	-0.05101488
71	0xbdb17ac8	-0.08665997
72	0xbc8ea0a9	-0.017410593
73	0xbd940872	-0.07228173
74	0xbd9f0677	-0.07764905
75	0xbd317d24	-0.043332234
76	0xbd152fae	-0.036422424
77	0xbda3e075	-0.08001796
78	0xbdb09b47	-0.08623367
79	0xbcddb682	-0.027064566
80	0xbda0cb0d	-0.07851229
81	0xbb8995e3	-0.004198776
82	0xbd8ce9ab	-0.06880506
83	0xbd1840b2	-0.037171073
84	0xbd9db2fe	-0.07700156
85	0xbd882872	-0.06648339
86	0xbd806dd9	-0.06270952
87	0xbd6096d9	-0.05483136
88	0xbd8d135d	-0.06888459
89	0xbc387e67	-0.011260605
90	0xbdad7769	-0.08470041
91	0xbd8910b2	-0.066926375
92	0xbc6cc1ea	-0.01445053
93	0xbdaf79e2	-0.08568169
94	0xbda7b1e2	-0.08188225
95	0xbcc4834a	-0.023988385
96	0xbda7d7cf	-0.08195459
97	0xbd456cb5	-0.048199374
98	0xbc41da2e	-0.011831803
99	0x3d912e6a	0.07088931
100	0x3d7b21dc	0.061311588
101	0x3d9b5c41	0.075859554
102	0x3d3002ef	0.042971548
103	0x3d61de36	0.055143557
104	0x3cc1a3a3	0.023637598
105	0x3d817dd9	0.06322832
106	0x3d707981	0.058709625
107	0x3d7ba687	0.06143811
108	0x3c0ea7e6	0.008707022
109	0xbcfaf651	-0.030635031
110	0x3b3c83ee	0.002876516
111	0xbbf47a54	-0.0074608717
112	0xbd84e922	-0.06489779
113	0xbc4bcbf0	-0.012438759
114	0x3a84a728	0.0010120617
115	0xbd8f92a5	-0.07010392
116	0xbcc951a5	-0.024575064
117	0x3d815734	0.06315461
118	0x3d4b778d	0.04967456
119	0x3c8fb515	0.017542401
120	0x3b91962e	0.0044429516
121	0x3d307b4f	0.043086346
122	0x3d297441	0.041370634
123	0x3ac4e60e	0.0015022175
124	0x3d86c24d	0.06580029
125	0x3d876039	0.0661015
126	0xbd330126	-0.043702267
127	0xbd0372cf	-0.032091912
128	0xbdaa4d27	-0.08315497
129	0xbd92fd1e	-0.071771845
130	0xbdc05caf	-0.09392678
131	0xbd8d0418	-0.068855464
132	0xbdb14c1a	-0.08657093
133	0xbd99d06c	-0.075104564
134	0xbd7d823e	-0.061891787
135	0xbd00491e	-0.03131973
136	0xbd6cb4fa	-0.05778978
137	0xbd142363	-0.03616656
138	0xbd494d86	-0.049146198
139	0xbd86ce86	-0.0658236
140	0x3d20de29	0.03927437
141	0xbd64fce5	-0.05590524
142	0xbd81f4f2	-0.06345548
143	0xbb9dc979	-0.004815277
144	0xbba7d9b2	-0.005122387
145	0xbcd9de1e	-0.026595172
146	0xbd77ce2c	-0.060499355
147	0x3c875dd6	0.016524237
148	0x3c10184f	0.008794858
149	0x3b5369b3	0.0032259047
150	0xbd24b1b4	-0.040208533
151	0xbc636266	-0.0138784405
152	0x3c86c247	0.01645006
153	0x3d16433b	0.03668521
154	0x3d730a52	0.059336014
155	0xbc945012	-0.018104587
156	0x3d373644	0.044729486
157	0x3d4c9a5d	0.0499519
158	0x3cd5c1ce	0.02609339
159	0x3bbdfd10	0.0057979897
160	0x3b1ae35c	0.0023634052
161	0xbbf15777	-0.007365163
162	0x3ce92dd2	0.028464232
163	0x3c47aaaf	0.01218669
164	0x3d18cfc0	0.0373075
165	0x3c9085cc	0.017641924
166	0x3cca76fe	0.024714943
167	0x3c155067	0.009113408
168	0xbc1a2928	-0.0094092265
169	0xbbd0108c	-0.006349629
170	0x3be737e1	0.007056222
171	0xbb4bd245	-0.0031100672
172	0xbc2b0f46	-0.010440653
173	0xbd0c50ec	-0.03425686
174	0xbcfceacc	-0.030873679
175	0xbd29acee	-0.041424684
176	0xbba008e7	-0.0048838737
177	0xbcb18fa2	-0.021674935
178	0x3c5091ab	0.012730042
179	0x3cec1eb5	0.028823236
180	0xbd760a2c	-0.060068294
181	0xbd233d5f	-0.03985345
182	0xbd5ac10a	-0.053406753
183	0xbcc22b43	-0.02370227
184	0xbc1db65d	-0.009625998
185	0xbd802c67	-0.06258469
186	0xbbee3fdc	-0.007270796
187	0xbcec1ad2	-0.028821383
188	0xbd51cba0	-0.051219583
189	0x3d1beb5c	0.038066253
190	0x3b445448	0.0029957462
191	0x3d334e0a	0.043775596
192	0x3c73c801	0.014879228
193	0xbd113319	-0.03544912
194	0x3d298bf2	0.041393228
195	0xbcc15d94	-0.023604192
196	0xbd191f86	-0.03738358
197	0x3d0374b6	0.032093726
198	0xbd2d2979	-0.04227588
199	0xbd930019	-0.07177753
200	0xbd8c9b4a	-0.068655565
201	0xbca3246f	-0.019914834
202	0xbd84825e	-0.06470178
203	0xbcacc98a	-0.021092195
204	0xbd9545d9	-0.07288713
205	0xbd57f2f7	-0.052721944
206	0xbd825452	-0.06363739
207	0xbcfad106	-0.030617248
208	0xbdbe2012	-0.09283461
209	0xbd8ee10e	-0.069765195
210	0xbd3bfb9e	-0.045894258
211	0xbd989adf	-0.07451414
212	0xbca226cc	-0.01979389
213	0xbd0a424a	-0.033754624
214	0xbdabc86a	-0.08387835
215	0xbd6f72b6	-0.058459006
216	0xbd9518c5	-0.07280115
217	0xbc97978d	-0.018504882
218	0xbda00797	-0.07813948
219	0xbd6d88cb	-0.057991784
220	0xbd8488b2	-0.06471385
221	0xbd9cd4de	-0.07657789
222	0xbd1fd640	-0.039022684
223	0xbd96049f	-0.073251
224	0xbd4a89bc	-0.04944776
225	0xbca3d67b	-0.019999733
226	0xbda8a4c6	-0.08234553
227	0x3a90b120	0.0011039115
228	0xbd9fe441	-0.07807208
229	0x3b9ae1ce	0.004726625
230	0xbd119b9b	-0.035548788
231	0xbc01fd45	-0.007933919
232	0xbced749b	-0.028986266
233	0x3c2f7b64	0.010710571
234	0xbd82dc36	-0.06389658
235	0xbd8ad376	-0.06778614
236	0xbdab5e8d	-0.083676435
237	0xbd1a7f70	-0.03771919
238	0xbd9f5292	-0.07779421
239	0xbdc2d8ac	-0.09513983
240	0xbcf7130d	-0.030160451
241	0xbd574161	-0.052552585
242	0xbc98014f	-0.018555311
243	0xbd678322	-0.056521542
244	0xbd938844	-0.07203725
245	0xbd586439	-0.052829955
246	0xbd453e5d	-0.048155177
247	0xbd876d04	-0.0661259
248	0xbd18a237	-0.037264075
249	0xbdabe642	-0.083935276
250	0xbd5c06c1	-0.05371738
251	0xbd89e642	-0.06733371
252	0xbbe96f04	-0.00712383
253	0xbd6105d9	-0.054937217
254	0xbc9d5da3	-0.019209689
255	0xbd9d1e11	-0.0767175

weight f4 [1, 64, 3, 3]
0	0x3d30c52a	0.04315678
1	0x3c4e6a0f	0.0125985285
2	0x3d80e637	0.0629391
3	0x3d6aadae	0.05729454
4	0x3c91f5c2	0.017817382
5	0x3d442ffe	0.04789733
6	0x3cac5734	0.021037675
7	0x3d5efa94	0.05443819
8	0x3d6607ed	0.056159902
9	0x3d41cbf3	0.04731364
10	0x3dc15e5b	0.09441825
11	0x3cc91255	0.024544874
12	0x3dafacde	0.08577894
13	0x3d15e7dc	0.03659807
14	0x3d906bae	0.07051788
15	0x3dca6804	0.09883121
16	0x3dbaa5ff	0.091136925
17	0x3c84deba	0.016219486
18	0x3cdba2ed	0.026811088
19	0x3d9b2e7e	0.07577227
20	0x3ce6bea7	0.028167082
21	0x3dd34d71	0.10317505
22	0x3d5240f0	0.05133146
23	0x3da79b6a	0.0818394
24	0x3da0821e	0.07837318
25	0x3c90d98e	0.017681863
26	0x3ce5c808	0.028049484
27	0x3d885bf4	0.06658164
28	0x3c5398b8	0.012914829
29	0x3cb5e140	0.022202134
30	0x3c2868ea	0.01027892
31	0x3d57e11f	0.052704927
32	0x3d03c5ef	0.032171186
33	0x3d6bd357	0.057574596
34	0x3d6346ad	0.055487324
35	0x3d87e72c	0.066358894
36	0x3c8ebf3e	0.017425176
37	0x3c7272c3	0.014797869
38	0x3d11c49c	0.035587892
39	0x3daecb34	0.08534852
40	0x3d8c77c1	0.06858779
41	0x3d0a229f	0.033724423
42	0x3cdae2e9	0.026719527
43	0x3d18c54a	0.037297525
44	0x3d89d809	0.067306586
45	0x3d8822fd	0.066472985
46	0x3c1f9b37	0.009741596
47	0x3d11a878	0.035561055
48	0x3cc39a27	0.023877217
49	0x3d660e51	0.056165997
50	0x3c29d7a2	0.010366352
51	0x3c7f7da4	0.01559392
52	0x3d94472d	0.07240138
53	0x3d4f731a	0.05064688
54	0xbda95791	-0.08268655
55	0xbd0a02b0	-0.03369397
56	0xbcac3402	-0.021020893
57	0xbda5ea11	-0.08101285
58	0xbd3c406d	-0.04595988
59	0xbd2252a9	-0.039629612
60	0xbdf2c280	-0.11853504
61	0xbd85f339	-0.06540532
62	0xbdf7f201	-0.121067055
63	0xbd9344f3	-0.071908854
64	0xbd44c012	-0.048034735
65	0xbcaf2559	-0.021380113
66	0x3d900899	0.0703289
67	0x3ccf0d12	0.025274787
68	0x3cb9cef6	0.022681694
69	0x3ccb597a	0.02482294
70	0x3db02fca	0.08602865
71	0x3cdf5ab1	0.027264925
72	0x3d3bbb31	0.045832817
73	0xba71e9d7	-0.0009228265
74	0xbd8b5385	-0.068030395
75	0xbd1a17ce	-0.03762036
76	0xbd5f6071	-0.054535333
77	0xbd10ea82	-0.035379894
78	0xbcf29f50	-0.029616982
79	0xbd276e4b	-0.040876668
80	0xbd918e2f	-0.071071975
81	0xbd66779b	-0.05626641
82	0xbd7c6121	-0.061616067
83	0xbd5f4580	-0.05450964
84	0xbc8bec54	-0.017080463
85	0xbd0e4c49	-0.03474072
86	0xbb7c16f1	-0.0038465823
87	0xbb8db1db	-0.0043241805
88	0xbd353fa6	-0.044250153
89	0xbcf8494e	-0.030308392
90	0xbd5cf5e0	-0.053945422
91	0xbd8ce9e8	-0.068805516
92	0xbd69d62d	-0.05708902
93	0xbc418734	-0.01181202
94	0xbca8d9b6	-0.020611625
95	0xbd370d48	-0.0446904
96	0xbc6b2ca2	-0.014353903
97	0xbd02c970	-0.031930387
98	0xbbe1384c	-0.006873166
99	0xbdbef352	-0.093237534
100	0xbd21b0f6	-0.039475404
101	0xbd0e63d7	-0.034763183
102	0xbdc57af4	-0.09642592
103	0xbd133660	-0.035940528
104	0xbd3e82f6	-0.046511613
105	0xbd49d973	-0.04927964
106	0xbd4dc807	-0.05023959
107	0xbd3dde31	-0.046354476
108	0x3cbd897c	0.023136847
109	0xbbb15f7d	-0.0054129944
110	0x3d896313	0.0670835
111	0x3b291d3f	0.0025804786
112	0x3d10d222	0.03535665
113	0x39c84ee2	0.00038205745
114	0x3cdd6cfb	0.027029505
115	0x3d60ab87	0.05485108
116	0x3d2c69f6	0.04209324
117	0xbd74d8e8	-0.05977717
118	0xbd606e2c	-0.054792568
119	0xbd1c4ef1	-0.038161222
120	0xbc9feb2c	-0.019521318
121	0x3bd759b9	0.006571975
122	0x3d249002	0.0401764
123	0xbc987d13	-0.018614328
124	0x3a738547	0.0009289574
125	0x3c335fa6	0.010948097
126	0x3b2b2d90	0.0026119687
127	0xbbdbcdff	-0.0067079063
128	0x3c22fe65	0.009948348
129	0xbcec11de	-0.028817113
130	0x3c98cc4b	0.018652102
131	0xbcebe698	-0.02879648
132	0xbd181e3c	-0.03713821
133	0x3c81683e	0.015796777
134	0xbd6322f4	-0.055453256
135	0x3d90d870	0.07072532
136	0x3c4a009e	0.012329249
137	0x3db738a5	0.08946351
138	0x3d413203	0.047166836
139	0x3d12f721	0.03588021
140	0x3c9cb0d2	0.019127283
141	0x3ce48d13	0.0278993
142	0x3d9db84c	0.077011675
143	0x3d515a83	0.05111171
144	0x3c28f665	0.010312651
145	0x3ce8d612	0.02842239
146	0x3d8e7652	0.069561616
147	0x3d18652f	0.03720587
148	0x3c981cb5	0.018568376
149	0x3cdcec45	0.02696813
150	0x3cd746ea	0.026278932
151	0x3d2c7360	0.042102218
152	0x3c6ae955	0.014337857
153	0xbdaa4bea	-0.08315261
154	0xbd8b3085	-0.06796364
155	0xbc94b71e	-0.018153723
156	0xbc87595b	-0.0165221
157	0xbd43b703	-0.047781955
158	0xbb7bea11	-0.0038439075
159	0xbd237b3d	-0.03991245
160	0xbd78b71c	-0.0607215
161	0xbdaae324	-0.08344105
162	0xbd12fbfa	-0.035884835
163	0xbd4b3c7e	-0.049618237
164	0xbdc31c93	-0.095269345
165	0xbc97db3e	-0.01853716
166	0xbdc2908c	-0.095002264
167	0xbd212ab8	-0.03934738
168	0xbd2f3970	-0.042779386
169	0xbd09448d	-0.03351264
170	0xbd32ec8e	-0.043682627
171	0xbd577136	-0.0525982
172	0xbc7ac8a6	-0.015306627
173	0xbd94e952	-0.07271065
174	0xbd3782e6	-0.04480257
175	0xbd02b35c	-0.03190933
176	0xbcb3a1f5	-0.021927813
177	0xbd9867ea	-0.07441695
178	0xbd511c2d	-0.05105226
179	0xbc8d9898	-0.017284676
180	0x3bd261d5	0.006420354
181	0x3d672c4e	0.056438737
182	0x3d79b8d2	0.060967274
183	0x3baeaaa7	0.005330402
184	0x3d59a6ee	0.053137712
185	0x3d7a9295	0.061174948
186	0x3d92f7f7	0.07176202
187	0x3c010765	0.007875298
188	0x3d16a1ec	0.036775514
189	0x3cc6f551	0.024286898
190	0x3da2fd25	0.0795844
191	0x3cd60c47	0.026128901
192	0x3dbbf80d	0.09178171
193	0x3d8111da	0.06302233
194	0x3dab2448	0.083565295
195	0x3da10615	0.07862488
196	0x3c2bf275	0.010494818
197	0x3cbbbff3	0.022918677
198	0x3d6a6c0e	0.057231955
199	0x3d0ec872	0.03485913
200	0x3c617fd1	0.013763384
201	0x3ce1358e	0.027491357
202	0x3c37e1a8	0.011223234
203	0x3d39e81b	0.04538737
204	0x3d3c72ad	0.0460078
205	0x3d8d3224	0.06894329
206	0x3d62d963	0.055383097
207	0xbd61651b	-0.055028062
208	0xbdb6890c	-0.08912858
209	0xbccfda2e	-0.02537259
210	0xbcdba263	-0.02681083
211	0xbd6afdbb	-0.057370882
212	0xbd540c8a	-0.05176977
213	0xbd8c2cec	-0.06844506
214	0xbd3d6137	-0.04623529
215	0xbc842982	-0.016133074
216	0x3c94b13c	0.018150918
217	0x3c7f1987	0.015570051
218	0x3ce6fa83	0.028195625
219	0x3be62c6f	0.00702434
220	0xbbef5027	-0.007303256
221	0x3d4abf57	0.049498882
222	0x3d6c81cc	0.05774097
223	0x3d1591fb	0.03651617
224	0x3cbbcb5b	0.022924116
225	0xbc2cf8ef	-0.010557397
226	0xbc53ab2a	-0.012919227
227	0xbd4157b2	-0.047202773
228	0x3d132065	0.035919566
229	0x3c2d38cb	0.0105726225
230	0xbd50e88b	-0.05100302
231	0x3cf4c24e	0.029877808
232	0xbcaee6df	-0.021350322
233	0x3c3395cc	0.010961007
234	0x3d07f5f5	0.033193547
235	0x3d22a45d	0.03970753
236	0x3da3d2df	0.07999205
237	0x3d422d49	0.04740647
238	0x3ca45175	0.020058373
239	0x3cf8e178	0.03038095
240	0x3d80893d	0.06276176
241	0x3da2fe9c	0.07958719
242	0x3cc54d67	0.02408476
243	0x3c1d339d	0.009594825
244	0x3d080a87	0.033213165
245	0x3d30b01c	0.0431367
246	0x3d473f52	0.04864437
247	0x3d58d83a	0.052940585
248	0x3d4a0008	0.049316436
249	0x3da6b8aa	0.081406906
250	0x3d11cbdb	0.035594802
251	0x3cb1909c	0.0216754
252	0xbc6a5b37	-0.014303974
253	0x3cab665a	0.020922828
254	0x3b4f9bd9	0.0031678586
255	0x3d57e693	0.052710127
